…
      sampler {
        min_scale: 0.3
        max_scale: 1
        min_aspect_ratio: 0.5
        max_aspect_ratio: 2
      }
      sample_constraint {
        min_jaccard_overlap: 0.9
      }
      max_sample: 1
      max_trials: 50
    }
    batch_sampler {
      sampler {
        min_scale: 0.3
        max_scale: 1
        min_aspect_ratio: 0.5
        max_aspect_ratio: 2
      }
      sample_constraint {
        max_jaccard_overlap: 1
      }
      max_sample: 1
      max_trials: 50
    }
    label_map_file: "data/ccpd/labelmap_ccpd.prototxt"
  }
}
layer {
  name: "conv1_1"
  type: "Convolution"
  bottom: "data"
  top: "conv1_1"
  param {
    lr_mult: 1
    decay_mult: 1
  }
  param {
    lr_mult: 2
    decay_mult: 0
  }
  convolution_param {
    num_output: 64
    pad: 1
    kernel_size: 3
    weight_filler {
      type: "xavier"
    }
    bias_filler {
      type: "constant"
      value: 0
    }
  }
}
layer {
  name: "relu1_1"
  type: "ReLU"
  bottom: "conv1_1"
  top: "conv1_1"
}
layer {
  name: "conv1_2"
  type: "Convolution"
  bottom: "conv1_1"
  top: "conv1_2"
  param {
    lr_mult: 1
    decay_mult: 1
  }
  param {
    lr_mult: 2
    decay_mult: 0
  }
  convolution_param {
    num_output: 64
    pad: 1
    kernel_size: 3
    weight_filler {
      type: "xavier"
    }
    bias_filler {
      type: "constant"
      value: 0
    }
  }
}
layer {
  name: "relu1_2"
  type: "ReLU"
  bottom: "conv1_2"
  top: "conv1_2"
}
layer {
  name: "pool1"
  type: "Pooling"
  bottom: "conv1_2"
  top: "pool1"
  pooling_param {
    pool: MAX
    kernel_size: 2
    stride: 2
  }
}
layer {
  name: "conv2_1"
  type: "Convolution"
  bottom: "pool1"
  top: "conv2_1"
  param {
    lr_mult: 1
    decay_mult: 1
  }
  param {
    lr_mult: 2
    decay_mult: 0
  }
  convolution_param {
    num_output: 128
    pad: 1
    kernel_size: 3
    weight_filler {
      type: "xavier"
    }
    bias_filler {
      type: "constant"
      value: 0
    }
  }
}
layer {
  name: "relu2_1"
  type: "ReLU"
  bottom: "conv2_1"
  top: "conv2_1"
}
layer {
  name: "conv2_2"
  type: "Convolution"
  bottom: "conv2_1"
  top: "conv2_2"
  param {
    lr_mult: 1
    decay_mult: 1
  }
  param {
    lr_mult: 2
    decay_mult: 0
  }
  convolution_param {
    num_output: 128
    pad: 1
    kernel_size: 3
    weight_filler {
      type: "xavier"
    }
    bias_filler {
      type: "constant"
      value: 0
    }
  }
}
layer {
  name: "relu2_2"
  type: "ReLU"
  bottom: "conv2_2"
  top: "conv2_2"
}
layer {
  name: "pool2"
  type: "Pooling"
  bottom: "conv2_2"
  top: "pool2"
  pooling_param {
    pool: MAX
    kernel_size: 2
    stride: 2
  }
}
layer {
  name: "conv3_1"
  type: "Convolution"
  bottom: "pool2"
  top: "conv3_1"
  param {
    lr_mult: 1
    decay_mult: 1
  }
  param {
    lr_mult: 2
    decay_mult: 0
  }
  convolution_param {
    num_output: 256
    pad: 1
    kernel_size: 3
    weight_filler {
      type: "xavier"
    }
    bias_filler {
      type: "constant"
      value: 0
    }
  }
}
layer {
  name: "relu3_1"
  type: "ReLU"
  bottom: "conv3_1"
  top: "conv3_1"
}
layer {
  name: "conv3_2"
  type: "Convolution"
  bottom: "conv3_1"
  top: "conv3_2"
  param {
    lr_mult: 1
    decay_mult: 1
  }
  param {
    lr_mult: 2
    decay_mult: 0
  }
  convolution_param {
    num_output: 256
    pad: 1
    kernel_size: 3
    weight_filler {
      type: "xavier"
    }
    bias_filler {
      type: "constant"
      value: 0
    }
  }
}
layer {
  name: "relu3_2"
  type: "ReLU"
  bottom: "conv3_2"
  top: "conv3_2"
}
layer {
  name: "conv3_3"
  type: "Convolution"
  bottom: "conv3_2"
  top: "conv3_3"
  param {
    lr_mult: 1
    decay_mult: 1
  }
  param {
    lr_mult: 2
    decay_mult: 0
  }
  convolution_param {
    num_output: 256
    pad: 1
    kernel_size: 3
    weight_filler {
      type: "xavier"
    }
    bias_filler {
      type: "constant"
      value: 0
    }
  }
}
layer {
  name: "relu3_3"
  type: "ReLU"
  bottom: "conv3_3"
  top: "conv3_3"
}
layer {
  name: "pool3"
  type: "Pooling"
  bottom: "conv3_3"
  top: "pool3"
  pooling_param {
    pool: MAX
    kernel_size: 2
    stride: 2
  }
}
layer {
  name: "conv4_1"
  type: "Convolution"
  bottom: "pool3"
  top: "conv4_1"
  param {
    lr_mult: 1
    decay_mult: 1
  }
  param {
    lr_mult: 2
    decay_mult: 0
  }
  convolution_param {
    num_output: 512
    pad: 1
    kernel_size: 3
    weight_filler {
      type: "xavier"
    }
    bias_filler {
      type: "constant"
      value: 0
    }
  }
}
layer {
  name: "relu4_1"
  type: "ReLU"
  bottom: "conv4_1"
  top: "conv4_1"
}
layer {
  name: "conv4_2"
  type: "Convolution"
  bottom: "conv4_1"
  top: "conv4_2"
  param {
    lr_mult: 1
    decay_mult: 1
  }
  param {
    lr_mult: 2
    decay_mult: 0
  }
  convolution_param {
    num_output: 512
    pad: 1
    kernel_size: 3
    weight_filler {
      type: "xavier"
    }
    bias_filler {
      type: "constant"
      value: 0
    }
  }
}
layer {
  name: "relu4_2"
  type: "ReLU"
  bottom: "conv4_2"
  top: "conv4_2"
}
layer {
  name: "conv4_3"
  type: "Convolution"
  bottom: "conv4_2"
  top: "conv4_3"
  param {
    lr_mult: 1
    decay_mult: 1
  }
  param {
    lr_mult: 2
    decay_mult: 0
  }
  convolution_param {
    num_output: 512
    pad: 1
    kernel_size: 3
    weight_filler {
      type: "xavier"
    }
    bias_filler {
      type: "constant"
      value: 0
    }
  }
}
layer {
  name: "relu4_3"
  type: "ReLU"
  bottom: "conv4_3"
  top: "conv4_3"
}
layer {
  name: "pool4"
  type: "Pooling"
  bottom: "conv4_3"
  top: "pool4"
  pooling_param {
    pool: MAX
    kernel_size: 2
    stride: 2
  }
}
layer {
  name: "conv5_1"
  type: "Convolution"
  bottom: "pool4"
  top: "conv5_1"
  param {
    lr_mult: 1
    decay_mult: 1
  }
  param {
    lr_mult: 2
    decay_mult: 0
  }
  convolution_param {
    num_output: 512
    pad: 1
    kernel_size: 3
    weight_filler {
      type: "xavier"
    }
    bias_filler {
      type: "constant"
      value: 0
    }
    dilation: 1
  }
}
layer {
  name: "relu5_1"
  type: "ReLU"
  bottom: "conv5_1"
  top: "conv5_1"
}
layer {
  name: "conv5_2"
  type: "Convolution"
  bottom: "conv5_1"
  top: "conv5_2"
  param {
    lr_mult: 1
    decay_mult: 1
  }
  param {
    lr_mult: 2
    decay_mult: 0
  }
  convolution_param {
    num_output: 512
    pad: 1
    kernel_size: 3
    weight_filler {
      type: "xavier"
    }
    bias_filler {
      type: "constant"
      value: 0
    }
    dilation: 1
  }
}
layer {
  name: "relu5_2"
  type: "ReLU"
  bottom: "conv5_2"
  top: "conv5_2"
}
layer {
  name: "conv5_3"
  type: "Convolution"
  bottom: "conv5_2"
  top: "conv5_3"
  param {
    lr_mult: 1
    decay_mult: 1
  }
  param {
    lr_mult: 2
    decay_mult: 0
  }
  convolution_param {
    num_output: 512
    pad: 1
    kernel_size: 3
    weight_filler {
      type: "xavier"
    }
    bias_filler {
      type: "constant"
      value: 0
    }
    dilation: 1
  }
}
layer {
  name: "relu5_3"
  type: "ReLU"
  bottom: "conv5_3"
  top: "conv5_3"
}
layer {
  name: "pool5"
  type: "Pooling"
  bottom: "conv5_3"
  top: "pool5"
  pooling_param {
    pool: MAX
    kernel_size: 3
    stride: 1
    pad: 1
  }
}
layer {
  name: "fc6"
  type: "Convolution"
  bottom: "pool5"
  top: "fc6"
  param {
    lr_mult: 1
    decay_mult: 1
  }
  param {
    lr_mult: 2
    decay_mult: 0
  }
  convolution_param {
    num_output: 1024
    pad: 6
    kernel_size: 3
    weight_filler {
      type: "xavier"
    }
    bias_filler {
      type: "constant"
      value: 0
    }
    dilation: 6
  }
}
layer {
  name: "relu6"
  type: "ReLU"
  bottom: "fc6"
  top: "fc6"
}
layer {
  name: "fc7"
  type: "Convolution"
  bottom: "fc6"
  top: "fc7"
  param {
    lr_mult: 1
    decay_mult: 1
  }
  param {
    lr_mult: 2
    decay_mult: 0
  }
  convolution_param {
    num_output: 1024
    kernel_size: 1
    weight_filler {
      type: "xavier"
    }
    bias_filler {
      type: "constant"
      value: 0
    }
  }
}
layer {
  name: "relu7"
  type: "ReLU"
  bottom: "fc7"
  top: "fc7"
}
layer {
  name: "conv6_1"
  type: "Convolution"
  bottom: "fc7"
  top: "conv6_1"
  param {
    lr_mult: 1
    decay_mult: 1
  }
  param {
    lr_mult: 2
    decay_mult: 0
  }
  convolution_param {
    num_output: 256
    pad: 0
    kernel_size: 1
    stride: 1
    weight_filler {
      type: "xavier"
    }
    bias_filler {
      type: "constant"
      value: 0
    }
  }
}
layer {
  name: "conv6_1_relu"
  type: "ReLU"
  bottom: "conv6_1"
  top: "conv6_1"
}
layer {
  name: "conv6_2"
  type: "Convolution"
  bottom: "conv6_1"
  top: "conv6_2"
  param {
    lr_mult: 1
    decay_mult: 1
  }
  param {
    lr_mult: 2
    decay_mult: 0
  }
  convolution_param {
    num_output: 512
    pad: 1
    kernel_size: 3
    stride: 2
    weight_filler {
      type: "xavier"
    }
    bias_filler {
      type: "constant"
      value: 0
    }
  }
}
layer {
  name: "conv6_2_relu"
  type: "ReLU"
  bottom: "conv6_2"
  top: "conv6_2"
}
layer {
  name: "conv7_1"
  type: "Convolution"
  bottom: "conv6_2"
  top: "conv7_1"
  param {
    lr_mult: 1
    decay_mult: 1
  }
  param {
    lr_mult: 2
    decay_mult: 0
  }
  convolution_param {
    num_output: 128
    pad: 0
    kernel_size: 1
    stride: 1
    weight_filler {
      type: "xavier"
    }
    bias_filler {
      type: "constant"
      value: 0
    }
  }
}
layer {
  name: "conv7_1_relu"
  type: "ReLU"
  bottom: "conv7_1"
  top: "conv7_1"
}
layer {
  name: "conv7_2"
  type: "Convolution"
  bottom: "conv7_1"
  top: "conv7_2"
  param {
    lr_mult: 1
    decay_mult: 1
  }
  param {
    lr_mult: 2
    decay_mult: 0
  }
  convolution_param {
    num_output: 256
    pad: 1
    kernel_size: 3
    stride: 2
    weight_filler {
      type: "xavier"
    }
    bias_filler {
      type: "constant"
      value: 0
    }
  }
}
layer {
  name: "conv7_2_relu"
  type: "ReLU"
  bottom: "conv7_2"
  top: "conv7_2"
}
layer {
  name: "conv8_1"
  type: "Convolution"
  bottom: "conv7_2"
  top: "conv8_1"
  param {
    lr_mult: 1
    decay_mult: 1
  }
  param {
    lr_mult: 2
    decay_mult: 0
  }
  convolution_param {
    num_output: 128
    pad: 0
    kernel_size: 1
    stride: 1
    weight_filler {
      type: "xavier"
    }
    bias_filler {
      type: "constant"
      value: 0
    }
  }
}
layer {
  name: "conv8_1_relu"
  type: "ReLU"
  bottom: "conv8_1"
  top: "conv8_1"
}
layer {
  name: "conv8_2"
  type: "Convolution"
  bottom: "conv8_1"
  top: "conv8_2"
  param {
    lr_mult: 1
    decay_mult: 1
  }
  param {
    lr_mult: 2
    decay_mult: 0
  }
  convolution_param {
    num_output: 256
    pad: 0
    kernel_size: 3
    stride: 1
    weight_filler {
      type: "xavier"
    }
    bias_filler {
      type: "constant"
      value: 0
    }
  }
}
layer {
  name: "conv8_2_relu"
  type: "ReLU"
  bottom: "conv8_2"
  top: "conv8_2"
}
layer {
  name: "conv9_1"
  type: "Convolution"
  bottom: "conv8_2"
  top: "conv9_1"
  param {
    lr_mult: 1
    decay_mult: 1
  }
  param {
    lr_mult: 2
    decay_mult: 0
  }
  convolution_param {
    num_output: 128
    pad: 0
    kernel_size: 1
    stride: 1
    weight_filler {
      type: "xavier"
    }
    bias_filler {
      type: "constant"
      value: 0
    }
  }
}
layer {
  name: "conv9_1_relu"
  type: "ReLU"
  bottom: "conv9_1"
  top: "conv9_1"
}
layer {
  name: "conv9_2"
  type: "Convolution"
  bottom: "conv9_1"
  top: "conv9_2"
  param {
    lr_mult: 1
    decay_mult: 1
  }
  param {
    lr_mult: 2
    decay_mult: 0
  }
  convolution_param {
    num_output: 256
    pad: 0
    kernel_size: 3
    stride: 1
    weight_filler {
      type: "xavier"
    }
    bias_filler {
      type: "constant"
      value: 0
    }
  }
}
layer {
  name: "conv9_2_relu"
  type: "ReLU"
  bottom: "conv9_2"
  top: "conv9_2"
}
layer {
  name: "conv4_3_norm"
  type: "Normalize"
  bottom: "conv4_3"
  top: "conv4_3_norm"
  norm_param {
    across_spatial: false
    scale_filler {
      type: "constant"
      value: 20
    }
    channel_shared: false
  }
}
layer {
  name: "conv4_3_norm_mbox_loc"
  type: "Convolution"
  bottom: "conv4_3_norm"
  top: "conv4_3_norm_mbox_loc"
  param {
    lr_mult: 1
    decay_mult: 1
  }
  param {
    lr_mult: 2
    decay_mult: 0
  }
  convolution_param {
    num_output: 16
    pad: 1
    kernel_size: 3
    stride: 1
    weight_filler {
      type: "xavier"
    }
    bias_filler {
      type: "constant"
      value: 0
    }
  }
}
layer {
  name: "conv4_3_norm_mbox_loc_perm"
  type: "Permute"
  bottom: "conv4_3_norm_mbox_loc"
  top: "conv4_3_norm_mbox_loc_perm"
  permute_param {
    order: 0
    order: 2
    order: 3
    order: 1
  }
}
layer {
  name: "conv4_3_norm_mbox_loc_flat"
  type: "Flatten"
  bottom: "conv4_3_norm_mbox_loc_perm"
  top: "conv4_3_norm_mbox_loc_flat"
  flatten_param {
    axis: 1
  }
}
layer {
  name: "conv4_3_norm_mbox_conf"
  type: "Convolution"
  bottom: "conv4_3_norm"
  top: "conv4_3_norm_mbox_conf"
  param {
    lr_mult: 1
    decay_mult: 1
  }
  param {
    lr_mult: 2
    decay_mult: 0
  }
  convolution_param {
    num_output: 8
    pad: 1
    kernel_size: 3
    stride: 1
    weight_filler {
      type: "xavier"
    }
    bias_filler {
      type: "constant"
      value: 0
    }
  }
}
layer {
  name: "conv4_3_norm_mbox_conf_perm"
  type: "Permute"
  bottom: "conv4_3_norm_mbox_conf"
  top: "conv4_3_norm_mbox_conf_perm"
  permute_param {
    order: 0
    order: 2
    order: 3
    order: 1
  }
}
layer {
  name: "conv4_3_norm_mbox_conf_flat"
  type: "Flatten"
  bottom: "conv4_3_norm_mbox_conf_perm"
  top: "conv4_3_norm_mbox_conf_flat"
  flatten_param {
    axis: 1
  }
}
layer {
  name: "conv4_3_norm_mbox_priorbox"
  type: "PriorBox"
  bottom: "conv4_3_norm"
  bottom: "data"
  top: "conv4_3_norm_mbox_priorbox"
  prior_box_param {
    min_size: 30
    max_size: 60
    aspect_ratio: 2
    flip: true
    clip: false
    variance: 0.1
    variance: 0.1
    variance: 0.2
    variance: 0.2
    step: 8
    offset: 0.5
  }
}
layer {
  name: "fc7_mbox_loc"
  type: "Convolution"
  bottom: "fc7"
  top: "fc7_mbox_loc"
  param {
    lr_mult: 1
    decay_mult: 1
  }
  param {
    lr_mult: 2
    decay_mult: 0
  }
  convolution_param {
    num_output: 24
    pad: 1
    kernel_size: 3
    stride: 1
    weight_filler {
      type: "xavier"
    }
    bias_filler {
      type: "constant"
      value: 0
    }
  }
}
layer {
  name: "fc7_mbox_loc_perm"
  type: "Permute"
  bottom: "fc7_mbox_loc"
  top: "fc7_mbox_loc_perm"
  permute_param {
    order: 0
    order: 2
    order: 3
    order: 1
  }
}
layer {
  name: "fc7_mbox_loc_flat"
  type: "Flatten"
  bottom: "fc7_mbox_loc_perm"
  top: "fc7_mbox_loc_flat"
  flatten_param {
    axis: 1
  }
}
layer {
  name: "fc7_mbox_conf"
  type: "Convolution"
  bottom: "fc7"
  top: "fc7_mbox_conf"
  param {
    lr_mult: 1
    decay_mult: 1
  }
  param {
    lr_mult: 2
    decay_mult: 0
  }
  convolution_param {
    num_output: 12
    pad: 1
    kernel_size: 3
    stride: 1
    weight_filler {
      type: "xavier"
    }
    bias_filler {
      type: "constant"
      value: 0
    }
  }
}
layer {
  name: "fc7_mbox_conf_perm"
  type: "Permute"
  bottom: "fc7_mbox_conf"
  top: "fc7_mbox_conf_perm"
  permute_param {
    order: 0
    order: 2
    order: 3
    order: 1
  }
}
layer {
  name: "fc7_mbox_conf_flat"
  type: "Flatten"
  bottom: "fc7_mbox_conf_perm"
  top: "fc7_mbox_conf_flat"
  flatten_param {
    axis: 1
  }
}
layer {
  name: "fc7_mbox_priorbox"
  type: "PriorBox"
  bottom: "fc7"
  bottom: "data"
  top: "fc7_mbox_priorbox"
  prior_box_param {
    min_size: 60
    max_size: 111
    aspect_ratio: 2
    aspect_ratio: 3
    flip: true
    clip: false
    variance: 0.1
    variance: 0.1
    variance: 0.2
    variance: 0.2
    step: 16
    offset: 0.5
  }
}
layer {
  name: "conv6_2_mbox_loc"
  type: "Convolution"
  bottom: "conv6_2"
  top: "conv6_2_mbox_loc"
  param {
    lr_mult: 1
    decay_mult: 1
  }
  param {
    lr_mult: 2
    decay_mult: 0
  }
  convolution_param {
    num_output: 24
    pad: 1
    kernel_size: 3
    stride: 1
    weight_filler {
      type: "xavier"
    }
    bias_filler {
      type: "constant"
      value: 0
    }
  }
}
layer {
  name: "conv6_2_mbox_loc_perm"
  type: "Permute"
  bottom: "conv6_2_mbox_loc"
  top: "conv6_2_mbox_loc_perm"
  permute_param {
    order: 0
    order: 2
    order: 3
    order: 1
  }
}
layer {
  name: "conv6_2_mbox_loc_flat"
  type: "Flatten"
  bottom: "conv6_2_mbox_loc_perm"
  top: "conv6_2_mbox_loc_flat"
  flatten_param {
    axis: 1
  }
}
layer {
  name: "conv6_2_mbox_conf"
  type: "Convolution"
  bottom: "conv6_2"
  top: "conv6_2_mbox_conf"
  param {
    lr_mult: 1
    decay_mult: 1
  }
  param {
    lr_mult: 2
    decay_mult: 0
  }
  convolution_param {
    num_output: 12
    pad: 1
    kernel_size: 3
    stride: 1
    weight_filler {
      type: "xavier"
    }
    bias_filler {
      type: "constant"
      value: 0
    }
  }
}
layer {
  name: "conv6_2_mbox_conf_perm"
  type: "Permute"
  bottom: "conv6_2_mbox_conf"
  top: "conv6_2_mbox_conf_perm"
  permute_param {
    order: 0
    order: 2
    order: 3
    order: 1
  }
}
layer {
  name: "conv6_2_mbox_conf_flat"
  type: "Flatten"
  bottom: "conv6_2_mbox_conf_perm"
  top: "conv6_2_mbox_conf_flat"
  flatten_param {
    axis: 1
  }
}
layer {
  name: "conv6_2_mbox_priorbox"
  type: "PriorBox"
  bottom: "conv6_2"
  bottom: "data"
  top: "conv6_2_mbox_priorbox"
  prior_box_param {
    min_size: 111
    max_size: 162
    aspect_ratio: 2
    aspect_ratio: 3
    flip: true
    clip: false
    variance: 0.1
    variance: 0.1
    variance: 0.2
    variance: 0.2
    step: 32
    offset: 0.5
  }
}
layer {
  name: "conv7_2_mbox_loc"
  type: "Convolution"
  bottom: "conv7_2"
  top: "conv7_2_mbox_loc"
  param {
    lr_mult: 1
    decay_mult: 1
  }
  param {
    lr_mult: 2
    decay_mult: 0
  }
  convolution_param {
    num_output: 24
    pad: 1
    kernel_size: 3
    stride: 1
    weight_filler {
      type: "xavier"
    }
    bias_filler {
      type: "constant"
      value: 0
    }
  }
}
layer {
  name: "conv7_2_mbox_loc_perm"
  type: "Permute"
  bottom: "conv7_2_mbox_loc"
  top: "conv7_2_mbox_loc_perm"
  permute_param {
    order: 0
    order: 2
    order: 3
    order: 1
  }
}
layer {
  name: "conv7_2_mbox_loc_flat"
  type: "Flatten"
  bottom: "conv7_2_mbox_loc_perm"
  top: "conv7_2_mbox_loc_flat"
  flatten_param {
    axis: 1
  }
}
layer {
  name: "conv7_2_mbox_conf"
  type: "Convolution"
  bottom: "conv7_2"
  top: "conv7_2_mbox_conf"
  param {
    lr_mult: 1
    decay_mult: 1
  }
  param {
    lr_mult: 2
    decay_mult: 0
  }
  convolution_param {
    num_output: 12
    pad: 1
    kernel_size: 3
    stride: 1
    weight_filler {
      type: "xavier"
    }
    bias_filler {
      type: "constant"
      value: 0
    }
  }
}
layer {
  name: "conv7_2_mbox_conf_perm"
  type: "Permute"
  bottom: "conv7_2_mbox_conf"
  top: "conv7_2_mbox_conf_perm"
  permute_param {
    order: 0
    order: 2
    order: 3
    order: 1
  }
}
layer {
  name: "conv7_2_mbox_conf_flat"
  type: "Flatten"
  bottom: "conv7_2_mbox_conf_perm"
  top: "conv7_2_mbox_conf_flat"
  flatten_param {
    axis: 1
  }
}
layer {
  name: "conv7_2_mbox_priorbox"
  type: "PriorBox"
  bottom: "conv7_2"
  bottom: "data"
  top: "conv7_2_mbox_priorbox"
  prior_box_param {
    min_size: 162
    max_size: 213
    aspect_ratio: 2
    aspect_ratio: 3
    flip: true
    clip: false
    variance: 0.1
    variance: 0.1
    variance: 0.2
    variance: 0.2
    step: 64
    offset: 0.5
  }
}
layer {
  name: "conv8_2_mbox_loc"
  type: "Convolution"
  bottom: "conv8_2"
  top: "conv8_2_mbox_loc"
  param {
    lr_mult: 1
    decay_mult: 1
  }
  param {
    lr_mult: 2
    decay_mult: 0
  }
  convolution_param {
    num_output: 16
    pad: 1
    kernel_size: 3
    stride: 1
    weight_filler {
      type: "xavier"
    }
    bias_filler {
      type: "constant"
      value: 0
    }
  }
}
layer {
  name: "conv8_2_mbox_loc_perm"
  type: "Permute"
  bottom: "conv8_2_mbox_loc"
  top: "conv8_2_mbox_loc_perm"
  permute_param {
    order: 0
    order: 2
    order: 3
    order: 1
  }
}
layer {
  name: "conv8_2_mbox_loc_flat"
  type: "Flatten"
  bottom: "conv8_2_mbox_loc_perm"
  top: "conv8_2_mbox_loc_flat"
  flatten_param {
    axis: 1
  }
}
layer {
  name: "conv8_2_mbox_conf"
  type: "Convolution"
  bottom: "conv8_2"
  top: "conv8_2_mbox_conf"
  param {
    lr_mult: 1
    decay_mult: 1
  }
  param {
    lr_mult: 2
    decay_mult: 0
  }
  convolution_param {
    num_output: 8
    pad: 1
    kernel_size: 3
    stride: 1
    weight_filler {
      type: "xavier"
    }
    bias_filler {
      type: "constant"
      value: 0
    }
  }
}
layer {
  name: "conv8_2_mbox_conf_perm"
  type: "Permute"
  bottom: "conv8_2_mbox_conf"
  top: "conv8_2_mbox_conf_perm"
  permute_param {
    order: 0
    order: 2
    order: 3
    order: 1
  }
}
layer {
  name: "conv8_2_mbox_conf_flat"
  type: "Flatten"
  bottom: "conv8_2_mbox_conf_perm"
  top: "conv8_2_mbox_conf_flat"
  flatten_param {
    axis: 1
  }
}
layer {
  name: "conv8_2_mbox_priorbox"
  type: "PriorBox"
  bottom: "conv8_2"
  bottom: "data"
  top: "conv8_2_mbox_priorbox"
  prior_box_param {
    min_size: 213
    max_size: 264
    aspect_ratio: 2
    flip: true
    clip: false
    variance: 0.1
    variance: 0.1
    variance: 0.2
    variance: 0.2
    step: 100
    offset: 0.5
  }
}
layer {
  name: "conv9_2_mbox_loc"
  type: "Convolution"
  bottom: "conv9_2"
  top: "conv9_2_mbox_loc"
  param {
    lr_mult: 1
    decay_mult: 1
  }
  param {
    lr_mult: 2
    decay_mult: 0
  }
  convolution_param {
    num_output: 16
    pad: 1
    kernel_size: 3
    stride: 1
    weight_filler {
      type: "xavier"
    }
    bias_filler {
      type: "constant"
      value: 0
    }
  }
}
layer {
  name: "conv9_2_mbox_loc_perm"
  type: "Permute"
  bottom: "conv9_2_mbox_loc"
  top: "conv9_2_mbox_loc_perm"
  permute_param {
    order: 0
    order: 2
    order: 3
    order: 1
  }
}
layer {
  name: "conv9_2_mbox_loc_flat"
  type: "Flatten"
  bottom: "conv9_2_mbox_loc_perm"
  top: "conv9_2_mbox_loc_flat"
  flatten_param {
    axis: 1
  }
}
layer {
  name: "conv9_2_mbox_conf"
  type: "Convolution"
  bottom: "conv9_2"
  top: "conv9_2_mbox_conf"
  param {
    lr_mult: 1
    decay_mult: 1
  }
  param {
    lr_mult: 2
    decay_mult: 0
  }
  convolution_param {
    num_output: 8
    pad: 1
    kernel_size: 3
    stride: 1
    weight_filler {
      type: "xavier"
    }
    bias_filler {
      type: "constant"
      value: 0
    }
  }
}
layer {
  name: "conv9_2_mbox_conf_perm"
  type: "Permute"
  bottom: "conv9_2_mbox_conf"
  top: "conv9_2_mbox_conf_perm"
  permute_param {
    order: 0
    order: 2
    order: 3
    order: 1
  }
}
layer {
  name: "conv9_2_mbox_conf_flat"
  type: "Flatten"
  bottom: "conv9_2_mbox_conf_perm"
  top: "conv9_2_mbox_conf_flat"
  flatten_param {
    axis: 1
  }
}
layer {
  name: "conv9_2_mbox_priorbox"
  type: "PriorBox"
  bottom: "conv9_2"
  bottom: "data"
  top: "conv9_2_mbox_priorbox"
  prior_box_param {
    min_size: 264
    max_size: 315
    aspect_ratio: 2
    flip: true
    clip: false
    variance: 0.1
    variance: 0.1
    variance: 0.2
    variance: 0.2
    step: 300
    offset: 0.5
  }
}
layer {
  name: "mbox_loc"
  type: "Concat"
  bottom: "conv4_3_norm_mbox_loc_flat"
  bottom: "fc7_mbox_loc_flat"
  bottom: "conv6_2_mbox_loc_flat"
  bottom: "conv7_2_mbox_loc_flat"
  bottom: "conv8_2_mbox_loc_flat"
  bottom: "conv9_2_mbox_loc_flat"
  top: "mbox_loc"
  concat_param {
    axis: 1
  }
}
layer {
  name: "mbox_conf"
  type: "Concat"
  bottom: "conv4_3_norm_mbox_conf_flat"
  bottom: "fc7_mbox_conf_flat"
  bottom: "conv6_2_mbox_conf_flat"
  bottom: "conv7_2_mbox_conf_flat"
  bottom: "conv8_2_mbox_conf_flat"
  bottom: "conv9_2_mbox_conf_flat"
  top: "mbox_conf"
  concat_param {
    axis: 1
  }
}
layer {
  name: "mbox_priorbox"
  type: "Concat"
  bottom: "conv4_3_norm_mbox_priorbox"
  bottom: "fc7_mbox_priorbox"
  bottom: "conv6_2_mbox_priorbox"
  bottom: "conv7_2_mbox_priorbox"
  bottom: "conv8_2_mbox_priorbox"
  bottom: "conv9_2_mbox_priorbox"
  top: "mbox_priorbox"
  concat_param {
    axis: 2
  }
}
layer {
  name: "mbox_loss"
  type: "MultiBoxLoss"
  bottom: "mbox_loc"
  bottom: "mbox_conf"
  bottom: "mbox_priorbox"
  bottom: "label"
  top: "mbox_loss"
  include {
    phase: TRAIN
  }
  propagate_down: true
  propagate_down: true
  propagate_down: false
  propagate_down: false
  loss_param {
    normalization: VALID
  }
  multibox_loss_param {
    loc_loss_type: SMOOTH_L1
    conf_loss_type: SOFTMAX
    loc_weight: 2
    num_classes: 2
    share_location: true
    match_type: PER_PREDICTION
    overlap_threshold: 0.5
    use_prior_for_matching: true
    background_label_id: 0
    use_difficult_gt: true
    neg_pos_ratio: 3
    neg_overlap: 0.5
    code_type: CENTER_SIZE
    ignore_cross_boundary_bbox: false
    mining_type: MAX_NEGATIVE
  }
}
I0516 15:18:13.689298  7124 layer_factory.hpp:77] Creating layer data
I0516 15:18:13.689482  7124 net.cpp:100] Creating Layer data
I0516 15:18:13.689496  7124 net.cpp:408] data -> data
I0516 15:18:13.689538  7124 net.cpp:408] data -> label
I0516 15:18:13.691223  7138 db_lmdb.cpp:35] Opened lmdb examples/ccpd/ccpd_train_lmdb
I0516 15:18:13.707397  7124 annotated_data_layer.cpp:62] output data size: 16,3,300,300
I0516 15:18:13.726485  7124 net.cpp:150] Setting up data
I0516 15:18:13.726519  7124 net.cpp:157] Top shape: 16 3 300 300 (4320000)
I0516 15:18:13.726533  7124 net.cpp:157] Top shape: 1 1 1 8 (8)
I0516 15:18:13.726537  7124 net.cpp:165] Memory required for data: 17280032
I0516 15:18:13.726552  7124 layer_factory.hpp:77] Creating layer data_data_0_split
I0516 15:18:13.726601  7124 net.cpp:100] Creating Layer data_data_0_split
I0516 15:18:13.726609  7124 net.cpp:434] data_data_0_split <- data
I0516 15:18:13.726624  7124 net.cpp:408] data_data_0_split -> data_data_0_split_0
I0516 15:18:13.726637  7124 net.cpp:408] data_data_0_split -> data_data_0_split_1
I0516 15:18:13.726644  7124 net.cpp:408] data_data_0_split -> data_data_0_split_2
I0516 15:18:13.726650  7124 net.cpp:408] data_data_0_split -> data_data_0_split_3
I0516 15:18:13.726657  7124 net.cpp:408] data_data_0_split -> data_data_0_split_4
I0516 15:18:13.726663  7124 net.cpp:408] data_data_0_split -> data_data_0_split_5
I0516 15:18:13.726670  7124 net.cpp:408] data_data_0_split -> data_data_0_split_6
I0516 15:18:13.726788  7124 net.cpp:150] Setting up data_data_0_split
I0516 15:18:13.726799  7124 net.cpp:157] Top shape: 16 3 300 300 (4320000)
I0516 15:18:13.726804  7124 net.cpp:157] Top shape: 16 3 300 300 (4320000)
I0516 15:18:13.726809  7124 net.cpp:157] Top shape: 16 3 300 300 (4320000)
I0516 15:18:13.726814  7124 net.cpp:157] Top shape: 16 3 300 300 (4320000)
I0516 15:18:13.726819  7124 net.cpp:157] Top shape: 16 3 300 300 (4320000)
I0516 15:18:13.726824  7124 net.cpp:157] Top shape: 16 3 300 300 (4320000)
I0516 15:18:13.726827  7124 net.cpp:157] Top shape: 16 3 300 300 (4320000)
I0516 15:18:13.726831  7124 net.cpp:165] Memory required for data: 138240032
I0516 15:18:13.726836  7124 layer_factory.hpp:77] Creating layer conv1_1
I0516 15:18:13.726856  7124 net.cpp:100] Creating Layer conv1_1
I0516 15:18:13.726863  7124 net.cpp:434] conv1_1 <- data_data_0_split_0
I0516 15:18:13.726872  7124 net.cpp:408] conv1_1 -> conv1_1
I0516 15:18:14.441627  7124 net.cpp:150] Setting up conv1_1
I0516 15:18:14.441653  7124 net.cpp:157] Top shape: 16 64 300 300 (92160000)
I0516 15:18:14.441656  7124 net.cpp:165] Memory required for data: 506880032
I0516 15:18:14.441671  7124 layer_factory.hpp:77] Creating layer relu1_1
I0516 15:18:14.441682  7124 net.cpp:100] Creating Layer relu1_1
I0516 15:18:14.441686  7124 net.cpp:434] relu1_1 <- conv1_1
I0516 15:18:14.441709  7124 net.cpp:395] relu1_1 -> conv1_1 (in-place)
I0516 15:18:14.441937  7124 net.cpp:150] Setting up relu1_1
I0516 15:18:14.441944  7124 net.cpp:157] Top shape: 16 64 300 300 (92160000)
I0516 15:18:14.441946  7124 net.cpp:165] Memory required for data: 875520032
I0516 15:18:14.441951  7124 layer_factory.hpp:77] Creating layer conv1_2
I0516 15:18:14.441963  7124 net.cpp:100] Creating Layer conv1_2
I0516 15:18:14.441967  7124 net.cpp:434] conv1_2 <- conv1_1
I0516 15:18:14.441972  7124 net.cpp:408] conv1_2 -> conv1_2
I0516 15:18:14.443352  7124 net.cpp:150] Setting up conv1_2
I0516 15:18:14.443370  7124 net.cpp:157] Top shape: 16 64 300 300 (92160000)
I0516 15:18:14.443373  7124 net.cpp:165] Memory required for data: 1244160032
I0516 15:18:14.443382  7124 layer_factory.hpp:77] Creating layer relu1_2
I0516 15:18:14.443392  7124 net.cpp:100] Creating Layer relu1_2
I0516 15:18:14.443397  7124 net.cpp:434] relu1_2 <- conv1_2
I0516 15:18:14.443403  7124 net.cpp:395] relu1_2 -> conv1_2 (in-place)
I0516 15:18:14.443711  7124 net.cpp:150] Setting up relu1_2
I0516 15:18:14.443720  7124 net.cpp:157] Top shape: 16 64 300 300 (92160000)
I0516 15:18:14.443723  7124 net.cpp:165] Memory required for data: 1612800032
I0516 15:18:14.443727  7124 layer_factory.hpp:77] Creating layer pool1
I0516 15:18:14.443735  7124 net.cpp:100] Creating Layer pool1
I0516 15:18:14.443740  7124 net.cpp:434] pool1 <- conv1_2
I0516 15:18:14.443744  7124 net.cpp:408] pool1 -> pool1
I0516 15:18:14.443790  7124 net.cpp:150] Setting up pool1
I0516 15:18:14.443799  7124 net.cpp:157] Top shape: 16 64 150 150 (23040000)
I0516 15:18:14.443801  7124 net.cpp:165] Memory required for data: 1704960032
I0516 15:18:14.443805  7124 layer_factory.hpp:77] Creating layer conv2_1
I0516 15:18:14.443814  7124 net.cpp:100] Creating Layer conv2_1
I0516 15:18:14.443815  7124 net.cpp:434] conv2_1 <- pool1
I0516 15:18:14.443820  7124 net.cpp:408] conv2_1 -> conv2_1
I0516 15:18:14.445395  7124 net.cpp:150] Setting up conv2_1
I0516 15:18:14.445430  7124 net.cpp:157] Top shape: 16 128 150 150 (46080000)
I0516 15:18:14.445432  7124 net.cpp:165] Memory required for data: 1889280032
I0516 15:18:14.445439  7124 layer_factory.hpp:77] Creating layer relu2_1
I0516 15:18:14.445446  7124 net.cpp:100] Creating Layer relu2_1
I0516 15:18:14.445449  7124 net.cpp:434] relu2_1 <- conv2_1
I0516 15:18:14.445456  7124 net.cpp:395] relu2_1 -> conv2_1 (in-place)
I0516 15:18:14.445703  7124 net.cpp:150] Setting up relu2_1
I0516 15:18:14.445710  7124 net.cpp:157] Top shape: 16 128 150 150 (46080000)
I0516 15:18:14.445713  7124 net.cpp:165] Memory required for data: 2073600032
I0516 15:18:14.445715  7124 layer_factory.hpp:77] Creating layer conv2_2
I0516 15:18:14.445722  7124 net.cpp:100] Creating Layer conv2_2
I0516 15:18:14.445725  7124 net.cpp:434] conv2_2 <- conv2_1
I0516 15:18:14.445729  7124 net.cpp:408] conv2_2 -> conv2_2
I0516 15:18:14.449038  7124 net.cpp:150] Setting up conv2_2
I0516 15:18:14.449111  7124 net.cpp:157] Top shape: 16 128 150 150 (46080000)
I0516 15:18:14.449126  7124 net.cpp:165] Memory required for data: 2257920032
I0516 15:18:14.449147  7124 layer_factory.hpp:77] Creating layer relu2_2
I0516 15:18:14.449165  7124 net.cpp:100] Creating Layer relu2_2
I0516 15:18:14.449178  7124 net.cpp:434] relu2_2 <- conv2_2
I0516 15:18:14.449193  7124 net.cpp:395] relu2_2 -> conv2_2 (in-place)
I0516 15:18:14.449729  7124 net.cpp:150] Setting up relu2_2
I0516 15:18:14.449762  7124 net.cpp:157] Top shape: 16 128 150 150 (46080000)
I0516 15:18:14.449774  7124 net.cpp:165] Memory required for data: 2442240032
I0516 15:18:14.449785  7124 layer_factory.hpp:77] Creating layer pool2
I0516 15:18:14.449803  7124 net.cpp:100] Creating Layer pool2
I0516 15:18:14.449815  7124 net.cpp:434] pool2 <- conv2_2
I0516 15:18:14.449828  7124 net.cpp:408] pool2 -> pool2
I0516 15:18:14.449882  7124 net.cpp:150] Setting up pool2
I0516 15:18:14.449894  7124 net.cpp:157] Top shape: 16 128 75 75 (11520000)
I0516 15:18:14.449905  7124 net.cpp:165] Memory required for data: 2488320032
I0516 15:18:14.449916  7124 layer_factory.hpp:77] Creating layer conv3_1
I0516 15:18:14.449937  7124 net.cpp:100] Creating Layer conv3_1
I0516 15:18:14.449959  7124 net.cpp:434] conv3_1 <- pool2
I0516 15:18:14.449972  7124 net.cpp:408] conv3_1 -> conv3_1
I0516 15:18:14.453687  7124 net.cpp:150] Setting up conv3_1
I0516 15:18:14.453706  7124 net.cpp:157] Top shape: 16 256 75 75 (23040000)
I0516 15:18:14.453711  7124 net.cpp:165] Memory required for data: 2580480032
I0516 15:18:14.453721  7124 layer_factory.hpp:77] Creating layer relu3_1
I0516 15:18:14.453727  7124 net.cpp:100] Creating Layer relu3_1
I0516 15:18:14.453732  7124 net.cpp:434] relu3_1 <- conv3_1
I0516 15:18:14.453737  7124 net.cpp:395] relu3_1 -> conv3_1 (in-place)
I0516 15:18:14.454118  7124 net.cpp:150] Setting up relu3_1
I0516 15:18:14.454130  7124 net.cpp:157] Top shape: 16 256 75 75 (23040000)
I0516 15:18:14.454134  7124 net.cpp:165] Memory required for data: 2672640032
I0516 15:18:14.454138  7124 layer_factory.hpp:77] Creating layer conv3_2
I0516 15:18:14.454152  7124 net.cpp:100] Creating Layer conv3_2
I0516 15:18:14.454156  7124 net.cpp:434] conv3_2 <- conv3_1
I0516 15:18:14.454164  7124 net.cpp:408] conv3_2 -> conv3_2
I0516 15:18:14.460049  7124 net.cpp:150] Setting up conv3_2
I0516 15:18:14.460116  7124 net.cpp:157] Top shape: 16 256 75 75 (23040000)
I0516 15:18:14.460129  7124 net.cpp:165] Memory required for data: 2764800032
I0516 15:18:14.460155  7124 layer_factory.hpp:77] Creating layer relu3_2
I0516 15:18:14.460175  7124 net.cpp:100] Creating Layer relu3_2
I0516 15:18:14.460186  7124 net.cpp:434] relu3_2 <- conv3_2
I0516 15:18:14.460201  7124 net.cpp:395] relu3_2 -> conv3_2 (in-place)
I0516 15:18:14.460741  7124 net.cpp:150] Setting up relu3_2
I0516 15:18:14.460777  7124 net.cpp:157] Top shape: 16 256 75 75 (23040000)
I0516 15:18:14.460789  7124 net.cpp:165] Memory required for data: 2856960032
I0516 15:18:14.460801  7124 layer_factory.hpp:77] Creating layer conv3_3
I0516 15:18:14.460836  7124 net.cpp:100] Creating Layer conv3_3
I0516 15:18:14.460866  7124 net.cpp:434] conv3_3 <- conv3_2
I0516 15:18:14.460883  7124 net.cpp:408] conv3_3 -> conv3_3
I0516 15:18:14.467300  7124 net.cpp:150] Setting up conv3_3
I0516 15:18:14.467325  7124 net.cpp:157] Top shape: 16 256 75 75 (23040000)
I0516 15:18:14.467329  7124 net.cpp:165] Memory required for data: 2949120032
I0516 15:18:14.467339  7124 layer_factory.hpp:77] Creating layer relu3_3
I0516 15:18:14.467350  7124 net.cpp:100] Creating Layer relu3_3
I0516 15:18:14.467353  7124 net.cpp:434] relu3_3 <- conv3_3
I0516 15:18:14.467360  7124 net.cpp:395] relu3_3 -> conv3_3 (in-place)
I0516 15:18:14.467757  7124 net.cpp:150] Setting up relu3_3
I0516 15:18:14.467769  7124 net.cpp:157] Top shape: 16 256 75 75 (23040000)
I0516 15:18:14.467772  7124 net.cpp:165] Memory required for data: 3041280032
I0516 15:18:14.467775  7124 layer_factory.hpp:77] Creating layer pool3
I0516 15:18:14.467793  7124 net.cpp:100] Creating Layer pool3
I0516 15:18:14.467797  7124 net.cpp:434] pool3 <- conv3_3
I0516 15:18:14.467802  7124 net.cpp:408] pool3 -> pool3
I0516 15:18:14.467841  7124 net.cpp:150] Setting up pool3
I0516 15:18:14.467846  7124 net.cpp:157] Top shape: 16 256 38 38 (5914624)
I0516 15:18:14.467849  7124 net.cpp:165] Memory required for data: 3064938528
I0516 15:18:14.467851  7124 layer_factory.hpp:77] Creating layer conv4_1
I0516 15:18:14.467864  7124 net.cpp:100] Creating Layer conv4_1
I0516 15:18:14.467867  7124 net.cpp:434] conv4_1 <- pool3
I0516 15:18:14.467872  7124 net.cpp:408] conv4_1 -> conv4_1
I0516 15:18:14.475816  7124 net.cpp:150] Setting up conv4_1
I0516 15:18:14.475839  7124 net.cpp:157] Top shape: 16 512 38 38 (11829248)
I0516 15:18:14.475842  7124 net.cpp:165] Memory required for data: 3112255520
I0516 15:18:14.475850  7124 layer_factory.hpp:77] Creating layer relu4_1
I0516 15:18:14.475857  7124 net.cpp:100] Creating Layer relu4_1
I0516 15:18:14.475862  7124 net.cpp:434] relu4_1 <- conv4_1
I0516 15:18:14.475867  7124 net.cpp:395] relu4_1 -> conv4_1 (in-place)
I0516 15:18:14.476146  7124 net.cpp:150] Setting up relu4_1
I0516 15:18:14.476155  7124 net.cpp:157] Top shape: 16 512 38 38 (11829248)
I0516 15:18:14.476156  7124 net.cpp:165] Memory required for data: 3159572512
I0516 15:18:14.476159  7124 layer_factory.hpp:77] Creating layer conv4_2
I0516 15:18:14.476171  7124 net.cpp:100] Creating Layer conv4_2
I0516 15:18:14.476174  7124 net.cpp:434] conv4_2 <- conv4_1
I0516 15:18:14.476179  7124 net.cpp:408] conv4_2 -> conv4_2
I0516 15:18:14.489307  7124 net.cpp:150] Setting up conv4_2
I0516 15:18:14.489372  7124 net.cpp:157] Top shape: 16 512 38 38 (11829248)
I0516 15:18:14.489384  7124 net.cpp:165] Memory required for data: 3206889504
I0516 15:18:14.489415  7124 layer_factory.hpp:77] Creating layer relu4_2
I0516 15:18:14.489434  7124 net.cpp:100] Creating Layer relu4_2
I0516 15:18:14.489446  7124 net.cpp:434] relu4_2 <- conv4_2
I0516 15:18:14.489459  7124 net.cpp:395] relu4_2 -> conv4_2 (in-place)
I0516 15:18:14.490027  7124 net.cpp:150] Setting up relu4_2
I0516 15:18:14.490063  7124 net.cpp:157] Top shape: 16 512 38 38 (11829248)
I0516 15:18:14.490075  7124 net.cpp:165] Memory required for data: 3254206496
I0516 15:18:14.490087  7124 layer_factory.hpp:77] Creating layer conv4_3
I0516 15:18:14.490108  7124 net.cpp:100] Creating Layer conv4_3
I0516 15:18:14.490120  7124 net.cpp:434] conv4_3 <- conv4_2
I0516 15:18:14.490136  7124 net.cpp:408] conv4_3 -> conv4_3
I0516 15:18:14.504350  7124 net.cpp:150] Setting up conv4_3
I0516 15:18:14.504377  7124 net.cpp:157] Top shape: 16 512 38 38 (11829248)
I0516 15:18:14.504379  7124 net.cpp:165] Memory required for data: 3301523488
I0516 15:18:14.504389  7124 layer_factory.hpp:77] Creating layer relu4_3
I0516 15:18:14.504400  7124 net.cpp:100] Creating Layer relu4_3
I0516 15:18:14.504405  7124 net.cpp:434] relu4_3 <- conv4_3
I0516 15:18:14.504412  7124 net.cpp:395] relu4_3 -> conv4_3 (in-place)
I0516 15:18:14.504695  7124 net.cpp:150] Setting up relu4_3
I0516 15:18:14.504703  7124 net.cpp:157] Top shape: 16 512 38 38 (11829248)
I0516 15:18:14.504725  7124 net.cpp:165] Memory required for data: 3348840480
I0516 15:18:14.504729  7124 layer_factory.hpp:77] Creating layer conv4_3_relu4_3_0_split
I0516 15:18:14.504734  7124 net.cpp:100] Creating Layer conv4_3_relu4_3_0_split
I0516 15:18:14.504736  7124 net.cpp:434] conv4_3_relu4_3_0_split <- conv4_3
I0516 15:18:14.504741  7124 net.cpp:408] conv4_3_relu4_3_0_split -> conv4_3_relu4_3_0_split_0
I0516 15:18:14.504747  7124 net.cpp:408] conv4_3_relu4_3_0_split -> conv4_3_relu4_3_0_split_1
I0516 15:18:14.504781  7124 net.cpp:150] Setting up conv4_3_relu4_3_0_split
I0516 15:18:14.504786  7124 net.cpp:157] Top shape: 16 512 38 38 (11829248)
I0516 15:18:14.504788  7124 net.cpp:157] Top shape: 16 512 38 38 (11829248)
I0516 15:18:14.504791  7124 net.cpp:165] Memory required for data: 3443474464
I0516 15:18:14.504792  7124 layer_factory.hpp:77] Creating layer pool4
I0516 15:18:14.504797  7124 net.cpp:100] Creating Layer pool4
I0516 15:18:14.504801  7124 net.cpp:434] pool4 <- conv4_3_relu4_3_0_split_0
I0516 15:18:14.504806  7124 net.cpp:408] pool4 -> pool4
I0516 15:18:14.504833  7124 net.cpp:150] Setting up pool4
I0516 15:18:14.504838  7124 net.cpp:157] Top shape: 16 512 19 19 (2957312)
I0516 15:18:14.504840  7124 net.cpp:165] Memory required for data: 3455303712
I0516 15:18:14.504844  7124 layer_factory.hpp:77] Creating layer conv5_1
I0516 15:18:14.504854  7124 net.cpp:100] Creating Layer conv5_1
I0516 15:18:14.504858  7124 net.cpp:434] conv5_1 <- pool4
I0516 15:18:14.504863  7124 net.cpp:408] conv5_1 -> conv5_1
I0516 15:18:14.518851  7124 net.cpp:150] Setting up conv5_1
I0516 15:18:14.518874  7124 net.cpp:157] Top shape: 16 512 19 19 (2957312)
I0516 15:18:14.518877  7124 net.cpp:165] Memory required for data: 3467132960
I0516 15:18:14.518885  7124 layer_factory.hpp:77] Creating layer relu5_1
I0516 15:18:14.518894  7124 net.cpp:100] Creating Layer relu5_1
I0516 15:18:14.518898  7124 net.cpp:434] relu5_1 <- conv5_1
I0516 15:18:14.518903  7124 net.cpp:395] relu5_1 -> conv5_1 (in-place)
I0516 15:18:14.519292  7124 net.cpp:150] Setting up relu5_1
I0516 15:18:14.519302  7124 net.cpp:157] Top shape: 16 512 19 19 (2957312)
I0516 15:18:14.519305  7124 net.cpp:165] Memory required for data: 3478962208
I0516 15:18:14.519309  7124 layer_factory.hpp:77] Creating layer conv5_2
I0516 15:18:14.519320  7124 net.cpp:100] Creating Layer conv5_2
I0516 15:18:14.519322  7124 net.cpp:434] conv5_2 <- conv5_1
I0516 15:18:14.519327  7124 net.cpp:408] conv5_2 -> conv5_2
I0516 15:18:14.531946  7124 net.cpp:150] Setting up conv5_2
I0516 15:18:14.531971  7124 net.cpp:157] Top shape: 16 512 19 19 (2957312)
I0516 15:18:14.531975  7124 net.cpp:165] Memory required for data: 3490791456
I0516 15:18:14.531981  7124 layer_factory.hpp:77] Creating layer relu5_2
I0516 15:18:14.531991  7124 net.cpp:100] Creating Layer relu5_2
I0516 15:18:14.531994  7124 net.cpp:434] relu5_2 <- conv5_2
I0516 15:18:14.531999  7124 net.cpp:395] relu5_2 -> conv5_2 (in-place)
I0516 15:18:14.532341  7124 net.cpp:150] Setting up relu5_2
I0516 15:18:14.532352  7124 net.cpp:157] Top shape: 16 512 19 19 (2957312)
I0516 15:18:14.532356  7124 net.cpp:165] Memory required for data: 3502620704
I0516 15:18:14.532358  7124 layer_factory.hpp:77] Creating layer conv5_3
I0516 15:18:14.532372  7124 net.cpp:100] Creating Layer conv5_3
I0516 15:18:14.532377  7124 net.cpp:434] conv5_3 <- conv5_2
I0516 15:18:14.532383  7124 net.cpp:408] conv5_3 -> conv5_3
I0516 15:18:14.545581  7124 net.cpp:150] Setting up conv5_3
I0516 15:18:14.545605  7124 net.cpp:157] Top shape: 16 512 19 19 (2957312)
I0516 15:18:14.545608  7124 net.cpp:165] Memory required for data: 3514449952
I0516 15:18:14.545615  7124 layer_factory.hpp:77] Creating layer relu5_3
I0516 15:18:14.545626  7124 net.cpp:100] Creating Layer relu5_3
I0516 15:18:14.545629  7124 net.cpp:434] relu5_3 <- conv5_3
I0516 15:18:14.545635  7124 net.cpp:395] relu5_3 -> conv5_3 (in-place)
I0516 15:18:14.547114  7124 net.cpp:150] Setting up relu5_3
I0516 15:18:14.547164  7124 net.cpp:157] Top shape: 16 512 19 19 (2957312)
I0516 15:18:14.547185  7124 net.cpp:165] Memory required for data: 3526279200
I0516 15:18:14.547212  7124 layer_factory.hpp:77] Creating layer pool5
I0516 15:18:14.547232  7124 net.cpp:100] Creating Layer pool5
I0516 15:18:14.547245  7124 net.cpp:434] pool5 <- conv5_3
I0516 15:18:14.547260  7124 net.cpp:408] pool5 -> pool5
I0516 15:18:14.547323  7124 net.cpp:150] Setting up pool5
I0516 15:18:14.547338  7124 net.cpp:157] Top shape: 16 512 19 19 (2957312)
I0516 15:18:14.547348  7124 net.cpp:165] Memory required for data: 3538108448
I0516 15:18:14.547358  7124 layer_factory.hpp:77] Creating layer fc6
I0516 15:18:14.547379  7124 net.cpp:100] Creating Layer fc6
I0516 15:18:14.547389  7124 net.cpp:434] fc6 <- pool5
I0516 15:18:14.547403  7124 net.cpp:408] fc6 -> fc6
I0516 15:18:14.579463  7124 net.cpp:150] Setting up fc6
I0516 15:18:14.579493  7124 net.cpp:157] Top shape: 16 1024 19 19 (5914624)
I0516 15:18:14.579495  7124 net.cpp:165] Memory required for data: 3561766944
I0516 15:18:14.579504  7124 layer_factory.hpp:77] Creating layer relu6
I0516 15:18:14.579531  7124 net.cpp:100] Creating Layer relu6
I0516 15:18:14.579536  7124 net.cpp:434] relu6 <- fc6
I0516 15:18:14.579543  7124 net.cpp:395] relu6 -> fc6 (in-place)
I0516 15:18:14.579886  7124 net.cpp:150] Setting up relu6
I0516 15:18:14.579895  7124 net.cpp:157] Top shape: 16 1024 19 19 (5914624)
I0516 15:18:14.579898  7124 net.cpp:165] Memory required for data: 3585425440
I0516 15:18:14.579902  7124 layer_factory.hpp:77] Creating layer fc7
I0516 15:18:14.579915  7124 net.cpp:100] Creating Layer fc7
I0516 15:18:14.579919  7124 net.cpp:434] fc7 <- fc6
I0516 15:18:14.579926  7124 net.cpp:408] fc7 -> fc7
I0516 15:18:14.586920  7124 net.cpp:150] Setting up fc7
I0516 15:18:14.586987  7124 net.cpp:157] Top shape: 16 1024 19 19 (5914624)
I0516 15:18:14.586992  7124 net.cpp:165] Memory required for data: 3609083936
I0516 15:18:14.587002  7124 layer_factory.hpp:77] Creating layer relu7
I0516 15:18:14.587016  7124 net.cpp:100] Creating Layer relu7
I0516 15:18:14.587021  7124 net.cpp:434] relu7 <- fc7
I0516 15:18:14.587028  7124 net.cpp:395] relu7 -> fc7 (in-place)
I0516 15:18:14.587536  7124 net.cpp:150] Setting up relu7
I0516 15:18:14.587551  7124 net.cpp:157] Top shape: 16 1024 19 19 (5914624)
I0516 15:18:14.587554  7124 net.cpp:165] Memory required for data: 3632742432
I0516 15:18:14.587558  7124 layer_factory.hpp:77] Creating layer fc7_relu7_0_split
I0516 15:18:14.587565  7124 net.cpp:100] Creating Layer fc7_relu7_0_split
I0516 15:18:14.587568  7124 net.cpp:434] fc7_relu7_0_split <- fc7
I0516 15:18:14.587579  7124 net.cpp:408] fc7_relu7_0_split -> fc7_relu7_0_split_0
I0516 15:18:14.587585  7124 net.cpp:408] fc7_relu7_0_split -> fc7_relu7_0_split_1
I0516 15:18:14.587594  7124 net.cpp:408] fc7_relu7_0_split -> fc7_relu7_0_split_2
I0516 15:18:14.587600  7124 net.cpp:408] fc7_relu7_0_split -> fc7_relu7_0_split_3
I0516 15:18:14.587658  7124 net.cpp:150] Setting up fc7_relu7_0_split
I0516 15:18:14.587666  7124 net.cpp:157] Top shape: 16 1024 19 19 (5914624)
I0516 15:18:14.587671  7124 net.cpp:157] Top shape: 16 1024 19 19 (5914624)
I0516 15:18:14.587672  7124 net.cpp:157] Top shape: 16 1024 19 19 (5914624)
I0516 15:18:14.587676  7124 net.cpp:157] Top shape: 16 1024 19 19 (5914624)
I0516 15:18:14.587678  7124 net.cpp:165] Memory required for data: 3727376416
I0516 15:18:14.587683  7124 layer_factory.hpp:77] Creating layer conv6_1
I0516 15:18:14.587697  7124 net.cpp:100] Creating Layer conv6_1
I0516 15:18:14.587702  7124 net.cpp:434] conv6_1 <- fc7_relu7_0_split_0
I0516 15:18:14.587707  7124 net.cpp:408] conv6_1 -> conv6_1
I0516 15:18:14.591039  7124 net.cpp:150] Setting up conv6_1
I0516 15:18:14.591091  7124 net.cpp:157] Top shape: 16 256 19 19 (1478656)
I0516 15:18:14.591102  7124 net.cpp:165] Memory required for data: 3733291040
I0516 15:18:14.591118  7124 layer_factory.hpp:77] Creating layer conv6_1_relu
I0516 15:18:14.591135  7124 net.cpp:100] Creating Layer conv6_1_relu
I0516 15:18:14.591147  7124 net.cpp:434] conv6_1_relu <- conv6_1
I0516 15:18:14.591161  7124 net.cpp:395] conv6_1_relu -> conv6_1 (in-place)
I0516 15:18:14.591547  7124 net.cpp:150] Setting up conv6_1_relu
I0516 15:18:14.591569  7124 net.cpp:157] Top shape: 16 256 19 19 (1478656)
I0516 15:18:14.591579  7124 net.cpp:165] Memory required for data: 3739205664
I0516 15:18:14.591590  7124 layer_factory.hpp:77] Creating layer conv6_2
I0516 15:18:14.591609  7124 net.cpp:100] Creating Layer conv6_2
I0516 15:18:14.591620  7124 net.cpp:434] conv6_2 <- conv6_1
I0516 15:18:14.591635  7124 net.cpp:408] conv6_2 -> conv6_2
I0516 15:18:14.601745  7124 net.cpp:150] Setting up conv6_2
I0516 15:18:14.601778  7124 net.cpp:157] Top shape: 16 512 10 10 (819200)
I0516 15:18:14.601783  7124 net.cpp:165] Memory required for data: 3742482464
I0516 15:18:14.601797  7124 layer_factory.hpp:77] Creating layer conv6_2_relu
I0516 15:18:14.601809  7124 net.cpp:100] Creating Layer conv6_2_relu
I0516 15:18:14.601814  7124 net.cpp:434] conv6_2_relu <- conv6_2
I0516 15:18:14.601820  7124 net.cpp:395] conv6_2_relu -> conv6_2 (in-place)
I0516 15:18:14.603356  7124 net.cpp:150] Setting up conv6_2_relu
I0516 15:18:14.603376  7124 net.cpp:157] Top shape: 16 512 10 10 (819200)
I0516 15:18:14.603379  7124 net.cpp:165] Memory required for data: 3745759264
I0516 15:18:14.603384  7124 layer_factory.hpp:77] Creating layer conv6_2_conv6_2_relu_0_split
I0516 15:18:14.603391  7124 net.cpp:100] Creating Layer conv6_2_conv6_2_relu_0_split
I0516 15:18:14.603395  7124 net.cpp:434] conv6_2_conv6_2_relu_0_split <- conv6_2
I0516 15:18:14.603402  7124 net.cpp:408] conv6_2_conv6_2_relu_0_split -> conv6_2_conv6_2_relu_0_split_0
I0516 15:18:14.603410  7124 net.cpp:408] conv6_2_conv6_2_relu_0_split -> conv6_2_conv6_2_relu_0_split_1
I0516 15:18:14.603420  7124 net.cpp:408] conv6_2_conv6_2_relu_0_split -> conv6_2_conv6_2_relu_0_split_2
I0516 15:18:14.603423  7124 net.cpp:408] conv6_2_conv6_2_relu_0_split -> conv6_2_conv6_2_relu_0_split_3
I0516 15:18:14.603476  7124 net.cpp:150] Setting up conv6_2_conv6_2_relu_0_split
I0516 15:18:14.603480  7124 net.cpp:157] Top shape: 16 512 10 10 (819200)
I0516 15:18:14.603483  7124 net.cpp:157] Top shape: 16 512 10 10 (819200)
I0516 15:18:14.603487  7124 net.cpp:157] Top shape: 16 512 10 10 (819200)
I0516 15:18:14.603489  7124 net.cpp:157] Top shape: 16 512 10 10 (819200)
I0516 15:18:14.603492  7124 net.cpp:165] Memory required for data: 3758866464
I0516 15:18:14.603493  7124 layer_factory.hpp:77] Creating layer conv7_1
I0516 15:18:14.603503  7124 net.cpp:100] Creating Layer conv7_1
I0516 15:18:14.603507  7124 net.cpp:434] conv7_1 <- conv6_2_conv6_2_relu_0_split_0
I0516 15:18:14.603511  7124 net.cpp:408] conv7_1 -> conv7_1
I0516 15:18:14.605801  7124 net.cpp:150] Setting up conv7_1
I0516 15:18:14.605816  7124 net.cpp:157] Top shape: 16 128 10 10 (204800)
I0516 15:18:14.605819  7124 net.cpp:165] Memory required for data: 3759685664
I0516 15:18:14.605825  7124 layer_factory.hpp:77] Creating layer conv7_1_relu
I0516 15:18:14.605832  7124 net.cpp:100] Creating Layer conv7_1_relu
I0516 15:18:14.605836  7124 net.cpp:434] conv7_1_relu <- conv7_1
I0516 15:18:14.605841  7124 net.cpp:395] conv7_1_relu -> conv7_1 (in-place)
I0516 15:18:14.606267  7124 net.cpp:150] Setting up conv7_1_relu
I0516 15:18:14.606303  7124 net.cpp:157] Top shape: 16 128 10 10 (204800)
I0516 15:18:14.606314  7124 net.cpp:165] Memory required for data: 3760504864
I0516 15:18:14.606324  7124 layer_factory.hpp:77] Creating layer conv7_2
I0516 15:18:14.606341  7124 net.cpp:100] Creating Layer conv7_2
I0516 15:18:14.606351  7124 net.cpp:434] conv7_2 <- conv7_1
I0516 15:18:14.606365  7124 net.cpp:408] conv7_2 -> conv7_2
I0516 15:18:14.610020  7124 net.cpp:150] Setting up conv7_2
I0516 15:18:14.610077  7124 net.cpp:157] Top shape: 16 256 5 5 (102400)
I0516 15:18:14.610090  7124 net.cpp:165] Memory required for data: 3760914464
I0516 15:18:14.610105  7124 layer_factory.hpp:77] Creating layer conv7_2_relu
I0516 15:18:14.610121  7124 net.cpp:100] Creating Layer conv7_2_relu
I0516 15:18:14.610132  7124 net.cpp:434] conv7_2_relu <- conv7_2
I0516 15:18:14.610146  7124 net.cpp:395] conv7_2_relu -> conv7_2 (in-place)
I0516 15:18:14.610532  7124 net.cpp:150] Setting up conv7_2_relu
I0516 15:18:14.610566  7124 net.cpp:157] Top shape: 16 256 5 5 (102400)
I0516 15:18:14.610576  7124 net.cpp:165] Memory required for data: 3761324064
I0516 15:18:14.610587  7124 layer_factory.hpp:77] Creating layer conv7_2_conv7_2_relu_0_split
I0516 15:18:14.610602  7124 net.cpp:100] Creating Layer conv7_2_conv7_2_relu_0_split
I0516 15:18:14.610613  7124 net.cpp:434] conv7_2_conv7_2_relu_0_split <- conv7_2
I0516 15:18:14.610626  7124 net.cpp:408] conv7_2_conv7_2_relu_0_split -> conv7_2_conv7_2_relu_0_split_0
I0516 15:18:14.610642  7124 net.cpp:408] conv7_2_conv7_2_relu_0_split -> conv7_2_conv7_2_relu_0_split_1
I0516 15:18:14.610656  7124 net.cpp:408] conv7_2_conv7_2_relu_0_split -> conv7_2_conv7_2_relu_0_split_2
I0516 15:18:14.610669  7124 net.cpp:408] conv7_2_conv7_2_relu_0_split -> conv7_2_conv7_2_relu_0_split_3
I0516 15:18:14.610746  7124 net.cpp:150] Setting up conv7_2_conv7_2_relu_0_split
I0516 15:18:14.610759  7124 net.cpp:157] Top shape: 16 256 5 5 (102400)
I0516 15:18:14.610771  7124 net.cpp:157] Top shape: 16 256 5 5 (102400)
I0516 15:18:14.610782  7124 net.cpp:157] Top shape: 16 256 5 5 (102400)
I0516 15:18:14.610793  7124 net.cpp:157] Top shape: 16 256 5 5 (102400)
I0516 15:18:14.610803  7124 net.cpp:165] Memory required for data: 3762962464
I0516 15:18:14.610813  7124 layer_factory.hpp:77] Creating layer conv8_1
I0516 15:18:14.610832  7124 net.cpp:100] Creating Layer conv8_1
I0516 15:18:14.610843  7124 net.cpp:434] conv8_1 <- conv7_2_conv7_2_relu_0_split_0
I0516 15:18:14.610857  7124 net.cpp:408] conv8_1 -> conv8_1
I0516 15:18:14.612709  7124 net.cpp:150] Setting up conv8_1
I0516 15:18:14.612725  7124 net.cpp:157] Top shape: 16 128 5 5 (51200)
I0516 15:18:14.612728  7124 net.cpp:165] Memory required for data: 3763167264
I0516 15:18:14.612735  7124 layer_factory.hpp:77] Creating layer conv8_1_relu
I0516 15:18:14.612741  7124 net.cpp:100] Creating Layer conv8_1_relu
I0516 15:18:14.612745  7124 net.cpp:434] conv8_1_relu <- conv8_1
I0516 15:18:14.612748  7124 net.cpp:395] conv8_1_relu -> conv8_1 (in-place)
I0516 15:18:14.613179  7124 net.cpp:150] Setting up conv8_1_relu
I0516 15:18:14.613191  7124 net.cpp:157] Top shape: 16 128 5 5 (51200)
I0516 15:18:14.613194  7124 net.cpp:165] Memory required for data: 3763372064
I0516 15:18:14.613198  7124 layer_factory.hpp:77] Creating layer conv8_2
I0516 15:18:14.613209  7124 net.cpp:100] Creating Layer conv8_2
I0516 15:18:14.613214  7124 net.cpp:434] conv8_2 <- conv8_1
I0516 15:18:14.613224  7124 net.cpp:408] conv8_2 -> conv8_2
I0516 15:18:14.617538  7124 net.cpp:150] Setting up conv8_2
I0516 15:18:14.617558  7124 net.cpp:157] Top shape: 16 256 3 3 (36864)
I0516 15:18:14.617560  7124 net.cpp:165] Memory required for data: 3763519520
I0516 15:18:14.617568  7124 layer_factory.hpp:77] Creating layer conv8_2_relu
I0516 15:18:14.617576  7124 net.cpp:100] Creating Layer conv8_2_relu
I0516 15:18:14.617579  7124 net.cpp:434] conv8_2_relu <- conv8_2
I0516 15:18:14.617585  7124 net.cpp:395] conv8_2_relu -> conv8_2 (in-place)
I0516 15:18:14.617897  7124 net.cpp:150] Setting up conv8_2_relu
I0516 15:18:14.617908  7124 net.cpp:157] Top shape: 16 256 3 3 (36864)
I0516 15:18:14.617910  7124 net.cpp:165] Memory required for data: 3763666976
I0516 15:18:14.617913  7124 layer_factory.hpp:77] Creating layer conv8_2_conv8_2_relu_0_split
I0516 15:18:14.617920  7124 net.cpp:100] Creating Layer conv8_2_conv8_2_relu_0_split
I0516 15:18:14.617924  7124 net.cpp:434] conv8_2_conv8_2_relu_0_split <- conv8_2
I0516 15:18:14.617930  7124 net.cpp:408] conv8_2_conv8_2_relu_0_split -> conv8_2_conv8_2_relu_0_split_0
I0516 15:18:14.617939  7124 net.cpp:408] conv8_2_conv8_2_relu_0_split -> conv8_2_conv8_2_relu_0_split_1
I0516 15:18:14.617951  7124 net.cpp:408] conv8_2_conv8_2_relu_0_split -> conv8_2_conv8_2_relu_0_split_2
I0516 15:18:14.617957  7124 net.cpp:408] conv8_2_conv8_2_relu_0_split -> conv8_2_conv8_2_relu_0_split_3
I0516 15:18:14.618031  7124 net.cpp:150] Setting up conv8_2_conv8_2_relu_0_split
I0516 15:18:14.618039  7124 net.cpp:157] Top shape: 16 256 3 3 (36864)
I0516 15:18:14.618065  7124 net.cpp:157] Top shape: 16 256 3 3 (36864)
I0516 15:18:14.618072  7124 net.cpp:157] Top shape: 16 256 3 3 (36864)
I0516 15:18:14.618075  7124 net.cpp:157] Top shape: 16 256 3 3 (36864)
I0516 15:18:14.618079  7124 net.cpp:165] Memory required for data: 3764256800
I0516 15:18:14.618082  7124 layer_factory.hpp:77] Creating layer conv9_1
I0516 15:18:14.618093  7124 net.cpp:100] Creating Layer conv9_1
I0516 15:18:14.618099  7124 net.cpp:434] conv9_1 <- conv8_2_conv8_2_relu_0_split_0
I0516 15:18:14.618105  7124 net.cpp:408] conv9_1 -> conv9_1
I0516 15:18:14.619503  7124 net.cpp:150] Setting up conv9_1
I0516 15:18:14.619516  7124 net.cpp:157] Top shape: 16 128 3 3 (18432)
I0516 15:18:14.619518  7124 net.cpp:165] Memory required for data: 3764330528
I0516 15:18:14.619524  7124 layer_factory.hpp:77] Creating layer conv9_1_relu
I0516 15:18:14.619531  7124 net.cpp:100] Creating Layer conv9_1_relu
I0516 15:18:14.619534  7124 net.cpp:434] conv9_1_relu <- conv9_1
I0516 15:18:14.619539  7124 net.cpp:395] conv9_1_relu -> conv9_1 (in-place)
I0516 15:18:14.619969  7124 net.cpp:150] Setting up conv9_1_relu
I0516 15:18:14.619982  7124 net.cpp:157] Top shape: 16 128 3 3 (18432)
I0516 15:18:14.619984  7124 net.cpp:165] Memory required for data: 3764404256
I0516 15:18:14.619988  7124 layer_factory.hpp:77] Creating layer conv9_2
I0516 15:18:14.619997  7124 net.cpp:100] Creating Layer conv9_2
I0516 15:18:14.620000  7124 net.cpp:434] conv9_2 <- conv9_1
I0516 15:18:14.620008  7124 net.cpp:408] conv9_2 -> conv9_2
I0516 15:18:14.623355  7124 net.cpp:150] Setting up conv9_2
I0516 15:18:14.623371  7124 net.cpp:157] Top shape: 16 256 1 1 (4096)
I0516 15:18:14.623375  7124 net.cpp:165] Memory required for data: 3764420640
I0516 15:18:14.623383  7124 layer_factory.hpp:77] Creating layer conv9_2_relu
I0516 15:18:14.623392  7124 net.cpp:100] Creating Layer conv9_2_relu
I0516 15:18:14.623397  7124 net.cpp:434] conv9_2_relu <- conv9_2
I0516 15:18:14.623404  7124 net.cpp:395] conv9_2_relu -> conv9_2 (in-place)
I0516 15:18:14.623790  7124 net.cpp:150] Setting up conv9_2_relu
I0516 15:18:14.623805  7124 net.cpp:157] Top shape: 16 256 1 1 (4096)
I0516 15:18:14.623811  7124 net.cpp:165] Memory required for data: 3764437024
I0516 15:18:14.623816  7124 layer_factory.hpp:77] Creating layer conv9_2_conv9_2_relu_0_split
I0516 15:18:14.623823  7124 net.cpp:100] Creating Layer conv9_2_conv9_2_relu_0_split
I0516 15:18:14.623828  7124 net.cpp:434] conv9_2_conv9_2_relu_0_split <- conv9_2
I0516 15:18:14.623836  7124 net.cpp:408] conv9_2_conv9_2_relu_0_split -> conv9_2_conv9_2_relu_0_split_0
I0516 15:18:14.623844  7124 net.cpp:408] conv9_2_conv9_2_relu_0_split -> conv9_2_conv9_2_relu_0_split_1
I0516 15:18:14.623852  7124 net.cpp:408] conv9_2_conv9_2_relu_0_split -> conv9_2_conv9_2_relu_0_split_2
I0516 15:18:14.623914  7124 net.cpp:150] Setting up conv9_2_conv9_2_relu_0_split
I0516 15:18:14.623921  7124 net.cpp:157] Top shape: 16 256 1 1 (4096)
I0516 15:18:14.623926  7124 net.cpp:157] Top shape: 16 256 1 1 (4096)
I0516 15:18:14.623931  7124 net.cpp:157] Top shape: 16 256 1 1 (4096)
I0516 15:18:14.623935  7124 net.cpp:165] Memory required for data: 3764486176
I0516 15:18:14.623939  7124 layer_factory.hpp:77] Creating layer conv4_3_norm
I0516 15:18:14.623946  7124 net.cpp:100] Creating Layer conv4_3_norm
I0516 15:18:14.623950  7124 net.cpp:434] conv4_3_norm <- conv4_3_relu4_3_0_split_1
I0516 15:18:14.623958  7124 net.cpp:408] conv4_3_norm -> conv4_3_norm
I0516 15:18:14.624087  7124 net.cpp:150] Setting up conv4_3_norm
I0516 15:18:14.624095  7124 net.cpp:157] Top shape: 16 512 38 38 (11829248)
I0516 15:18:14.624099  7124 net.cpp:165] Memory required for data: 3811803168
I0516 15:18:14.624102  7124 layer_factory.hpp:77] Creating layer conv4_3_norm_conv4_3_norm_0_split
I0516 15:18:14.624107  7124 net.cpp:100] Creating Layer conv4_3_norm_conv4_3_norm_0_split
I0516 15:18:14.624110  7124 net.cpp:434] conv4_3_norm_conv4_3_norm_0_split <- conv4_3_norm
I0516 15:18:14.624115  7124 net.cpp:408] conv4_3_norm_conv4_3_norm_0_split -> conv4_3_norm_conv4_3_norm_0_split_0
I0516 15:18:14.624142  7124 net.cpp:408] conv4_3_norm_conv4_3_norm_0_split -> conv4_3_norm_conv4_3_norm_0_split_1
I0516 15:18:14.624148  7124 net.cpp:408] conv4_3_norm_conv4_3_norm_0_split -> conv4_3_norm_conv4_3_norm_0_split_2
I0516 15:18:14.624191  7124 net.cpp:150] Setting up conv4_3_norm_conv4_3_norm_0_split
I0516 15:18:14.624197  7124 net.cpp:157] Top shape: 16 512 38 38 (11829248)
I0516 15:18:14.624202  7124 net.cpp:157] Top shape: 16 512 38 38 (11829248)
I0516 15:18:14.624207  7124 net.cpp:157] Top shape: 16 512 38 38 (11829248)
I0516 15:18:14.624210  7124 net.cpp:165] Memory required for data: 3953754144
I0516 15:18:14.624215  7124 layer_factory.hpp:77] Creating layer conv4_3_norm_mbox_loc
I0516 15:18:14.624233  7124 net.cpp:100] Creating Layer conv4_3_norm_mbox_loc
I0516 15:18:14.624238  7124 net.cpp:434] conv4_3_norm_mbox_loc <- conv4_3_norm_conv4_3_norm_0_split_0
I0516 15:18:14.624244  7124 net.cpp:408] conv4_3_norm_mbox_loc -> conv4_3_norm_mbox_loc
I0516 15:18:14.627192  7124 net.cpp:150] Setting up conv4_3_norm_mbox_loc
I0516 15:18:14.627238  7124 net.cpp:157] Top shape: 16 16 38 38 (369664)
I0516 15:18:14.627250  7124 net.cpp:165] Memory required for data: 3955232800
I0516 15:18:14.627266  7124 layer_factory.hpp:77] Creating layer conv4_3_norm_mbox_loc_perm
I0516 15:18:14.627285  7124 net.cpp:100] Creating Layer conv4_3_norm_mbox_loc_perm
I0516 15:18:14.627297  7124 net.cpp:434] conv4_3_norm_mbox_loc_perm <- conv4_3_norm_mbox_loc
I0516 15:18:14.627313  7124 net.cpp:408] conv4_3_norm_mbox_loc_perm -> conv4_3_norm_mbox_loc_perm
I0516 15:18:14.627426  7124 net.cpp:150] Setting up conv4_3_norm_mbox_loc_perm
I0516 15:18:14.627434  7124 net.cpp:157] Top shape: 16 38 38 16 (369664)
I0516 15:18:14.627436  7124 net.cpp:165] Memory required for data: 3956711456
I0516 15:18:14.627440  7124 layer_factory.hpp:77] Creating layer conv4_3_norm_mbox_loc_flat
I0516 15:18:14.627449  7124 net.cpp:100] Creating Layer conv4_3_norm_mbox_loc_flat
I0516 15:18:14.627454  7124 net.cpp:434] conv4_3_norm_mbox_loc_flat <- conv4_3_norm_mbox_loc_perm
I0516 15:18:14.627458  7124 net.cpp:408] conv4_3_norm_mbox_loc_flat -> conv4_3_norm_mbox_loc_flat
I0516 15:18:14.627487  7124 net.cpp:150] Setting up conv4_3_norm_mbox_loc_flat
I0516 15:18:14.627494  7124 net.cpp:157] Top shape: 16 23104 (369664)
I0516 15:18:14.627496  7124 net.cpp:165] Memory required for data: 3958190112
I0516 15:18:14.627499  7124 layer_factory.hpp:77] Creating layer conv4_3_norm_mbox_conf
I0516 15:18:14.627511  7124 net.cpp:100] Creating Layer conv4_3_norm_mbox_conf
I0516 15:18:14.627516  7124 net.cpp:434] conv4_3_norm_mbox_conf <- conv4_3_norm_conv4_3_norm_0_split_1
I0516 15:18:14.627521  7124 net.cpp:408] conv4_3_norm_mbox_conf -> conv4_3_norm_mbox_conf
I0516 15:18:14.629797  7124 net.cpp:150] Setting up conv4_3_norm_mbox_conf
I0516 15:18:14.629823  7124 net.cpp:157] Top shape: 16 8 38 38 (184832)
I0516 15:18:14.629828  7124 net.cpp:165] Memory required for data: 3958929440
I0516 15:18:14.629840  7124 layer_factory.hpp:77] Creating layer conv4_3_norm_mbox_conf_perm
I0516 15:18:14.629854  7124 net.cpp:100] Creating Layer conv4_3_norm_mbox_conf_perm
I0516 15:18:14.629861  7124 net.cpp:434] conv4_3_norm_mbox_conf_perm <- conv4_3_norm_mbox_conf
I0516 15:18:14.629868  7124 net.cpp:408] conv4_3_norm_mbox_conf_perm -> conv4_3_norm_mbox_conf_perm
I0516 15:18:14.630003  7124 net.cpp:150] Setting up conv4_3_norm_mbox_conf_perm
I0516 15:18:14.630014  7124 net.cpp:157] Top shape: 16 38 38 8 (184832)
I0516 15:18:14.630018  7124 net.cpp:165] Memory required for data: 3959668768
I0516 15:18:14.630023  7124 layer_factory.hpp:77] Creating layer conv4_3_norm_mbox_conf_flat
I0516 15:18:14.630034  7124 net.cpp:100] Creating Layer conv4_3_norm_mbox_conf_flat
I0516 15:18:14.630039  7124 net.cpp:434] conv4_3_norm_mbox_conf_flat <- conv4_3_norm_mbox_conf_perm
I0516 15:18:14.630048  7124 net.cpp:408] conv4_3_norm_mbox_conf_flat -> conv4_3_norm_mbox_conf_flat
I0516 15:18:14.630074  7124 net.cpp:150] Setting up conv4_3_norm_mbox_conf_flat
I0516 15:18:14.630084  7124 net.cpp:157] Top shape: 16 11552 (184832)
I0516 15:18:14.630125  7124 net.cpp:165] Memory required for data: 3960408096
I0516 15:18:14.630131  7124 layer_factory.hpp:77] Creating layer conv4_3_norm_mbox_priorbox
I0516 15:18:14.630144  7124 net.cpp:100] Creating Layer conv4_3_norm_mbox_priorbox
I0516 15:18:14.630148  7124 net.cpp:434] conv4_3_norm_mbox_priorbox <- conv4_3_norm_conv4_3_norm_0_split_2
I0516 15:18:14.630157  7124 net.cpp:434] conv4_3_norm_mbox_priorbox <- data_data_0_split_1
I0516 15:18:14.630165  7124 net.cpp:408] conv4_3_norm_mbox_priorbox -> conv4_3_norm_mbox_priorbox
I0516 15:18:14.630208  7124 net.cpp:150] Setting up conv4_3_norm_mbox_priorbox
I0516 15:18:14.630216  7124 net.cpp:157] Top shape: 1 2 23104 (46208)
I0516 15:18:14.630220  7124 net.cpp:165] Memory required for data: 3960592928
I0516 15:18:14.630225  7124 layer_factory.hpp:77] Creating layer fc7_mbox_loc
I0516 15:18:14.630242  7124 net.cpp:100] Creating Layer fc7_mbox_loc
I0516 15:18:14.630249  7124 net.cpp:434] fc7_mbox_loc <- fc7_relu7_0_split_1
I0516 15:18:14.630259  7124 net.cpp:408] fc7_mbox_loc -> fc7_mbox_loc
I0516 15:18:14.633565  7124 net.cpp:150] Setting up fc7_mbox_loc
I0516 15:18:14.633584  7124 net.cpp:157] Top shape: 16 24 19 19 (138624)
I0516 15:18:14.633586  7124 net.cpp:165] Memory required for data: 3961147424
I0516 15:18:14.633592  7124 layer_factory.hpp:77] Creating layer fc7_mbox_loc_perm
I0516 15:18:14.633600  7124 net.cpp:100] Creating Layer fc7_mbox_loc_perm
I0516 15:18:14.633605  7124 net.cpp:434] fc7_mbox_loc_perm <- fc7_mbox_loc
I0516 15:18:14.633610  7124 net.cpp:408] fc7_mbox_loc_perm -> fc7_mbox_loc_perm
I0516 15:18:14.633682  7124 net.cpp:150] Setting up fc7_mbox_loc_perm
I0516 15:18:14.633687  7124 net.cpp:157] Top shape: 16 19 19 24 (138624)
I0516 15:18:14.633690  7124 net.cpp:165] Memory required for data: 3961701920
I0516 15:18:14.633692  7124 layer_factory.hpp:77] Creating layer fc7_mbox_loc_flat
I0516 15:18:14.633697  7124 net.cpp:100] Creating Layer fc7_mbox_loc_flat
I0516 15:18:14.633699  7124 net.cpp:434] fc7_mbox_loc_flat <- fc7_mbox_loc_perm
I0516 15:18:14.633703  7124 net.cpp:408] fc7_mbox_loc_flat -> fc7_mbox_loc_flat
I0516 15:18:14.633718  7124 net.cpp:150] Setting up fc7_mbox_loc_flat
I0516 15:18:14.633721  7124 net.cpp:157] Top shape: 16 8664 (138624)
I0516 15:18:14.633724  7124 net.cpp:165] Memory required for data: 3962256416
I0516 15:18:14.633726  7124 layer_factory.hpp:77] Creating layer fc7_mbox_conf
I0516 15:18:14.633733  7124 net.cpp:100] Creating Layer fc7_mbox_conf
I0516 15:18:14.633736  7124 net.cpp:434] fc7_mbox_conf <- fc7_relu7_0_split_2
I0516 15:18:14.633740  7124 net.cpp:408] fc7_mbox_conf -> fc7_mbox_conf
I0516 15:18:14.635468  7124 net.cpp:150] Setting up fc7_mbox_conf
I0516 15:18:14.635481  7124 net.cpp:157] Top shape: 16 12 19 19 (69312)
I0516 15:18:14.635483  7124 net.cpp:165] Memory required for data: 3962533664
I0516 15:18:14.635489  7124 layer_factory.hpp:77] Creating layer fc7_mbox_conf_perm
I0516 15:18:14.635496  7124 net.cpp:100] Creating Layer fc7_mbox_conf_perm
I0516 15:18:14.635499  7124 net.cpp:434] fc7_mbox_conf_perm <- fc7_mbox_conf
I0516 15:18:14.635504  7124 net.cpp:408] fc7_mbox_conf_perm -> fc7_mbox_conf_perm
I0516 15:18:14.635576  7124 net.cpp:150] Setting up fc7_mbox_conf_perm
I0516 15:18:14.635581  7124 net.cpp:157] Top shape: 16 19 19 12 (69312)
I0516 15:18:14.635584  7124 net.cpp:165] Memory required for data: 3962810912
I0516 15:18:14.635586  7124 layer_factory.hpp:77] Creating layer fc7_mbox_conf_flat
I0516 15:18:14.635591  7124 net.cpp:100] Creating Layer fc7_mbox_conf_flat
I0516 15:18:14.635593  7124 net.cpp:434] fc7_mbox_conf_flat <- fc7_mbox_conf_perm
I0516 15:18:14.635597  7124 net.cpp:408] fc7_mbox_conf_flat -> fc7_mbox_conf_flat
I0516 15:18:14.635613  7124 net.cpp:150] Setting up fc7_mbox_conf_flat
I0516 15:18:14.635617  7124 net.cpp:157] Top shape: 16 4332 (69312)
I0516 15:18:14.635620  7124 net.cpp:165] Memory required for data: 3963088160
I0516 15:18:14.635623  7124 layer_factory.hpp:77] Creating layer fc7_mbox_priorbox
I0516 15:18:14.635633  7124 net.cpp:100] Creating Layer fc7_mbox_priorbox
I0516 15:18:14.635653  7124 net.cpp:434] fc7_mbox_priorbox <- fc7_relu7_0_split_3
I0516 15:18:14.635658  7124 net.cpp:434] fc7_mbox_priorbox <- data_data_0_split_2
I0516 15:18:14.635663  7124 net.cpp:408] fc7_mbox_priorbox -> fc7_mbox_priorbox
I0516 15:18:14.635682  7124 net.cpp:150] Setting up fc7_mbox_priorbox
I0516 15:18:14.635686  7124 net.cpp:157] Top shape: 1 2 8664 (17328)
I0516 15:18:14.635689  7124 net.cpp:165] Memory required for data: 3963157472
I0516 15:18:14.635692  7124 layer_factory.hpp:77] Creating layer conv6_2_mbox_loc
I0516 15:18:14.635701  7124 net.cpp:100] Creating Layer conv6_2_mbox_loc
I0516 15:18:14.635704  7124 net.cpp:434] conv6_2_mbox_loc <- conv6_2_conv6_2_relu_0_split_1
I0516 15:18:14.635710  7124 net.cpp:408] conv6_2_mbox_loc -> conv6_2_mbox_loc
I0516 15:18:14.638422  7124 net.cpp:150] Setting up conv6_2_mbox_loc
I0516 15:18:14.638437  7124 net.cpp:157] Top shape: 16 24 10 10 (38400)
I0516 15:18:14.638439  7124 net.cpp:165] Memory required for data: 3963311072
I0516 15:18:14.638445  7124 layer_factory.hpp:77] Creating layer conv6_2_mbox_loc_perm
I0516 15:18:14.638453  7124 net.cpp:100] Creating Layer conv6_2_mbox_loc_perm
I0516 15:18:14.638455  7124 net.cpp:434] conv6_2_mbox_loc_perm <- conv6_2_mbox_loc
I0516 15:18:14.638459  7124 net.cpp:408] conv6_2_mbox_loc_perm -> conv6_2_mbox_loc_perm
I0516 15:18:14.638533  7124 net.cpp:150] Setting up conv6_2_mbox_loc_perm
I0516 15:18:14.638540  7124 net.cpp:157] Top shape: 16 10 10 24 (38400)
I0516 15:18:14.638541  7124 net.cpp:165] Memory required for data: 3963464672
I0516 15:18:14.638545  7124 layer_factory.hpp:77] Creating layer conv6_2_mbox_loc_flat
I0516 15:18:14.638550  7124 net.cpp:100] Creating Layer conv6_2_mbox_loc_flat
I0516 15:18:14.638552  7124 net.cpp:434] conv6_2_mbox_loc_flat <- conv6_2_mbox_loc_perm
I0516 15:18:14.638556  7124 net.cpp:408] conv6_2_mbox_loc_flat -> conv6_2_mbox_loc_flat
I0516 15:18:14.638574  7124 net.cpp:150] Setting up conv6_2_mbox_loc_flat
I0516 15:18:14.638578  7124 net.cpp:157] Top shape: 16 2400 (38400)
I0516 15:18:14.638581  7124 net.cpp:165] Memory required for data: 3963618272
I0516 15:18:14.638582  7124 layer_factory.hpp:77] Creating layer conv6_2_mbox_conf
I0516 15:18:14.638590  7124 net.cpp:100] Creating Layer conv6_2_mbox_conf
I0516 15:18:14.638593  7124 net.cpp:434] conv6_2_mbox_conf <- conv6_2_conv6_2_relu_0_split_2
I0516 15:18:14.638598  7124 net.cpp:408] conv6_2_mbox_conf -> conv6_2_mbox_conf
I0516 15:18:14.639981  7124 net.cpp:150] Setting up conv6_2_mbox_conf
I0516 15:18:14.639994  7124 net.cpp:157] Top shape: 16 12 10 10 (19200)
I0516 15:18:14.639997  7124 net.cpp:165] Memory required for data: 3963695072
I0516 15:18:14.640002  7124 layer_factory.hpp:77] Creating layer conv6_2_mbox_conf_perm
I0516 15:18:14.640009  7124 net.cpp:100] Creating Layer conv6_2_mbox_conf_perm
I0516 15:18:14.640012  7124 net.cpp:434] conv6_2_mbox_conf_perm <- conv6_2_mbox_conf
I0516 15:18:14.640017  7124 net.cpp:408] conv6_2_mbox_conf_perm -> conv6_2_mbox_conf_perm
I0516 15:18:14.640092  7124 net.cpp:150] Setting up conv6_2_mbox_conf_perm
I0516 15:18:14.640099  7124 net.cpp:157] Top shape: 16 10 10 12 (19200)
I0516 15:18:14.640101  7124 net.cpp:165] Memory required for data: 3963771872
I0516 15:18:14.640103  7124 layer_factory.hpp:77] Creating layer conv6_2_mbox_conf_flat
I0516 15:18:14.640107  7124 net.cpp:100] Creating Layer conv6_2_mbox_conf_flat
I0516 15:18:14.640110  7124 net.cpp:434] conv6_2_mbox_conf_flat <- conv6_2_mbox_conf_perm
I0516 15:18:14.640113  7124 net.cpp:408] conv6_2_mbox_conf_flat -> conv6_2_mbox_conf_flat
I0516 15:18:14.640128  7124 net.cpp:150] Setting up conv6_2_mbox_conf_flat
I0516 15:18:14.640131  7124 net.cpp:157] Top shape: 16 1200 (19200)
I0516 15:18:14.640134  7124 net.cpp:165] Memory required for data: 3963848672
I0516 15:18:14.640137  7124 layer_factory.hpp:77] Creating layer conv6_2_mbox_priorbox
I0516 15:18:14.640144  7124 net.cpp:100] Creating Layer conv6_2_mbox_priorbox
I0516 15:18:14.640148  7124 net.cpp:434] conv6_2_mbox_priorbox <- conv6_2_conv6_2_relu_0_split_3
I0516 15:18:14.640168  7124 net.cpp:434] conv6_2_mbox_priorbox <- data_data_0_split_3
I0516 15:18:14.640173  7124 net.cpp:408] conv6_2_mbox_priorbox -> conv6_2_mbox_priorbox
I0516 15:18:14.640193  7124 net.cpp:150] Setting up conv6_2_mbox_priorbox
I0516 15:18:14.640197  7124 net.cpp:157] Top shape: 1 2 2400 (4800)
I0516 15:18:14.640200  7124 net.cpp:165] Memory required for data: 3963867872
I0516 15:18:14.640203  7124 layer_factory.hpp:77] Creating layer conv7_2_mbox_loc
I0516 15:18:14.640211  7124 net.cpp:100] Creating Layer conv7_2_mbox_loc
I0516 15:18:14.640214  7124 net.cpp:434] conv7_2_mbox_loc <- conv7_2_conv7_2_relu_0_split_1
I0516 15:18:14.640218  7124 net.cpp:408] conv7_2_mbox_loc -> conv7_2_mbox_loc
I0516 15:18:14.641710  7124 net.cpp:150] Setting up conv7_2_mbox_loc
I0516 15:18:14.641722  7124 net.cpp:157] Top shape: 16 24 5 5 (9600)
I0516 15:18:14.641724  7124 net.cpp:165] Memory required for data: 3963906272
I0516 15:18:14.641731  7124 layer_factory.hpp:77] Creating layer conv7_2_mbox_loc_perm
I0516 15:18:14.641741  7124 net.cpp:100] Creating Layer conv7_2_mbox_loc_perm
I0516 15:18:14.641743  7124 net.cpp:434] conv7_2_mbox_loc_perm <- conv7_2_mbox_loc
I0516 15:18:14.641749  7124 net.cpp:408] conv7_2_mbox_loc_perm -> conv7_2_mbox_loc_perm
I0516 15:18:14.641827  7124 net.cpp:150] Setting up conv7_2_mbox_loc_perm
I0516 15:18:14.641834  7124 net.cpp:157] Top shape: 16 5 5 24 (9600)
I0516 15:18:14.641835  7124 net.cpp:165] Memory required for data: 3963944672
I0516 15:18:14.641837  7124 layer_factory.hpp:77] Creating layer conv7_2_mbox_loc_flat
I0516 15:18:14.641841  7124 net.cpp:100] Creating Layer conv7_2_mbox_loc_flat
I0516 15:18:14.641844  7124 net.cpp:434] conv7_2_mbox_loc_flat <- conv7_2_mbox_loc_perm
I0516 15:18:14.641849  7124 net.cpp:408] conv7_2_mbox_loc_flat -> conv7_2_mbox_loc_flat
I0516 15:18:14.641863  7124 net.cpp:150] Setting up conv7_2_mbox_loc_flat
I0516 15:18:14.641868  7124 net.cpp:157] Top shape: 16 600 (9600)
I0516 15:18:14.641871  7124 net.cpp:165] Memory required for data: 3963983072
I0516 15:18:14.641875  7124 layer_factory.hpp:77] Creating layer conv7_2_mbox_conf
I0516 15:18:14.641883  7124 net.cpp:100] Creating Layer conv7_2_mbox_conf
I0516 15:18:14.641886  7124 net.cpp:434] conv7_2_mbox_conf <- conv7_2_conv7_2_relu_0_split_2
I0516 15:18:14.641891  7124 net.cpp:408] conv7_2_mbox_conf -> conv7_2_mbox_conf
I0516 15:18:14.643235  7124 net.cpp:150] Setting up conv7_2_mbox_conf
I0516 15:18:14.643249  7124 net.cpp:157] Top shape: 16 12 5 5 (4800)
I0516 15:18:14.643252  7124 net.cpp:165] Memory required for data: 3964002272
I0516 15:18:14.643259  7124 layer_factory.hpp:77] Creating layer conv7_2_mbox_conf_perm
I0516 15:18:14.643266  7124 net.cpp:100] Creating Layer conv7_2_mbox_conf_perm
I0516 15:18:14.643270  7124 net.cpp:434] conv7_2_mbox_conf_perm <- conv7_2_mbox_conf
I0516 15:18:14.643277  7124 net.cpp:408] conv7_2_mbox_conf_perm -> conv7_2_mbox_conf_perm
I0516 15:18:14.643357  7124 net.cpp:150] Setting up conv7_2_mbox_conf_perm
I0516 15:18:14.643362  7124 net.cpp:157] Top shape: 16 5 5 12 (4800)
I0516 15:18:14.643364  7124 net.cpp:165] Memory required for data: 3964021472
I0516 15:18:14.643368  7124 layer_factory.hpp:77] Creating layer conv7_2_mbox_conf_flat
I0516 15:18:14.643375  7124 net.cpp:100] Creating Layer conv7_2_mbox_conf_flat
I0516 15:18:14.643378  7124 net.cpp:434] conv7_2_mbox_conf_flat <- conv7_2_mbox_conf_perm
I0516 15:18:14.643384  7124 net.cpp:408] conv7_2_mbox_conf_flat -> conv7_2_mbox_conf_flat
I0516 15:18:14.643402  7124 net.cpp:150] Setting up conv7_2_mbox_conf_flat
I0516 15:18:14.643407  7124 net.cpp:157] Top shape: 16 300 (4800)
I0516 15:18:14.643409  7124 net.cpp:165] Memory required for data: 3964040672
I0516 15:18:14.643412  7124 layer_factory.hpp:77] Creating layer conv7_2_mbox_priorbox
I0516 15:18:14.643419  7124 net.cpp:100] Creating Layer conv7_2_mbox_priorbox
I0516 15:18:14.643422  7124 net.cpp:434] conv7_2_mbox_priorbox <- conv7_2_conv7_2_relu_0_split_3
I0516 15:18:14.643425  7124 net.cpp:434] conv7_2_mbox_priorbox <- data_data_0_split_4
I0516 15:18:14.643431  7124 net.cpp:408] conv7_2_mbox_priorbox -> conv7_2_mbox_priorbox
I0516 15:18:14.643468  7124 net.cpp:150] Setting up conv7_2_mbox_priorbox
I0516 15:18:14.643474  7124 net.cpp:157] Top shape: 1 2 600 (1200)
I0516 15:18:14.643476  7124 net.cpp:165] Memory required for data: 3964045472
I0516 15:18:14.643479  7124 layer_factory.hpp:77] Creating layer conv8_2_mbox_loc
I0516 15:18:14.643489  7124 net.cpp:100] Creating Layer conv8_2_mbox_loc
I0516 15:18:14.643492  7124 net.cpp:434] conv8_2_mbox_loc <- conv8_2_conv8_2_relu_0_split_1
I0516 15:18:14.643498  7124 net.cpp:408] conv8_2_mbox_loc -> conv8_2_mbox_loc
I0516 15:18:14.645419  7124 net.cpp:150] Setting up conv8_2_mbox_loc
I0516 15:18:14.645437  7124 net.cpp:157] Top shape: 16 16 3 3 (2304)
I0516 15:18:14.645442  7124 net.cpp:165] Memory required for data: 3964054688
I0516 15:18:14.645455  7124 layer_factory.hpp:77] Creating layer conv8_2_mbox_loc_perm
I0516 15:18:14.645464  7124 net.cpp:100] Creating Layer conv8_2_mbox_loc_perm
I0516 15:18:14.645469  7124 net.cpp:434] conv8_2_mbox_loc_perm <- conv8_2_mbox_loc
I0516 15:18:14.645475  7124 net.cpp:408] conv8_2_mbox_loc_perm -> conv8_2_mbox_loc_perm
I0516 15:18:14.645583  7124 net.cpp:150] Setting up conv8_2_mbox_loc_perm
I0516 15:18:14.645589  7124 net.cpp:157] Top shape: 16 3 3 16 (2304)
I0516 15:18:14.645592  7124 net.cpp:165] Memory required for data: 3964063904
I0516 15:18:14.645596  7124 layer_factory.hpp:77] Creating layer conv8_2_mbox_loc_flat
I0516 15:18:14.645603  7124 net.cpp:100] Creating Layer conv8_2_mbox_loc_flat
I0516 15:18:14.645607  7124 net.cpp:434] conv8_2_mbox_loc_flat <- conv8_2_mbox_loc_perm
I0516 15:18:14.645613  7124 net.cpp:408] conv8_2_mbox_loc_flat -> conv8_2_mbox_loc_flat
I0516 15:18:14.645635  7124 net.cpp:150] Setting up conv8_2_mbox_loc_flat
I0516 15:18:14.645639  7124 net.cpp:157] Top shape: 16 144 (2304)
I0516 15:18:14.645643  7124 net.cpp:165] Memory required for data: 3964073120
I0516 15:18:14.645648  7124 layer_factory.hpp:77] Creating layer conv8_2_mbox_conf
I0516 15:18:14.645656  7124 net.cpp:100] Creating Layer conv8_2_mbox_conf
I0516 15:18:14.645660  7124 net.cpp:434] conv8_2_mbox_conf <- conv8_2_conv8_2_relu_0_split_2
I0516 15:18:14.645668  7124 net.cpp:408] conv8_2_mbox_conf -> conv8_2_mbox_conf
I0516 15:18:14.648908  7124 net.cpp:150] Setting up conv8_2_mbox_conf
I0516 15:18:14.648977  7124 net.cpp:157] Top shape: 16 8 3 3 (1152)
I0516 15:18:14.648991  7124 net.cpp:165] Memory required for data: 3964077728
I0516 15:18:14.649010  7124 layer_factory.hpp:77] Creating layer conv8_2_mbox_conf_perm
I0516 15:18:14.649031  7124 net.cpp:100] Creating Layer conv8_2_mbox_conf_perm
I0516 15:18:14.649049  7124 net.cpp:434] conv8_2_mbox_conf_perm <- conv8_2_mbox_conf
I0516 15:18:14.649065  7124 net.cpp:408] conv8_2_mbox_conf_perm -> conv8_2_mbox_conf_perm
I0516 15:18:14.649168  7124 net.cpp:150] Setting up conv8_2_mbox_conf_perm
I0516 15:18:14.649183  7124 net.cpp:157] Top shape: 16 3 3 8 (1152)
I0516 15:18:14.649194  7124 net.cpp:165] Memory required for data: 3964082336
I0516 15:18:14.649206  7124 layer_factory.hpp:77] Creating layer conv8_2_mbox_conf_flat
I0516 15:18:14.649224  7124 net.cpp:100] Creating Layer conv8_2_mbox_conf_flat
I0516 15:18:14.649236  7124 net.cpp:434] conv8_2_mbox_conf_flat <- conv8_2_mbox_conf_perm
I0516 15:18:14.649250  7124 net.cpp:408] conv8_2_mbox_conf_flat -> conv8_2_mbox_conf_flat
I0516 15:18:14.649291  7124 net.cpp:150] Setting up conv8_2_mbox_conf_flat
I0516 15:18:14.649303  7124 net.cpp:157] Top shape: 16 72 (1152)
I0516 15:18:14.649315  7124 net.cpp:165] Memory required for data: 3964086944
I0516 15:18:14.649327  7124 layer_factory.hpp:77] Creating layer conv8_2_mbox_priorbox
I0516 15:18:14.649344  7124 net.cpp:100] Creating Layer conv8_2_mbox_priorbox
I0516 15:18:14.649358  7124 net.cpp:434] conv8_2_mbox_priorbox <- conv8_2_conv8_2_relu_0_split_3
I0516 15:18:14.649370  7124 net.cpp:434] conv8_2_mbox_priorbox <- data_data_0_split_5
I0516 15:18:14.649384  7124 net.cpp:408] conv8_2_mbox_priorbox -> conv8_2_mbox_priorbox
I0516 15:18:14.649428  7124 net.cpp:150] Setting up conv8_2_mbox_priorbox
I0516 15:18:14.649466  7124 net.cpp:157] Top shape: 1 2 144 (288)
I0516 15:18:14.649477  7124 net.cpp:165] Memory required for data: 3964088096
I0516 15:18:14.649490  7124 layer_factory.hpp:77] Creating layer conv9_2_mbox_loc
I0516 15:18:14.649510  7124 net.cpp:100] Creating Layer conv9_2_mbox_loc
I0516 15:18:14.649524  7124 net.cpp:434] conv9_2_mbox_loc <- conv9_2_conv9_2_relu_0_split_0
I0516 15:18:14.649540  7124 net.cpp:408] conv9_2_mbox_loc -> conv9_2_mbox_loc
I0516 15:18:14.651520  7124 net.cpp:150] Setting up conv9_2_mbox_loc
I0516 15:18:14.651562  7124 net.cpp:157] Top shape: 16 16 1 1 (256)
I0516 15:18:14.651577  7124 net.cpp:165] Memory required for data: 3964089120
I0516 15:18:14.651594  7124 layer_factory.hpp:77] Creating layer conv9_2_mbox_loc_perm
I0516 15:18:14.651613  7124 net.cpp:100] Creating Layer conv9_2_mbox_loc_perm
I0516 15:18:14.651628  7124 net.cpp:434] conv9_2_mbox_loc_perm <- conv9_2_mbox_loc
I0516 15:18:14.651640  7124 net.cpp:408] conv9_2_mbox_loc_perm -> conv9_2_mbox_loc_perm
I0516 15:18:14.651741  7124 net.cpp:150] Setting up conv9_2_mbox_loc_perm
I0516 15:18:14.651754  7124 net.cpp:157] Top shape: 16 1 1 16 (256)
I0516 15:18:14.651767  7124 net.cpp:165] Memory required for data: 3964090144
I0516 15:18:14.651780  7124 layer_factory.hpp:77] Creating layer conv9_2_mbox_loc_flat
I0516 15:18:14.651803  7124 net.cpp:100] Creating Layer conv9_2_mbox_loc_flat
I0516 15:18:14.651815  7124 net.cpp:434] conv9_2_mbox_loc_flat <- conv9_2_mbox_loc_perm
I0516 15:18:14.651831  7124 net.cpp:408] conv9_2_mbox_loc_flat -> conv9_2_mbox_loc_flat
I0516 15:18:14.651859  7124 net.cpp:150] Setting up conv9_2_mbox_loc_flat
I0516 15:18:14.651870  7124 net.cpp:157] Top shape: 16 16 (256)
I0516 15:18:14.651880  7124 net.cpp:165] Memory required for data: 3964091168
I0516 15:18:14.651890  7124 layer_factory.hpp:77] Creating layer conv9_2_mbox_conf
I0516 15:18:14.651908  7124 net.cpp:100] Creating Layer conv9_2_mbox_conf
I0516 15:18:14.651918  7124 net.cpp:434] conv9_2_mbox_conf <- conv9_2_conv9_2_relu_0_split_1
I0516 15:18:14.651932  7124 net.cpp:408] conv9_2_mbox_conf -> conv9_2_mbox_conf
I0516 15:18:14.653542  7124 net.cpp:150] Setting up conv9_2_mbox_conf
I0516 15:18:14.653576  7124 net.cpp:157] Top shape: 16 8 1 1 (128)
I0516 15:18:14.653585  7124 net.cpp:165] Memory required for data: 3964091680
I0516 15:18:14.653599  7124 layer_factory.hpp:77] Creating layer conv9_2_mbox_conf_perm
I0516 15:18:14.653614  7124 net.cpp:100] Creating Layer conv9_2_mbox_conf_perm
I0516 15:18:14.653625  7124 net.cpp:434] conv9_2_mbox_conf_perm <- conv9_2_mbox_conf
I0516 15:18:14.653637  7124 net.cpp:408] conv9_2_mbox_conf_perm -> conv9_2_mbox_conf_perm
I0516 15:18:14.653731  7124 net.cpp:150] Setting up conv9_2_mbox_conf_perm
I0516 15:18:14.653744  7124 net.cpp:157] Top shape: 16 1 1 8 (128)
I0516 15:18:14.653756  7124 net.cpp:165] Memory required for data: 3964092192
I0516 15:18:14.653769  7124 layer_factory.hpp:77] Creating layer conv9_2_mbox_conf_flat
I0516 15:18:14.653789  7124 net.cpp:100] Creating Layer conv9_2_mbox_conf_flat
I0516 15:18:14.653800  7124 net.cpp:434] conv9_2_mbox_conf_flat <- conv9_2_mbox_conf_perm
I0516 15:18:14.653812  7124 net.cpp:408] conv9_2_mbox_conf_flat -> conv9_2_mbox_conf_flat
I0516 15:18:14.653841  7124 net.cpp:150] Setting up conv9_2_mbox_conf_flat
I0516 15:18:14.653853  7124 net.cpp:157] Top shape: 16 8 (128)
I0516 15:18:14.653863  7124 net.cpp:165] Memory required for data: 3964092704
I0516 15:18:14.653879  7124 layer_factory.hpp:77] Creating layer conv9_2_mbox_priorbox
I0516 15:18:14.653898  7124 net.cpp:100] Creating Layer conv9_2_mbox_priorbox
I0516 15:18:14.653909  7124 net.cpp:434] conv9_2_mbox_priorbox <- conv9_2_conv9_2_relu_0_split_2
I0516 15:18:14.653920  7124 net.cpp:434] conv9_2_mbox_priorbox <- data_data_0_split_6
I0516 15:18:14.653935  7124 net.cpp:408] conv9_2_mbox_priorbox -> conv9_2_mbox_priorbox
I0516 15:18:14.653976  7124 net.cpp:150] Setting up conv9_2_mbox_priorbox
I0516 15:18:14.653992  7124 net.cpp:157] Top shape: 1 2 16 (32)
I0516 15:18:14.654016  7124 net.cpp:165] Memory required for data: 3964092832
I0516 15:18:14.654042  7124 layer_factory.hpp:77] Creating layer mbox_loc
I0516 15:18:14.654060  7124 net.cpp:100] Creating Layer mbox_loc
I0516 15:18:14.654078  7124 net.cpp:434] mbox_loc <- conv4_3_norm_mbox_loc_flat
I0516 15:18:14.654091  7124 net.cpp:434] mbox_loc <- fc7_mbox_loc_flat
I0516 15:18:14.654105  7124 net.cpp:434] mbox_loc <- conv6_2_mbox_loc_flat
I0516 15:18:14.654120  7124 net.cpp:434] mbox_loc <- conv7_2_mbox_loc_flat
I0516 15:18:14.654131  7124 net.cpp:434] mbox_loc <- conv8_2_mbox_loc_flat
I0516 15:18:14.654146  7124 net.cpp:434] mbox_loc <- conv9_2_mbox_loc_flat
I0516 15:18:14.654160  7124 net.cpp:408] mbox_loc -> mbox_loc
I0516 15:18:14.654203  7124 net.cpp:150] Setting up mbox_loc
I0516 15:18:14.654217  7124 net.cpp:157] Top shape: 16 34928 (558848)
I0516 15:18:14.654232  7124 net.cpp:165] Memory required for data: 3966328224
I0516 15:18:14.654243  7124 layer_factory.hpp:77] Creating layer mbox_conf
I0516 15:18:14.654251  7124 net.cpp:100] Creating Layer mbox_conf
I0516 15:18:14.654255  7124 net.cpp:434] mbox_conf <- conv4_3_norm_mbox_conf_flat
I0516 15:18:14.654260  7124 net.cpp:434] mbox_conf <- fc7_mbox_conf_flat
I0516 15:18:14.654265  7124 net.cpp:434] mbox_conf <- conv6_2_mbox_conf_flat
I0516 15:18:14.654269  7124 net.cpp:434] mbox_conf <- conv7_2_mbox_conf_flat
I0516 15:18:14.654274  7124 net.cpp:434] mbox_conf <- conv8_2_mbox_conf_flat
I0516 15:18:14.654278  7124 net.cpp:434] mbox_conf <- conv9_2_mbox_conf_flat
I0516 15:18:14.654284  7124 net.cpp:408] mbox_conf -> mbox_conf
I0516 15:18:14.654304  7124 net.cpp:150] Setting up mbox_conf
I0516 15:18:14.654309  7124 net.cpp:157] Top shape: 16 17464 (279424)
I0516 15:18:14.654312  7124 net.cpp:165] Memory required for data: 3967445920
I0516 15:18:14.654316  7124 layer_factory.hpp:77] Creating layer mbox_priorbox
I0516 15:18:14.654322  7124 net.cpp:100] Creating Layer mbox_priorbox
I0516 15:18:14.654327  7124 net.cpp:434] mbox_priorbox <- conv4_3_norm_mbox_priorbox
I0516 15:18:14.654331  7124 net.cpp:434] mbox_priorbox <- fc7_mbox_priorbox
I0516 15:18:14.654335  7124 net.cpp:434] mbox_priorbox <- conv6_2_mbox_priorbox
I0516 15:18:14.654340  7124 net.cpp:434] mbox_priorbox <- conv7_2_mbox_priorbox
I0516 15:18:14.654343  7124 net.cpp:434] mbox_priorbox <- conv8_2_mbox_priorbox
I0516 15:18:14.654347  7124 net.cpp:434] mbox_priorbox <- conv9_2_mbox_priorbox
I0516 15:18:14.654352  7124 net.cpp:408] mbox_priorbox -> mbox_priorbox
I0516 15:18:14.654373  7124 net.cpp:150] Setting up mbox_priorbox
I0516 15:18:14.654378  7124 net.cpp:157] Top shape: 1 2 34928 (69856)
I0516 15:18:14.654381  7124 net.cpp:165] Memory required for data: 3967725344
I0516 15:18:14.654386  7124 layer_factory.hpp:77] Creating layer mbox_loss
I0516 15:18:14.654398  7124 net.cpp:100] Creating Layer mbox_loss
I0516 15:18:14.654404  7124 net.cpp:434] mbox_loss <- mbox_loc
I0516 15:18:14.654408  7124 net.cpp:434] mbox_loss <- mbox_conf
I0516 15:18:14.654412  7124 net.cpp:434] mbox_loss <- mbox_priorbox
…
name: "VGG_ccpd_SSD_300x300_test"
state {
  phase: TEST
}
layer {
  name: "data"
  type: "AnnotatedData"
  top: "data"
  top: "label"
  include {
    phase: TEST
  }
  transform_param {
    mean_value: 104
    mean_value: 117
    mean_value: 123
    resize_param {
      prob: 1
      resize_mode: WARP
      height: 300
      width: 300
      interp_mode: LINEAR
    }
  }
  data_param {
    source: "examples/ccpd/ccpd_val_lmdb"
    batch_size: 16
    backend: LMDB
  }
  annotated_data_param {
    batch_sampler {
    }
    label_map_file: "data/ccpd/labelmap_ccpd.prototxt"
  }
}
layer {
  name: "conv1_1"
  type: "Convolution"
  bottom: "data"
  top: "conv1_1"
  param {
    lr_mult: 1
    decay_mult: 1
  }
  param {
    lr_mult: 2
    decay_mult: 0
  }
  convolution_param {
    num_output: 64
    pad: 1
    kernel_size: 3
    weight_filler {
      type: "xavier"
    }
    bias_filler {
      type: "constant"
      value: 0
    }
  }
}
layer {
  name: "relu1_1"
  type: "ReLU"
  bottom: "conv1_1"
  top: "conv1_1"
}
layer {
  name: "conv1_2"
  type: "Convolution"
  bottom: "conv1_1"
  top: "conv1_2"
  param {
    lr_mult: 1
    decay_mult: 1
  }
  param {
    lr_mult: 2
    decay_mult: 0
  }
  convolution_param {
    num_output: 64
    pad: 1
    kernel_size: 3
    weight_filler {
      type: "xavier"
    }
    bias_filler {
      type: "constant"
      value: 0
    }
  }
}
layer {
  name: "relu1_2"
  type: "ReLU"
  bottom: "conv1_2"
  top: "conv1_2"
}
layer {
  name: "pool1"
  type: "Pooling"
  bottom: "conv1_2"
  top: "pool1"
  pooling_param {
    pool: MAX
    kernel_size: 2
    stride: 2
  }
}
layer {
  name: "conv2_1"
  type: "Convolution"
  bottom: "pool1"
  top: "conv2_1"
  param {
    lr_mult: 1
    decay_mult: 1
  }
  param {
    lr_mult: 2
    decay_mult: 0
  }
  convolution_param {
    num_output: 128
    pad: 1
    kernel_size: 3
    weight_filler {
      type: "xavier"
    }
    bias_filler {
      type: "constant"
      value: 0
    }
  }
}
layer {
  name: "relu2_1"
  type: "ReLU"
  bottom: "conv2_1"
  top: "conv2_1"
}
layer {
  name: "conv2_2"
  type: "Convolution"
  bottom: "conv2_1"
  top: "conv2_2"
  param {
    lr_mult: 1
    decay_mult: 1
  }
  param {
    lr_mult: 2
    decay_mult: 0
  }
  convolution_param {
    num_output: 128
    pad: 1
    kernel_size: 3
    weight_filler {
      type: "xavier"
    }
    bias_filler {
      type: "constant"
      value: 0
    }
  }
}
layer {
  name: "relu2_2"
  type: "ReLU"
  bottom: "conv2_2"
  top: "conv2_2"
}
layer {
  name: "pool2"
  type: "Pooling"
  bottom: "conv2_2"
  top: "pool2"
  pooling_param {
    pool: MAX
    kernel_size: 2
    stride: 2
  }
}
layer {
  name: "conv3_1"
  type: "Convolution"
  bottom: "pool2"
  top: "conv3_1"
  param {
    lr_mult: 1
    decay_mult: 1
  }
  param {
    lr_mult: 2
    decay_mult: 0
  }
  convolution_param {
    num_output: 256
    pad: 1
    kernel_size: 3
    weight_filler {
      type: "xavier"
    }
    bias_filler {
      type: "constant"
      value: 0
    }
  }
}
layer {
  name: "relu3_1"
  type: "ReLU"
  bottom: "conv3_1"
  top: "conv3_1"
}
layer {
  name: "conv3_2"
  type: "Convolution"
  bottom: "conv3_1"
  top: "conv3_2"
  param {
    lr_mult: 1
    decay_mult: 1
  }
  param {
    lr_mult: 2
    decay_mult: 0
  }
  convolution_param {
    num_output: 256
    pad: 1
    kernel_size: 3
    weight_filler {
      type: "xavier"
    }
    bias_filler {
      type: "constant"
      value: 0
    }
  }
}
layer {
  name: "relu3_2"
  type: "ReLU"
  bottom: "conv3_2"
  top: "conv3_2"
}
layer {
  name: "conv3_3"
  type: "Convolution"
  bottom: "conv3_2"
  top: "conv3_3"
  param {
    lr_mult: 1
    decay_mult: 1
  }
  param {
    lr_mult: 2
    decay_mult: 0
  }
  convolution_param {
    num_output: 256
    pad: 1
    kernel_size: 3
    weight_filler {
      type: "xavier"
    }
    bias_filler {
      type: "constant"
      value: 0
    }
  }
}
layer {
  name: "relu3_3"
  type: "ReLU"
  bottom: "conv3_3"
  top: "conv3_3"
}
layer {
  name: "pool3"
  type: "Pooling"
  bottom: "conv3_3"
  top: "pool3"
  pooling_param {
    pool: MAX
    kernel_size: 2
    stride: 2
  }
}
layer {
  name: "conv4_1"
  type: "Convolution"
  bottom: "pool3"
  top: "conv4_1"
  param {
    lr_mult: 1
    decay_mult: 1
  }
  param {
    lr_mult: 2
    decay_mult: 0
  }
  convolution_param {
    num_output: 512
    pad: 1
    kernel_size: 3
    weight_filler {
      type: "xavier"
    }
    bias_filler {
      type: "constant"
      value: 0
    }
  }
}
layer {
  name: "relu4_1"
  type: "ReLU"
  bottom: "conv4_1"
  top: "conv4_1"
}
layer {
  name: "conv4_2"
  type: "Convolution"
  bottom: "conv4_1"
  top: "conv4_2"
  param {
    lr_mult: 1
    decay_mult: 1
  }
  param {
    lr_mult: 2
    decay_mult: 0
  }
  convolution_param {
    num_output: 512
    pad: 1
    kernel_size: 3
    weight_filler {
      type: "xavier"
    }
    bias_filler {
      type: "constant"
      value: 0
    }
  }
}
layer {
  name: "relu4_2"
  type: "ReLU"
  bottom: "conv4_2"
  top: "conv4_2"
}
layer {
  name: "conv4_3"
  type: "Convolution"
  bottom: "conv4_2"
  top: "conv4_3"
  param {
    lr_mult: 1
    decay_mult: 1
  }
  param {
    lr_mult: 2
    decay_mult: 0
  }
  convolution_param {
    num_output: 512
    pad: 1
    kernel_size: 3
    weight_filler {
      type: "xavier"
    }
    bias_filler {
      type: "constant"
      value: 0
    }
  }
}
layer {
  name: "relu4_3"
  type: "ReLU"
  bottom: "conv4_3"
  top: "conv4_3"
}
layer {
  name: "pool4"
  type: "Pooling"
  bottom: "conv4_3"
  top: "pool4"
  pooling_param {
    pool: MAX
    kernel_size: 2
    stride: 2
  }
}
layer {
  name: "conv5_1"
  type: "Convolution"
  bottom: "pool4"
  top: "conv5_1"
  param {
    lr_mult: 1
    decay_mult: 1
  }
  param {
    lr_mult: 2
    decay_mult: 0
  }
  convolution_param {
    num_output: 512
    pad: 1
    kernel_size: 3
    weight_filler {
      type: "xavier"
    }
    bias_filler {
      type: "constant"
      value: 0
    }
    dilation: 1
  }
}
layer {
  name: "relu5_1"
  type: "ReLU"
  bottom: "conv5_1"
  top: "conv5_1"
}
layer {
  name: "conv5_2"
  type: "Convolution"
  bottom: "conv5_1"
  top: "conv5_2"
  param {
    lr_mult: 1
    decay_mult: 1
  }
  param {
    lr_mult: 2
    decay_mult: 0
  }
  convolution_param {
    num_output: 512
    pad: 1
    kernel_size: 3
    weight_filler {
      type: "xavier"
    }
    bias_filler {
      type: "constant"
      value: 0
    }
    dilation: 1
  }
}
layer {
  name: "relu5_2"
  type: "ReLU"
  bottom: "conv5_2"
  top: "conv5_2"
}
layer {
  name: "conv5_3"
  type: "Convolution"
  bottom: "conv5_2"
  top: "conv5_3"
  param {
    lr_mult: 1
    decay_mult: 1
  }
  param {
    lr_mult: 2
    decay_mult: 0
  }
  convolution_param {
    num_output: 512
    pad: 1
    kernel_size: 3
    weight_filler {
      type: "xavier"
    }
    bias_filler {
      type: "constant"
      value: 0
    }
    dilation: 1
  }
}
layer {
  name: "relu5_3"
  type: "ReLU"
  bottom: "conv5_3"
  top: "conv5_3"
}
layer {
  name: "pool5"
  type: "Pooling"
  bottom: "conv5_3"
  top: "pool5"
  pooling_param {
    pool: MAX
    kernel_size: 3
    stride: 1
    pad: 1
  }
}
layer {
  name: "fc6"
  type: "Convolution"
  bottom: "pool5"
  top: "fc6"
  param {
    lr_mult: 1
    decay_mult: 1
  }
  param {
    lr_mult: 2
    decay_mult: 0
  }
  convolution_param {
    num_output: 1024
    pad: 6
    kernel_size: 3
    weight_filler {
      type: "xavier"
    }
    bias_filler {
      type: "constant"
      value: 0
    }
    dilation: 6
  }
}
layer {
  name: "relu6"
  type: "ReLU"
  bottom: "fc6"
  top: "fc6"
}
layer {
  name: "fc7"
  type: "Convolution"
  bottom: "fc6"
  top: "fc7"
  param {
    lr_mult: 1
    decay_mult: 1
  }
  param {
    lr_mult: 2
    decay_mult: 0
  }
  convolution_param {
    num_output: 1024
    kernel_size: 1
    weight_filler {
      type: "xavier"
    }
    bias_filler {
      type: "constant"
      value: 0
    }
  }
}
layer {
  name: "relu7"
  type: "ReLU"
  bottom: "fc7"
  top: "fc7"
}
layer {
  name: "conv6_1"
  type: "Convolution"
  bottom: "fc7"
  top: "conv6_1"
  param {
    lr_mult: 1
    decay_mult: 1
  }
  param {
    lr_mult: 2
    decay_mult: 0
  }
  convolution_param {
    num_output: 256
    pad: 0
    kernel_size: 1
    stride: 1
    weight_filler {
      type: "xavier"
    }
    bias_filler {
      type: "constant"
      value: 0
    }
  }
}
layer {
  name: "conv6_1_relu"
  type: "ReLU"
  bottom: "conv6_1"
  top: "conv6_1"
}
layer {
  name: "conv6_2"
  type: "Convolution"
  bottom: "conv6_1"
  top: "conv6_2"
  param {
    lr_mult: 1
    decay_mult: 1
  }
  param {
    lr_mult: 2
    decay_mult: 0
  }
  convolution_param {
    num_output: 512
    pad: 1
    kernel_size: 3
    stride: 2
    weight_filler {
      type: "xavier"
    }
    bias_filler {
      type: "constant"
      value: 0
    }
  }
}
layer {
  name: "conv6_2_relu"
  type: "ReLU"
  bottom: "conv6_2"
  top: "conv6_2"
}
layer {
  name: "conv7_1"
  type: "Convolution"
  bottom: "conv6_2"
  top: "conv7_1"
  param {
    lr_mult: 1
    decay_mult: 1
  }
  param {
    lr_mult: 2
    decay_mult: 0
  }
  convolution_param {
    num_output: 128
    pad: 0
    kernel_size: 1
    stride: 1
    weight_filler {
      type: "xavier"
    }
    bias_filler {
      type: "constant"
      value: 0
    }
  }
}
layer {
  name: "conv7_1_relu"
  type: "ReLU"
  bottom: "conv7_1"
  top: "conv7_1"
}
layer {
  name: "conv7_2"
  type: "Convolution"
  bottom: "conv7_1"
  top: "conv7_2"
  param {
    lr_mult: 1
    decay_mult: 1
  }
  param {
    lr_mult: 2
    decay_mult: 0
  }
  convolution_param {
    num_output: 256
    pad: 1
    kernel_size: 3
    stride: 2
    weight_filler {
      type: "xavier"
    }
    bias_filler {
      type: "constant"
      value: 0
    }
  }
}
layer {
  name: "conv7_2_relu"
  type: "ReLU"
  bottom: "conv7_2"
  top: "conv7_2"
}
layer {
  name: "conv8_1"
  type: "Convolution"
  bottom: "conv7_2"
  top: "conv8_1"
  param {
    lr_mult: 1
    decay_mult: 1
  }
  param {
    lr_mult: 2
    decay_mult: 0
  }
  convolution_param {
    num_output: 128
    pad: 0
    kernel_size: 1
    stride: 1
    weight_filler {
      type: "xavier"
    }
    bias_filler {
      type: "constant"
      value: 0
    }
  }
}
layer {
  name: "conv8_1_relu"
  type: "ReLU"
  bottom: "conv8_1"
  top: "conv8_1"
}
layer {
  name: "conv8_2"
  type: "Convolution"
  bottom: "conv8_1"
  top: "conv8_2"
  param {
    lr_mult: 1
    decay_mult: 1
  }
  param {
    lr_mult: 2
    decay_mult: 0
  }
  convolution_param {
    num_output: 256
    pad: 0
    kernel_size: 3
    stride: 1
    weight_filler {
      type: "xavier"
    }
    bias_filler {
      type: "constant"
      value: 0
    }
  }
}
layer {
  name: "conv8_2_relu"
  type: "ReLU"
  bottom: "conv8_2"
  top: "conv8_2"
}
layer {
  name: "conv9_1"
  type: "Convolution"
  bottom: "conv8_2"
  top: "conv9_1"
  param {
    lr_mult: 1
    decay_mult: 1
  }
  param {
    lr_mult: 2
    decay_mult: 0
  }
  convolution_param {
    num_output: 128
    pad: 0
    kernel_size: 1
    stride: 1
    weight_filler {
      type: "xavier"
    }
    bias_filler {
      type: "constant"
      value: 0
    }
  }
}
layer {
  name: "conv9_1_relu"
  type: "ReLU"
  bottom: "conv9_1"
  top: "conv9_1"
}
layer {
  name: "conv9_2"
  type: "Convolution"
  bottom: "conv9_1"
  top: "conv9_2"
  param {
    lr_mult: 1
    decay_mult: 1
  }
  param {
    lr_mult: 2
    decay_mult: 0
  }
  convolution_param {
    num_output: 256
    pad: 0
    kernel_size: 3
    stride: 1
    weight_filler {
      type: "xavier"
    }
    bias_filler {
      type: "constant"
      value: 0
    }
  }
}
layer {
  name: "conv9_2_relu"
  type: "ReLU"
  bottom: "conv9_2"
  top: "conv9_2"
}
layer {
  name: "conv4_3_norm"
  type: "Normalize"
  bottom: "conv4_3"
  top: "conv4_3_norm"
  norm_param {
    across_spatial: false
    scale_filler {
      type: "constant"
      value: 20
    }
    channel_shared: false
  }
}
layer {
  name: "conv4_3_norm_mbox_loc"
  type: "Convolution"
  bottom: "conv4_3_norm"
  top: "conv4_3_norm_mbox_loc"
  param {
    lr_mult: 1
    decay_mult: 1
  }
  param {
    lr_mult: 2
    decay_mult: 0
  }
  convolution_param {
    num_output: 16
    pad: 1
    kernel_size: 3
    stride: 1
    weight_filler {
      type: "xavier"
    }
    bias_filler {
      type: "constant"
      value: 0
    }
  }
}
layer {
  name: "conv4_3_norm_mbox_loc_perm"
  type: "Permute"
  bottom: "conv4_3_norm_mbox_loc"
  top: "conv4_3_norm_mbox_loc_perm"
  permute_param {
    order: 0
    order: 2
    order: 3
    order: 1
  }
}
layer {
  name: "conv4_3_norm_mbox_loc_flat"
  type: "Flatten"
  bottom: "conv4_3_norm_mbox_loc_perm"
  top: "conv4_3_norm_mbox_loc_flat"
  flatten_param {
    axis: 1
  }
}
layer {
  name: "conv4_3_norm_mbox_conf"
  type: "Convolution"
  bottom: "conv4_3_norm"
  top: "conv4_3_norm_mbox_conf"
  param {
    lr_mult: 1
    decay_mult: 1
  }
  param {
    lr_mult: 2
    decay_mult: 0
  }
  convolution_param {
    num_output: 8
    pad: 1
    kernel_size: 3
    stride: 1
    weight_filler {
      type: "xavier"
    }
    bias_filler {
      type: "constant"
      value: 0
    }
  }
}
layer {
  name: "conv4_3_norm_mbox_conf_perm"
  type: "Permute"
  bottom: "conv4_3_norm_mbox_conf"
  top: "conv4_3_norm_mbox_conf_perm"
  permute_param {
    order: 0
    order: 2
    order: 3
    order: 1
  }
}
layer {
  name: "conv4_3_norm_mbox_conf_flat"
  type: "Flatten"
  bottom: "conv4_3_norm_mbox_conf_perm"
  top: "conv4_3_norm_mbox_conf_flat"
  flatten_param {
    axis: 1
  }
}
layer {
  name: "conv4_3_norm_mbox_priorbox"
  type: "PriorBox"
  bottom: "conv4_3_norm"
  bottom: "data"
  top: "conv4_3_norm_mbox_priorbox"
  prior_box_param {
    min_size: 30
    max_size: 60
    aspect_ratio: 2
    flip: true
    clip: false
    variance: 0.1
    variance: 0.1
    variance: 0.2
    variance: 0.2
    step: 8
    offset: 0.5
  }
}
layer {
  name: "fc7_mbox_loc"
  type: "Convolution"
  bottom: "fc7"
  top: "fc7_mbox_loc"
  param {
    lr_mult: 1
    decay_mult: 1
  }
  param {
    lr_mult: 2
    decay_mult: 0
  }
  convolution_param {
    num_output: 24
    pad: 1
    kernel_size: 3
    stride: 1
    weight_filler {
      type: "xavier"
    }
    bias_filler {
      type: "constant"
      value: 0
    }
  }
}
layer {
  name: "fc7_mbox_loc_perm"
  type: "Permute"
  bottom: "fc7_mbox_loc"
  top: "fc7_mbox_loc_perm"
  permute_param {
    order: 0
    order: 2
    order: 3
    order: 1
  }
}
layer {
  name: "fc7_mbox_loc_flat"
  type: "Flatten"
  bottom: "fc7_mbox_loc_perm"
  top: "fc7_mbox_loc_flat"
  flatten_param {
    axis: 1
  }
}
layer {
  name: "fc7_mbox_conf"
  type: "Convolution"
  bottom: "fc7"
  top: "fc7_mbox_conf"
  param {
    lr_mult: 1
    decay_mult: 1
  }
  param {
    lr_mult: 2
    decay_mult: 0
  }
  convolution_param {
    num_output: 12
    pad: 1
    kernel_size: 3
    stride: 1
    weight_filler {
      type: "xavier"
    }
    bias_filler {
      type: "constant"
      value: 0
    }
  }
}
layer {
  name: "fc7_mbox_conf_perm"
  type: "Permute"
  bottom: "fc7_mbox_conf"
  top: "fc7_mbox_conf_perm"
  permute_param {
    order: 0
    order: 2
    order: 3
    order: 1
  }
}
layer {
  name: "fc7_mbox_conf_flat"
  type: "Flatten"
  bottom: "fc7_mbox_conf_perm"
  top: "fc7_mbox_conf_flat"
  flatten_param {
    axis: 1
  }
}
layer {
  name: "fc7_mbox_priorbox"
  type: "PriorBox"
  bottom: "fc7"
  bottom: "data"
  top: "fc7_mbox_priorbox"
  prior_box_param {
    min_size: 60
    max_size: 111
    aspect_ratio: 2
    aspect_ratio: 3
    flip: true
    clip: false
    variance: 0.1
    variance: 0.1
    variance: 0.2
    variance: 0.2
    step: 16
    offset: 0.5
  }
}
layer {
  name: "conv6_2_mbox_loc"
  type: "Convolution"
  bottom: "conv6_2"
  top: "conv6_2_mbox_loc"
  param {
    lr_mult: 1
    decay_mult: 1
  }
  param {
    lr_mult: 2
    decay_mult: 0
  }
  convolution_param {
    num_output: 24
    pad: 1
    kernel_size: 3
    stride: 1
    weight_filler {
      type: "xavier"
    }
    bias_filler {
      type: "constant"
      value: 0
    }
  }
}
layer {
  name: "conv6_2_mbox_loc_perm"
  type: "Permute"
  bottom: "conv6_2_mbox_loc"
  top: "conv6_2_mbox_loc_perm"
  permute_param {
    order: 0
    order: 2
    order: 3
    order: 1
  }
}
layer {
  name: "conv6_2_mbox_loc_flat"
  type: "Flatten"
  bottom: "conv6_2_mbox_loc_perm"
  top: "conv6_2_mbox_loc_flat"
  flatten_param {
    axis: 1
  }
}
layer {
  name: "conv6_2_mbox_conf"
  type: "Convolution"
  bottom: "conv6_2"
  top: "conv6_2_mbox_conf"
  param {
    lr_mult: 1
    decay_mult: 1
  }
  param {
    lr_mult: 2
    decay_mult: 0
  }
  convolution_param {
    num_output: 12
    pad: 1
    kernel_size: 3
    stride: 1
    weight_filler {
      type: "xavier"
    }
    bias_filler {
      type: "constant"
      value: 0
    }
  }
}
layer {
  name: "conv6_2_mbox_conf_perm"
  type: "Permute"
  bottom: "conv6_2_mbox_conf"
  top: "conv6_2_mbox_conf_perm"
  permute_param {
    order: 0
    order: 2
    order: 3
    order: 1
  }
}
layer {
  name: "conv6_2_mbox_conf_flat"
  type: "Flatten"
  bottom: "conv6_2_mbox_conf_perm"
  top: "conv6_2_mbox_conf_flat"
  flatten_param {
    axis: 1
  }
}
layer {
  name: "conv6_2_mbox_priorbox"
  type: "PriorBox"
  bottom: "conv6_2"
  bottom: "data"
  top: "conv6_2_mbox_priorbox"
  prior_box_param {
    min_size: 111
    max_size: 162
    aspect_ratio: 2
    aspect_ratio: 3
    flip: true
    clip: false
    variance: 0.1
    variance: 0.1
    variance: 0.2
    variance: 0.2
    step: 32
    offset: 0.5
  }
}
layer {
  name: "conv7_2_mbox_loc"
  type: "Convolution"
  bottom: "conv7_2"
  top: "conv7_2_mbox_loc"
  param {
    lr_mult: 1
    decay_mult: 1
  }
  param {
    lr_mult: 2
    decay_mult: 0
  }
  convolution_param {
    num_output: 24
    pad: 1
    kernel_size: 3
    stride: 1
    weight_filler {
      type: "xavier"
    }
    bias_filler {
      type: "constant"
      value: 0
    }
  }
}
layer {
  name: "conv7_2_mbox_loc_perm"
  type: "Permute"
  bottom: "conv7_2_mbox_loc"
  top: "conv7_2_mbox_loc_perm"
  permute_param {
    order: 0
    order: 2
    order: 3
    order: 1
  }
}
layer {
  name: "conv7_2_mbox_loc_flat"
  type: "Flatten"
  bottom: "conv7_2_mbox_loc_perm"
  top: "conv7_2_mbox_loc_flat"
  flatten_param {
    axis: 1
  }
}
layer {
  name: "conv7_2_mbox_conf"
  type: "Convolution"
  bottom: "conv7_2"
  top: "conv7_2_mbox_conf"
  param {
    lr_mult: 1
    decay_mult: 1
  }
  param {
    lr_mult: 2
    decay_mult: 0
  }
  convolution_param {
    num_output: 12
    pad: 1
    kernel_size: 3
    stride: 1
    weight_filler {
      type: "xavier"
    }
    bias_filler {
      type: "constant"
      value: 0
    }
  }
}
layer {
  name: "conv7_2_mbox_conf_perm"
  type: "Permute"
  bottom: "conv7_2_mbox_conf"
  top: "conv7_2_mbox_conf_perm"
  permute_param {
    order: 0
    order: 2
    order: 3
    order: 1
  }
}
layer {
  name: "conv7_2_mbox_conf_flat"
  type: "Flatten"
  bottom: "conv7_2_mbox_conf_perm"
  top: "conv7_2_mbox_conf_flat"
  flatten_param {
    axis: 1
  }
}
layer {
  name: "conv7_2_mbox_priorbox"
  type: "PriorBox"
  bottom: "conv7_2"
  bottom: "data"
  top: "conv7_2_mbox_priorbox"
  prior_box_param {
    min_size: 162
    max_size: 213
    aspect_ratio: 2
    aspect_ratio: 3
    flip: true
    clip: false
    variance: 0.1
    variance: 0.1
    variance: 0.2
    variance: 0.2
    step: 64
    offset: 0.5
  }
}
layer {
  name: "conv8_2_mbox_loc"
  type: "Convolution"
  bottom: "conv8_2"
  top: "conv8_2_mbox_loc"
  param {
    lr_mult: 1
    decay_mult: 1
  }
  param {
    lr_mult: 2
    decay_mult: 0
  }
  convolution_param {
    num_output: 16
    pad: 1
    kernel_size: 3
    stride: 1
    weight_filler {
      type: "xavier"
    }
    bias_filler {
      type: "constant"
      value: 0
    }
  }
}
layer {
  name: "conv8_2_mbox_loc_perm"
  type: "Permute"
  bottom: "conv8_2_mbox_loc"
  top: "conv8_2_mbox_loc_perm"
  permute_param {
    order: 0
    order: 2
    order: 3
    order: 1
  }
}
layer {
  name: "conv8_2_mbox_loc_flat"
  type: "Flatten"
  bottom: "conv8_2_mbox_loc_perm"
  top: "conv8_2_mbox_loc_flat"
  flatten_param {
    axis: 1
  }
}
layer {
  name: "conv8_2_mbox_conf"
  type: "Convolution"
  bottom: "conv8_2"
  top: "conv8_2_mbox_conf"
  param {
    lr_mult: 1
    decay_mult: 1
  }
  param {
    lr_mult: 2
    decay_mult: 0
  }
  convolution_param {
    num_output: 8
    pad: 1
    kernel_size: 3
    stride: 1
    weight_filler {
      type: "xavier"
    }
    bias_filler {
      type: "constant"
      value: 0
    }
  }
}
layer {
  name: "conv8_2_mbox_conf_perm"
  type: "Permute"
  bottom: "conv8_2_mbox_conf"
  top: "conv8_2_mbox_conf_perm"
  permute_param {
    order: 0
    order: 2
    order: 3
    order: 1
  }
}
layer {
  name: "conv8_2_mbox_conf_flat"
  type: "Flatten"
  bottom: "conv8_2_mbox_conf_perm"
  top: "conv8_2_mbox_conf_flat"
  flatten_param {
    axis: 1
  }
}
layer {
  name: "conv8_2_mbox_priorbox"
  type: "PriorBox"
  bottom: "conv8_2"
  bottom: "data"
  top: "conv8_2_mbox_priorbox"
  prior_box_param {
    min_size: 213
    max_size: 264
    aspect_ratio: 2
    flip: true
    clip: false
    variance: 0.1
    variance: 0.1
    variance: 0.2
    variance: 0.2
    step: 100
    offset: 0.5
  }
}
layer {
  name: "conv9_2_mbox_loc"
  type: "Convolution"
  bottom: "conv9_2"
  top: "conv9_2_mbox_loc"
  param {
    lr_mult: 1
    decay_mult: 1
  }
  param {
    lr_mult: 2
    decay_mult: 0
  }
  convolution_param {
    num_output: 16
    pad: 1
    kernel_size: 3
    stride: 1
    weight_filler {
      type: "xavier"
    }
    bias_filler {
      type: "constant"
      value: 0
    }
  }
}
layer {
  name: "conv9_2_mbox_loc_perm"
  type: "Permute"
  bottom: "conv9_2_mbox_loc"
  top: "conv9_2_mbox_loc_perm"
  permute_param {
    order: 0
    order: 2
    order: 3
    order: 1
  }
}
layer {
  name: "conv9_2_mbox_loc_flat"
  type: "Flatten"
  bottom: "conv9_2_mbox_loc_perm"
  top: "conv9_2_mbox_loc_flat"
  flatten_param {
    axis: 1
  }
}
layer {
  name: "conv9_2_mbox_conf"
  type: "Convolution"
  bottom: "conv9_2"
  top: "conv9_2_mbox_conf"
  param {
    lr_mult: 1
    decay_mult: 1
  }
  param {
    lr_mult: 2
    decay_mult: 0
  }
  convolution_param {
    num_output: 8
    pad: 1
    kernel_size: 3
    stride: 1
    weight_filler {
      type: "xavier"
    }
    bias_filler {
      type: "constant"
      value: 0
    }
  }
}
layer {
  name: "conv9_2_mbox_conf_perm"
  type: "Permute"
  bottom: "conv9_2_mbox_conf"
  top: "conv9_2_mbox_conf_perm"
  permute_param {
    order: 0
    order: 2
    order: 3
    order: 1
  }
}
layer {
  name: "conv9_2_mbox_conf_flat"
  type: "Flatten"
  bottom: "conv9_2_mbox_conf_perm"
  top: "conv9_2_mbox_conf_flat"
  flatten_param {
    axis: 1
  }
}
layer {
  name: "conv9_2_mbox_priorbox"
  type: "PriorBox"
  bottom: "conv9_2"
  bottom: "data"
  top: "conv9_2_mbox_priorbox"
  prior_box_param {
    min_size: 264
    max_size: 315
    aspect_ratio: 2
    flip: true
    clip: false
    variance: 0.1
    variance: 0.1
    variance: 0.2
    variance: 0.2
    step: 300
    offset: 0.5
  }
}
layer {
  name: "mbox_loc"
  type: "Concat"
  bottom: "conv4_3_norm_mbox_loc_flat"
  bottom: "fc7_mbox_loc_flat"
  bottom: "conv6_2_mbox_loc_flat"
  bottom: "conv7_2_mbox_loc_flat"
  bottom: "conv8_2_mbox_loc_flat"
  bottom: "conv9_2_mbox_loc_flat"
  top: "mbox_loc"
  concat_param {
    axis: 1
  }
}
layer {
  name: "mbox_conf"
  type: "Concat"
  bottom: "conv4_3_norm_mbox_conf_flat"
  bottom: "fc7_mbox_conf_flat"
  bottom: "conv6_2_mbox_conf_flat"
  bottom: "conv7_2_mbox_conf_flat"
  bottom: "conv8_2_mbox_conf_flat"
  bottom: "conv9_2_mbox_conf_flat"
  top: "mbox_conf"
  concat_param {
    axis: 1
  }
}
layer {
  name: "mbox_priorbox"
  type: "Concat"
  bottom: "conv4_3_norm_mbox_priorbox"
  bottom: "fc7_mbox_priorbox"
  bottom: "conv6_2_mbox_priorbox"
  bottom: "conv7_2_mbox_priorbox"
  bottom: "conv8_2_mbox_priorbox"
  bottom: "conv9_2_mbox_priorbox"
  top: "mbox_priorbox"
  concat_param {
    axis: 2
  }
}
layer {
  name: "mbox_conf_reshape"
  type: "Reshape"
  bottom: "mbox_conf"
  top: "mbox_conf_reshape"
  reshape_param {
    shape {
      dim: 0
      dim: -1
      dim: 2
    }
  }
}
layer {
  name: "mbox_conf_softmax"
  type: "Softmax"
  bottom: "mbox_conf_reshape"
  top: "mbox_conf_softmax"
  softmax_param {
    axis: 2
  }
}
layer {
  name: "mbox_conf_flatten"
  type: "Flatten"
  bottom: "mbox_conf_softmax"
  top: "mbox_conf_flatten"
  flatten_param {
    axis: 1
  }
}
layer {
  name: "detection_out"
  type: "DetectionOutput"
  bottom: "mbox_loc"
  bottom: "mbox_conf_flatten"
  bottom: "mbox_priorbox"
  top: "detection_out"
  include {
    phase: TEST
  }
  detection_output_param {
    num_classes: 2
    share_location: true
    background_label_id: 0
    nms_param {
      nms_threshold: 0.45
      top_k: 400
    }
    save_output_param {
      output_directory: "/home/zhuyipin/DATASET/ccpd/SSD_300x300/Main"
      output_name_prefix: "comp4_det_test_"
      output_format: "VOC"
      label_map_file: "data/ccpd/labelmap_ccpd.prototxt"
      name_size_file: "data/ccpd/test_name_size.txt"
      num_test_image: 319
    }
    code_type: CENTER_SIZE
    keep_top_k: 200
    confidence_threshold: 0.01
  }
}
layer {
  name: "detection_eval"
  type: "DetectionEvaluate"
  bottom: "detection_out"
  bottom: "label"
  top: "detection_eval"
  include {
    phase: TEST
  }
  detection_evaluate_param {
    num_classes: 2
    background_label_id: 0
    overlap_threshold: 0.5
    evaluate_difficult_gt: false
    name_size_file: "data/ccpd/test_name_size.txt"
  }
}
I0516 15:18:14.659240  7124 layer_factory.hpp:77] Creating layer data
I0516 15:18:14.659451  7124 net.cpp:100] Creating Layer data
I0516 15:18:14.659461  7124 net.cpp:408] data -> data
I0516 15:18:14.659472  7124 net.cpp:408] data -> label
I0516 15:18:14.660275  7147 db_lmdb.cpp:35] Opened lmdb examples/ccpd/ccpd_val_lmdb
I0516 15:18:14.669493  7124 annotated_data_layer.cpp:62] output data size: 16,3,300,300
I0516 15:18:14.690457  7124 net.cpp:150] Setting up data
I0516 15:18:14.690485  7124 net.cpp:157] Top shape: 16 3 300 300 (4320000)
I0516 15:18:14.690490  7124 net.cpp:157] Top shape: 1 1 1 8 (8)
I0516 15:18:14.690492  7124 net.cpp:165] Memory required for data: 17280032
I0516 15:18:14.690500  7124 layer_factory.hpp:77] Creating layer data_data_0_split
I0516 15:18:14.690513  7124 net.cpp:100] Creating Layer data_data_0_split
I0516 15:18:14.690517  7124 net.cpp:434] data_data_0_split <- data
I0516 15:18:14.690524  7124 net.cpp:408] data_data_0_split -> data_data_0_split_0
I0516 15:18:14.690536  7124 net.cpp:408] data_data_0_split -> data_data_0_split_1
I0516 15:18:14.690541  7124 net.cpp:408] data_data_0_split -> data_data_0_split_2
I0516 15:18:14.690546  7124 net.cpp:408] data_data_0_split -> data_data_0_split_3
I0516 15:18:14.690549  7124 net.cpp:408] data_data_0_split -> data_data_0_split_4
I0516 15:18:14.690553  7124 net.cpp:408] data_data_0_split -> data_data_0_split_5
I0516 15:18:14.690557  7124 net.cpp:408] data_data_0_split -> data_data_0_split_6
I0516 15:18:14.690723  7124 net.cpp:150] Setting up data_data_0_split
I0516 15:18:14.690733  7124 net.cpp:157] Top shape: 16 3 300 300 (4320000)
I0516 15:18:14.690738  7124 net.cpp:157] Top shape: 16 3 300 300 (4320000)
I0516 15:18:14.690742  7124 net.cpp:157] Top shape: 16 3 300 300 (4320000)
I0516 15:18:14.690747  7124 net.cpp:157] Top shape: 16 3 300 300 (4320000)
I0516 15:18:14.690750  7124 net.cpp:157] Top shape: 16 3 300 300 (4320000)
I0516 15:18:14.690753  7124 net.cpp:157] Top shape: 16 3 300 300 (4320000)
I0516 15:18:14.690757  7124 net.cpp:157] Top shape: 16 3 300 300 (4320000)
I0516 15:18:14.690760  7124 net.cpp:165] Memory required for data: 138240032
I0516 15:18:14.690764  7124 layer_factory.hpp:77] Creating layer conv1_1
I0516 15:18:14.690804  7124 net.cpp:100] Creating Layer conv1_1
I0516 15:18:14.690809  7124 net.cpp:434] conv1_1 <- data_data_0_split_0
I0516 15:18:14.690814  7124 net.cpp:408] conv1_1 -> conv1_1
I0516 15:18:14.692692  7124 net.cpp:150] Setting up conv1_1
I0516 15:18:14.692714  7124 net.cpp:157] Top shape: 16 64 300 300 (92160000)
I0516 15:18:14.692718  7124 net.cpp:165] Memory required for data: 506880032
I0516 15:18:14.692731  7124 layer_factory.hpp:77] Creating layer relu1_1
I0516 15:18:14.692740  7124 net.cpp:100] Creating Layer relu1_1
I0516 15:18:14.692744  7124 net.cpp:434] relu1_1 <- conv1_1
I0516 15:18:14.692750  7124 net.cpp:395] relu1_1 -> conv1_1 (in-place)
I0516 15:18:14.694314  7124 net.cpp:150] Setting up relu1_1
I0516 15:18:14.694360  7124 net.cpp:157] Top shape: 16 64 300 300 (92160000)
I0516 15:18:14.694372  7124 net.cpp:165] Memory required for data: 875520032
I0516 15:18:14.694387  7124 layer_factory.hpp:77] Creating layer conv1_2
I0516 15:18:14.694411  7124 net.cpp:100] Creating Layer conv1_2
I0516 15:18:14.694424  7124 net.cpp:434] conv1_2 <- conv1_1
I0516 15:18:14.694442  7124 net.cpp:408] conv1_2 -> conv1_2
I0516 15:18:14.697278  7124 net.cpp:150] Setting up conv1_2
I0516 15:18:14.697296  7124 net.cpp:157] Top shape: 16 64 300 300 (92160000)
I0516 15:18:14.697299  7124 net.cpp:165] Memory required for data: 1244160032
I0516 15:18:14.697310  7124 layer_factory.hpp:77] Creating layer relu1_2
I0516 15:18:14.697319  7124 net.cpp:100] Creating Layer relu1_2
I0516 15:18:14.697321  7124 net.cpp:434] relu1_2 <- conv1_2
I0516 15:18:14.697329  7124 net.cpp:395] relu1_2 -> conv1_2 (in-place)
I0516 15:18:14.697571  7124 net.cpp:150] Setting up relu1_2
I0516 15:18:14.697577  7124 net.cpp:157] Top shape: 16 64 300 300 (92160000)
I0516 15:18:14.697580  7124 net.cpp:165] Memory required for data: 1612800032
I0516 15:18:14.697584  7124 layer_factory.hpp:77] Creating layer pool1
I0516 15:18:14.697592  7124 net.cpp:100] Creating Layer pool1
I0516 15:18:14.697597  7124 net.cpp:434] pool1 <- conv1_2
I0516 15:18:14.697602  7124 net.cpp:408] pool1 -> pool1
I0516 15:18:14.697639  7124 net.cpp:150] Setting up pool1
I0516 15:18:14.697644  7124 net.cpp:157] Top shape: 16 64 150 150 (23040000)
I0516 15:18:14.697648  7124 net.cpp:165] Memory required for data: 1704960032
I0516 15:18:14.697651  7124 layer_factory.hpp:77] Creating layer conv2_1
I0516 15:18:14.697661  7124 net.cpp:100] Creating Layer conv2_1
I0516 15:18:14.697665  7124 net.cpp:434] conv2_1 <- pool1
I0516 15:18:14.697670  7124 net.cpp:408] conv2_1 -> conv2_1
I0516 15:18:14.699270  7124 net.cpp:150] Setting up conv2_1
I0516 15:18:14.699285  7124 net.cpp:157] Top shape: 16 128 150 150 (46080000)
I0516 15:18:14.699288  7124 net.cpp:165] Memory required for data: 1889280032
I0516 15:18:14.699297  7124 layer_factory.hpp:77] Creating layer relu2_1
I0516 15:18:14.699309  7124 net.cpp:100] Creating Layer relu2_1
I0516 15:18:14.699314  7124 net.cpp:434] relu2_1 <- conv2_1
I0516 15:18:14.699319  7124 net.cpp:395] relu2_1 -> conv2_1 (in-place)
I0516 15:18:14.699710  7124 net.cpp:150] Setting up relu2_1
I0516 15:18:14.699723  7124 net.cpp:157] Top shape: 16 128 150 150 (46080000)
I0516 15:18:14.699728  7124 net.cpp:165] Memory required for data: 2073600032
I0516 15:18:14.699731  7124 layer_factory.hpp:77] Creating layer conv2_2
I0516 15:18:14.699743  7124 net.cpp:100] Creating Layer conv2_2
I0516 15:18:14.699748  7124 net.cpp:434] conv2_2 <- conv2_1
I0516 15:18:14.699753  7124 net.cpp:408] conv2_2 -> conv2_2
I0516 15:18:14.702673  7124 net.cpp:150] Setting up conv2_2
I0516 15:18:14.702690  7124 net.cpp:157] Top shape: 16 128 150 150 (46080000)
I0516 15:18:14.702693  7124 net.cpp:165] Memory required for data: 2257920032
I0516 15:18:14.702699  7124 layer_factory.hpp:77] Creating layer relu2_2
I0516 15:18:14.702705  7124 net.cpp:100] Creating Layer relu2_2
I0516 15:18:14.702708  7124 net.cpp:434] relu2_2 <- conv2_2
I0516 15:18:14.702713  7124 net.cpp:395] relu2_2 -> conv2_2 (in-place)
I0516 15:18:14.703089  7124 net.cpp:150] Setting up relu2_2
I0516 15:18:14.703099  7124 net.cpp:157] Top shape: 16 128 150 150 (46080000)
I0516 15:18:14.703119  7124 net.cpp:165] Memory required for data: 2442240032
I0516 15:18:14.703122  7124 layer_factory.hpp:77] Creating layer pool2
I0516 15:18:14.703130  7124 net.cpp:100] Creating Layer pool2
I0516 15:18:14.703132  7124 net.cpp:434] pool2 <- conv2_2
I0516 15:18:14.703136  7124 net.cpp:408] pool2 -> pool2
I0516 15:18:14.703171  7124 net.cpp:150] Setting up pool2
I0516 15:18:14.703176  7124 net.cpp:157] Top shape: 16 128 75 75 (11520000)
I0516 15:18:14.703178  7124 net.cpp:165] Memory required for data: 2488320032
I0516 15:18:14.703181  7124 layer_factory.hpp:77] Creating layer conv3_1
I0516 15:18:14.703188  7124 net.cpp:100] Creating Layer conv3_1
I0516 15:18:14.703191  7124 net.cpp:434] conv3_1 <- pool2
I0516 15:18:14.703195  7124 net.cpp:408] conv3_1 -> conv3_1
I0516 15:18:14.707306  7124 net.cpp:150] Setting up conv3_1
I0516 15:18:14.707324  7124 net.cpp:157] Top shape: 16 256 75 75 (23040000)
I0516 15:18:14.707325  7124 net.cpp:165] Memory required for data: 2580480032
I0516 15:18:14.707334  7124 layer_factory.hpp:77] Creating layer relu3_1
I0516 15:18:14.707340  7124 net.cpp:100] Creating Layer relu3_1
I0516 15:18:14.707345  7124 net.cpp:434] relu3_1 <- conv3_1
I0516 15:18:14.707348  7124 net.cpp:395] relu3_1 -> conv3_1 (in-place)
I0516 15:18:14.707623  7124 net.cpp:150] Setting up relu3_1
I0516 15:18:14.707631  7124 net.cpp:157] Top shape: 16 256 75 75 (23040000)
I0516 15:18:14.707633  7124 net.cpp:165] Memory required for data: 2672640032
I0516 15:18:14.707636  7124 layer_factory.hpp:77] Creating layer conv3_2
I0516 15:18:14.707648  7124 net.cpp:100] Creating Layer conv3_2
I0516 15:18:14.707650  7124 net.cpp:434] conv3_2 <- conv3_1
I0516 15:18:14.707655  7124 net.cpp:408] conv3_2 -> conv3_2
I0516 15:18:14.713807  7124 net.cpp:150] Setting up conv3_2
I0516 15:18:14.713834  7124 net.cpp:157] Top shape: 16 256 75 75 (23040000)
I0516 15:18:14.713836  7124 net.cpp:165] Memory required for data: 2764800032
I0516 15:18:14.713845  7124 layer_factory.hpp:77] Creating layer relu3_2
I0516 15:18:14.713857  7124 net.cpp:100] Creating Layer relu3_2
I0516 15:18:14.713863  7124 net.cpp:434] relu3_2 <- conv3_2
I0516 15:18:14.713871  7124 net.cpp:395] relu3_2 -> conv3_2 (in-place)
I0516 15:18:14.714287  7124 net.cpp:150] Setting up relu3_2
I0516 15:18:14.714298  7124 net.cpp:157] Top shape: 16 256 75 75 (23040000)
I0516 15:18:14.714300  7124 net.cpp:165] Memory required for data: 2856960032
I0516 15:18:14.714304  7124 layer_factory.hpp:77] Creating layer conv3_3
I0516 15:18:14.714318  7124 net.cpp:100] Creating Layer conv3_3
I0516 15:18:14.714321  7124 net.cpp:434] conv3_3 <- conv3_2
I0516 15:18:14.714327  7124 net.cpp:408] conv3_3 -> conv3_3
I0516 15:18:14.720299  7124 net.cpp:150] Setting up conv3_3
I0516 15:18:14.720319  7124 net.cpp:157] Top shape: 16 256 75 75 (23040000)
I0516 15:18:14.720322  7124 net.cpp:165] Memory required for data: 2949120032
I0516 15:18:14.720329  7124 layer_factory.hpp:77] Creating layer relu3_3
I0516 15:18:14.720338  7124 net.cpp:100] Creating Layer relu3_3
I0516 15:18:14.720343  7124 net.cpp:434] relu3_3 <- conv3_3
I0516 15:18:14.720350  7124 net.cpp:395] relu3_3 -> conv3_3 (in-place)
I0516 15:18:14.720631  7124 net.cpp:150] Setting up relu3_3
I0516 15:18:14.720639  7124 net.cpp:157] Top shape: 16 256 75 75 (23040000)
I0516 15:18:14.720643  7124 net.cpp:165] Memory required for data: 3041280032
I0516 15:18:14.720645  7124 layer_factory.hpp:77] Creating layer pool3
I0516 15:18:14.720654  7124 net.cpp:100] Creating Layer pool3
I0516 15:18:14.720656  7124 net.cpp:434] pool3 <- conv3_3
I0516 15:18:14.720660  7124 net.cpp:408] pool3 -> pool3
I0516 15:18:14.720696  7124 net.cpp:150] Setting up pool3
I0516 15:18:14.720701  7124 net.cpp:157] Top shape: 16 256 38 38 (5914624)
I0516 15:18:14.720705  7124 net.cpp:165] Memory required for data: 3064938528
I0516 15:18:14.720706  7124 layer_factory.hpp:77] Creating layer conv4_1
I0516 15:18:14.720715  7124 net.cpp:100] Creating Layer conv4_1
I0516 15:18:14.720718  7124 net.cpp:434] conv4_1 <- pool3
I0516 15:18:14.720744  7124 net.cpp:408] conv4_1 -> conv4_1
I0516 15:18:14.729158  7124 net.cpp:150] Setting up conv4_1
I0516 15:18:14.729183  7124 net.cpp:157] Top shape: 16 512 38 38 (11829248)
I0516 15:18:14.729187  7124 net.cpp:165] Memory required for data: 3112255520
I0516 15:18:14.729195  7124 layer_factory.hpp:77] Creating layer relu4_1
I0516 15:18:14.729204  7124 net.cpp:100] Creating Layer relu4_1
I0516 15:18:14.729208  7124 net.cpp:434] relu4_1 <- conv4_1
I0516 15:18:14.729223  7124 net.cpp:395] relu4_1 -> conv4_1 (in-place)
I0516 15:18:14.729749  7124 net.cpp:150] Setting up relu4_1
I0516 15:18:14.729764  7124 net.cpp:157] Top shape: 16 512 38 38 (11829248)
I0516 15:18:14.729768  7124 net.cpp:165] Memory required for data: 3159572512
I0516 15:18:14.729773  7124 layer_factory.hpp:77] Creating layer conv4_2
I0516 15:18:14.729786  7124 net.cpp:100] Creating Layer conv4_2
I0516 15:18:14.729790  7124 net.cpp:434] conv4_2 <- conv4_1
I0516 15:18:14.729799  7124 net.cpp:408] conv4_2 -> conv4_2
I0516 15:18:14.745784  7124 net.cpp:150] Setting up conv4_2
I0516 15:18:14.745807  7124 net.cpp:157] Top shape: 16 512 38 38 (11829248)
I0516 15:18:14.745810  7124 net.cpp:165] Memory required for data: 3206889504
I0516 15:18:14.745820  7124 layer_factory.hpp:77] Creating layer relu4_2
I0516 15:18:14.745828  7124 net.cpp:100] Creating Layer relu4_2
I0516 15:18:14.745832  7124 net.cpp:434] relu4_2 <- conv4_2
I0516 15:18:14.745838  7124 net.cpp:395] relu4_2 -> conv4_2 (in-place)
I0516 15:18:14.746117  7124 net.cpp:150] Setting up relu4_2
I0516 15:18:14.746124  7124 net.cpp:157] Top shape: 16 512 38 38 (11829248)
I0516 15:18:14.746126  7124 net.cpp:165] Memory required for data: 3254206496
I0516 15:18:14.746129  7124 layer_factory.hpp:77] Creating layer conv4_3
I0516 15:18:14.746138  7124 net.cpp:100] Creating Layer conv4_3
I0516 15:18:14.746141  7124 net.cpp:434] conv4_3 <- conv4_2
I0516 15:18:14.746145  7124 net.cpp:408] conv4_3 -> conv4_3
I0516 15:18:14.760643  7124 net.cpp:150] Setting up conv4_3
I0516 15:18:14.760671  7124 net.cpp:157] Top shape: 16 512 38 38 (11829248)
I0516 15:18:14.760674  7124 net.cpp:165] Memory required for data: 3301523488
I0516 15:18:14.760682  7124 layer_factory.hpp:77] Creating layer relu4_3
I0516 15:18:14.760694  7124 net.cpp:100] Creating Layer relu4_3
I0516 15:18:14.760697  7124 net.cpp:434] relu4_3 <- conv4_3
I0516 15:18:14.760702  7124 net.cpp:395] relu4_3 -> conv4_3 (in-place)
I0516 15:18:14.761221  7124 net.cpp:150] Setting up relu4_3
I0516 15:18:14.761234  7124 net.cpp:157] Top shape: 16 512 38 38 (11829248)
I0516 15:18:14.761236  7124 net.cpp:165] Memory required for data: 3348840480
I0516 15:18:14.761240  7124 layer_factory.hpp:77] Creating layer conv4_3_relu4_3_0_split
I0516 15:18:14.761245  7124 net.cpp:100] Creating Layer conv4_3_relu4_3_0_split
I0516 15:18:14.761250  7124 net.cpp:434] conv4_3_relu4_3_0_split <- conv4_3
I0516 15:18:14.761255  7124 net.cpp:408] conv4_3_relu4_3_0_split -> conv4_3_relu4_3_0_split_0
I0516 15:18:14.761261  7124 net.cpp:408] conv4_3_relu4_3_0_split -> conv4_3_relu4_3_0_split_1
I0516 15:18:14.761297  7124 net.cpp:150] Setting up conv4_3_relu4_3_0_split
I0516 15:18:14.761302  7124 net.cpp:157] Top shape: 16 512 38 38 (11829248)
I0516 15:18:14.761306  7124 net.cpp:157] Top shape: 16 512 38 38 (11829248)
I0516 15:18:14.761308  7124 net.cpp:165] Memory required for data: 3443474464
I0516 15:18:14.761312  7124 layer_factory.hpp:77] Creating layer pool4
I0516 15:18:14.761317  7124 net.cpp:100] Creating Layer pool4
I0516 15:18:14.761319  7124 net.cpp:434] pool4 <- conv4_3_relu4_3_0_split_0
I0516 15:18:14.761325  7124 net.cpp:408] pool4 -> pool4
I0516 15:18:14.761353  7124 net.cpp:150] Setting up pool4
I0516 15:18:14.761356  7124 net.cpp:157] Top shape: 16 512 19 19 (2957312)
I0516 15:18:14.761358  7124 net.cpp:165] Memory required for data: 3455303712
I0516 15:18:14.761361  7124 layer_factory.hpp:77] Creating layer conv5_1
I0516 15:18:14.761373  7124 net.cpp:100] Creating Layer conv5_1
I0516 15:18:14.761375  7124 net.cpp:434] conv5_1 <- pool4
I0516 15:18:14.761380  7124 net.cpp:408] conv5_1 -> conv5_1
I0516 15:18:14.776262  7124 net.cpp:150] Setting up conv5_1
I0516 15:18:14.776298  7124 net.cpp:157] Top shape: 16 512 19 19 (2957312)
I0516 15:18:14.776300  7124 net.cpp:165] Memory required for data: 3467132960
I0516 15:18:14.776310  7124 layer_factory.hpp:77] Creating layer relu5_1
I0516 15:18:14.776322  7124 net.cpp:100] Creating Layer relu5_1
I0516 15:18:14.776329  7124 net.cpp:434] relu5_1 <- conv5_1
I0516 15:18:14.776335  7124 net.cpp:395] relu5_1 -> conv5_1 (in-place)
I0516 15:18:14.776652  7124 net.cpp:150] Setting up relu5_1
I0516 15:18:14.776664  7124 net.cpp:157] Top shape: 16 512 19 19 (2957312)
I0516 15:18:14.776666  7124 net.cpp:165] Memory required for data: 3478962208
I0516 15:18:14.776670  7124 layer_factory.hpp:77] Creating layer conv5_2
I0516 15:18:14.776690  7124 net.cpp:100] Creating Layer conv5_2
I0516 15:18:14.776695  7124 net.cpp:434] conv5_2 <- conv5_1
I0516 15:18:14.776701  7124 net.cpp:408] conv5_2 -> conv5_2
I0516 15:18:14.790338  7124 net.cpp:150] Setting up conv5_2
I0516 15:18:14.790365  7124 net.cpp:157] Top shape: 16 512 19 19 (2957312)
I0516 15:18:14.790369  7124 net.cpp:165] Memory required for data: 3490791456
I0516 15:18:14.790379  7124 layer_factory.hpp:77] Creating layer relu5_2
I0516 15:18:14.790390  7124 net.cpp:100] Creating Layer relu5_2
I0516 15:18:14.790395  7124 net.cpp:434] relu5_2 <- conv5_2
I0516 15:18:14.790401  7124 net.cpp:395] relu5_2 -> conv5_2 (in-place)
I0516 15:18:14.790827  7124 net.cpp:150] Setting up relu5_2
I0516 15:18:14.790838  7124 net.cpp:157] Top shape: 16 512 19 19 (2957312)
I0516 15:18:14.790841  7124 net.cpp:165] Memory required for data: 3502620704
I0516 15:18:14.790845  7124 layer_factory.hpp:77] Creating layer conv5_3
I0516 15:18:14.790859  7124 net.cpp:100] Creating Layer conv5_3
I0516 15:18:14.790863  7124 net.cpp:434] conv5_3 <- conv5_2
I0516 15:18:14.790870  7124 net.cpp:408] conv5_3 -> conv5_3
I0516 15:18:14.805282  7124 net.cpp:150] Setting up conv5_3
I0516 15:18:14.805322  7124 net.cpp:157] Top shape: 16 512 19 19 (2957312)
I0516 15:18:14.805325  7124 net.cpp:165] Memory required for data: 3514449952
I0516 15:18:14.805337  7124 layer_factory.hpp:77] Creating layer relu5_3
I0516 15:18:14.805359  7124 net.cpp:100] Creating Layer relu5_3
I0516 15:18:14.805366  7124 net.cpp:434] relu5_3 <- conv5_3
I0516 15:18:14.805374  7124 net.cpp:395] relu5_3 -> conv5_3 (in-place)
I0516 15:18:14.805902  7124 net.cpp:150] Setting up relu5_3
I0516 15:18:14.805915  7124 net.cpp:157] Top shape: 16 512 19 19 (2957312)
I0516 15:18:14.805918  7124 net.cpp:165] Memory required for data: 3526279200
I0516 15:18:14.805923  7124 layer_factory.hpp:77] Creating layer pool5
I0516 15:18:14.805933  7124 net.cpp:100] Creating Layer pool5
I0516 15:18:14.805938  7124 net.cpp:434] pool5 <- conv5_3
I0516 15:18:14.805944  7124 net.cpp:408] pool5 -> pool5
I0516 15:18:14.805994  7124 net.cpp:150] Setting up pool5
I0516 15:18:14.806000  7124 net.cpp:157] Top shape: 16 512 19 19 (2957312)
I0516 15:18:14.806004  7124 net.cpp:165] Memory required for data: 3538108448
I0516 15:18:14.806007  7124 layer_factory.hpp:77] Creating layer fc6
I0516 15:18:14.806021  7124 net.cpp:100] Creating Layer fc6
I0516 15:18:14.806025  7124 net.cpp:434] fc6 <- pool5
I0516 15:18:14.806030  7124 net.cpp:408] fc6 -> fc6
I0516 15:18:14.830323  7124 net.cpp:150] Setting up fc6
I0516 15:18:14.830353  7124 net.cpp:157] Top shape: 16 1024 19 19 (5914624)
I0516 15:18:14.830355  7124 net.cpp:165] Memory required for data: 3561766944
I0516 15:18:14.830364  7124 layer_factory.hpp:77] Creating layer relu6
I0516 15:18:14.830375  7124 net.cpp:100] Creating Layer relu6
I0516 15:18:14.830380  7124 net.cpp:434] relu6 <- fc6
I0516 15:18:14.830387  7124 net.cpp:395] relu6 -> fc6 (in-place)
I0516 15:18:14.830946  7124 net.cpp:150] Setting up relu6
I0516 15:18:14.830961  7124 net.cpp:157] Top shape: 16 1024 19 19 (5914624)
I0516 15:18:14.830965  7124 net.cpp:165] Memory required for data: 3585425440
I0516 15:18:14.830969  7124 layer_factory.hpp:77] Creating layer fc7
I0516 15:18:14.830983  7124 net.cpp:100] Creating Layer fc7
I0516 15:18:14.830999  7124 net.cpp:434] fc7 <- fc6
I0516 15:18:14.831007  7124 net.cpp:408] fc7 -> fc7
I0516 15:18:14.837551  7124 net.cpp:150] Setting up fc7
I0516 15:18:14.837577  7124 net.cpp:157] Top shape: 16 1024 19 19 (5914624)
I0516 15:18:14.837580  7124 net.cpp:165] Memory required for data: 3609083936
I0516 15:18:14.837589  7124 layer_factory.hpp:77] Creating layer relu7
I0516 15:18:14.837599  7124 net.cpp:100] Creating Layer relu7
I0516 15:18:14.837604  7124 net.cpp:434] relu7 <- fc7
I0516 15:18:14.837615  7124 net.cpp:395] relu7 -> fc7 (in-place)
I0516 15:18:14.839229  7124 net.cpp:150] Setting up relu7
I0516 15:18:14.839249  7124 net.cpp:157] Top shape: 16 1024 19 19 (5914624)
I0516 15:18:14.839252  7124 net.cpp:165] Memory required for data: 3632742432
I0516 15:18:14.839257  7124 layer_factory.hpp:77] Creating layer fc7_relu7_0_split
I0516 15:18:14.839268  7124 net.cpp:100] Creating Layer fc7_relu7_0_split
I0516 15:18:14.839273  7124 net.cpp:434] fc7_relu7_0_split <- fc7
I0516 15:18:14.839282  7124 net.cpp:408] fc7_relu7_0_split -> fc7_relu7_0_split_0
I0516 15:18:14.839293  7124 net.cpp:408] fc7_relu7_0_split -> fc7_relu7_0_split_1
I0516 15:18:14.839303  7124 net.cpp:408] fc7_relu7_0_split -> fc7_relu7_0_split_2
I0516 15:18:14.839310  7124 net.cpp:408] fc7_relu7_0_split -> fc7_relu7_0_split_3
I0516 15:18:14.839368  7124 net.cpp:150] Setting up fc7_relu7_0_split
I0516 15:18:14.839375  7124 net.cpp:157] Top shape: 16 1024 19 19 (5914624)
I0516 15:18:14.839380  7124 net.cpp:157] Top shape: 16 1024 19 19 (5914624)
I0516 15:18:14.839383  7124 net.cpp:157] Top shape: 16 1024 19 19 (5914624)
I0516 15:18:14.839387  7124 net.cpp:157] Top shape: 16 1024 19 19 (5914624)
I0516 15:18:14.839390  7124 net.cpp:165] Memory required for data: 3727376416
I0516 15:18:14.839395  7124 layer_factory.hpp:77] Creating layer conv6_1
I0516 15:18:14.839406  7124 net.cpp:100] Creating Layer conv6_1
I0516 15:18:14.839411  7124 net.cpp:434] conv6_1 <- fc7_relu7_0_split_0
I0516 15:18:14.839418  7124 net.cpp:408] conv6_1 -> conv6_1
I0516 15:18:14.842705  7124 net.cpp:150] Setting up conv6_1
I0516 15:18:14.842730  7124 net.cpp:157] Top shape: 16 256 19 19 (1478656)
I0516 15:18:14.842734  7124 net.cpp:165] Memory required for data: 3733291040
I0516 15:18:14.842744  7124 layer_factory.hpp:77] Creating layer conv6_1_relu
I0516 15:18:14.842754  7124 net.cpp:100] Creating Layer conv6_1_relu
I0516 15:18:14.842759  7124 net.cpp:434] conv6_1_relu <- conv6_1
I0516 15:18:14.842767  7124 net.cpp:395] conv6_1_relu -> conv6_1 (in-place)
I0516 15:18:14.843161  7124 net.cpp:150] Setting up conv6_1_relu
I0516 15:18:14.843173  7124 net.cpp:157] Top shape: 16 256 19 19 (1478656)
I0516 15:18:14.843178  7124 net.cpp:165] Memory required for data: 3739205664
I0516 15:18:14.843181  7124 layer_factory.hpp:77] Creating layer conv6_2
I0516 15:18:14.843195  7124 net.cpp:100] Creating Layer conv6_2
I0516 15:18:14.843199  7124 net.cpp:434] conv6_2 <- conv6_1
I0516 15:18:14.843209  7124 net.cpp:408] conv6_2 -> conv6_2
I0516 15:18:14.855208  7124 net.cpp:150] Setting up conv6_2
I0516 15:18:14.855235  7124 net.cpp:157] Top shape: 16 512 10 10 (819200)
I0516 15:18:14.855239  7124 net.cpp:165] Memory required for data: 3742482464
I0516 15:18:14.855253  7124 layer_factory.hpp:77] Creating layer conv6_2_relu
I0516 15:18:14.855265  7124 net.cpp:100] Creating Layer conv6_2_relu
I0516 15:18:14.855271  7124 net.cpp:434] conv6_2_relu <- conv6_2
I0516 15:18:14.855283  7124 net.cpp:395] conv6_2_relu -> conv6_2 (in-place)
I0516 15:18:14.855865  7124 net.cpp:150] Setting up conv6_2_relu
I0516 15:18:14.855883  7124 net.cpp:157] Top shape: 16 512 10 10 (819200)
I0516 15:18:14.855886  7124 net.cpp:165] Memory required for data: 3745759264
I0516 15:18:14.855891  7124 layer_factory.hpp:77] Creating layer conv6_2_conv6_2_relu_0_split
I0516 15:18:14.855901  7124 net.cpp:100] Creating Layer conv6_2_conv6_2_relu_0_split
I0516 15:18:14.855906  7124 net.cpp:434] conv6_2_conv6_2_relu_0_split <- conv6_2
I0516 15:18:14.855912  7124 net.cpp:408] conv6_2_conv6_2_relu_0_split -> conv6_2_conv6_2_relu_0_split_0
I0516 15:18:14.855944  7124 net.cpp:408] conv6_2_conv6_2_relu_0_split -> conv6_2_conv6_2_relu_0_split_1
I0516 15:18:14.855952  7124 net.cpp:408] conv6_2_conv6_2_relu_0_split -> conv6_2_conv6_2_relu_0_split_2
I0516 15:18:14.855957  7124 net.cpp:408] conv6_2_conv6_2_relu_0_split -> conv6_2_conv6_2_relu_0_split_3
I0516 15:18:14.856032  7124 net.cpp:150] Setting up conv6_2_conv6_2_relu_0_split
I0516 15:18:14.856039  7124 net.cpp:157] Top shape: 16 512 10 10 (819200)
I0516 15:18:14.856042  7124 net.cpp:157] Top shape: 16 512 10 10 (819200)
I0516 15:18:14.856046  7124 net.cpp:157] Top shape: 16 512 10 10 (819200)
I0516 15:18:14.856050  7124 net.cpp:157] Top shape: 16 512 10 10 (819200)
I0516 15:18:14.856053  7124 net.cpp:165] Memory required for data: 3758866464
I0516 15:18:14.856057  7124 layer_factory.hpp:77] Creating layer conv7_1
I0516 15:18:14.856070  7124 net.cpp:100] Creating Layer conv7_1
I0516 15:18:14.856075  7124 net.cpp:434] conv7_1 <- conv6_2_conv6_2_relu_0_split_0
I0516 15:18:14.856081  7124 net.cpp:408] conv7_1 -> conv7_1
I0516 15:18:14.858620  7124 net.cpp:150] Setting up conv7_1
I0516 15:18:14.858645  7124 net.cpp:157] Top shape: 16 128 10 10 (204800)
I0516 15:18:14.858649  7124 net.cpp:165] Memory required for data: 3759685664
I0516 15:18:14.858661  7124 layer_factory.hpp:77] Creating layer conv7_1_relu
I0516 15:18:14.858673  7124 net.cpp:100] Creating Layer conv7_1_relu
I0516 15:18:14.858680  7124 net.cpp:434] conv7_1_relu <- conv7_1
I0516 15:18:14.858688  7124 net.cpp:395] conv7_1_relu -> conv7_1 (in-place)
I0516 15:18:14.859040  7124 net.cpp:150] Setting up conv7_1_relu
I0516 15:18:14.859051  7124 net.cpp:157] Top shape: 16 128 10 10 (204800)
I0516 15:18:14.859055  7124 net.cpp:165] Memory required for data: 3760504864
I0516 15:18:14.859059  7124 layer_factory.hpp:77] Creating layer conv7_2
I0516 15:18:14.859073  7124 net.cpp:100] Creating Layer conv7_2
I0516 15:18:14.859078  7124 net.cpp:434] conv7_2 <- conv7_1
I0516 15:18:14.859086  7124 net.cpp:408] conv7_2 -> conv7_2
I0516 15:18:14.865010  7124 net.cpp:150] Setting up conv7_2
I0516 15:18:14.865036  7124 net.cpp:157] Top shape: 16 256 5 5 (102400)
I0516 15:18:14.865039  7124 net.cpp:165] Memory required for data: 3760914464
I0516 15:18:14.865048  7124 layer_factory.hpp:77] Creating layer conv7_2_relu
I0516 15:18:14.865059  7124 net.cpp:100] Creating Layer conv7_2_relu
I0516 15:18:14.865065  7124 net.cpp:434] conv7_2_relu <- conv7_2
I0516 15:18:14.865072  7124 net.cpp:395] conv7_2_relu -> conv7_2 (in-place)
I0516 15:18:14.865473  7124 net.cpp:150] Setting up conv7_2_relu
I0516 15:18:14.865484  7124 net.cpp:157] Top shape: 16 256 5 5 (102400)
I0516 15:18:14.865487  7124 net.cpp:165] Memory required for data: 3761324064
I0516 15:18:14.865491  7124 layer_factory.hpp:77] Creating layer conv7_2_conv7_2_relu_0_split
I0516 15:18:14.865499  7124 net.cpp:100] Creating Layer conv7_2_conv7_2_relu_0_split
I0516 15:18:14.865504  7124 net.cpp:434] conv7_2_conv7_2_relu_0_split <- conv7_2
I0516 15:18:14.865510  7124 net.cpp:408] conv7_2_conv7_2_relu_0_split -> conv7_2_conv7_2_relu_0_split_0
I0516 15:18:14.865520  7124 net.cpp:408] conv7_2_conv7_2_relu_0_split -> conv7_2_conv7_2_relu_0_split_1
I0516 15:18:14.865526  7124 net.cpp:408] conv7_2_conv7_2_relu_0_split -> conv7_2_conv7_2_relu_0_split_2
I0516 15:18:14.865533  7124 net.cpp:408] conv7_2_conv7_2_relu_0_split -> conv7_2_conv7_2_relu_0_split_3
I0516 15:18:14.865590  7124 net.cpp:150] Setting up conv7_2_conv7_2_relu_0_split
I0516 15:18:14.865595  7124 net.cpp:157] Top shape: 16 256 5 5 (102400)
I0516 15:18:14.865600  7124 net.cpp:157] Top shape: 16 256 5 5 (102400)
I0516 15:18:14.865604  7124 net.cpp:157] Top shape: 16 256 5 5 (102400)
I0516 15:18:14.865609  7124 net.cpp:157] Top shape: 16 256 5 5 (102400)
I0516 15:18:14.865612  7124 net.cpp:165] Memory required for data: 3762962464
I0516 15:18:14.865617  7124 layer_factory.hpp:77] Creating layer conv8_1
I0516 15:18:14.865628  7124 net.cpp:100] Creating Layer conv8_1
I0516 15:18:14.865633  7124 net.cpp:434] conv8_1 <- conv7_2_conv7_2_relu_0_split_0
I0516 15:18:14.865651  7124 net.cpp:408] conv8_1 -> conv8_1
I0516 15:18:14.866995  7124 net.cpp:150] Setting up conv8_1
I0516 15:18:14.867010  7124 net.cpp:157] Top shape: 16 128 5 5 (51200)
I0516 15:18:14.867013  7124 net.cpp:165] Memory required for data: 3763167264
I0516 15:18:14.867022  7124 layer_factory.hpp:77] Creating layer conv8_1_relu
I0516 15:18:14.867028  7124 net.cpp:100] Creating Layer conv8_1_relu
I0516 15:18:14.867034  7124 net.cpp:434] conv8_1_relu <- conv8_1
I0516 15:18:14.867040  7124 net.cpp:395] conv8_1_relu -> conv8_1 (in-place)
I0516 15:18:14.867311  7124 net.cpp:150] Setting up conv8_1_relu
I0516 15:18:14.867317  7124 net.cpp:157] Top shape: 16 128 5 5 (51200)
I0516 15:18:14.867321  7124 net.cpp:165] Memory required for data: 3763372064
I0516 15:18:14.867324  7124 layer_factory.hpp:77] Creating layer conv8_2
I0516 15:18:14.867338  7124 net.cpp:100] Creating Layer conv8_2
I0516 15:18:14.867342  7124 net.cpp:434] conv8_2 <- conv8_1
I0516 15:18:14.867349  7124 net.cpp:408] conv8_2 -> conv8_2
I0516 15:18:14.870687  7124 net.cpp:150] Setting up conv8_2
I0516 15:18:14.870707  7124 net.cpp:157] Top shape: 16 256 3 3 (36864)
I0516 15:18:14.870710  7124 net.cpp:165] Memory required for data: 3763519520
I0516 15:18:14.870720  7124 layer_factory.hpp:77] Creating layer conv8_2_relu
I0516 15:18:14.870728  7124 net.cpp:100] Creating Layer conv8_2_relu
I0516 15:18:14.870733  7124 net.cpp:434] conv8_2_relu <- conv8_2
I0516 15:18:14.870739  7124 net.cpp:395] conv8_2_relu -> conv8_2 (in-place)
I0516 15:18:14.871492  7124 net.cpp:150] Setting up conv8_2_relu
I0516 15:18:14.871507  7124 net.cpp:157] Top shape: 16 256 3 3 (36864)
I0516 15:18:14.871510  7124 net.cpp:165] Memory required for data: 3763666976
I0516 15:18:14.871515  7124 layer_factory.hpp:77] Creating layer conv8_2_conv8_2_relu_0_split
I0516 15:18:14.871524  7124 net.cpp:100] Creating Layer conv8_2_conv8_2_relu_0_split
I0516 15:18:14.871529  7124 net.cpp:434] conv8_2_conv8_2_relu_0_split <- conv8_2
I0516 15:18:14.871536  7124 net.cpp:408] conv8_2_conv8_2_relu_0_split -> conv8_2_conv8_2_relu_0_split_0
I0516 15:18:14.871543  7124 net.cpp:408] conv8_2_conv8_2_relu_0_split -> conv8_2_conv8_2_relu_0_split_1
I0516 15:18:14.871551  7124 net.cpp:408] conv8_2_conv8_2_relu_0_split -> conv8_2_conv8_2_relu_0_split_2
I0516 15:18:14.871557  7124 net.cpp:408] conv8_2_conv8_2_relu_0_split -> conv8_2_conv8_2_relu_0_split_3
I0516 15:18:14.871625  7124 net.cpp:150] Setting up conv8_2_conv8_2_relu_0_split
I0516 15:18:14.871632  7124 net.cpp:157] Top shape: 16 256 3 3 (36864)
I0516 15:18:14.871636  7124 net.cpp:157] Top shape: 16 256 3 3 (36864)
I0516 15:18:14.871641  7124 net.cpp:157] Top shape: 16 256 3 3 (36864)
I0516 15:18:14.871645  7124 net.cpp:157] Top shape: 16 256 3 3 (36864)
I0516 15:18:14.871649  7124 net.cpp:165] Memory required for data: 3764256800
I0516 15:18:14.871652  7124 layer_factory.hpp:77] Creating layer conv9_1
I0516 15:18:14.871665  7124 net.cpp:100] Creating Layer conv9_1
I0516 15:18:14.871668  7124 net.cpp:434] conv9_1 <- conv8_2_conv8_2_relu_0_split_0
I0516 15:18:14.871675  7124 net.cpp:408] conv9_1 -> conv9_1
I0516 15:18:14.875687  7124 net.cpp:150] Setting up conv9_1
I0516 15:18:14.875715  7124 net.cpp:157] Top shape: 16 128 3 3 (18432)
I0516 15:18:14.875717  7124 net.cpp:165] Memory required for data: 3764330528
I0516 15:18:14.875725  7124 layer_factory.hpp:77] Creating layer conv9_1_relu
I0516 15:18:14.875735  7124 net.cpp:100] Creating Layer conv9_1_relu
I0516 15:18:14.875737  7124 net.cpp:434] conv9_1_relu <- conv9_1
I0516 15:18:14.875743  7124 net.cpp:395] conv9_1_relu -> conv9_1 (in-place)
I0516 15:18:14.876287  7124 net.cpp:150] Setting up conv9_1_relu
I0516 15:18:14.876302  7124 net.cpp:157] Top shape: 16 128 3 3 (18432)
I0516 15:18:14.876304  7124 net.cpp:165] Memory required for data: 3764404256
I0516 15:18:14.876308  7124 layer_factory.hpp:77] Creating layer conv9_2
I0516 15:18:14.876322  7124 net.cpp:100] Creating Layer conv9_2
I0516 15:18:14.876325  7124 net.cpp:434] conv9_2 <- conv9_1
I0516 15:18:14.876333  7124 net.cpp:408] conv9_2 -> conv9_2
I0516 15:18:14.880853  7124 net.cpp:150] Setting up conv9_2
I0516 15:18:14.880872  7124 net.cpp:157] Top shape: 16 256 1 1 (4096)
I0516 15:18:14.880874  7124 net.cpp:165] Memory required for data: 3764420640
I0516 15:18:14.880882  7124 layer_factory.hpp:77] Creating layer conv9_2_relu
I0516 15:18:14.880888  7124 net.cpp:100] Creating Layer conv9_2_relu
I0516 15:18:14.880892  7124 net.cpp:434] conv9_2_relu <- conv9_2
I0516 15:18:14.880897  7124 net.cpp:395] conv9_2_relu -> conv9_2 (in-place)
I0516 15:18:14.881219  7124 net.cpp:150] Setting up conv9_2_relu
I0516 15:18:14.881232  7124 net.cpp:157] Top shape: 16 256 1 1 (4096)
I0516 15:18:14.881233  7124 net.cpp:165] Memory required for data: 3764437024
I0516 15:18:14.881237  7124 layer_factory.hpp:77] Creating layer conv9_2_conv9_2_relu_0_split
I0516 15:18:14.881244  7124 net.cpp:100] Creating Layer conv9_2_conv9_2_relu_0_split
I0516 15:18:14.881248  7124 net.cpp:434] conv9_2_conv9_2_relu_0_split <- conv9_2
I0516 15:18:14.881256  7124 net.cpp:408] conv9_2_conv9_2_relu_0_split -> conv9_2_conv9_2_relu_0_split_0
I0516 15:18:14.881264  7124 net.cpp:408] conv9_2_conv9_2_relu_0_split -> conv9_2_conv9_2_relu_0_split_1
I0516 15:18:14.881270  7124 net.cpp:408] conv9_2_conv9_2_relu_0_split -> conv9_2_conv9_2_relu_0_split_2
I0516 15:18:14.881327  7124 net.cpp:150] Setting up conv9_2_conv9_2_relu_0_split
I0516 15:18:14.881335  7124 net.cpp:157] Top shape: 16 256 1 1 (4096)
I0516 15:18:14.881340  7124 net.cpp:157] Top shape: 16 256 1 1 (4096)
I0516 15:18:14.881342  7124 net.cpp:157] Top shape: 16 256 1 1 (4096)
I0516 15:18:14.881345  7124 net.cpp:165] Memory required for data: 3764486176
I0516 15:18:14.881347  7124 layer_factory.hpp:77] Creating layer conv4_3_norm
I0516 15:18:14.881356  7124 net.cpp:100] Creating Layer conv4_3_norm
I0516 15:18:14.881359  7124 net.cpp:434] conv4_3_norm <- conv4_3_relu4_3_0_split_1
I0516 15:18:14.881366  7124 net.cpp:408] conv4_3_norm -> conv4_3_norm
I0516 15:18:14.881500  7124 net.cpp:150] Setting up conv4_3_norm
I0516 15:18:14.881508  7124 net.cpp:157] Top shape: 16 512 38 38 (11829248)
I0516 15:18:14.881512  7124 net.cpp:165] Memory required for data: 3811803168
I0516 15:18:14.881518  7124 layer_factory.hpp:77] Creating layer conv4_3_norm_conv4_3_norm_0_split
I0516 15:18:14.881525  7124 net.cpp:100] Creating Layer conv4_3_norm_conv4_3_norm_0_split
I0516 15:18:14.881527  7124 net.cpp:434] conv4_3_norm_conv4_3_norm_0_split <- conv4_3_norm
I0516 15:18:14.881532  7124 net.cpp:408] conv4_3_norm_conv4_3_norm_0_split -> conv4_3_norm_conv4_3_norm_0_split_0
I0516 15:18:14.881539  7124 net.cpp:408] conv4_3_norm_conv4_3_norm_0_split -> conv4_3_norm_conv4_3_norm_0_split_1
I0516 15:18:14.881546  7124 net.cpp:408] conv4_3_norm_conv4_3_norm_0_split -> conv4_3_norm_conv4_3_norm_0_split_2
I0516 15:18:14.881583  7124 net.cpp:150] Setting up conv4_3_norm_conv4_3_norm_0_split
I0516 15:18:14.881590  7124 net.cpp:157] Top shape: 16 512 38 38 (11829248)
I0516 15:18:14.881595  7124 net.cpp:157] Top shape: 16 512 38 38 (11829248)
I0516 15:18:14.881599  7124 net.cpp:157] Top shape: 16 512 38 38 (11829248)
I0516 15:18:14.881601  7124 net.cpp:165] Memory required for data: 3953754144
I0516 15:18:14.881604  7124 layer_factory.hpp:77] Creating layer conv4_3_norm_mbox_loc
I0516 15:18:14.881616  7124 net.cpp:100] Creating Layer conv4_3_norm_mbox_loc
I0516 15:18:14.881620  7124 net.cpp:434] conv4_3_norm_mbox_loc <- conv4_3_norm_conv4_3_norm_0_split_0
I0516 15:18:14.881625  7124 net.cpp:408] conv4_3_norm_mbox_loc -> conv4_3_norm_mbox_loc
I0516 15:18:14.883481  7124 net.cpp:150] Setting up conv4_3_norm_mbox_loc
I0516 15:18:14.883496  7124 net.cpp:157] Top shape: 16 16 38 38 (369664)
I0516 15:18:14.883497  7124 net.cpp:165] Memory required for data: 3955232800
I0516 15:18:14.883503  7124 layer_factory.hpp:77] Creating layer conv4_3_norm_mbox_loc_perm
I0516 15:18:14.883512  7124 net.cpp:100] Creating Layer conv4_3_norm_mbox_loc_perm
I0516 15:18:14.883515  7124 net.cpp:434] conv4_3_norm_mbox_loc_perm <- conv4_3_norm_mbox_loc
I0516 15:18:14.883520  7124 net.cpp:408] conv4_3_norm_mbox_loc_perm -> conv4_3_norm_mbox_loc_perm
I0516 15:18:14.883620  7124 net.cpp:150] Setting up conv4_3_norm_mbox_loc_perm
I0516 15:18:14.883637  7124 net.cpp:157] Top shape: 16 38 38 16 (369664)
I0516 15:18:14.883641  7124 net.cpp:165] Memory required for data: 3956711456
I0516 15:18:14.883642  7124 layer_factory.hpp:77] Creating layer conv4_3_norm_mbox_loc_flat
I0516 15:18:14.883648  7124 net.cpp:100] Creating Layer conv4_3_norm_mbox_loc_flat
I0516 15:18:14.883651  7124 net.cpp:434] conv4_3_norm_mbox_loc_flat <- conv4_3_norm_mbox_loc_perm
I0516 15:18:14.883656  7124 net.cpp:408] conv4_3_norm_mbox_loc_flat -> conv4_3_norm_mbox_loc_flat
I0516 15:18:14.883679  7124 net.cpp:150] Setting up conv4_3_norm_mbox_loc_flat
I0516 15:18:14.883685  7124 net.cpp:157] Top shape: 16 23104 (369664)
I0516 15:18:14.883688  7124 net.cpp:165] Memory required for data: 3958190112
I0516 15:18:14.883692  7124 layer_factory.hpp:77] Creating layer conv4_3_norm_mbox_conf
I0516 15:18:14.883705  7124 net.cpp:100] Creating Layer conv4_3_norm_mbox_conf
I0516 15:18:14.883709  7124 net.cpp:434] conv4_3_norm_mbox_conf <- conv4_3_norm_conv4_3_norm_0_split_1
I0516 15:18:14.883715  7124 net.cpp:408] conv4_3_norm_mbox_conf -> conv4_3_norm_mbox_conf
I0516 15:18:14.885550  7124 net.cpp:150] Setting up conv4_3_norm_mbox_conf
I0516 15:18:14.885565  7124 net.cpp:157] Top shape: 16 8 38 38 (184832)
I0516 15:18:14.885567  7124 net.cpp:165] Memory required for data: 3958929440
I0516 15:18:14.885573  7124 layer_factory.hpp:77] Creating layer conv4_3_norm_mbox_conf_perm
I0516 15:18:14.885581  7124 net.cpp:100] Creating Layer conv4_3_norm_mbox_conf_perm
I0516 15:18:14.885586  7124 net.cpp:434] conv4_3_norm_mbox_conf_perm <- conv4_3_norm_mbox_conf
I0516 15:18:14.885589  7124 net.cpp:408] conv4_3_norm_mbox_conf_perm -> conv4_3_norm_mbox_conf_perm
I0516 15:18:14.885670  7124 net.cpp:150] Setting up conv4_3_norm_mbox_conf_perm
I0516 15:18:14.885676  7124 net.cpp:157] Top shape: 16 38 38 8 (184832)
I0516 15:18:14.885679  7124 net.cpp:165] Memory required for data: 3959668768
I0516 15:18:14.885682  7124 layer_factory.hpp:77] Creating layer conv4_3_norm_mbox_conf_flat
I0516 15:18:14.885686  7124 net.cpp:100] Creating Layer conv4_3_norm_mbox_conf_flat
I0516 15:18:14.885689  7124 net.cpp:434] conv4_3_norm_mbox_conf_flat <- conv4_3_norm_mbox_conf_perm
I0516 15:18:14.885694  7124 net.cpp:408] conv4_3_norm_mbox_conf_flat -> conv4_3_norm_mbox_conf_flat
I0516 15:18:14.885710  7124 net.cpp:150] Setting up conv4_3_norm_mbox_conf_flat
I0516 15:18:14.885715  7124 net.cpp:157] Top shape: 16 11552 (184832)
I0516 15:18:14.885716  7124 net.cpp:165] Memory required for data: 3960408096
I0516 15:18:14.885720  7124 layer_factory.hpp:77] Creating layer conv4_3_norm_mbox_priorbox
I0516 15:18:14.885727  7124 net.cpp:100] Creating Layer conv4_3_norm_mbox_priorbox
I0516 15:18:14.885731  7124 net.cpp:434] conv4_3_norm_mbox_priorbox <- conv4_3_norm_conv4_3_norm_0_split_2
I0516 15:18:14.885736  7124 net.cpp:434] conv4_3_norm_mbox_priorbox <- data_data_0_split_1
I0516 15:18:14.885743  7124 net.cpp:408] conv4_3_norm_mbox_priorbox -> conv4_3_norm_mbox_priorbox
I0516 15:18:14.885771  7124 net.cpp:150] Setting up conv4_3_norm_mbox_priorbox
I0516 15:18:14.885776  7124 net.cpp:157] Top shape: 1 2 23104 (46208)
I0516 15:18:14.885780  7124 net.cpp:165] Memory required for data: 3960592928
I0516 15:18:14.885783  7124 layer_factory.hpp:77] Creating layer fc7_mbox_loc
I0516 15:18:14.885794  7124 net.cpp:100] Creating Layer fc7_mbox_loc
I0516 15:18:14.885800  7124 net.cpp:434] fc7_mbox_loc <- fc7_relu7_0_split_1
I0516 15:18:14.885807  7124 net.cpp:408] fc7_mbox_loc -> fc7_mbox_loc
I0516 15:18:14.889415  7124 net.cpp:150] Setting up fc7_mbox_loc
I0516 15:18:14.889430  7124 net.cpp:157] Top shape: 16 24 19 19 (138624)
I0516 15:18:14.889433  7124 net.cpp:165] Memory required for data: 3961147424
I0516 15:18:14.889439  7124 layer_factory.hpp:77] Creating layer fc7_mbox_loc_perm
I0516 15:18:14.889449  7124 net.cpp:100] Creating Layer fc7_mbox_loc_perm
I0516 15:18:14.889454  7124 net.cpp:434] fc7_mbox_loc_perm <- fc7_mbox_loc
I0516 15:18:14.889478  7124 net.cpp:408] fc7_mbox_loc_perm -> fc7_mbox_loc_perm
I0516 15:18:14.889561  7124 net.cpp:150] Setting up fc7_mbox_loc_perm
I0516 15:18:14.889569  7124 net.cpp:157] Top shape: 16 19 19 24 (138624)
I0516 15:18:14.889571  7124 net.cpp:165] Memory required for data: 3961701920
I0516 15:18:14.889575  7124 layer_factory.hpp:77] Creating layer fc7_mbox_loc_flat
I0516 15:18:14.889582  7124 net.cpp:100] Creating Layer fc7_mbox_loc_flat
I0516 15:18:14.889585  7124 net.cpp:434] fc7_mbox_loc_flat <- fc7_mbox_loc_perm
I0516 15:18:14.889590  7124 net.cpp:408] fc7_mbox_loc_flat -> fc7_mbox_loc_flat
I0516 15:18:14.889611  7124 net.cpp:150] Setting up fc7_mbox_loc_flat
I0516 15:18:14.889614  7124 net.cpp:157] Top shape: 16 8664 (138624)
I0516 15:18:14.889616  7124 net.cpp:165] Memory required for data: 3962256416
I0516 15:18:14.889619  7124 layer_factory.hpp:77] Creating layer fc7_mbox_conf
I0516 15:18:14.889628  7124 net.cpp:100] Creating Layer fc7_mbox_conf
I0516 15:18:14.889631  7124 net.cpp:434] fc7_mbox_conf <- fc7_relu7_0_split_2
I0516 15:18:14.889638  7124 net.cpp:408] fc7_mbox_conf -> fc7_mbox_conf
I0516 15:18:14.892865  7124 net.cpp:150] Setting up fc7_mbox_conf
I0516 15:18:14.892880  7124 net.cpp:157] Top shape: 16 12 19 19 (69312)
I0516 15:18:14.892884  7124 net.cpp:165] Memory required for data: 3962533664
I0516 15:18:14.892889  7124 layer_factory.hpp:77] Creating layer fc7_mbox_conf_perm
I0516 15:18:14.892896  7124 net.cpp:100] Creating Layer fc7_mbox_conf_perm
I0516 15:18:14.892900  7124 net.cpp:434] fc7_mbox_conf_perm <- fc7_mbox_conf
I0516 15:18:14.892906  7124 net.cpp:408] fc7_mbox_conf_perm -> fc7_mbox_conf_perm
I0516 15:18:14.892984  7124 net.cpp:150] Setting up fc7_mbox_conf_perm
I0516 15:18:14.892992  7124 net.cpp:157] Top shape: 16 19 19 12 (69312)
I0516 15:18:14.892994  7124 net.cpp:165] Memory required for data: 3962810912
I0516 15:18:14.892998  7124 layer_factory.hpp:77] Creating layer fc7_mbox_conf_flat
I0516 15:18:14.893005  7124 net.cpp:100] Creating Layer fc7_mbox_conf_flat
I0516 15:18:14.893009  7124 net.cpp:434] fc7_mbox_conf_flat <- fc7_mbox_conf_perm
I0516 15:18:14.893014  7124 net.cpp:408] fc7_mbox_conf_flat -> fc7_mbox_conf_flat
I0516 15:18:14.893033  7124 net.cpp:150] Setting up fc7_mbox_conf_flat
I0516 15:18:14.893038  7124 net.cpp:157] Top shape: 16 4332 (69312)
I0516 15:18:14.893041  7124 net.cpp:165] Memory required for data: 3963088160
I0516 15:18:14.893044  7124 layer_factory.hpp:77] Creating layer fc7_mbox_priorbox
I0516 15:18:14.893054  7124 net.cpp:100] Creating Layer fc7_mbox_priorbox
I0516 15:18:14.893057  7124 net.cpp:434] fc7_mbox_priorbox <- fc7_relu7_0_split_3
I0516 15:18:14.893062  7124 net.cpp:434] fc7_mbox_priorbox <- data_data_0_split_2
I0516 15:18:14.893067  7124 net.cpp:408] fc7_mbox_priorbox -> fc7_mbox_priorbox
I0516 15:18:14.893092  7124 net.cpp:150] Setting up fc7_mbox_priorbox
I0516 15:18:14.893103  7124 net.cpp:157] Top shape: 1 2 8664 (17328)
I0516 15:18:14.893106  7124 net.cpp:165] Memory required for data: 3963157472
I0516 15:18:14.893110  7124 layer_factory.hpp:77] Creating layer conv6_2_mbox_loc
I0516 15:18:14.893121  7124 net.cpp:100] Creating Layer conv6_2_mbox_loc
I0516 15:18:14.893126  7124 net.cpp:434] conv6_2_mbox_loc <- conv6_2_conv6_2_relu_0_split_1
I0516 15:18:14.893132  7124 net.cpp:408] conv6_2_mbox_loc -> conv6_2_mbox_loc
I0516 15:18:14.895290  7124 net.cpp:150] Setting up conv6_2_mbox_loc
I0516 15:18:14.895305  7124 net.cpp:157] Top shape: 16 24 10 10 (38400)
I0516 15:18:14.895309  7124 net.cpp:165] Memory required for data: 3963311072
I0516 15:18:14.895316  7124 layer_factory.hpp:77] Creating layer conv6_2_mbox_loc_perm
I0516 15:18:14.895326  7124 net.cpp:100] Creating Layer conv6_2_mbox_loc_perm
I0516 15:18:14.895331  7124 net.cpp:434] conv6_2_mbox_loc_perm <- conv6_2_mbox_loc
I0516 15:18:14.895341  7124 net.cpp:408] conv6_2_mbox_loc_perm -> conv6_2_mbox_loc_perm
I0516 15:18:14.895426  7124 net.cpp:150] Setting up conv6_2_mbox_loc_perm
I0516 15:18:14.895431  7124 net.cpp:157] Top shape: 16 10 10 24 (38400)
I0516 15:18:14.895447  7124 net.cpp:165] Memory required for data: 3963464672
I0516 15:18:14.895450  7124 layer_factory.hpp:77] Creating layer conv6_2_mbox_loc_flat
I0516 15:18:14.895457  7124 net.cpp:100] Creating Layer conv6_2_mbox_loc_flat
I0516 15:18:14.895462  7124 net.cpp:434] conv6_2_mbox_loc_flat <- conv6_2_mbox_loc_perm
I0516 15:18:14.895468  7124 net.cpp:408] conv6_2_mbox_loc_flat -> conv6_2_mbox_loc_flat
I0516 15:18:14.895488  7124 net.cpp:150] Setting up conv6_2_mbox_loc_flat
I0516 15:18:14.895493  7124 net.cpp:157] Top shape: 16 2400 (38400)
I0516 15:18:14.895498  7124 net.cpp:165] Memory required for data: 3963618272
I0516 15:18:14.895500  7124 layer_factory.hpp:77] Creating layer conv6_2_mbox_conf
I0516 15:18:14.895510  7124 net.cpp:100] Creating Layer conv6_2_mbox_conf
I0516 15:18:14.895515  7124 net.cpp:434] conv6_2_mbox_conf <- conv6_2_conv6_2_relu_0_split_2
I0516 15:18:14.895522  7124 net.cpp:408] conv6_2_mbox_conf -> conv6_2_mbox_conf
I0516 15:18:14.897122  7124 net.cpp:150] Setting up conv6_2_mbox_conf
I0516 15:18:14.897138  7124 net.cpp:157] Top shape: 16 12 10 10 (19200)
I0516 15:18:14.897141  7124 net.cpp:165] Memory required for data: 3963695072
I0516 15:18:14.897148  7124 layer_factory.hpp:77] Creating layer conv6_2_mbox_conf_perm
I0516 15:18:14.897156  7124 net.cpp:100] Creating Layer conv6_2_mbox_conf_perm
I0516 15:18:14.897163  7124 net.cpp:434] conv6_2_mbox_conf_perm <- conv6_2_mbox_conf
I0516 15:18:14.897171  7124 net.cpp:408] conv6_2_mbox_conf_perm -> conv6_2_mbox_conf_perm
I0516 15:18:14.897253  7124 net.cpp:150] Setting up conv6_2_mbox_conf_perm
I0516 15:18:14.897259  7124 net.cpp:157] Top shape: 16 10 10 12 (19200)
I0516 15:18:14.897264  7124 net.cpp:165] Memory required for data: 3963771872
I0516 15:18:14.897266  7124 layer_factory.hpp:77] Creating layer conv6_2_mbox_conf_flat
I0516 15:18:14.897274  7124 net.cpp:100] Creating Layer conv6_2_mbox_conf_flat
I0516 15:18:14.897279  7124 net.cpp:434] conv6_2_mbox_conf_flat <- conv6_2_mbox_conf_perm
I0516 15:18:14.897284  7124 net.cpp:408] conv6_2_mbox_conf_flat -> conv6_2_mbox_conf_flat
I0516 15:18:14.897305  7124 net.cpp:150] Setting up conv6_2_mbox_conf_flat
I0516 15:18:14.897310  7124 net.cpp:157] Top shape: 16 1200 (19200)
I0516 15:18:14.897312  7124 net.cpp:165] Memory required for data: 3963848672
I0516 15:18:14.897316  7124 layer_factory.hpp:77] Creating layer conv6_2_mbox_priorbox
I0516 15:18:14.897325  7124 net.cpp:100] Creating Layer conv6_2_mbox_priorbox
I0516 15:18:14.897330  7124 net.cpp:434] conv6_2_mbox_priorbox <- conv6_2_conv6_2_relu_0_split_3
I0516 15:18:14.897334  7124 net.cpp:434] conv6_2_mbox_priorbox <- data_data_0_split_3
I0516 15:18:14.897341  7124 net.cpp:408] conv6_2_mbox_priorbox -> conv6_2_mbox_priorbox
I0516 15:18:14.897363  7124 net.cpp:150] Setting up conv6_2_mbox_priorbox
I0516 15:18:14.897368  7124 net.cpp:157] Top shape: 1 2 2400 (4800)
I0516 15:18:14.897372  7124 net.cpp:165] Memory required for data: 3963867872
I0516 15:18:14.897375  7124 layer_factory.hpp:77] Creating layer conv7_2_mbox_loc
I0516 15:18:14.897387  7124 net.cpp:100] Creating Layer conv7_2_mbox_loc
I0516 15:18:14.897390  7124 net.cpp:434] conv7_2_mbox_loc <- conv7_2_conv7_2_relu_0_split_1
I0516 15:18:14.897397  7124 net.cpp:408] conv7_2_mbox_loc -> conv7_2_mbox_loc
I0516 15:18:14.899992  7124 net.cpp:150] Setting up conv7_2_mbox_loc
I0516 15:18:14.900007  7124 net.cpp:157] Top shape: 16 24 5 5 (9600)
I0516 15:18:14.900010  7124 net.cpp:165] Memory required for data: 3963906272
I0516 15:18:14.900018  7124 layer_factory.hpp:77] Creating layer conv7_2_mbox_loc_perm
I0516 15:18:14.900025  7124 net.cpp:100] Creating Layer conv7_2_mbox_loc_perm
I0516 15:18:14.900032  7124 net.cpp:434] conv7_2_mbox_loc_perm <- conv7_2_mbox_loc
I0516 15:18:14.900041  7124 net.cpp:408] conv7_2_mbox_loc_perm -> conv7_2_mbox_loc_perm
I0516 15:18:14.900130  7124 net.cpp:150] Setting up conv7_2_mbox_loc_perm
I0516 15:18:14.900135  7124 net.cpp:157] Top shape: 16 5 5 24 (9600)
I0516 15:18:14.900138  7124 net.cpp:165] Memory required for data: 3963944672
I0516 15:18:14.900156  7124 layer_factory.hpp:77] Creating layer conv7_2_mbox_loc_flat
I0516 15:18:14.900164  7124 net.cpp:100] Creating Layer conv7_2_mbox_loc_flat
I0516 15:18:14.900168  7124 net.cpp:434] conv7_2_mbox_loc_flat <- conv7_2_mbox_loc_perm
I0516 15:18:14.900173  7124 net.cpp:408] conv7_2_mbox_loc_flat -> conv7_2_mbox_loc_flat
I0516 15:18:14.900195  7124 net.cpp:150] Setting up conv7_2_mbox_loc_flat
I0516 15:18:14.900199  7124 net.cpp:157] Top shape: 16 600 (9600)
I0516 15:18:14.900203  7124 net.cpp:165] Memory required for data: 3963983072
I0516 15:18:14.900207  7124 layer_factory.hpp:77] Creating layer conv7_2_mbox_conf
I0516 15:18:14.900218  7124 net.cpp:100] Creating Layer conv7_2_mbox_conf
I0516 15:18:14.900220  7124 net.cpp:434] conv7_2_mbox_conf <- conv7_2_conv7_2_relu_0_split_2
I0516 15:18:14.900229  7124 net.cpp:408] conv7_2_mbox_conf -> conv7_2_mbox_conf
I0516 15:18:14.901526  7124 net.cpp:150] Setting up conv7_2_mbox_conf
I0516 15:18:14.901540  7124 net.cpp:157] Top shape: 16 12 5 5 (4800)
I0516 15:18:14.901542  7124 net.cpp:165] Memory required for data: 3964002272
I0516 15:18:14.901551  7124 layer_factory.hpp:77] Creating layer conv7_2_mbox_conf_perm
I0516 15:18:14.901558  7124 net.cpp:100] Creating Layer conv7_2_mbox_conf_perm
I0516 15:18:14.901564  7124 net.cpp:434] conv7_2_mbox_conf_perm <- conv7_2_mbox_conf
I0516 15:18:14.901571  7124 net.cpp:408] conv7_2_mbox_conf_perm -> conv7_2_mbox_conf_perm
I0516 15:18:14.901651  7124 net.cpp:150] Setting up conv7_2_mbox_conf_perm
I0516 15:18:14.901657  7124 net.cpp:157] Top shape: 16 5 5 12 (4800)
I0516 15:18:14.901660  7124 net.cpp:165] Memory required for data: 3964021472
I0516 15:18:14.901664  7124 layer_factory.hpp:77] Creating layer conv7_2_mbox_conf_flat
I0516 15:18:14.901671  7124 net.cpp:100] Creating Layer conv7_2_mbox_conf_flat
I0516 15:18:14.901675  7124 net.cpp:434] conv7_2_mbox_conf_flat <- conv7_2_mbox_conf_perm
I0516 15:18:14.901681  7124 net.cpp:408] conv7_2_mbox_conf_flat -> conv7_2_mbox_conf_flat
I0516 15:18:14.901701  7124 net.cpp:150] Setting up conv7_2_mbox_conf_flat
I0516 15:18:14.901706  7124 net.cpp:157] Top shape: 16 300 (4800)
I0516 15:18:14.901710  7124 net.cpp:165] Memory required for data: 3964040672
I0516 15:18:14.901713  7124 layer_factory.hpp:77] Creating layer conv7_2_mbox_priorbox
I0516 15:18:14.901721  7124 net.cpp:100] Creating Layer conv7_2_mbox_priorbox
I0516 15:18:14.901726  7124 net.cpp:434] conv7_2_mbox_priorbox <- conv7_2_conv7_2_relu_0_split_3
I0516 15:18:14.901731  7124 net.cpp:434] conv7_2_mbox_priorbox <- data_data_0_split_4
I0516 15:18:14.901737  7124 net.cpp:408] conv7_2_mbox_priorbox -> conv7_2_mbox_priorbox
I0516 15:18:14.901760  7124 net.cpp:150] Setting up conv7_2_mbox_priorbox
I0516 15:18:14.901765  7124 net.cpp:157] Top shape: 1 2 600 (1200)
I0516 15:18:14.901768  7124 net.cpp:165] Memory required for data: 3964045472
I0516 15:18:14.901772  7124 layer_factory.hpp:77] Creating layer conv8_2_mbox_loc
I0516 15:18:14.901782  7124 net.cpp:100] Creating Layer conv8_2_mbox_loc
I0516 15:18:14.901787  7124 net.cpp:434] conv8_2_mbox_loc <- conv8_2_conv8_2_relu_0_split_1
I0516 15:18:14.901794  7124 net.cpp:408] conv8_2_mbox_loc -> conv8_2_mbox_loc
I0516 15:18:14.903578  7124 net.cpp:150] Setting up conv8_2_mbox_loc
I0516 15:18:14.903606  7124 net.cpp:157] Top shape: 16 16 3 3 (2304)
I0516 15:18:14.903612  7124 net.cpp:165] Memory required for data: 3964054688
I0516 15:18:14.903635  7124 layer_factory.hpp:77] Creating layer conv8_2_mbox_loc_perm
I0516 15:18:14.903648  7124 net.cpp:100] Creating Layer conv8_2_mbox_loc_perm
I0516 15:18:14.903654  7124 net.cpp:434] conv8_2_mbox_loc_perm <- conv8_2_mbox_loc
I0516 15:18:14.903666  7124 net.cpp:408] conv8_2_mbox_loc_perm -> conv8_2_mbox_loc_perm
I0516 15:18:14.903841  7124 net.cpp:150] Setting up conv8_2_mbox_loc_perm
I0516 15:18:14.903857  7124 net.cpp:157] Top shape: 16 3 3 16 (2304)
I0516 15:18:14.903862  7124 net.cpp:165] Memory required for data: 3964063904
I0516 15:18:14.903868  7124 layer_factory.hpp:77] Creating layer conv8_2_mbox_loc_flat
I0516 15:18:14.903884  7124 net.cpp:100] Creating Layer conv8_2_mbox_loc_flat
I0516 15:18:14.903916  7124 net.cpp:434] conv8_2_mbox_loc_flat <- conv8_2_mbox_loc_perm
I0516 15:18:14.903923  7124 net.cpp:408] conv8_2_mbox_loc_flat -> conv8_2_mbox_loc_flat
I0516 15:18:14.903954  7124 net.cpp:150] Setting up conv8_2_mbox_loc_flat
I0516 15:18:14.903960  7124 net.cpp:157] Top shape: 16 144 (2304)
I0516 15:18:14.903964  7124 net.cpp:165] Memory required for data: 3964073120
I0516 15:18:14.903967  7124 layer_factory.hpp:77] Creating layer conv8_2_mbox_conf
I0516 15:18:14.903980  7124 net.cpp:100] Creating Layer conv8_2_mbox_conf
I0516 15:18:14.903985  7124 net.cpp:434] conv8_2_mbox_conf <- conv8_2_conv8_2_relu_0_split_2
I0516 15:18:14.903992  7124 net.cpp:408] conv8_2_mbox_conf -> conv8_2_mbox_conf
I0516 15:18:14.905318  7124 net.cpp:150] Setting up conv8_2_mbox_conf
I0516 15:18:14.905331  7124 net.cpp:157] Top shape: 16 8 3 3 (1152)
I0516 15:18:14.905334  7124 net.cpp:165] Memory required for data: 3964077728
I0516 15:18:14.905341  7124 layer_factory.hpp:77] Creating layer conv8_2_mbox_conf_perm
I0516 15:18:14.905352  7124 net.cpp:100] Creating Layer conv8_2_mbox_conf_perm
I0516 15:18:14.905359  7124 net.cpp:434] conv8_2_mbox_conf_perm <- conv8_2_mbox_conf
I0516 15:18:14.905367  7124 net.cpp:408] conv8_2_mbox_conf_perm -> conv8_2_mbox_conf_perm
I0516 15:18:14.905444  7124 net.cpp:150] Setting up conv8_2_mbox_conf_perm
I0516 15:18:14.905450  7124 net.cpp:157] Top shape: 16 3 3 8 (1152)
I0516 15:18:14.905453  7124 net.cpp:165] Memory required for data: 3964082336
I0516 15:18:14.905457  7124 layer_factory.hpp:77] Creating layer conv8_2_mbox_conf_flat
I0516 15:18:14.905463  7124 net.cpp:100] Creating Layer conv8_2_mbox_conf_flat
I0516 15:18:14.905468  7124 net.cpp:434] conv8_2_mbox_conf_flat <- conv8_2_mbox_conf_perm
I0516 15:18:14.905473  7124 net.cpp:408] conv8_2_mbox_conf_flat -> conv8_2_mbox_conf_flat
I0516 15:18:14.905493  7124 net.cpp:150] Setting up conv8_2_mbox_conf_flat
I0516 15:18:14.905498  7124 net.cpp:157] Top shape: 16 72 (1152)
I0516 15:18:14.905501  7124 net.cpp:165] Memory required for data: 3964086944
I0516 15:18:14.905505  7124 layer_factory.hpp:77] Creating layer conv8_2_mbox_priorbox
I0516 15:18:14.905514  7124 net.cpp:100] Creating Layer conv8_2_mbox_priorbox
I0516 15:18:14.905517  7124 net.cpp:434] conv8_2_mbox_priorbox <- conv8_2_conv8_2_relu_0_split_3
I0516 15:18:14.905522  7124 net.cpp:434] conv8_2_mbox_priorbox <- data_data_0_split_5
I0516 15:18:14.905529  7124 net.cpp:408] conv8_2_mbox_priorbox -> conv8_2_mbox_priorbox
I0516 15:18:14.905551  7124 net.cpp:150] Setting up conv8_2_mbox_priorbox
I0516 15:18:14.905556  7124 net.cpp:157] Top shape: 1 2 144 (288)
I0516 15:18:14.905560  7124 net.cpp:165] Memory required for data: 3964088096
I0516 15:18:14.905563  7124 layer_factory.hpp:77] Creating layer conv9_2_mbox_loc
I0516 15:18:14.905575  7124 net.cpp:100] Creating Layer conv9_2_mbox_loc
I0516 15:18:14.905580  7124 net.cpp:434] conv9_2_mbox_loc <- conv9_2_conv9_2_relu_0_split_0
I0516 15:18:14.905586  7124 net.cpp:408] conv9_2_mbox_loc -> conv9_2_mbox_loc
I0516 15:18:14.908965  7124 net.cpp:150] Setting up conv9_2_mbox_loc
I0516 15:18:14.908980  7124 net.cpp:157] Top shape: 16 16 1 1 (256)
I0516 15:18:14.908983  7124 net.cpp:165] Memory required for data: 3964089120
I0516 15:18:14.908993  7124 layer_factory.hpp:77] Creating layer conv9_2_mbox_loc_perm
I0516 15:18:14.909004  7124 net.cpp:100] Creating Layer conv9_2_mbox_loc_perm
I0516 15:18:14.909010  7124 net.cpp:434] conv9_2_mbox_loc_perm <- conv9_2_mbox_loc
I0516 15:18:14.909018  7124 net.cpp:408] conv9_2_mbox_loc_perm -> conv9_2_mbox_loc_perm
I0516 15:18:14.909108  7124 net.cpp:150] Setting up conv9_2_mbox_loc_perm
I0516 15:18:14.909117  7124 net.cpp:157] Top shape: 16 1 1 16 (256)
I0516 15:18:14.909121  7124 net.cpp:165] Memory required for data: 3964090144
I0516 15:18:14.909124  7124 layer_factory.hpp:77] Creating layer conv9_2_mbox_loc_flat
I0516 15:18:14.909133  7124 net.cpp:100] Creating Layer conv9_2_mbox_loc_flat
I0516 15:18:14.909138  7124 net.cpp:434] conv9_2_mbox_loc_flat <- conv9_2_mbox_loc_perm
I0516 15:18:14.909165  7124 net.cpp:408] conv9_2_mbox_loc_flat -> conv9_2_mbox_loc_flat
I0516 15:18:14.909185  7124 net.cpp:150] Setting up conv9_2_mbox_loc_flat
I0516 15:18:14.909193  7124 net.cpp:157] Top shape: 16 16 (256)
I0516 15:18:14.909196  7124 net.cpp:165] Memory required for data: 3964091168
I0516 15:18:14.909200  7124 layer_factory.hpp:77] Creating layer conv9_2_mbox_conf
I0516 15:18:14.909215  7124 net.cpp:100] Creating Layer conv9_2_mbox_conf
I0516 15:18:14.909219  7124 net.cpp:434] conv9_2_mbox_conf <- conv9_2_conv9_2_relu_0_split_1
I0516 15:18:14.909237  7124 net.cpp:408] conv9_2_mbox_conf -> conv9_2_mbox_conf
I0516 15:18:14.910626  7124 net.cpp:150] Setting up conv9_2_mbox_conf
I0516 15:18:14.910640  7124 net.cpp:157] Top shape: 16 8 1 1 (128)
I0516 15:18:14.910642  7124 net.cpp:165] Memory required for data: 3964091680
I0516 15:18:14.910650  7124 layer_factory.hpp:77] Creating layer conv9_2_mbox_conf_perm
I0516 15:18:14.910660  7124 net.cpp:100] Creating Layer conv9_2_mbox_conf_perm
I0516 15:18:14.910665  7124 net.cpp:434] conv9_2_mbox_conf_perm <- conv9_2_mbox_conf
I0516 15:18:14.910671  7124 net.cpp:408] conv9_2_mbox_conf_perm -> conv9_2_mbox_conf_perm
I0516 15:18:14.910743  7124 net.cpp:150] Setting up conv9_2_mbox_conf_perm
I0516 15:18:14.910749  7124 net.cpp:157] Top shape: 16 1 1 8 (128)
I0516 15:18:14.910753  7124 net.cpp:165] Memory required for data: 3964092192
I0516 15:18:14.910755  7124 layer_factory.hpp:77] Creating layer conv9_2_mbox_conf_flat
I0516 15:18:14.910761  7124 net.cpp:100] Creating Layer conv9_2_mbox_conf_flat
I0516 15:18:14.910771  7124 net.cpp:434] conv9_2_mbox_conf_flat <- conv9_2_mbox_conf_perm
I0516 15:18:14.910778  7124 net.cpp:408] conv9_2_mbox_conf_flat -> conv9_2_mbox_conf_flat
I0516 15:18:14.910795  7124 net.cpp:150] Setting up conv9_2_mbox_conf_flat
I0516 15:18:14.910799  7124 net.cpp:157] Top shape: 16 8 (128)
I0516 15:18:14.910804  7124 net.cpp:165] Memory required for data: 3964092704
I0516 15:18:14.910806  7124 layer_factory.hpp:77] Creating layer conv9_2_mbox_priorbox
I0516 15:18:14.910814  7124 net.cpp:100] Creating Layer conv9_2_mbox_priorbox
I0516 15:18:14.910818  7124 net.cpp:434] conv9_2_mbox_priorbox <- conv9_2_conv9_2_relu_0_split_2
I0516 15:18:14.910823  7124 net.cpp:434] conv9_2_mbox_priorbox <- data_data_0_split_6
I0516 15:18:14.910830  7124 net.cpp:408] conv9_2_mbox_priorbox -> conv9_2_mbox_priorbox
I0516 15:18:14.910851  7124 net.cpp:150] Setting up conv9_2_mbox_priorbox
I0516 15:18:14.910856  7124 net.cpp:157] Top shape: 1 2 16 (32)
I0516 15:18:14.910859  7124 net.cpp:165] Memory required for data: 3964092832
I0516 15:18:14.910862  7124 layer_factory.hpp:77] Creating layer mbox_loc
I0516 15:18:14.910871  7124 net.cpp:100] Creating Layer mbox_loc
I0516 15:18:14.910876  7124 net.cpp:434] mbox_loc <- conv4_3_norm_mbox_loc_flat
I0516 15:18:14.910881  7124 net.cpp:434] mbox_loc <- fc7_mbox_loc_flat
I0516 15:18:14.910887  7124 net.cpp:434] mbox_loc <- conv6_2_mbox_loc_flat
I0516 15:18:14.910892  7124 net.cpp:434] mbox_loc <- conv7_2_mbox_loc_flat
I0516 15:18:14.910897  7124 net.cpp:434] mbox_loc <- conv8_2_mbox_loc_flat
I0516 15:18:14.910900  7124 net.cpp:434] mbox_loc <- conv9_2_mbox_loc_flat
I0516 15:18:14.910907  7124 net.cpp:408] mbox_loc -> mbox_loc
I0516 15:18:14.910925  7124 net.cpp:150] Setting up mbox_loc
I0516 15:18:14.910931  7124 net.cpp:157] Top shape: 16 34928 (558848)
I0516 15:18:14.910934  7124 net.cpp:165] Memory required for data: 3966328224
I0516 15:18:14.910938  7124 layer_factory.hpp:77] Creating layer mbox_conf
I0516 15:18:14.910943  7124 net.cpp:100] Creating Layer mbox_conf
I0516 15:18:14.910948  7124 net.cpp:434] mbox_conf <- conv4_3_norm_mbox_conf_flat
I0516 15:18:14.910951  7124 net.cpp:434] mbox_conf <- fc7_mbox_conf_flat
I0516 15:18:14.910956  7124 net.cpp:434] mbox_conf <- conv6_2_mbox_conf_flat
I0516 15:18:14.910960  7124 net.cpp:434] mbox_conf <- conv7_2_mbox_conf_flat
I0516 15:18:14.910964  7124 net.cpp:434] mbox_conf <- conv8_2_mbox_conf_flat
I0516 15:18:14.910969  7124 net.cpp:434] mbox_conf <- conv9_2_mbox_conf_flat
I0516 15:18:14.910987  7124 net.cpp:408] mbox_conf -> mbox_conf
I0516 15:18:14.911005  7124 net.cpp:150] Setting up mbox_conf
I0516 15:18:14.911008  7124 net.cpp:157] Top shape: 16 17464 (279424)
I0516 15:18:14.911012  7124 net.cpp:165] Memory required for data: 3967445920
I0516 15:18:14.911015  7124 layer_factory.hpp:77] Creating layer mbox_priorbox
I0516 15:18:14.911020  7124 net.cpp:100] Creating Layer mbox_priorbox
I0516 15:18:14.911025  7124 net.cpp:434] mbox_priorbox <- conv4_3_norm_mbox_priorbox
I0516 15:18:14.911029  7124 net.cpp:434] mbox_priorbox <- fc7_mbox_priorbox
I0516 15:18:14.911033  7124 net.cpp:434] mbox_priorbox <- conv6_2_mbox_priorbox
I0516 15:18:14.911037  7124 net.cpp:434] mbox_priorbox <- conv7_2_mbox_priorbox
I0516 15:18:14.911041  7124 net.cpp:434] mbox_priorbox <- conv8_2_mbox_priorbox
I0516 15:18:14.911044  7124 net.cpp:434] mbox_priorbox <- conv9_2_mbox_priorbox
I0516 15:18:14.911051  7124 net.cpp:408] mbox_priorbox -> mbox_priorbox
I0516 15:18:14.911070  7124 net.cpp:150] Setting up mbox_priorbox
I0516 15:18:14.911074  7124 net.cpp:157] Top shape: 1 2 34928 (69856)
I0516 15:18:14.911078  7124 net.cpp:165] Memory required for data: 3967725344
I0516 15:18:14.911082  7124 layer_factory.hpp:77] Creating layer mbox_conf_reshape
I0516 15:18:14.911088  7124 net.cpp:100] Creating Layer mbox_conf_reshape
I0516 15:18:14.911092  7124 net.cpp:434] mbox_conf_reshape <- mbox_conf
I0516 15:18:14.911098  7124 net.cpp:408] mbox_conf_reshape -> mbox_conf_reshape
I0516 15:18:14.911124  7124 net.cpp:150] Setting up mbox_conf_reshape
I0516 15:18:14.911129  7124 net.cpp:157] Top shape: 16 8732 2 (279424)
I0516 15:18:14.911132  7124 net.cpp:165] Memory required for data: 3968843040
I0516 15:18:14.911135  7124 layer_factory.hpp:77] Creating layer mbox_conf_softmax
I0516 15:18:14.911142  7124 net.cpp:100] Creating Layer mbox_conf_softmax
I0516 15:18:14.911146  7124 net.cpp:434] mbox_conf_softmax <- mbox_conf_reshape
I0516 15:18:14.911152  7124 net.cpp:408] mbox_conf_softmax -> mbox_conf_softmax
I0516 15:18:14.911599  7124 net.cpp:150] Setting up mbox_conf_softmax
I0516 15:18:14.911610  7124 net.cpp:157] Top shape: 16 8732 2 (279424)
I0516 15:18:14.911613  7124 net.cpp:165] Memory required for data: 3969960736
I0516 15:18:14.911617  7124 layer_factory.hpp:77] Creating layer mbox_conf_flatten
I0516 15:18:14.911625  7124 net.cpp:100] Creating Layer mbox_conf_flatten
I0516 15:18:14.911630  7124 net.cpp:434] mbox_conf_flatten <- mbox_conf_softmax
I0516 15:18:14.911636  7124 net.cpp:408] mbox_conf_flatten -> mbox_conf_flatten
I0516 15:18:14.911656  7124 net.cpp:150] Setting up mbox_conf_flatten
I0516 15:18:14.911661  7124 net.cpp:157] Top shape: 16 17464 (279424)
I0516 15:18:14.911664  7124 net.cpp:165] Memory required for data: 3971078432
I0516 15:18:14.911669  7124 layer_factory.hpp:77] Creating layer detection_out
I0516 15:18:14.911686  7124 net.cpp:100] Creating Layer detection_out
I0516 15:18:14.911690  7124 net.cpp:434] detection_out <- mbox_loc
I0516 15:18:14.911695  7124 net.cpp:434] detection_out <- mbox_conf_flatten
I0516 15:18:14.911700  7124 net.cpp:434] detection_out <- mbox_priorbox
I0516 15:18:14.911707  7124 net.cpp:408] detection_out -> detection_out
W0516 15:18:14.911751  7124 detection_output_layer.cpp:49] Failed to create directory: /home/zhuyipin/DATASET/ccpd/SSD_300x300/Main
I0516 15:18:14.912119  7124 net.cpp:150] Setting up detection_out
I0516 15:18:14.912128  7124 net.cpp:157] Top shape: 1 1 1 7 (7)
I0516 15:18:14.912132  7124 net.cpp:165] Memory required for data: 3971078460
I0516 15:18:14.912135  7124 layer_factory.hpp:77] Creating layer detection_eval
I0516 15:18:14.912143  7124 net.cpp:100] Creating Layer detection_eval
I0516 15:18:14.912149  7124 net.cpp:434] detection_eval <- detection_out
I0516 15:18:14.912154  7124 net.cpp:434] detection_eval <- label
I0516 15:18:14.912159  7124 net.cpp:408] detection_eval -> detection_eval
I0516 15:18:14.912279  7124 net.cpp:150] Setting up detection_eval
I0516 15:18:14.912286  7124 net.cpp:157] Top shape: 1 1 2 5 (10)
I0516 15:18:14.912299  7124 net.cpp:165] Memory required for data: 3971078500
I0516 15:18:14.912303  7124 net.cpp:228] detection_eval does not need backward computation.
I0516 15:18:14.912307  7124 net.cpp:228] detection_out does not need backward computation.
I0516 15:18:14.912310  7124 net.cpp:228] mbox_conf_flatten does not need backward computation.
I0516 15:18:14.912313  7124 net.cpp:228] mbox_conf_softmax does not need backward computation.
…
