…
I0520 11:16:07.550554  5291 net.cpp:322] The NetState phase (0) differed from the phase (1) specified by a rule in layer acc
I0520 11:16:07.550966  5291 net.cpp:58] Initializing net from parameters: 
state {
  phase: TRAIN
  level: 0
  stage: ""
}
layer {
  name: "data"
  type: "HDF5Data"
  top: "data"
  top: "label"
  include {
    phase: TRAIN
  }
  hdf5_data_param {
    source: "/home/zhuyipin/DATASET/ccpd/bbox_caffe_data_gen/training.list"
    batch_size: 128
  }
}
layer {
  name: "indicator"
  type: "ContinuationIndicator"
  top: "indicator"
  continuation_indicator_param {
    time_step: 16
    batch_size: 128
  }
}
layer {
  name: "data_bn"
  type: "BatchNorm"
  bottom: "data"
  top: "data_bn"
}
layer {
  name: "data_scale"
  type: "Scale"
  bottom: "data_bn"
  top: "data_bn"
  param {
    lr_mult: 1
    decay_mult: 1
  }
  param {
    lr_mult: 2
    decay_mult: 1
  }
  scale_param {
    bias_term: true
  }
}
layer {
  name: "conv1"
  type: "Convolution"
  bottom: "data_bn"
  top: "conv1"
  param {
    lr_mult: 1
    decay_mult: 1
  }
  param {
    lr_mult: 2
    decay_mult: 1
  }
  convolution_param {
    num_output: 64
    pad: 3
    kernel_size: 7
    stride: 2
    weight_filler {
      type: "msra"
      variance_norm: FAN_OUT
    }
    bias_filler {
      type: "constant"
      value: 0
    }
  }
}
layer {
  name: "conv1_bn"
  type: "BatchNorm"
  bottom: "conv1"
  top: "conv1"
}
layer {
  name: "conv1_scale"
  type: "Scale"
  bottom: "conv1"
  top: "conv1"
  param {
    lr_mult: 1
    decay_mult: 1
  }
  param {
    lr_mult: 2
    decay_mult: 1
  }
  scale_param {
    bias_term: true
  }
}
layer {
  name: "conv1_relu"
  type: "ReLU"
  bottom: "conv1"
  top: "conv1"
}
layer {
  name: "conv1_pool"
  type: "Pooling"
  bottom: "conv1"
  top: "conv1_pool"
  pooling_param {
    kernel_size: 3
    stride: 2
  }
}
layer {
  name: "layer_64_1_conv1"
  type: "Convolution"
  bottom: "conv1_pool"
  top: "layer_64_1_conv1"
  param {
    lr_mult: 1
    decay_mult: 1
  }
  convolution_param {
    num_output: 64
    bias_term: false
    pad: 0
    kernel_size: 1
    stride: 1
    weight_filler {
      type: "msra"
    }
    bias_filler {
      type: "constant"
      value: 0
    }
  }
}
layer {
  name: "layer_64_1_bn2"
  type: "BatchNorm"
  bottom: "layer_64_1_conv1"
  top: "layer_64_1_conv1"
}
layer {
  name: "layer_64_1_scale2"
  type: "Scale"
  bottom: "layer_64_1_conv1"
  top: "layer_64_1_conv1"
  param {
    lr_mult: 1
    decay_mult: 1
  }
  param {
    lr_mult: 2
    decay_mult: 1
  }
  scale_param {
    bias_term: true
  }
}
layer {
  name: "layer_64_1_relu2"
  type: "ReLU"
  bottom: "layer_64_1_conv1"
  top: "layer_64_1_conv1"
}
layer {
  name: "layer_64_1_conv2"
  type: "Convolution"
  bottom: "layer_64_1_conv1"
  top: "layer_64_1_conv2"
  param {
    lr_mult: 1
    decay_mult: 1
  }
  convolution_param {
    num_output: 64
    bias_term: false
    pad: 1
    kernel_size: 3
    stride: 1
    weight_filler {
      type: "msra"
    }
    bias_filler {
      type: "constant"
      value: 0
    }
  }
}
layer {
  name: "layer_64_1_bn3"
  type: "BatchNorm"
  bottom: "layer_64_1_conv2"
  top: "layer_64_1_conv2"
}
layer {
  name: "layer_64_1_scale3"
  type: "Scale"
  bottom: "layer_64_1_conv2"
  top: "layer_64_1_conv2"
  param {
    lr_mult: 1
    decay_mult: 1
  }
  param {
    lr_mult: 2
    decay_mult: 1
  }
  scale_param {
    bias_term: true
  }
}
layer {
  name: "layer_64_1_relu3"
  type: "ReLU"
  bottom: "layer_64_1_conv2"
  top: "layer_64_1_conv2"
}
layer {
  name: "layer_64_1_conv3"
  type: "Convolution"
  bottom: "layer_64_1_conv2"
  top: "layer_64_1_conv3"
  param {
    lr_mult: 1
    decay_mult: 1
  }
  convolution_param {
    num_output: 256
    bias_term: false
    pad: 0
    kernel_size: 1
    stride: 1
    weight_filler {
      type: "msra"
    }
    bias_filler {
      type: "constant"
      value: 0
    }
  }
}
layer {
  name: "layer_64_1_conv_expand"
  type: "Convolution"
  bottom: "layer_64_1_conv1"
  top: "layer_64_1_conv_expand"
  param {
    lr_mult: 1
    decay_mult: 1
  }
  convolution_param {
    num_output: 256
    bias_term: false
    pad: 0
    kernel_size: 1
    stride: 1
    weight_filler {
      type: "msra"
    }
    bias_filler {
      type: "constant"
      value: 0
    }
  }
}
layer {
  name: "layer_64_1_sum"
  type: "Eltwise"
  bottom: "layer_64_1_conv3"
  bottom: "layer_64_1_conv_expand"
  top: "layer_64_1_sum"
}
layer {
  name: "layer_64_2_bn1"
  type: "BatchNorm"
  bottom: "layer_64_1_sum"
  top: "layer_64_2_bn1"
}
layer {
  name: "layer_64_2_scale1"
  type: "Scale"
  bottom: "layer_64_2_bn1"
  top: "layer_64_2_bn1"
  param {
    lr_mult: 1
    decay_mult: 1
  }
  param {
    lr_mult: 2
    decay_mult: 1
  }
  scale_param {
    bias_term: true
  }
}
layer {
  name: "layer_64_2_relu1"
  type: "ReLU"
  bottom: "layer_64_2_bn1"
  top: "layer_64_2_bn1"
}
layer {
  name: "layer_64_2_conv1"
  type: "Convolution"
  bottom: "layer_64_2_bn1"
  top: "layer_64_2_conv1"
  param {
    lr_mult: 1
    decay_mult: 1
  }
  convolution_param {
    num_output: 64
    bias_term: false
    pad: 0
    kernel_size: 1
    stride: 1
    weight_filler {
      type: "msra"
    }
    bias_filler {
      type: "constant"
      value: 0
    }
  }
}
layer {
  name: "layer_64_2_bn2"
  type: "BatchNorm"
  bottom: "layer_64_2_conv1"
  top: "layer_64_2_conv1"
}
layer {
  name: "layer_64_2_scale2"
  type: "Scale"
  bottom: "layer_64_2_conv1"
  top: "layer_64_2_conv1"
  param {
    lr_mult: 1
    decay_mult: 1
  }
  param {
    lr_mult: 2
    decay_mult: 1
  }
  scale_param {
    bias_term: true
  }
}
layer {
  name: "layer_64_2_relu2"
  type: "ReLU"
  bottom: "layer_64_2_conv1"
  top: "layer_64_2_conv1"
}
layer {
  name: "layer_64_2_conv2"
  type: "Convolution"
  bottom: "layer_64_2_conv1"
  top: "layer_64_2_conv2"
  param {
    lr_mult: 1
    decay_mult: 1
  }
  convolution_param {
    num_output: 64
    bias_term: false
    pad: 1
    kernel_size: 3
    stride: 1
    weight_filler {
      type: "msra"
    }
    bias_filler {
      type: "constant"
      value: 0
    }
  }
}
layer {
  name: "layer_64_2_bn3"
  type: "BatchNorm"
  bottom: "layer_64_2_conv2"
  top: "layer_64_2_conv2"
}
layer {
  name: "layer_64_2_scale3"
  type: "Scale"
  bottom: "layer_64_2_conv2"
  top: "layer_64_2_conv2"
  param {
    lr_mult: 1
    decay_mult: 1
  }
  param {
    lr_mult: 2
    decay_mult: 1
  }
  scale_param {
    bias_term: true
  }
}
layer {
  name: "layer_64_2_relu3"
  type: "ReLU"
  bottom: "layer_64_2_conv2"
  top: "layer_64_2_conv2"
}
layer {
  name: "layer_64_2_conv3"
  type: "Convolution"
  bottom: "layer_64_2_conv2"
  top: "layer_64_2_conv3"
  param {
    lr_mult: 1
    decay_mult: 1
  }
  convolution_param {
    num_output: 256
    bias_term: false
    pad: 0
    kernel_size: 1
    stride: 1
    weight_filler {
      type: "msra"
    }
    bias_filler {
      type: "constant"
      value: 0
    }
  }
}
layer {
  name: "layer_64_2_sum"
  type: "Eltwise"
  bottom: "layer_64_2_conv3"
  bottom: "layer_64_1_sum"
  top: "layer_64_2_sum"
}
layer {
  name: "layer_64_3_bn1"
  type: "BatchNorm"
  bottom: "layer_64_2_sum"
  top: "layer_64_3_bn1"
}
layer {
  name: "layer_64_3_scale1"
  type: "Scale"
  bottom: "layer_64_3_bn1"
  top: "layer_64_3_bn1"
  param {
    lr_mult: 1
    decay_mult: 1
  }
  param {
    lr_mult: 2
    decay_mult: 1
  }
  scale_param {
    bias_term: true
  }
}
layer {
  name: "layer_64_3_relu1"
  type: "ReLU"
  bottom: "layer_64_3_bn1"
  top: "layer_64_3_bn1"
}
layer {
  name: "layer_64_3_conv1"
  type: "Convolution"
  bottom: "layer_64_3_bn1"
  top: "layer_64_3_conv1"
  param {
    lr_mult: 1
    decay_mult: 1
  }
  convolution_param {
    num_output: 64
    bias_term: false
    pad: 0
    kernel_size: 1
    stride: 1
    weight_filler {
      type: "msra"
    }
    bias_filler {
      type: "constant"
      value: 0
    }
  }
}
layer {
  name: "layer_64_3_bn2"
  type: "BatchNorm"
  bottom: "layer_64_3_conv1"
  top: "layer_64_3_conv1"
}
layer {
  name: "layer_64_3_scale2"
  type: "Scale"
  bottom: "layer_64_3_conv1"
  top: "layer_64_3_conv1"
  param {
    lr_mult: 1
    decay_mult: 1
  }
  param {
    lr_mult: 2
    decay_mult: 1
  }
  scale_param {
    bias_term: true
  }
}
layer {
  name: "layer_64_3_relu2"
  type: "ReLU"
  bottom: "layer_64_3_conv1"
  top: "layer_64_3_conv1"
}
layer {
  name: "layer_64_3_conv2"
  type: "Convolution"
  bottom: "layer_64_3_conv1"
  top: "layer_64_3_conv2"
  param {
    lr_mult: 1
    decay_mult: 1
  }
  convolution_param {
    num_output: 64
    bias_term: false
    pad: 1
    kernel_size: 3
    stride: 1
    weight_filler {
      type: "msra"
    }
    bias_filler {
      type: "constant"
      value: 0
    }
  }
}
layer {
  name: "layer_64_3_bn3"
  type: "BatchNorm"
  bottom: "layer_64_3_conv2"
  top: "layer_64_3_conv2"
}
layer {
  name: "layer_64_3_scale3"
  type: "Scale"
  bottom: "layer_64_3_conv2"
  top: "layer_64_3_conv2"
  param {
    lr_mult: 1
    decay_mult: 1
  }
  param {
    lr_mult: 2
    decay_mult: 1
  }
  scale_param {
    bias_term: true
  }
}
layer {
  name: "layer_64_3_relu3"
  type: "ReLU"
  bottom: "layer_64_3_conv2"
  top: "layer_64_3_conv2"
}
layer {
  name: "layer_64_3_conv3"
  type: "Convolution"
  bottom: "layer_64_3_conv2"
  top: "layer_64_3_conv3"
  param {
    lr_mult: 1
    decay_mult: 1
  }
  convolution_param {
    num_output: 256
    bias_term: false
    pad: 0
    kernel_size: 1
    stride: 1
    weight_filler {
      type: "msra"
    }
    bias_filler {
      type: "constant"
      value: 0
    }
  }
}
layer {
  name: "layer_64_3_sum"
  type: "Eltwise"
  bottom: "layer_64_3_conv3"
  bottom: "layer_64_2_sum"
  top: "layer_64_3_sum"
}
layer {
  name: "layer_128_1_bn1"
  type: "BatchNorm"
  bottom: "layer_64_3_sum"
  top: "layer_128_1_bn1"
}
layer {
  name: "layer_128_1_scale1"
  type: "Scale"
  bottom: "layer_128_1_bn1"
  top: "layer_128_1_bn1"
  param {
    lr_mult: 1
    decay_mult: 1
  }
  param {
    lr_mult: 2
    decay_mult: 1
  }
  scale_param {
    bias_term: true
  }
}
layer {
  name: "layer_128_1_relu1"
  type: "ReLU"
  bottom: "layer_128_1_bn1"
  top: "layer_128_1_bn1"
}
layer {
  name: "layer_128_1_conv1"
  type: "Convolution"
  bottom: "layer_128_1_bn1"
  top: "layer_128_1_conv1"
  param {
    lr_mult: 1
    decay_mult: 1
  }
  convolution_param {
    num_output: 128
    bias_term: false
    pad: 0
    kernel_size: 1
    stride: 1
    weight_filler {
      type: "msra"
    }
    bias_filler {
      type: "constant"
      value: 0
    }
  }
}
layer {
  name: "layer_128_1_bn2"
  type: "BatchNorm"
  bottom: "layer_128_1_conv1"
  top: "layer_128_1_conv1"
}
layer {
  name: "layer_128_1_scale2"
  type: "Scale"
  bottom: "layer_128_1_conv1"
  top: "layer_128_1_conv1"
  param {
    lr_mult: 1
    decay_mult: 1
  }
  param {
    lr_mult: 2
    decay_mult: 1
  }
  scale_param {
    bias_term: true
  }
}
layer {
  name: "layer_128_1_relu2"
  type: "ReLU"
  bottom: "layer_128_1_conv1"
  top: "layer_128_1_conv1"
}
layer {
  name: "layer_128_1_conv2"
  type: "Convolution"
  bottom: "layer_128_1_conv1"
  top: "layer_128_1_conv2"
  param {
    lr_mult: 1
    decay_mult: 1
  }
  convolution_param {
    num_output: 128
    bias_term: false
    pad: 1
    kernel_size: 3
    stride: 2
    weight_filler {
      type: "msra"
    }
    bias_filler {
      type: "constant"
      value: 0
    }
  }
}
layer {
  name: "layer_128_1_bn3"
  type: "BatchNorm"
  bottom: "layer_128_1_conv2"
  top: "layer_128_1_conv2"
}
layer {
  name: "layer_128_1_scale3"
  type: "Scale"
  bottom: "layer_128_1_conv2"
  top: "layer_128_1_conv2"
  param {
    lr_mult: 1
    decay_mult: 1
  }
  param {
    lr_mult: 2
    decay_mult: 1
  }
  scale_param {
    bias_term: true
  }
}
layer {
  name: "layer_128_1_relu3"
  type: "ReLU"
  bottom: "layer_128_1_conv2"
  top: "layer_128_1_conv2"
}
layer {
  name: "layer_128_1_conv3"
  type: "Convolution"
  bottom: "layer_128_1_conv2"
  top: "layer_128_1_conv3"
  param {
    lr_mult: 1
    decay_mult: 1
  }
  convolution_param {
    num_output: 512
    bias_term: false
    pad: 0
    kernel_size: 1
    stride: 1
    weight_filler {
      type: "msra"
    }
    bias_filler {
      type: "constant"
      value: 0
    }
  }
}
layer {
  name: "layer_128_1_conv_expand"
  type: "Convolution"
  bottom: "layer_128_1_bn1"
  top: "layer_128_1_conv_expand"
  param {
    lr_mult: 1
    decay_mult: 1
  }
  convolution_param {
    num_output: 512
    bias_term: false
    pad: 0
    kernel_size: 1
    stride: 2
    weight_filler {
      type: "msra"
    }
    bias_filler {
      type: "constant"
      value: 0
    }
  }
}
layer {
  name: "layer_128_1_sum"
  type: "Eltwise"
  bottom: "layer_128_1_conv3"
  bottom: "layer_128_1_conv_expand"
  top: "layer_128_1_sum"
}
layer {
  name: "layer_128_2_bn1"
  type: "BatchNorm"
  bottom: "layer_128_1_sum"
  top: "layer_128_2_bn1"
}
layer {
  name: "layer_128_2_scale1"
  type: "Scale"
  bottom: "layer_128_2_bn1"
  top: "layer_128_2_bn1"
  param {
    lr_mult: 1
    decay_mult: 1
  }
  param {
    lr_mult: 2
    decay_mult: 1
  }
  scale_param {
    bias_term: true
  }
}
layer {
  name: "layer_128_2_relu1"
  type: "ReLU"
  bottom: "layer_128_2_bn1"
  top: "layer_128_2_bn1"
}
layer {
  name: "layer_128_2_conv1"
  type: "Convolution"
  bottom: "layer_128_2_bn1"
  top: "layer_128_2_conv1"
  param {
    lr_mult: 1
    decay_mult: 1
  }
  convolution_param {
    num_output: 128
    bias_term: false
    pad: 0
    kernel_size: 1
    stride: 1
    weight_filler {
      type: "msra"
    }
    bias_filler {
      type: "constant"
      value: 0
    }
  }
}
layer {
  name: "layer_128_2_bn2"
  type: "BatchNorm"
  bottom: "layer_128_2_conv1"
  top: "layer_128_2_conv1"
}
layer {
  name: "layer_128_2_scale2"
  type: "Scale"
  bottom: "layer_128_2_conv1"
  top: "layer_128_2_conv1"
  param {
    lr_mult: 1
    decay_mult: 1
  }
  param {
    lr_mult: 2
    decay_mult: 1
  }
  scale_param {
    bias_term: true
  }
}
layer {
  name: "layer_128_2_relu2"
  type: "ReLU"
  bottom: "layer_128_2_conv1"
  top: "layer_128_2_conv1"
}
layer {
  name: "layer_128_2_conv2"
  type: "Convolution"
  bottom: "layer_128_2_conv1"
  top: "layer_128_2_conv2"
  param {
    lr_mult: 1
    decay_mult: 1
  }
  convolution_param {
    num_output: 128
    bias_term: false
    pad: 1
    kernel_size: 3
    stride: 1
    weight_filler {
      type: "msra"
    }
    bias_filler {
      type: "constant"
      value: 0
    }
  }
}
layer {
  name: "layer_128_2_bn3"
  type: "BatchNorm"
  bottom: "layer_128_2_conv2"
  top: "layer_128_2_conv2"
}
layer {
  name: "layer_128_2_scale3"
  type: "Scale"
  bottom: "layer_128_2_conv2"
  top: "layer_128_2_conv2"
  param {
    lr_mult: 1
    decay_mult: 1
  }
  param {
    lr_mult: 2
    decay_mult: 1
  }
  scale_param {
    bias_term: true
  }
}
layer {
  name: "layer_128_2_relu3"
  type: "ReLU"
  bottom: "layer_128_2_conv2"
  top: "layer_128_2_conv2"
}
layer {
  name: "layer_128_2_conv3"
  type: "Convolution"
  bottom: "layer_128_2_conv2"
  top: "layer_128_2_conv3"
  param {
    lr_mult: 1
    decay_mult: 1
  }
  convolution_param {
    num_output: 512
    bias_term: false
    pad: 0
    kernel_size: 1
    stride: 1
    weight_filler {
      type: "msra"
    }
    bias_filler {
      type: "constant"
      value: 0
    }
  }
}
layer {
  name: "layer_128_2_sum"
  type: "Eltwise"
  bottom: "layer_128_2_conv3"
  bottom: "layer_128_1_sum"
  top: "layer_128_2_sum"
}
layer {
  name: "layer_128_3_bn1"
  type: "BatchNorm"
  bottom: "layer_128_2_sum"
  top: "layer_128_3_bn1"
}
layer {
  name: "layer_128_3_scale1"
  type: "Scale"
  bottom: "layer_128_3_bn1"
  top: "layer_128_3_bn1"
  param {
    lr_mult: 1
    decay_mult: 1
  }
  param {
    lr_mult: 2
    decay_mult: 1
  }
  scale_param {
    bias_term: true
  }
}
layer {
  name: "layer_128_3_relu1"
  type: "ReLU"
  bottom: "layer_128_3_bn1"
  top: "layer_128_3_bn1"
}
layer {
  name: "layer_128_3_conv1"
  type: "Convolution"
  bottom: "layer_128_3_bn1"
  top: "layer_128_3_conv1"
  param {
    lr_mult: 1
    decay_mult: 1
  }
  convolution_param {
    num_output: 128
    bias_term: false
    pad: 0
    kernel_size: 1
    stride: 1
    weight_filler {
      type: "msra"
    }
    bias_filler {
      type: "constant"
      value: 0
    }
  }
}
layer {
  name: "layer_128_3_bn2"
  type: "BatchNorm"
  bottom: "layer_128_3_conv1"
  top: "layer_128_3_conv1"
}
layer {
  name: "layer_128_3_scale2"
  type: "Scale"
  bottom: "layer_128_3_conv1"
  top: "layer_128_3_conv1"
  param {
    lr_mult: 1
    decay_mult: 1
  }
  param {
    lr_mult: 2
    decay_mult: 1
  }
  scale_param {
    bias_term: true
  }
}
layer {
  name: "layer_128_3_relu2"
  type: "ReLU"
  bottom: "layer_128_3_conv1"
  top: "layer_128_3_conv1"
}
layer {
  name: "layer_128_3_conv2"
  type: "Convolution"
  bottom: "layer_128_3_conv1"
  top: "layer_128_3_conv2"
  param {
    lr_mult: 1
    decay_mult: 1
  }
  convolution_param {
    num_output: 128
    bias_term: false
    pad: 1
    kernel_size: 3
    stride: 1
    weight_filler {
      type: "msra"
    }
    bias_filler {
      type: "constant"
      value: 0
    }
  }
}
layer {
  name: "layer_128_3_bn3"
  type: "BatchNorm"
  bottom: "layer_128_3_conv2"
  top: "layer_128_3_conv2"
}
layer {
  name: "layer_128_3_scale3"
  type: "Scale"
  bottom: "layer_128_3_conv2"
  top: "layer_128_3_conv2"
  param {
    lr_mult: 1
    decay_mult: 1
  }
  param {
    lr_mult: 2
    decay_mult: 1
  }
  scale_param {
    bias_term: true
  }
}
layer {
  name: "layer_128_3_relu3"
  type: "ReLU"
  bottom: "layer_128_3_conv2"
  top: "layer_128_3_conv2"
}
layer {
  name: "layer_128_3_conv3"
  type: "Convolution"
  bottom: "layer_128_3_conv2"
  top: "layer_128_3_conv3"
  param {
    lr_mult: 1
    decay_mult: 1
  }
  convolution_param {
    num_output: 512
    bias_term: false
    pad: 0
    kernel_size: 1
    stride: 1
    weight_filler {
      type: "msra"
    }
    bias_filler {
      type: "constant"
      value: 0
    }
  }
}
layer {
  name: "layer_128_3_sum"
  type: "Eltwise"
  bottom: "layer_128_3_conv3"
  bottom: "layer_128_2_sum"
  top: "layer_128_3_sum"
}
layer {
  name: "layer_128_4_bn1"
  type: "BatchNorm"
  bottom: "layer_128_3_sum"
  top: "layer_128_4_bn1"
}
layer {
  name: "layer_128_4_scale1"
  type: "Scale"
  bottom: "layer_128_4_bn1"
  top: "layer_128_4_bn1"
  param {
    lr_mult: 1
    decay_mult: 1
  }
  param {
    lr_mult: 2
    decay_mult: 1
  }
  scale_param {
    bias_term: true
  }
}
layer {
  name: "layer_128_4_relu1"
  type: "ReLU"
  bottom: "layer_128_4_bn1"
  top: "layer_128_4_bn1"
}
layer {
  name: "layer_128_4_conv1"
  type: "Convolution"
  bottom: "layer_128_4_bn1"
  top: "layer_128_4_conv1"
  param {
    lr_mult: 1
    decay_mult: 1
  }
  convolution_param {
    num_output: 128
    bias_term: false
    pad: 0
    kernel_size: 1
    stride: 1
    weight_filler {
      type: "msra"
    }
    bias_filler {
      type: "constant"
      value: 0
    }
  }
}
layer {
  name: "layer_128_4_bn2"
  type: "BatchNorm"
  bottom: "layer_128_4_conv1"
  top: "layer_128_4_conv1"
}
layer {
  name: "layer_128_4_scale2"
  type: "Scale"
  bottom: "layer_128_4_conv1"
  top: "layer_128_4_conv1"
  param {
    lr_mult: 1
    decay_mult: 1
  }
  param {
    lr_mult: 2
    decay_mult: 1
  }
  scale_param {
    bias_term: true
  }
}
layer {
  name: "layer_128_4_relu2"
  type: "ReLU"
  bottom: "layer_128_4_conv1"
  top: "layer_128_4_conv1"
}
layer {
  name: "layer_128_4_conv2"
  type: "Convolution"
  bottom: "layer_128_4_conv1"
  top: "layer_128_4_conv2"
  param {
    lr_mult: 1
    decay_mult: 1
  }
  convolution_param {
    num_output: 128
    bias_term: false
    pad: 1
    kernel_size: 3
    stride: 1
    weight_filler {
      type: "msra"
    }
    bias_filler {
      type: "constant"
      value: 0
    }
  }
}
layer {
  name: "layer_128_4_bn3"
  type: "BatchNorm"
  bottom: "layer_128_4_conv2"
  top: "layer_128_4_conv2"
}
layer {
  name: "layer_128_4_scale3"
  type: "Scale"
  bottom: "layer_128_4_conv2"
  top: "layer_128_4_conv2"
  param {
    lr_mult: 1
    decay_mult: 1
  }
  param {
    lr_mult: 2
    decay_mult: 1
  }
  scale_param {
    bias_term: true
  }
}
layer {
  name: "layer_128_4_relu3"
  type: "ReLU"
  bottom: "layer_128_4_conv2"
  top: "layer_128_4_conv2"
}
layer {
  name: "layer_128_4_conv3"
  type: "Convolution"
  bottom: "layer_128_4_conv2"
  top: "layer_128_4_conv3"
  param {
    lr_mult: 1
    decay_mult: 1
  }
  convolution_param {
    num_output: 512
    bias_term: false
    pad: 0
    kernel_size: 1
    stride: 1
    weight_filler {
      type: "msra"
    }
    bias_filler {
      type: "constant"
      value: 0
    }
  }
}
layer {
  name: "layer_128_4_sum"
  type: "Eltwise"
  bottom: "layer_128_4_conv3"
  bottom: "layer_128_3_sum"
  top: "layer_128_4_sum"
}
layer {
  name: "last_bn"
  type: "BatchNorm"
  bottom: "layer_128_4_sum"
  top: "layer_128_4_sum"
}
layer {
  name: "last_scale"
  type: "Scale"
  bottom: "layer_128_4_sum"
  top: "layer_128_4_sum"
  param {
    lr_mult: 1
    decay_mult: 1
  }
  param {
    lr_mult: 2
    decay_mult: 1
  }
  scale_param {
    bias_term: true
  }
}
layer {
  name: "last_relu"
  type: "ReLU"
  bottom: "layer_128_4_sum"
  top: "layer_128_4_sum"
}
layer {
  name: "dropout"
  type: "Dropout"
  bottom: "layer_128_4_sum"
  top: "layer_128_4_sum"
  dropout_param {
    dropout_ratio: 0.7
  }
}
layer {
  name: "permuted_data"
  type: "Permute"
  bottom: "layer_128_4_sum"
  top: "permuted_data"
  permute_param {
    order: 3
    order: 0
    order: 1
    order: 2
  }
}
layer {
  name: "lstm-reverse1"
  type: "Reverse"
  bottom: "permuted_data"
  top: "rlstm_input"
  reverse_param {
    axis: 0
  }
}
layer {
  name: "lstm2x"
  type: "LSTM"
  bottom: "rlstm_input"
  bottom: "indicator"
  top: "lstm2x"
  recurrent_param {
    num_output: 100
    weight_filler {
      type: "xavier"
    }
    bias_filler {
      type: "constant"
      value: 0
    }
  }
}
layer {
  name: "lstm-reverse2"
  type: "Reverse"
  bottom: "lstm2x"
  top: "rlstmx"
  reverse_param {
    axis: 0
  }
}
layer {
  name: "lstm1x"
  type: "LSTM"
  bottom: "permuted_data"
  bottom: "indicator"
  top: "lstm1x"
  recurrent_param {
    num_output: 100
    weight_filler {
      type: "xavier"
    }
    bias_filler {
      type: "constant"
      value: 0
    }
  }
}
layer {
  name: "merge_lstm_rlstmx"
  type: "Concat"
  bottom: "lstm1x"
  bottom: "rlstmx"
  top: "merge_lstm_rlstmx"
  concat_param {
    axis: 2
  }
}
layer {
  name: "fc1x"
  type: "InnerProduct"
  bottom: "merge_lstm_rlstmx"
  top: "fc1x"
  param {
    lr_mult: 1
    decay_mult: 1
  }
  param {
    lr_mult: 2
    decay_mult: 0
  }
  inner_product_param {
    num_output: 66
    weight_filler {
      type: "xavier"
    }
    bias_filler {
      type: "constant"
      value: 0
    }
    axis: 2
  }
}
layer {
  name: "ctcloss"
  type: "WarpCTCLoss"
  bottom: "fc1x"
  bottom: "label"
  top: "ctcloss"
  loss_weight: 1
  ctc_loss_param {
    blank_index: 65
  }
}
I0520 11:16:07.551446  5291 layer_factory.hpp:77] Creating layer data
I0520 11:16:07.551465  5291 net.cpp:100] Creating Layer data
I0520 11:16:07.551472  5291 net.cpp:408] data -> data
I0520 11:16:07.551499  5291 net.cpp:408] data -> label
I0520 11:16:07.551512  5291 hdf5_data_layer.cpp:79] Loading list of HDF5 filenames from: /home/zhuyipin/DATASET/ccpd/bbox_caffe_data_gen/training.list
I0520 11:16:07.551558  5291 hdf5_data_layer.cpp:93] Number of HDF5 files: 10
I0520 11:16:07.552816  5291 hdf5.cpp:32] Datatype class: H5T_FLOAT
I0520 11:16:07.621789  5291 net.cpp:150] Setting up data
I0520 11:16:07.621850  5291 net.cpp:157] Top shape: 128 3 32 128 (1572864)
I0520 11:16:07.621855  5291 net.cpp:157] Top shape: 128 7 (896)
I0520 11:16:07.621856  5291 net.cpp:165] Memory required for data: 6295040
I0520 11:16:07.621865  5291 layer_factory.hpp:77] Creating layer indicator
I0520 11:16:07.621876  5291 net.cpp:100] Creating Layer indicator
I0520 11:16:07.621881  5291 net.cpp:408] indicator -> indicator
I0520 11:16:07.621906  5291 net.cpp:150] Setting up indicator
I0520 11:16:07.621908  5291 net.cpp:157] Top shape: 16 128 (2048)
I0520 11:16:07.621910  5291 net.cpp:165] Memory required for data: 6303232
I0520 11:16:07.621912  5291 layer_factory.hpp:77] Creating layer indicator_indicator_0_split
I0520 11:16:07.621933  5291 net.cpp:100] Creating Layer indicator_indicator_0_split
I0520 11:16:07.621937  5291 net.cpp:434] indicator_indicator_0_split <- indicator
I0520 11:16:07.621948  5291 net.cpp:408] indicator_indicator_0_split -> indicator_indicator_0_split_0
I0520 11:16:07.621953  5291 net.cpp:408] indicator_indicator_0_split -> indicator_indicator_0_split_1
I0520 11:16:07.621974  5291 net.cpp:150] Setting up indicator_indicator_0_split
I0520 11:16:07.621979  5291 net.cpp:157] Top shape: 16 128 (2048)
I0520 11:16:07.621982  5291 net.cpp:157] Top shape: 16 128 (2048)
I0520 11:16:07.621985  5291 net.cpp:165] Memory required for data: 6319616
I0520 11:16:07.621989  5291 layer_factory.hpp:77] Creating layer data_bn
I0520 11:16:07.621996  5291 net.cpp:100] Creating Layer data_bn
I0520 11:16:07.621999  5291 net.cpp:434] data_bn <- data
I0520 11:16:07.622004  5291 net.cpp:408] data_bn -> data_bn
I0520 11:16:07.622184  5291 net.cpp:150] Setting up data_bn
I0520 11:16:07.622208  5291 net.cpp:157] Top shape: 128 3 32 128 (1572864)
I0520 11:16:07.622212  5291 net.cpp:165] Memory required for data: 12611072
I0520 11:16:07.622233  5291 layer_factory.hpp:77] Creating layer data_scale
I0520 11:16:07.622244  5291 net.cpp:100] Creating Layer data_scale
I0520 11:16:07.622248  5291 net.cpp:434] data_scale <- data_bn
I0520 11:16:07.622254  5291 net.cpp:395] data_scale -> data_bn (in-place)
I0520 11:16:07.622295  5291 layer_factory.hpp:77] Creating layer data_scale
I0520 11:16:07.622401  5291 net.cpp:150] Setting up data_scale
I0520 11:16:07.622411  5291 net.cpp:157] Top shape: 128 3 32 128 (1572864)
I0520 11:16:07.622416  5291 net.cpp:165] Memory required for data: 18902528
I0520 11:16:07.622423  5291 layer_factory.hpp:77] Creating layer conv1
I0520 11:16:07.622438  5291 net.cpp:100] Creating Layer conv1
I0520 11:16:07.622442  5291 net.cpp:434] conv1 <- data_bn
I0520 11:16:07.622449  5291 net.cpp:408] conv1 -> conv1
I0520 11:16:08.309725  5291 net.cpp:150] Setting up conv1
I0520 11:16:08.309753  5291 net.cpp:157] Top shape: 128 64 16 64 (8388608)
I0520 11:16:08.309756  5291 net.cpp:165] Memory required for data: 52456960
I0520 11:16:08.309765  5291 layer_factory.hpp:77] Creating layer conv1_bn
I0520 11:16:08.309773  5291 net.cpp:100] Creating Layer conv1_bn
I0520 11:16:08.309777  5291 net.cpp:434] conv1_bn <- conv1
I0520 11:16:08.309783  5291 net.cpp:395] conv1_bn -> conv1 (in-place)
I0520 11:16:08.309924  5291 net.cpp:150] Setting up conv1_bn
I0520 11:16:08.309933  5291 net.cpp:157] Top shape: 128 64 16 64 (8388608)
I0520 11:16:08.309937  5291 net.cpp:165] Memory required for data: 86011392
I0520 11:16:08.309947  5291 layer_factory.hpp:77] Creating layer conv1_scale
I0520 11:16:08.309955  5291 net.cpp:100] Creating Layer conv1_scale
I0520 11:16:08.309959  5291 net.cpp:434] conv1_scale <- conv1
I0520 11:16:08.309965  5291 net.cpp:395] conv1_scale -> conv1 (in-place)
I0520 11:16:08.309999  5291 layer_factory.hpp:77] Creating layer conv1_scale
I0520 11:16:08.310101  5291 net.cpp:150] Setting up conv1_scale
I0520 11:16:08.310111  5291 net.cpp:157] Top shape: 128 64 16 64 (8388608)
I0520 11:16:08.310113  5291 net.cpp:165] Memory required for data: 119565824
I0520 11:16:08.310120  5291 layer_factory.hpp:77] Creating layer conv1_relu
I0520 11:16:08.310129  5291 net.cpp:100] Creating Layer conv1_relu
I0520 11:16:08.310165  5291 net.cpp:434] conv1_relu <- conv1
I0520 11:16:08.310173  5291 net.cpp:395] conv1_relu -> conv1 (in-place)
I0520 11:16:08.310441  5291 net.cpp:150] Setting up conv1_relu
I0520 11:16:08.310453  5291 net.cpp:157] Top shape: 128 64 16 64 (8388608)
I0520 11:16:08.310456  5291 net.cpp:165] Memory required for data: 153120256
I0520 11:16:08.310459  5291 layer_factory.hpp:77] Creating layer conv1_pool
I0520 11:16:08.310467  5291 net.cpp:100] Creating Layer conv1_pool
I0520 11:16:08.310472  5291 net.cpp:434] conv1_pool <- conv1
I0520 11:16:08.310477  5291 net.cpp:408] conv1_pool -> conv1_pool
I0520 11:16:08.310531  5291 net.cpp:150] Setting up conv1_pool
I0520 11:16:08.310540  5291 net.cpp:157] Top shape: 128 64 8 32 (2097152)
I0520 11:16:08.310544  5291 net.cpp:165] Memory required for data: 161508864
I0520 11:16:08.310549  5291 layer_factory.hpp:77] Creating layer layer_64_1_conv1
I0520 11:16:08.310560  5291 net.cpp:100] Creating Layer layer_64_1_conv1
I0520 11:16:08.310564  5291 net.cpp:434] layer_64_1_conv1 <- conv1_pool
I0520 11:16:08.310571  5291 net.cpp:408] layer_64_1_conv1 -> layer_64_1_conv1
I0520 11:16:08.311769  5291 net.cpp:150] Setting up layer_64_1_conv1
I0520 11:16:08.311785  5291 net.cpp:157] Top shape: 128 64 8 32 (2097152)
I0520 11:16:08.311789  5291 net.cpp:165] Memory required for data: 169897472
I0520 11:16:08.311794  5291 layer_factory.hpp:77] Creating layer layer_64_1_bn2
I0520 11:16:08.311801  5291 net.cpp:100] Creating Layer layer_64_1_bn2
I0520 11:16:08.311805  5291 net.cpp:434] layer_64_1_bn2 <- layer_64_1_conv1
I0520 11:16:08.311812  5291 net.cpp:395] layer_64_1_bn2 -> layer_64_1_conv1 (in-place)
I0520 11:16:08.311982  5291 net.cpp:150] Setting up layer_64_1_bn2
I0520 11:16:08.311991  5291 net.cpp:157] Top shape: 128 64 8 32 (2097152)
I0520 11:16:08.311993  5291 net.cpp:165] Memory required for data: 178286080
I0520 11:16:08.312000  5291 layer_factory.hpp:77] Creating layer layer_64_1_scale2
I0520 11:16:08.312006  5291 net.cpp:100] Creating Layer layer_64_1_scale2
I0520 11:16:08.312011  5291 net.cpp:434] layer_64_1_scale2 <- layer_64_1_conv1
I0520 11:16:08.312016  5291 net.cpp:395] layer_64_1_scale2 -> layer_64_1_conv1 (in-place)
I0520 11:16:08.312052  5291 layer_factory.hpp:77] Creating layer layer_64_1_scale2
I0520 11:16:08.312151  5291 net.cpp:150] Setting up layer_64_1_scale2
I0520 11:16:08.312160  5291 net.cpp:157] Top shape: 128 64 8 32 (2097152)
I0520 11:16:08.312161  5291 net.cpp:165] Memory required for data: 186674688
I0520 11:16:08.312170  5291 layer_factory.hpp:77] Creating layer layer_64_1_relu2
I0520 11:16:08.312176  5291 net.cpp:100] Creating Layer layer_64_1_relu2
I0520 11:16:08.312180  5291 net.cpp:434] layer_64_1_relu2 <- layer_64_1_conv1
I0520 11:16:08.312186  5291 net.cpp:395] layer_64_1_relu2 -> layer_64_1_conv1 (in-place)
I0520 11:16:08.312613  5291 net.cpp:150] Setting up layer_64_1_relu2
I0520 11:16:08.312626  5291 net.cpp:157] Top shape: 128 64 8 32 (2097152)
I0520 11:16:08.312628  5291 net.cpp:165] Memory required for data: 195063296
I0520 11:16:08.312633  5291 layer_factory.hpp:77] Creating layer layer_64_1_conv1_layer_64_1_relu2_0_split
I0520 11:16:08.312639  5291 net.cpp:100] Creating Layer layer_64_1_conv1_layer_64_1_relu2_0_split
I0520 11:16:08.312644  5291 net.cpp:434] layer_64_1_conv1_layer_64_1_relu2_0_split <- layer_64_1_conv1
I0520 11:16:08.312650  5291 net.cpp:408] layer_64_1_conv1_layer_64_1_relu2_0_split -> layer_64_1_conv1_layer_64_1_relu2_0_split_0
I0520 11:16:08.312657  5291 net.cpp:408] layer_64_1_conv1_layer_64_1_relu2_0_split -> layer_64_1_conv1_layer_64_1_relu2_0_split_1
I0520 11:16:08.312697  5291 net.cpp:150] Setting up layer_64_1_conv1_layer_64_1_relu2_0_split
I0520 11:16:08.312705  5291 net.cpp:157] Top shape: 128 64 8 32 (2097152)
I0520 11:16:08.312711  5291 net.cpp:157] Top shape: 128 64 8 32 (2097152)
I0520 11:16:08.312714  5291 net.cpp:165] Memory required for data: 211840512
I0520 11:16:08.312718  5291 layer_factory.hpp:77] Creating layer layer_64_1_conv2
I0520 11:16:08.312729  5291 net.cpp:100] Creating Layer layer_64_1_conv2
I0520 11:16:08.312757  5291 net.cpp:434] layer_64_1_conv2 <- layer_64_1_conv1_layer_64_1_relu2_0_split_0
I0520 11:16:08.312765  5291 net.cpp:408] layer_64_1_conv2 -> layer_64_1_conv2
I0520 11:16:08.314254  5291 net.cpp:150] Setting up layer_64_1_conv2
I0520 11:16:08.314267  5291 net.cpp:157] Top shape: 128 64 8 32 (2097152)
I0520 11:16:08.314270  5291 net.cpp:165] Memory required for data: 220229120
I0520 11:16:08.314275  5291 layer_factory.hpp:77] Creating layer layer_64_1_bn3
I0520 11:16:08.314283  5291 net.cpp:100] Creating Layer layer_64_1_bn3
I0520 11:16:08.314288  5291 net.cpp:434] layer_64_1_bn3 <- layer_64_1_conv2
I0520 11:16:08.314293  5291 net.cpp:395] layer_64_1_bn3 -> layer_64_1_conv2 (in-place)
I0520 11:16:08.314465  5291 net.cpp:150] Setting up layer_64_1_bn3
I0520 11:16:08.314473  5291 net.cpp:157] Top shape: 128 64 8 32 (2097152)
I0520 11:16:08.314476  5291 net.cpp:165] Memory required for data: 228617728
I0520 11:16:08.314482  5291 layer_factory.hpp:77] Creating layer layer_64_1_scale3
I0520 11:16:08.314489  5291 net.cpp:100] Creating Layer layer_64_1_scale3
I0520 11:16:08.314493  5291 net.cpp:434] layer_64_1_scale3 <- layer_64_1_conv2
I0520 11:16:08.314499  5291 net.cpp:395] layer_64_1_scale3 -> layer_64_1_conv2 (in-place)
I0520 11:16:08.314532  5291 layer_factory.hpp:77] Creating layer layer_64_1_scale3
I0520 11:16:08.314635  5291 net.cpp:150] Setting up layer_64_1_scale3
I0520 11:16:08.314642  5291 net.cpp:157] Top shape: 128 64 8 32 (2097152)
I0520 11:16:08.314646  5291 net.cpp:165] Memory required for data: 237006336
I0520 11:16:08.314649  5291 layer_factory.hpp:77] Creating layer layer_64_1_relu3
I0520 11:16:08.314656  5291 net.cpp:100] Creating Layer layer_64_1_relu3
I0520 11:16:08.314659  5291 net.cpp:434] layer_64_1_relu3 <- layer_64_1_conv2
I0520 11:16:08.314666  5291 net.cpp:395] layer_64_1_relu3 -> layer_64_1_conv2 (in-place)
I0520 11:16:08.314965  5291 net.cpp:150] Setting up layer_64_1_relu3
I0520 11:16:08.314975  5291 net.cpp:157] Top shape: 128 64 8 32 (2097152)
I0520 11:16:08.314977  5291 net.cpp:165] Memory required for data: 245394944
I0520 11:16:08.314981  5291 layer_factory.hpp:77] Creating layer layer_64_1_conv3
I0520 11:16:08.314991  5291 net.cpp:100] Creating Layer layer_64_1_conv3
I0520 11:16:08.314994  5291 net.cpp:434] layer_64_1_conv3 <- layer_64_1_conv2
I0520 11:16:08.315001  5291 net.cpp:408] layer_64_1_conv3 -> layer_64_1_conv3
I0520 11:16:08.317215  5291 net.cpp:150] Setting up layer_64_1_conv3
I0520 11:16:08.317229  5291 net.cpp:157] Top shape: 128 256 8 32 (8388608)
I0520 11:16:08.317232  5291 net.cpp:165] Memory required for data: 278949376
I0520 11:16:08.317237  5291 layer_factory.hpp:77] Creating layer layer_64_1_conv_expand
I0520 11:16:08.317247  5291 net.cpp:100] Creating Layer layer_64_1_conv_expand
I0520 11:16:08.317252  5291 net.cpp:434] layer_64_1_conv_expand <- layer_64_1_conv1_layer_64_1_relu2_0_split_1
I0520 11:16:08.317258  5291 net.cpp:408] layer_64_1_conv_expand -> layer_64_1_conv_expand
I0520 11:16:08.318614  5291 net.cpp:150] Setting up layer_64_1_conv_expand
I0520 11:16:08.318627  5291 net.cpp:157] Top shape: 128 256 8 32 (8388608)
I0520 11:16:08.318630  5291 net.cpp:165] Memory required for data: 312503808
I0520 11:16:08.318634  5291 layer_factory.hpp:77] Creating layer layer_64_1_sum
I0520 11:16:08.318641  5291 net.cpp:100] Creating Layer layer_64_1_sum
I0520 11:16:08.318646  5291 net.cpp:434] layer_64_1_sum <- layer_64_1_conv3
I0520 11:16:08.318651  5291 net.cpp:434] layer_64_1_sum <- layer_64_1_conv_expand
I0520 11:16:08.318656  5291 net.cpp:408] layer_64_1_sum -> layer_64_1_sum
I0520 11:16:08.318681  5291 net.cpp:150] Setting up layer_64_1_sum
I0520 11:16:08.318688  5291 net.cpp:157] Top shape: 128 256 8 32 (8388608)
I0520 11:16:08.318692  5291 net.cpp:165] Memory required for data: 346058240
I0520 11:16:08.318696  5291 layer_factory.hpp:77] Creating layer layer_64_1_sum_layer_64_1_sum_0_split
I0520 11:16:08.318704  5291 net.cpp:100] Creating Layer layer_64_1_sum_layer_64_1_sum_0_split
I0520 11:16:08.318708  5291 net.cpp:434] layer_64_1_sum_layer_64_1_sum_0_split <- layer_64_1_sum
I0520 11:16:08.318732  5291 net.cpp:408] layer_64_1_sum_layer_64_1_sum_0_split -> layer_64_1_sum_layer_64_1_sum_0_split_0
I0520 11:16:08.318739  5291 net.cpp:408] layer_64_1_sum_layer_64_1_sum_0_split -> layer_64_1_sum_layer_64_1_sum_0_split_1
I0520 11:16:08.318775  5291 net.cpp:150] Setting up layer_64_1_sum_layer_64_1_sum_0_split
I0520 11:16:08.318784  5291 net.cpp:157] Top shape: 128 256 8 32 (8388608)
I0520 11:16:08.318790  5291 net.cpp:157] Top shape: 128 256 8 32 (8388608)
I0520 11:16:08.318794  5291 net.cpp:165] Memory required for data: 413167104
I0520 11:16:08.318799  5291 layer_factory.hpp:77] Creating layer layer_64_2_bn1
I0520 11:16:08.318806  5291 net.cpp:100] Creating Layer layer_64_2_bn1
I0520 11:16:08.318810  5291 net.cpp:434] layer_64_2_bn1 <- layer_64_1_sum_layer_64_1_sum_0_split_0
I0520 11:16:08.318816  5291 net.cpp:408] layer_64_2_bn1 -> layer_64_2_bn1
I0520 11:16:08.318994  5291 net.cpp:150] Setting up layer_64_2_bn1
I0520 11:16:08.319002  5291 net.cpp:157] Top shape: 128 256 8 32 (8388608)
I0520 11:16:08.319005  5291 net.cpp:165] Memory required for data: 446721536
I0520 11:16:08.319011  5291 layer_factory.hpp:77] Creating layer layer_64_2_scale1
I0520 11:16:08.319017  5291 net.cpp:100] Creating Layer layer_64_2_scale1
I0520 11:16:08.319022  5291 net.cpp:434] layer_64_2_scale1 <- layer_64_2_bn1
I0520 11:16:08.319030  5291 net.cpp:395] layer_64_2_scale1 -> layer_64_2_bn1 (in-place)
I0520 11:16:08.319059  5291 layer_factory.hpp:77] Creating layer layer_64_2_scale1
I0520 11:16:08.319150  5291 net.cpp:150] Setting up layer_64_2_scale1
I0520 11:16:08.319157  5291 net.cpp:157] Top shape: 128 256 8 32 (8388608)
I0520 11:16:08.319160  5291 net.cpp:165] Memory required for data: 480275968
I0520 11:16:08.319165  5291 layer_factory.hpp:77] Creating layer layer_64_2_relu1
I0520 11:16:08.319171  5291 net.cpp:100] Creating Layer layer_64_2_relu1
I0520 11:16:08.319175  5291 net.cpp:434] layer_64_2_relu1 <- layer_64_2_bn1
I0520 11:16:08.319181  5291 net.cpp:395] layer_64_2_relu1 -> layer_64_2_bn1 (in-place)
I0520 11:16:08.319608  5291 net.cpp:150] Setting up layer_64_2_relu1
I0520 11:16:08.319620  5291 net.cpp:157] Top shape: 128 256 8 32 (8388608)
I0520 11:16:08.319623  5291 net.cpp:165] Memory required for data: 513830400
I0520 11:16:08.319627  5291 layer_factory.hpp:77] Creating layer layer_64_2_conv1
I0520 11:16:08.319638  5291 net.cpp:100] Creating Layer layer_64_2_conv1
I0520 11:16:08.319643  5291 net.cpp:434] layer_64_2_conv1 <- layer_64_2_bn1
I0520 11:16:08.319649  5291 net.cpp:408] layer_64_2_conv1 -> layer_64_2_conv1
I0520 11:16:08.320849  5291 net.cpp:150] Setting up layer_64_2_conv1
I0520 11:16:08.320863  5291 net.cpp:157] Top shape: 128 64 8 32 (2097152)
I0520 11:16:08.320865  5291 net.cpp:165] Memory required for data: 522219008
I0520 11:16:08.320869  5291 layer_factory.hpp:77] Creating layer layer_64_2_bn2
I0520 11:16:08.320878  5291 net.cpp:100] Creating Layer layer_64_2_bn2
I0520 11:16:08.320881  5291 net.cpp:434] layer_64_2_bn2 <- layer_64_2_conv1
I0520 11:16:08.320888  5291 net.cpp:395] layer_64_2_bn2 -> layer_64_2_conv1 (in-place)
I0520 11:16:08.321053  5291 net.cpp:150] Setting up layer_64_2_bn2
I0520 11:16:08.321063  5291 net.cpp:157] Top shape: 128 64 8 32 (2097152)
I0520 11:16:08.321064  5291 net.cpp:165] Memory required for data: 530607616
I0520 11:16:08.321074  5291 layer_factory.hpp:77] Creating layer layer_64_2_scale2
I0520 11:16:08.321084  5291 net.cpp:100] Creating Layer layer_64_2_scale2
I0520 11:16:08.321087  5291 net.cpp:434] layer_64_2_scale2 <- layer_64_2_conv1
I0520 11:16:08.321094  5291 net.cpp:395] layer_64_2_scale2 -> layer_64_2_conv1 (in-place)
I0520 11:16:08.321126  5291 layer_factory.hpp:77] Creating layer layer_64_2_scale2
I0520 11:16:08.321228  5291 net.cpp:150] Setting up layer_64_2_scale2
I0520 11:16:08.321235  5291 net.cpp:157] Top shape: 128 64 8 32 (2097152)
I0520 11:16:08.321238  5291 net.cpp:165] Memory required for data: 538996224
I0520 11:16:08.321243  5291 layer_factory.hpp:77] Creating layer layer_64_2_relu2
I0520 11:16:08.321249  5291 net.cpp:100] Creating Layer layer_64_2_relu2
I0520 11:16:08.321266  5291 net.cpp:434] layer_64_2_relu2 <- layer_64_2_conv1
I0520 11:16:08.321274  5291 net.cpp:395] layer_64_2_relu2 -> layer_64_2_conv1 (in-place)
I0520 11:16:08.321688  5291 net.cpp:150] Setting up layer_64_2_relu2
I0520 11:16:08.321702  5291 net.cpp:157] Top shape: 128 64 8 32 (2097152)
I0520 11:16:08.321704  5291 net.cpp:165] Memory required for data: 547384832
I0520 11:16:08.321707  5291 layer_factory.hpp:77] Creating layer layer_64_2_conv2
I0520 11:16:08.321717  5291 net.cpp:100] Creating Layer layer_64_2_conv2
I0520 11:16:08.321722  5291 net.cpp:434] layer_64_2_conv2 <- layer_64_2_conv1
I0520 11:16:08.321730  5291 net.cpp:408] layer_64_2_conv2 -> layer_64_2_conv2
I0520 11:16:08.324251  5291 net.cpp:150] Setting up layer_64_2_conv2
I0520 11:16:08.324266  5291 net.cpp:157] Top shape: 128 64 8 32 (2097152)
I0520 11:16:08.324270  5291 net.cpp:165] Memory required for data: 555773440
I0520 11:16:08.324275  5291 layer_factory.hpp:77] Creating layer layer_64_2_bn3
I0520 11:16:08.324282  5291 net.cpp:100] Creating Layer layer_64_2_bn3
I0520 11:16:08.324286  5291 net.cpp:434] layer_64_2_bn3 <- layer_64_2_conv2
I0520 11:16:08.324292  5291 net.cpp:395] layer_64_2_bn3 -> layer_64_2_conv2 (in-place)
I0520 11:16:08.324465  5291 net.cpp:150] Setting up layer_64_2_bn3
I0520 11:16:08.324474  5291 net.cpp:157] Top shape: 128 64 8 32 (2097152)
I0520 11:16:08.324476  5291 net.cpp:165] Memory required for data: 564162048
I0520 11:16:08.324482  5291 layer_factory.hpp:77] Creating layer layer_64_2_scale3
I0520 11:16:08.324496  5291 net.cpp:100] Creating Layer layer_64_2_scale3
I0520 11:16:08.324501  5291 net.cpp:434] layer_64_2_scale3 <- layer_64_2_conv2
I0520 11:16:08.324507  5291 net.cpp:395] layer_64_2_scale3 -> layer_64_2_conv2 (in-place)
I0520 11:16:08.324542  5291 layer_factory.hpp:77] Creating layer layer_64_2_scale3
I0520 11:16:08.324640  5291 net.cpp:150] Setting up layer_64_2_scale3
I0520 11:16:08.324647  5291 net.cpp:157] Top shape: 128 64 8 32 (2097152)
I0520 11:16:08.324649  5291 net.cpp:165] Memory required for data: 572550656
I0520 11:16:08.324654  5291 layer_factory.hpp:77] Creating layer layer_64_2_relu3
I0520 11:16:08.324659  5291 net.cpp:100] Creating Layer layer_64_2_relu3
I0520 11:16:08.324662  5291 net.cpp:434] layer_64_2_relu3 <- layer_64_2_conv2
I0520 11:16:08.324669  5291 net.cpp:395] layer_64_2_relu3 -> layer_64_2_conv2 (in-place)
I0520 11:16:08.324961  5291 net.cpp:150] Setting up layer_64_2_relu3
I0520 11:16:08.324972  5291 net.cpp:157] Top shape: 128 64 8 32 (2097152)
I0520 11:16:08.324975  5291 net.cpp:165] Memory required for data: 580939264
I0520 11:16:08.324978  5291 layer_factory.hpp:77] Creating layer layer_64_2_conv3
I0520 11:16:08.324990  5291 net.cpp:100] Creating Layer layer_64_2_conv3
I0520 11:16:08.324993  5291 net.cpp:434] layer_64_2_conv3 <- layer_64_2_conv2
I0520 11:16:08.325001  5291 net.cpp:408] layer_64_2_conv3 -> layer_64_2_conv3
I0520 11:16:08.326335  5291 net.cpp:150] Setting up layer_64_2_conv3
I0520 11:16:08.326349  5291 net.cpp:157] Top shape: 128 256 8 32 (8388608)
I0520 11:16:08.326351  5291 net.cpp:165] Memory required for data: 614493696
I0520 11:16:08.326356  5291 layer_factory.hpp:77] Creating layer layer_64_2_sum
I0520 11:16:08.326364  5291 net.cpp:100] Creating Layer layer_64_2_sum
I0520 11:16:08.326367  5291 net.cpp:434] layer_64_2_sum <- layer_64_2_conv3
I0520 11:16:08.326372  5291 net.cpp:434] layer_64_2_sum <- layer_64_1_sum_layer_64_1_sum_0_split_1
I0520 11:16:08.326380  5291 net.cpp:408] layer_64_2_sum -> layer_64_2_sum
I0520 11:16:08.326403  5291 net.cpp:150] Setting up layer_64_2_sum
I0520 11:16:08.326412  5291 net.cpp:157] Top shape: 128 256 8 32 (8388608)
I0520 11:16:08.326416  5291 net.cpp:165] Memory required for data: 648048128
I0520 11:16:08.326421  5291 layer_factory.hpp:77] Creating layer layer_64_2_sum_layer_64_2_sum_0_split
I0520 11:16:08.326427  5291 net.cpp:100] Creating Layer layer_64_2_sum_layer_64_2_sum_0_split
I0520 11:16:08.326431  5291 net.cpp:434] layer_64_2_sum_layer_64_2_sum_0_split <- layer_64_2_sum
I0520 11:16:08.326459  5291 net.cpp:408] layer_64_2_sum_layer_64_2_sum_0_split -> layer_64_2_sum_layer_64_2_sum_0_split_0
I0520 11:16:08.326467  5291 net.cpp:408] layer_64_2_sum_layer_64_2_sum_0_split -> layer_64_2_sum_layer_64_2_sum_0_split_1
I0520 11:16:08.326503  5291 net.cpp:150] Setting up layer_64_2_sum_layer_64_2_sum_0_split
I0520 11:16:08.326511  5291 net.cpp:157] Top shape: 128 256 8 32 (8388608)
I0520 11:16:08.326517  5291 net.cpp:157] Top shape: 128 256 8 32 (8388608)
I0520 11:16:08.326520  5291 net.cpp:165] Memory required for data: 715156992
I0520 11:16:08.326524  5291 layer_factory.hpp:77] Creating layer layer_64_3_bn1
I0520 11:16:08.326531  5291 net.cpp:100] Creating Layer layer_64_3_bn1
I0520 11:16:08.326535  5291 net.cpp:434] layer_64_3_bn1 <- layer_64_2_sum_layer_64_2_sum_0_split_0
I0520 11:16:08.326540  5291 net.cpp:408] layer_64_3_bn1 -> layer_64_3_bn1
I0520 11:16:08.326719  5291 net.cpp:150] Setting up layer_64_3_bn1
I0520 11:16:08.326726  5291 net.cpp:157] Top shape: 128 256 8 32 (8388608)
I0520 11:16:08.326730  5291 net.cpp:165] Memory required for data: 748711424
I0520 11:16:08.326735  5291 layer_factory.hpp:77] Creating layer layer_64_3_scale1
I0520 11:16:08.326742  5291 net.cpp:100] Creating Layer layer_64_3_scale1
I0520 11:16:08.326746  5291 net.cpp:434] layer_64_3_scale1 <- layer_64_3_bn1
I0520 11:16:08.326752  5291 net.cpp:395] layer_64_3_scale1 -> layer_64_3_bn1 (in-place)
I0520 11:16:08.326787  5291 layer_factory.hpp:77] Creating layer layer_64_3_scale1
I0520 11:16:08.326880  5291 net.cpp:150] Setting up layer_64_3_scale1
I0520 11:16:08.326889  5291 net.cpp:157] Top shape: 128 256 8 32 (8388608)
I0520 11:16:08.326892  5291 net.cpp:165] Memory required for data: 782265856
I0520 11:16:08.326898  5291 layer_factory.hpp:77] Creating layer layer_64_3_relu1
I0520 11:16:08.326903  5291 net.cpp:100] Creating Layer layer_64_3_relu1
I0520 11:16:08.326905  5291 net.cpp:434] layer_64_3_relu1 <- layer_64_3_bn1
I0520 11:16:08.326910  5291 net.cpp:395] layer_64_3_relu1 -> layer_64_3_bn1 (in-place)
I0520 11:16:08.327337  5291 net.cpp:150] Setting up layer_64_3_relu1
I0520 11:16:08.327348  5291 net.cpp:157] Top shape: 128 256 8 32 (8388608)
I0520 11:16:08.327352  5291 net.cpp:165] Memory required for data: 815820288
I0520 11:16:08.327354  5291 layer_factory.hpp:77] Creating layer layer_64_3_conv1
I0520 11:16:08.327364  5291 net.cpp:100] Creating Layer layer_64_3_conv1
I0520 11:16:08.327368  5291 net.cpp:434] layer_64_3_conv1 <- layer_64_3_bn1
I0520 11:16:08.327376  5291 net.cpp:408] layer_64_3_conv1 -> layer_64_3_conv1
I0520 11:16:08.328699  5291 net.cpp:150] Setting up layer_64_3_conv1
I0520 11:16:08.328712  5291 net.cpp:157] Top shape: 128 64 8 32 (2097152)
I0520 11:16:08.328716  5291 net.cpp:165] Memory required for data: 824208896
I0520 11:16:08.328721  5291 layer_factory.hpp:77] Creating layer layer_64_3_bn2
I0520 11:16:08.328727  5291 net.cpp:100] Creating Layer layer_64_3_bn2
I0520 11:16:08.328730  5291 net.cpp:434] layer_64_3_bn2 <- layer_64_3_conv1
I0520 11:16:08.328737  5291 net.cpp:395] layer_64_3_bn2 -> layer_64_3_conv1 (in-place)
I0520 11:16:08.328905  5291 net.cpp:150] Setting up layer_64_3_bn2
I0520 11:16:08.328914  5291 net.cpp:157] Top shape: 128 64 8 32 (2097152)
I0520 11:16:08.328917  5291 net.cpp:165] Memory required for data: 832597504
I0520 11:16:08.328922  5291 layer_factory.hpp:77] Creating layer layer_64_3_scale2
I0520 11:16:08.328929  5291 net.cpp:100] Creating Layer layer_64_3_scale2
I0520 11:16:08.328934  5291 net.cpp:434] layer_64_3_scale2 <- layer_64_3_conv1
I0520 11:16:08.328940  5291 net.cpp:395] layer_64_3_scale2 -> layer_64_3_conv1 (in-place)
I0520 11:16:08.328969  5291 layer_factory.hpp:77] Creating layer layer_64_3_scale2
I0520 11:16:08.329048  5291 net.cpp:150] Setting up layer_64_3_scale2
I0520 11:16:08.329054  5291 net.cpp:157] Top shape: 128 64 8 32 (2097152)
I0520 11:16:08.329057  5291 net.cpp:165] Memory required for data: 840986112
I0520 11:16:08.329061  5291 layer_factory.hpp:77] Creating layer layer_64_3_relu2
I0520 11:16:08.329066  5291 net.cpp:100] Creating Layer layer_64_3_relu2
I0520 11:16:08.329079  5291 net.cpp:434] layer_64_3_relu2 <- layer_64_3_conv1
I0520 11:16:08.329085  5291 net.cpp:395] layer_64_3_relu2 -> layer_64_3_conv1 (in-place)
I0520 11:16:08.329349  5291 net.cpp:150] Setting up layer_64_3_relu2
I0520 11:16:08.329355  5291 net.cpp:157] Top shape: 128 64 8 32 (2097152)
I0520 11:16:08.329358  5291 net.cpp:165] Memory required for data: 849374720
I0520 11:16:08.329361  5291 layer_factory.hpp:77] Creating layer layer_64_3_conv2
I0520 11:16:08.329370  5291 net.cpp:100] Creating Layer layer_64_3_conv2
I0520 11:16:08.329372  5291 net.cpp:434] layer_64_3_conv2 <- layer_64_3_conv1
I0520 11:16:08.329377  5291 net.cpp:408] layer_64_3_conv2 -> layer_64_3_conv2
I0520 11:16:08.331490  5291 net.cpp:150] Setting up layer_64_3_conv2
I0520 11:16:08.331504  5291 net.cpp:157] Top shape: 128 64 8 32 (2097152)
I0520 11:16:08.331507  5291 net.cpp:165] Memory required for data: 857763328
I0520 11:16:08.331512  5291 layer_factory.hpp:77] Creating layer layer_64_3_bn3
I0520 11:16:08.331519  5291 net.cpp:100] Creating Layer layer_64_3_bn3
I0520 11:16:08.331523  5291 net.cpp:434] layer_64_3_bn3 <- layer_64_3_conv2
I0520 11:16:08.331528  5291 net.cpp:395] layer_64_3_bn3 -> layer_64_3_conv2 (in-place)
I0520 11:16:08.331701  5291 net.cpp:150] Setting up layer_64_3_bn3
I0520 11:16:08.331709  5291 net.cpp:157] Top shape: 128 64 8 32 (2097152)
I0520 11:16:08.331712  5291 net.cpp:165] Memory required for data: 866151936
I0520 11:16:08.331717  5291 layer_factory.hpp:77] Creating layer layer_64_3_scale3
I0520 11:16:08.331724  5291 net.cpp:100] Creating Layer layer_64_3_scale3
I0520 11:16:08.331729  5291 net.cpp:434] layer_64_3_scale3 <- layer_64_3_conv2
I0520 11:16:08.331735  5291 net.cpp:395] layer_64_3_scale3 -> layer_64_3_conv2 (in-place)
I0520 11:16:08.331768  5291 layer_factory.hpp:77] Creating layer layer_64_3_scale3
I0520 11:16:08.331874  5291 net.cpp:150] Setting up layer_64_3_scale3
I0520 11:16:08.331881  5291 net.cpp:157] Top shape: 128 64 8 32 (2097152)
I0520 11:16:08.331883  5291 net.cpp:165] Memory required for data: 874540544
I0520 11:16:08.331888  5291 layer_factory.hpp:77] Creating layer layer_64_3_relu3
I0520 11:16:08.331894  5291 net.cpp:100] Creating Layer layer_64_3_relu3
I0520 11:16:08.331898  5291 net.cpp:434] layer_64_3_relu3 <- layer_64_3_conv2
I0520 11:16:08.331904  5291 net.cpp:395] layer_64_3_relu3 -> layer_64_3_conv2 (in-place)
I0520 11:16:08.333282  5291 net.cpp:150] Setting up layer_64_3_relu3
I0520 11:16:08.333297  5291 net.cpp:157] Top shape: 128 64 8 32 (2097152)
I0520 11:16:08.333299  5291 net.cpp:165] Memory required for data: 882929152
I0520 11:16:08.333302  5291 layer_factory.hpp:77] Creating layer layer_64_3_conv3
I0520 11:16:08.333312  5291 net.cpp:100] Creating Layer layer_64_3_conv3
I0520 11:16:08.333317  5291 net.cpp:434] layer_64_3_conv3 <- layer_64_3_conv2
I0520 11:16:08.333324  5291 net.cpp:408] layer_64_3_conv3 -> layer_64_3_conv3
I0520 11:16:08.334684  5291 net.cpp:150] Setting up layer_64_3_conv3
I0520 11:16:08.334699  5291 net.cpp:157] Top shape: 128 256 8 32 (8388608)
I0520 11:16:08.334702  5291 net.cpp:165] Memory required for data: 916483584
I0520 11:16:08.334707  5291 layer_factory.hpp:77] Creating layer layer_64_3_sum
I0520 11:16:08.334713  5291 net.cpp:100] Creating Layer layer_64_3_sum
I0520 11:16:08.334717  5291 net.cpp:434] layer_64_3_sum <- layer_64_3_conv3
I0520 11:16:08.334722  5291 net.cpp:434] layer_64_3_sum <- layer_64_2_sum_layer_64_2_sum_0_split_1
I0520 11:16:08.334726  5291 net.cpp:408] layer_64_3_sum -> layer_64_3_sum
I0520 11:16:08.334751  5291 net.cpp:150] Setting up layer_64_3_sum
I0520 11:16:08.334758  5291 net.cpp:157] Top shape: 128 256 8 32 (8388608)
I0520 11:16:08.334761  5291 net.cpp:165] Memory required for data: 950038016
I0520 11:16:08.334765  5291 layer_factory.hpp:77] Creating layer layer_128_1_bn1
I0520 11:16:08.334772  5291 net.cpp:100] Creating Layer layer_128_1_bn1
I0520 11:16:08.334776  5291 net.cpp:434] layer_128_1_bn1 <- layer_64_3_sum
I0520 11:16:08.334781  5291 net.cpp:408] layer_128_1_bn1 -> layer_128_1_bn1
I0520 11:16:08.334986  5291 net.cpp:150] Setting up layer_128_1_bn1
I0520 11:16:08.334995  5291 net.cpp:157] Top shape: 128 256 8 32 (8388608)
I0520 11:16:08.334998  5291 net.cpp:165] Memory required for data: 983592448
I0520 11:16:08.335008  5291 layer_factory.hpp:77] Creating layer layer_128_1_scale1
I0520 11:16:08.335017  5291 net.cpp:100] Creating Layer layer_128_1_scale1
I0520 11:16:08.335021  5291 net.cpp:434] layer_128_1_scale1 <- layer_128_1_bn1
I0520 11:16:08.335027  5291 net.cpp:395] layer_128_1_scale1 -> layer_128_1_bn1 (in-place)
I0520 11:16:08.335064  5291 layer_factory.hpp:77] Creating layer layer_128_1_scale1
I0520 11:16:08.335155  5291 net.cpp:150] Setting up layer_128_1_scale1
I0520 11:16:08.335162  5291 net.cpp:157] Top shape: 128 256 8 32 (8388608)
I0520 11:16:08.335165  5291 net.cpp:165] Memory required for data: 1017146880
I0520 11:16:08.335170  5291 layer_factory.hpp:77] Creating layer layer_128_1_relu1
I0520 11:16:08.335175  5291 net.cpp:100] Creating Layer layer_128_1_relu1
I0520 11:16:08.335180  5291 net.cpp:434] layer_128_1_relu1 <- layer_128_1_bn1
I0520 11:16:08.335184  5291 net.cpp:395] layer_128_1_relu1 -> layer_128_1_bn1 (in-place)
I0520 11:16:08.335486  5291 net.cpp:150] Setting up layer_128_1_relu1
I0520 11:16:08.335497  5291 net.cpp:157] Top shape: 128 256 8 32 (8388608)
I0520 11:16:08.335500  5291 net.cpp:165] Memory required for data: 1050701312
I0520 11:16:08.335503  5291 layer_factory.hpp:77] Creating layer layer_128_1_bn1_layer_128_1_relu1_0_split
I0520 11:16:08.335510  5291 net.cpp:100] Creating Layer layer_128_1_bn1_layer_128_1_relu1_0_split
I0520 11:16:08.335515  5291 net.cpp:434] layer_128_1_bn1_layer_128_1_relu1_0_split <- layer_128_1_bn1
I0520 11:16:08.335522  5291 net.cpp:408] layer_128_1_bn1_layer_128_1_relu1_0_split -> layer_128_1_bn1_layer_128_1_relu1_0_split_0
I0520 11:16:08.335530  5291 net.cpp:408] layer_128_1_bn1_layer_128_1_relu1_0_split -> layer_128_1_bn1_layer_128_1_relu1_0_split_1
I0520 11:16:08.335561  5291 net.cpp:150] Setting up layer_128_1_bn1_layer_128_1_relu1_0_split
I0520 11:16:08.335567  5291 net.cpp:157] Top shape: 128 256 8 32 (8388608)
I0520 11:16:08.335572  5291 net.cpp:157] Top shape: 128 256 8 32 (8388608)
I0520 11:16:08.335573  5291 net.cpp:165] Memory required for data: 1117810176
I0520 11:16:08.335577  5291 layer_factory.hpp:77] Creating layer layer_128_1_conv1
I0520 11:16:08.335584  5291 net.cpp:100] Creating Layer layer_128_1_conv1
I0520 11:16:08.335587  5291 net.cpp:434] layer_128_1_conv1 <- layer_128_1_bn1_layer_128_1_relu1_0_split_0
I0520 11:16:08.335592  5291 net.cpp:408] layer_128_1_conv1 -> layer_128_1_conv1
I0520 11:16:08.337112  5291 net.cpp:150] Setting up layer_128_1_conv1
I0520 11:16:08.337126  5291 net.cpp:157] Top shape: 128 128 8 32 (4194304)
I0520 11:16:08.337128  5291 net.cpp:165] Memory required for data: 1134587392
I0520 11:16:08.337133  5291 layer_factory.hpp:77] Creating layer layer_128_1_bn2
I0520 11:16:08.337141  5291 net.cpp:100] Creating Layer layer_128_1_bn2
I0520 11:16:08.337143  5291 net.cpp:434] layer_128_1_bn2 <- layer_128_1_conv1
I0520 11:16:08.337148  5291 net.cpp:395] layer_128_1_bn2 -> layer_128_1_conv1 (in-place)
I0520 11:16:08.337280  5291 net.cpp:150] Setting up layer_128_1_bn2
I0520 11:16:08.337287  5291 net.cpp:157] Top shape: 128 128 8 32 (4194304)
I0520 11:16:08.337291  5291 net.cpp:165] Memory required for data: 1151364608
I0520 11:16:08.337296  5291 layer_factory.hpp:77] Creating layer layer_128_1_scale2
I0520 11:16:08.337301  5291 net.cpp:100] Creating Layer layer_128_1_scale2
I0520 11:16:08.337302  5291 net.cpp:434] layer_128_1_scale2 <- layer_128_1_conv1
I0520 11:16:08.337306  5291 net.cpp:395] layer_128_1_scale2 -> layer_128_1_conv1 (in-place)
I0520 11:16:08.337330  5291 layer_factory.hpp:77] Creating layer layer_128_1_scale2
I0520 11:16:08.337400  5291 net.cpp:150] Setting up layer_128_1_scale2
I0520 11:16:08.337406  5291 net.cpp:157] Top shape: 128 128 8 32 (4194304)
I0520 11:16:08.337409  5291 net.cpp:165] Memory required for data: 1168141824
I0520 11:16:08.337414  5291 layer_factory.hpp:77] Creating layer layer_128_1_relu2
I0520 11:16:08.337430  5291 net.cpp:100] Creating Layer layer_128_1_relu2
I0520 11:16:08.337435  5291 net.cpp:434] layer_128_1_relu2 <- layer_128_1_conv1
I0520 11:16:08.337438  5291 net.cpp:395] layer_128_1_relu2 -> layer_128_1_conv1 (in-place)
I0520 11:16:08.337827  5291 net.cpp:150] Setting up layer_128_1_relu2
I0520 11:16:08.337837  5291 net.cpp:157] Top shape: 128 128 8 32 (4194304)
I0520 11:16:08.337841  5291 net.cpp:165] Memory required for data: 1184919040
I0520 11:16:08.337843  5291 layer_factory.hpp:77] Creating layer layer_128_1_conv2
I0520 11:16:08.337857  5291 net.cpp:100] Creating Layer layer_128_1_conv2
I0520 11:16:08.337860  5291 net.cpp:434] layer_128_1_conv2 <- layer_128_1_conv1
I0520 11:16:08.337867  5291 net.cpp:408] layer_128_1_conv2 -> layer_128_1_conv2
I0520 11:16:08.340005  5291 net.cpp:150] Setting up layer_128_1_conv2
I0520 11:16:08.340018  5291 net.cpp:157] Top shape: 128 128 4 16 (1048576)
I0520 11:16:08.340021  5291 net.cpp:165] Memory required for data: 1189113344
I0520 11:16:08.340025  5291 layer_factory.hpp:77] Creating layer layer_128_1_bn3
I0520 11:16:08.340032  5291 net.cpp:100] Creating Layer layer_128_1_bn3
I0520 11:16:08.340035  5291 net.cpp:434] layer_128_1_bn3 <- layer_128_1_conv2
I0520 11:16:08.340039  5291 net.cpp:395] layer_128_1_bn3 -> layer_128_1_conv2 (in-place)
I0520 11:16:08.340162  5291 net.cpp:150] Setting up layer_128_1_bn3
I0520 11:16:08.340168  5291 net.cpp:157] Top shape: 128 128 4 16 (1048576)
I0520 11:16:08.340170  5291 net.cpp:165] Memory required for data: 1193307648
I0520 11:16:08.340175  5291 layer_factory.hpp:77] Creating layer layer_128_1_scale3
I0520 11:16:08.340179  5291 net.cpp:100] Creating Layer layer_128_1_scale3
I0520 11:16:08.340181  5291 net.cpp:434] layer_128_1_scale3 <- layer_128_1_conv2
I0520 11:16:08.340185  5291 net.cpp:395] layer_128_1_scale3 -> layer_128_1_conv2 (in-place)
I0520 11:16:08.340205  5291 layer_factory.hpp:77] Creating layer layer_128_1_scale3
I0520 11:16:08.340276  5291 net.cpp:150] Setting up layer_128_1_scale3
I0520 11:16:08.340282  5291 net.cpp:157] Top shape: 128 128 4 16 (1048576)
I0520 11:16:08.340284  5291 net.cpp:165] Memory required for data: 1197501952
I0520 11:16:08.340287  5291 layer_factory.hpp:77] Creating layer layer_128_1_relu3
I0520 11:16:08.340293  5291 net.cpp:100] Creating Layer layer_128_1_relu3
I0520 11:16:08.340296  5291 net.cpp:434] layer_128_1_relu3 <- layer_128_1_conv2
I0520 11:16:08.340301  5291 net.cpp:395] layer_128_1_relu3 -> layer_128_1_conv2 (in-place)
I0520 11:16:08.340665  5291 net.cpp:150] Setting up layer_128_1_relu3
I0520 11:16:08.340677  5291 net.cpp:157] Top shape: 128 128 4 16 (1048576)
I0520 11:16:08.340680  5291 net.cpp:165] Memory required for data: 1201696256
I0520 11:16:08.340684  5291 layer_factory.hpp:77] Creating layer layer_128_1_conv3
I0520 11:16:08.340695  5291 net.cpp:100] Creating Layer layer_128_1_conv3
I0520 11:16:08.340698  5291 net.cpp:434] layer_128_1_conv3 <- layer_128_1_conv2
I0520 11:16:08.340703  5291 net.cpp:408] layer_128_1_conv3 -> layer_128_1_conv3
I0520 11:16:08.343703  5291 net.cpp:150] Setting up layer_128_1_conv3
I0520 11:16:08.343715  5291 net.cpp:157] Top shape: 128 512 4 16 (4194304)
I0520 11:16:08.343719  5291 net.cpp:165] Memory required for data: 1218473472
I0520 11:16:08.343722  5291 layer_factory.hpp:77] Creating layer layer_128_1_conv_expand
I0520 11:16:08.343731  5291 net.cpp:100] Creating Layer layer_128_1_conv_expand
I0520 11:16:08.343734  5291 net.cpp:434] layer_128_1_conv_expand <- layer_128_1_bn1_layer_128_1_relu1_0_split_1
I0520 11:16:08.343739  5291 net.cpp:408] layer_128_1_conv_expand -> layer_128_1_conv_expand
I0520 11:16:08.345763  5291 net.cpp:150] Setting up layer_128_1_conv_expand
I0520 11:16:08.345775  5291 net.cpp:157] Top shape: 128 512 4 16 (4194304)
I0520 11:16:08.345778  5291 net.cpp:165] Memory required for data: 1235250688
I0520 11:16:08.345782  5291 layer_factory.hpp:77] Creating layer layer_128_1_sum
I0520 11:16:08.345793  5291 net.cpp:100] Creating Layer layer_128_1_sum
I0520 11:16:08.345816  5291 net.cpp:434] layer_128_1_sum <- layer_128_1_conv3
I0520 11:16:08.345822  5291 net.cpp:434] layer_128_1_sum <- layer_128_1_conv_expand
I0520 11:16:08.345826  5291 net.cpp:408] layer_128_1_sum -> layer_128_1_sum
I0520 11:16:08.345844  5291 net.cpp:150] Setting up layer_128_1_sum
I0520 11:16:08.345846  5291 net.cpp:157] Top shape: 128 512 4 16 (4194304)
I0520 11:16:08.345849  5291 net.cpp:165] Memory required for data: 1252027904
I0520 11:16:08.345854  5291 layer_factory.hpp:77] Creating layer layer_128_1_sum_layer_128_1_sum_0_split
I0520 11:16:08.345860  5291 net.cpp:100] Creating Layer layer_128_1_sum_layer_128_1_sum_0_split
I0520 11:16:08.345865  5291 net.cpp:434] layer_128_1_sum_layer_128_1_sum_0_split <- layer_128_1_sum
I0520 11:16:08.345868  5291 net.cpp:408] layer_128_1_sum_layer_128_1_sum_0_split -> layer_128_1_sum_layer_128_1_sum_0_split_0
I0520 11:16:08.345873  5291 net.cpp:408] layer_128_1_sum_layer_128_1_sum_0_split -> layer_128_1_sum_layer_128_1_sum_0_split_1
I0520 11:16:08.345899  5291 net.cpp:150] Setting up layer_128_1_sum_layer_128_1_sum_0_split
I0520 11:16:08.345903  5291 net.cpp:157] Top shape: 128 512 4 16 (4194304)
I0520 11:16:08.345907  5291 net.cpp:157] Top shape: 128 512 4 16 (4194304)
I0520 11:16:08.345909  5291 net.cpp:165] Memory required for data: 1285582336
I0520 11:16:08.345913  5291 layer_factory.hpp:77] Creating layer layer_128_2_bn1
I0520 11:16:08.345919  5291 net.cpp:100] Creating Layer layer_128_2_bn1
I0520 11:16:08.345922  5291 net.cpp:434] layer_128_2_bn1 <- layer_128_1_sum_layer_128_1_sum_0_split_0
I0520 11:16:08.345926  5291 net.cpp:408] layer_128_2_bn1 -> layer_128_2_bn1
I0520 11:16:08.346055  5291 net.cpp:150] Setting up layer_128_2_bn1
I0520 11:16:08.346060  5291 net.cpp:157] Top shape: 128 512 4 16 (4194304)
I0520 11:16:08.346065  5291 net.cpp:165] Memory required for data: 1302359552
I0520 11:16:08.346068  5291 layer_factory.hpp:77] Creating layer layer_128_2_scale1
I0520 11:16:08.346076  5291 net.cpp:100] Creating Layer layer_128_2_scale1
I0520 11:16:08.346077  5291 net.cpp:434] layer_128_2_scale1 <- layer_128_2_bn1
I0520 11:16:08.346081  5291 net.cpp:395] layer_128_2_scale1 -> layer_128_2_bn1 (in-place)
I0520 11:16:08.346104  5291 layer_factory.hpp:77] Creating layer layer_128_2_scale1
I0520 11:16:08.346179  5291 net.cpp:150] Setting up layer_128_2_scale1
I0520 11:16:08.346184  5291 net.cpp:157] Top shape: 128 512 4 16 (4194304)
I0520 11:16:08.346204  5291 net.cpp:165] Memory required for data: 1319136768
I0520 11:16:08.346207  5291 layer_factory.hpp:77] Creating layer layer_128_2_relu1
I0520 11:16:08.346211  5291 net.cpp:100] Creating Layer layer_128_2_relu1
I0520 11:16:08.346213  5291 net.cpp:434] layer_128_2_relu1 <- layer_128_2_bn1
I0520 11:16:08.346216  5291 net.cpp:395] layer_128_2_relu1 -> layer_128_2_bn1 (in-place)
I0520 11:16:08.346464  5291 net.cpp:150] Setting up layer_128_2_relu1
I0520 11:16:08.346472  5291 net.cpp:157] Top shape: 128 512 4 16 (4194304)
I0520 11:16:08.346474  5291 net.cpp:165] Memory required for data: 1335913984
I0520 11:16:08.346477  5291 layer_factory.hpp:77] Creating layer layer_128_2_conv1
I0520 11:16:08.346485  5291 net.cpp:100] Creating Layer layer_128_2_conv1
I0520 11:16:08.346488  5291 net.cpp:434] layer_128_2_conv1 <- layer_128_2_bn1
I0520 11:16:08.346494  5291 net.cpp:408] layer_128_2_conv1 -> layer_128_2_conv1
I0520 11:16:08.348367  5291 net.cpp:150] Setting up layer_128_2_conv1
I0520 11:16:08.348384  5291 net.cpp:157] Top shape: 128 128 4 16 (1048576)
I0520 11:16:08.348387  5291 net.cpp:165] Memory required for data: 1340108288
I0520 11:16:08.348393  5291 layer_factory.hpp:77] Creating layer layer_128_2_bn2
I0520 11:16:08.348402  5291 net.cpp:100] Creating Layer layer_128_2_bn2
I0520 11:16:08.348407  5291 net.cpp:434] layer_128_2_bn2 <- layer_128_2_conv1
I0520 11:16:08.348412  5291 net.cpp:395] layer_128_2_bn2 -> layer_128_2_conv1 (in-place)
I0520 11:16:08.348582  5291 net.cpp:150] Setting up layer_128_2_bn2
I0520 11:16:08.348587  5291 net.cpp:157] Top shape: 128 128 4 16 (1048576)
I0520 11:16:08.348590  5291 net.cpp:165] Memory required for data: 1344302592
I0520 11:16:08.348614  5291 layer_factory.hpp:77] Creating layer layer_128_2_scale2
I0520 11:16:08.348623  5291 net.cpp:100] Creating Layer layer_128_2_scale2
I0520 11:16:08.348626  5291 net.cpp:434] layer_128_2_scale2 <- layer_128_2_conv1
I0520 11:16:08.348631  5291 net.cpp:395] layer_128_2_scale2 -> layer_128_2_conv1 (in-place)
I0520 11:16:08.348660  5291 layer_factory.hpp:77] Creating layer layer_128_2_scale2
I0520 11:16:08.348750  5291 net.cpp:150] Setting up layer_128_2_scale2
I0520 11:16:08.348755  5291 net.cpp:157] Top shape: 128 128 4 16 (1048576)
I0520 11:16:08.348758  5291 net.cpp:165] Memory required for data: 1348496896
I0520 11:16:08.348764  5291 layer_factory.hpp:77] Creating layer layer_128_2_relu2
I0520 11:16:08.348769  5291 net.cpp:100] Creating Layer layer_128_2_relu2
I0520 11:16:08.348773  5291 net.cpp:434] layer_128_2_relu2 <- layer_128_2_conv1
I0520 11:16:08.348778  5291 net.cpp:395] layer_128_2_relu2 -> layer_128_2_conv1 (in-place)
I0520 11:16:08.349247  5291 net.cpp:150] Setting up layer_128_2_relu2
I0520 11:16:08.349259  5291 net.cpp:157] Top shape: 128 128 4 16 (1048576)
I0520 11:16:08.349262  5291 net.cpp:165] Memory required for data: 1352691200
I0520 11:16:08.349267  5291 layer_factory.hpp:77] Creating layer layer_128_2_conv2
I0520 11:16:08.349278  5291 net.cpp:100] Creating Layer layer_128_2_conv2
I0520 11:16:08.349282  5291 net.cpp:434] layer_128_2_conv2 <- layer_128_2_conv1
I0520 11:16:08.349287  5291 net.cpp:408] layer_128_2_conv2 -> layer_128_2_conv2
I0520 11:16:08.353000  5291 net.cpp:150] Setting up layer_128_2_conv2
I0520 11:16:08.353015  5291 net.cpp:157] Top shape: 128 128 4 16 (1048576)
I0520 11:16:08.353019  5291 net.cpp:165] Memory required for data: 1356885504
I0520 11:16:08.353024  5291 layer_factory.hpp:77] Creating layer layer_128_2_bn3
I0520 11:16:08.353030  5291 net.cpp:100] Creating Layer layer_128_2_bn3
I0520 11:16:08.353034  5291 net.cpp:434] layer_128_2_bn3 <- layer_128_2_conv2
I0520 11:16:08.353039  5291 net.cpp:395] layer_128_2_bn3 -> layer_128_2_conv2 (in-place)
I0520 11:16:08.353173  5291 net.cpp:150] Setting up layer_128_2_bn3
I0520 11:16:08.353178  5291 net.cpp:157] Top shape: 128 128 4 16 (1048576)
I0520 11:16:08.353180  5291 net.cpp:165] Memory required for data: 1361079808
I0520 11:16:08.353185  5291 layer_factory.hpp:77] Creating layer layer_128_2_scale3
I0520 11:16:08.353190  5291 net.cpp:100] Creating Layer layer_128_2_scale3
I0520 11:16:08.353193  5291 net.cpp:434] layer_128_2_scale3 <- layer_128_2_conv2
I0520 11:16:08.353197  5291 net.cpp:395] layer_128_2_scale3 -> layer_128_2_conv2 (in-place)
I0520 11:16:08.353219  5291 layer_factory.hpp:77] Creating layer layer_128_2_scale3
I0520 11:16:08.353287  5291 net.cpp:150] Setting up layer_128_2_scale3
I0520 11:16:08.353292  5291 net.cpp:157] Top shape: 128 128 4 16 (1048576)
I0520 11:16:08.353296  5291 net.cpp:165] Memory required for data: 1365274112
I0520 11:16:08.353299  5291 layer_factory.hpp:77] Creating layer layer_128_2_relu3
I0520 11:16:08.353304  5291 net.cpp:100] Creating Layer layer_128_2_relu3
I0520 11:16:08.353307  5291 net.cpp:434] layer_128_2_relu3 <- layer_128_2_conv2
I0520 11:16:08.353310  5291 net.cpp:395] layer_128_2_relu3 -> layer_128_2_conv2 (in-place)
I0520 11:16:08.353952  5291 net.cpp:150] Setting up layer_128_2_relu3
I0520 11:16:08.353962  5291 net.cpp:157] Top shape: 128 128 4 16 (1048576)
I0520 11:16:08.353965  5291 net.cpp:165] Memory required for data: 1369468416
I0520 11:16:08.353969  5291 layer_factory.hpp:77] Creating layer layer_128_2_conv3
I0520 11:16:08.353981  5291 net.cpp:100] Creating Layer layer_128_2_conv3
I0520 11:16:08.353984  5291 net.cpp:434] layer_128_2_conv3 <- layer_128_2_conv2
I0520 11:16:08.353991  5291 net.cpp:408] layer_128_2_conv3 -> layer_128_2_conv3
I0520 11:16:08.356771  5291 net.cpp:150] Setting up layer_128_2_conv3
I0520 11:16:08.356787  5291 net.cpp:157] Top shape: 128 512 4 16 (4194304)
I0520 11:16:08.356791  5291 net.cpp:165] Memory required for data: 1386245632
I0520 11:16:08.356797  5291 layer_factory.hpp:77] Creating layer layer_128_2_sum
I0520 11:16:08.356818  5291 net.cpp:100] Creating Layer layer_128_2_sum
I0520 11:16:08.356825  5291 net.cpp:434] layer_128_2_sum <- layer_128_2_conv3
I0520 11:16:08.356832  5291 net.cpp:434] layer_128_2_sum <- layer_128_1_sum_layer_128_1_sum_0_split_1
I0520 11:16:08.356839  5291 net.cpp:408] layer_128_2_sum -> layer_128_2_sum
I0520 11:16:08.356861  5291 net.cpp:150] Setting up layer_128_2_sum
I0520 11:16:08.356868  5291 net.cpp:157] Top shape: 128 512 4 16 (4194304)
I0520 11:16:08.356873  5291 net.cpp:165] Memory required for data: 1403022848
I0520 11:16:08.356875  5291 layer_factory.hpp:77] Creating layer layer_128_2_sum_layer_128_2_sum_0_split
I0520 11:16:08.356881  5291 net.cpp:100] Creating Layer layer_128_2_sum_layer_128_2_sum_0_split
I0520 11:16:08.356884  5291 net.cpp:434] layer_128_2_sum_layer_128_2_sum_0_split <- layer_128_2_sum
I0520 11:16:08.356889  5291 net.cpp:408] layer_128_2_sum_layer_128_2_sum_0_split -> layer_128_2_sum_layer_128_2_sum_0_split_0
I0520 11:16:08.356894  5291 net.cpp:408] layer_128_2_sum_layer_128_2_sum_0_split -> layer_128_2_sum_layer_128_2_sum_0_split_1
I0520 11:16:08.356916  5291 net.cpp:150] Setting up layer_128_2_sum_layer_128_2_sum_0_split
I0520 11:16:08.356921  5291 net.cpp:157] Top shape: 128 512 4 16 (4194304)
I0520 11:16:08.356925  5291 net.cpp:157] Top shape: 128 512 4 16 (4194304)
I0520 11:16:08.356926  5291 net.cpp:165] Memory required for data: 1436577280
I0520 11:16:08.356928  5291 layer_factory.hpp:77] Creating layer layer_128_3_bn1
I0520 11:16:08.356932  5291 net.cpp:100] Creating Layer layer_128_3_bn1
I0520 11:16:08.356935  5291 net.cpp:434] layer_128_3_bn1 <- layer_128_2_sum_layer_128_2_sum_0_split_0
I0520 11:16:08.356938  5291 net.cpp:408] layer_128_3_bn1 -> layer_128_3_bn1
I0520 11:16:08.357062  5291 net.cpp:150] Setting up layer_128_3_bn1
I0520 11:16:08.357069  5291 net.cpp:157] Top shape: 128 512 4 16 (4194304)
I0520 11:16:08.357071  5291 net.cpp:165] Memory required for data: 1453354496
I0520 11:16:08.357076  5291 layer_factory.hpp:77] Creating layer layer_128_3_scale1
I0520 11:16:08.357082  5291 net.cpp:100] Creating Layer layer_128_3_scale1
I0520 11:16:08.357086  5291 net.cpp:434] layer_128_3_scale1 <- layer_128_3_bn1
I0520 11:16:08.357092  5291 net.cpp:395] layer_128_3_scale1 -> layer_128_3_bn1 (in-place)
I0520 11:16:08.357118  5291 layer_factory.hpp:77] Creating layer layer_128_3_scale1
I0520 11:16:08.357195  5291 net.cpp:150] Setting up layer_128_3_scale1
I0520 11:16:08.357203  5291 net.cpp:157] Top shape: 128 512 4 16 (4194304)
I0520 11:16:08.357205  5291 net.cpp:165] Memory required for data: 1470131712
I0520 11:16:08.357208  5291 layer_factory.hpp:77] Creating layer layer_128_3_relu1
I0520 11:16:08.357214  5291 net.cpp:100] Creating Layer layer_128_3_relu1
I0520 11:16:08.357216  5291 net.cpp:434] layer_128_3_relu1 <- layer_128_3_bn1
I0520 11:16:08.357220  5291 net.cpp:395] layer_128_3_relu1 -> layer_128_3_bn1 (in-place)
I0520 11:16:08.357697  5291 net.cpp:150] Setting up layer_128_3_relu1
I0520 11:16:08.357710  5291 net.cpp:157] Top shape: 128 512 4 16 (4194304)
I0520 11:16:08.357713  5291 net.cpp:165] Memory required for data: 1486908928
I0520 11:16:08.357717  5291 layer_factory.hpp:77] Creating layer layer_128_3_conv1
I0520 11:16:08.357728  5291 net.cpp:100] Creating Layer layer_128_3_conv1
I0520 11:16:08.357730  5291 net.cpp:434] layer_128_3_conv1 <- layer_128_3_bn1
I0520 11:16:08.357736  5291 net.cpp:408] layer_128_3_conv1 -> layer_128_3_conv1
I0520 11:16:08.360196  5291 net.cpp:150] Setting up layer_128_3_conv1
I0520 11:16:08.360214  5291 net.cpp:157] Top shape: 128 128 4 16 (1048576)
I0520 11:16:08.360218  5291 net.cpp:165] Memory required for data: 1491103232
I0520 11:16:08.360224  5291 layer_factory.hpp:77] Creating layer layer_128_3_bn2
I0520 11:16:08.360232  5291 net.cpp:100] Creating Layer layer_128_3_bn2
I0520 11:16:08.360237  5291 net.cpp:434] layer_128_3_bn2 <- layer_128_3_conv1
I0520 11:16:08.360242  5291 net.cpp:395] layer_128_3_bn2 -> layer_128_3_conv1 (in-place)
I0520 11:16:08.360415  5291 net.cpp:150] Setting up layer_128_3_bn2
I0520 11:16:08.360440  5291 net.cpp:157] Top shape: 128 128 4 16 (1048576)
I0520 11:16:08.360442  5291 net.cpp:165] Memory required for data: 1495297536
I0520 11:16:08.360450  5291 layer_factory.hpp:77] Creating layer layer_128_3_scale2
I0520 11:16:08.360458  5291 net.cpp:100] Creating Layer layer_128_3_scale2
I0520 11:16:08.360462  5291 net.cpp:434] layer_128_3_scale2 <- layer_128_3_conv1
I0520 11:16:08.360467  5291 net.cpp:395] layer_128_3_scale2 -> layer_128_3_conv1 (in-place)
I0520 11:16:08.360497  5291 layer_factory.hpp:77] Creating layer layer_128_3_scale2
I0520 11:16:08.360591  5291 net.cpp:150] Setting up layer_128_3_scale2
I0520 11:16:08.360596  5291 net.cpp:157] Top shape: 128 128 4 16 (1048576)
I0520 11:16:08.360599  5291 net.cpp:165] Memory required for data: 1499491840
I0520 11:16:08.360605  5291 layer_factory.hpp:77] Creating layer layer_128_3_relu2
I0520 11:16:08.360611  5291 net.cpp:100] Creating Layer layer_128_3_relu2
I0520 11:16:08.360615  5291 net.cpp:434] layer_128_3_relu2 <- layer_128_3_conv1
I0520 11:16:08.360621  5291 net.cpp:395] layer_128_3_relu2 -> layer_128_3_conv1 (in-place)
I0520 11:16:08.360960  5291 net.cpp:150] Setting up layer_128_3_relu2
I0520 11:16:08.360967  5291 net.cpp:157] Top shape: 128 128 4 16 (1048576)
I0520 11:16:08.360971  5291 net.cpp:165] Memory required for data: 1503686144
I0520 11:16:08.360975  5291 layer_factory.hpp:77] Creating layer layer_128_3_conv2
I0520 11:16:08.360987  5291 net.cpp:100] Creating Layer layer_128_3_conv2
I0520 11:16:08.360991  5291 net.cpp:434] layer_128_3_conv2 <- layer_128_3_conv1
I0520 11:16:08.360997  5291 net.cpp:408] layer_128_3_conv2 -> layer_128_3_conv2
I0520 11:16:08.363955  5291 net.cpp:150] Setting up layer_128_3_conv2
I0520 11:16:08.363970  5291 net.cpp:157] Top shape: 128 128 4 16 (1048576)
I0520 11:16:08.363973  5291 net.cpp:165] Memory required for data: 1507880448
I0520 11:16:08.363978  5291 layer_factory.hpp:77] Creating layer layer_128_3_bn3
I0520 11:16:08.363987  5291 net.cpp:100] Creating Layer layer_128_3_bn3
I0520 11:16:08.363991  5291 net.cpp:434] layer_128_3_bn3 <- layer_128_3_conv2
I0520 11:16:08.363996  5291 net.cpp:395] layer_128_3_bn3 -> layer_128_3_conv2 (in-place)
I0520 11:16:08.364164  5291 net.cpp:150] Setting up layer_128_3_bn3
I0520 11:16:08.364174  5291 net.cpp:157] Top shape: 128 128 4 16 (1048576)
I0520 11:16:08.364179  5291 net.cpp:165] Memory required for data: 1512074752
I0520 11:16:08.364186  5291 layer_factory.hpp:77] Creating layer layer_128_3_scale3
I0520 11:16:08.364190  5291 net.cpp:100] Creating Layer layer_128_3_scale3
I0520 11:16:08.364195  5291 net.cpp:434] layer_128_3_scale3 <- layer_128_3_conv2
I0520 11:16:08.364199  5291 net.cpp:395] layer_128_3_scale3 -> layer_128_3_conv2 (in-place)
I0520 11:16:08.364230  5291 layer_factory.hpp:77] Creating layer layer_128_3_scale3
I0520 11:16:08.364331  5291 net.cpp:150] Setting up layer_128_3_scale3
I0520 11:16:08.364338  5291 net.cpp:157] Top shape: 128 128 4 16 (1048576)
I0520 11:16:08.364343  5291 net.cpp:165] Memory required for data: 1516269056
I0520 11:16:08.364351  5291 layer_factory.hpp:77] Creating layer layer_128_3_relu3
I0520 11:16:08.364359  5291 net.cpp:100] Creating Layer layer_128_3_relu3
I0520 11:16:08.364363  5291 net.cpp:434] layer_128_3_relu3 <- layer_128_3_conv2
I0520 11:16:08.364367  5291 net.cpp:395] layer_128_3_relu3 -> layer_128_3_conv2 (in-place)
I0520 11:16:08.365811  5291 net.cpp:150] Setting up layer_128_3_relu3
I0520 11:16:08.365824  5291 net.cpp:157] Top shape: 128 128 4 16 (1048576)
I0520 11:16:08.365828  5291 net.cpp:165] Memory required for data: 1520463360
I0520 11:16:08.365830  5291 layer_factory.hpp:77] Creating layer layer_128_3_conv3
I0520 11:16:08.365841  5291 net.cpp:100] Creating Layer layer_128_3_conv3
I0520 11:16:08.365846  5291 net.cpp:434] layer_128_3_conv3 <- layer_128_3_conv2
I0520 11:16:08.365852  5291 net.cpp:408] layer_128_3_conv3 -> layer_128_3_conv3
I0520 11:16:08.367485  5291 net.cpp:150] Setting up layer_128_3_conv3
I0520 11:16:08.367497  5291 net.cpp:157] Top shape: 128 512 4 16 (4194304)
I0520 11:16:08.367516  5291 net.cpp:165] Memory required for data: 1537240576
I0520 11:16:08.367521  5291 layer_factory.hpp:77] Creating layer layer_128_3_sum
I0520 11:16:08.367527  5291 net.cpp:100] Creating Layer layer_128_3_sum
I0520 11:16:08.367532  5291 net.cpp:434] layer_128_3_sum <- layer_128_3_conv3
I0520 11:16:08.367537  5291 net.cpp:434] layer_128_3_sum <- layer_128_2_sum_layer_128_2_sum_0_split_1
I0520 11:16:08.367542  5291 net.cpp:408] layer_128_3_sum -> layer_128_3_sum
I0520 11:16:08.367568  5291 net.cpp:150] Setting up layer_128_3_sum
I0520 11:16:08.367575  5291 net.cpp:157] Top shape: 128 512 4 16 (4194304)
I0520 11:16:08.367579  5291 net.cpp:165] Memory required for data: 1554017792
I0520 11:16:08.367583  5291 layer_factory.hpp:77] Creating layer layer_128_3_sum_layer_128_3_sum_0_split
I0520 11:16:08.367592  5291 net.cpp:100] Creating Layer layer_128_3_sum_layer_128_3_sum_0_split
I0520 11:16:08.367596  5291 net.cpp:434] layer_128_3_sum_layer_128_3_sum_0_split <- layer_128_3_sum
I0520 11:16:08.367602  5291 net.cpp:408] layer_128_3_sum_layer_128_3_sum_0_split -> layer_128_3_sum_layer_128_3_sum_0_split_0
I0520 11:16:08.367609  5291 net.cpp:408] layer_128_3_sum_layer_128_3_sum_0_split -> layer_128_3_sum_layer_128_3_sum_0_split_1
I0520 11:16:08.367643  5291 net.cpp:150] Setting up layer_128_3_sum_layer_128_3_sum_0_split
I0520 11:16:08.367650  5291 net.cpp:157] Top shape: 128 512 4 16 (4194304)
I0520 11:16:08.367653  5291 net.cpp:157] Top shape: 128 512 4 16 (4194304)
I0520 11:16:08.367656  5291 net.cpp:165] Memory required for data: 1587572224
I0520 11:16:08.367660  5291 layer_factory.hpp:77] Creating layer layer_128_4_bn1
I0520 11:16:08.367667  5291 net.cpp:100] Creating Layer layer_128_4_bn1
I0520 11:16:08.367671  5291 net.cpp:434] layer_128_4_bn1 <- layer_128_3_sum_layer_128_3_sum_0_split_0
I0520 11:16:08.367677  5291 net.cpp:408] layer_128_4_bn1 -> layer_128_4_bn1
I0520 11:16:08.367864  5291 net.cpp:150] Setting up layer_128_4_bn1
I0520 11:16:08.367872  5291 net.cpp:157] Top shape: 128 512 4 16 (4194304)
I0520 11:16:08.367877  5291 net.cpp:165] Memory required for data: 1604349440
I0520 11:16:08.367884  5291 layer_factory.hpp:77] Creating layer layer_128_4_scale1
I0520 11:16:08.367895  5291 net.cpp:100] Creating Layer layer_128_4_scale1
I0520 11:16:08.367900  5291 net.cpp:434] layer_128_4_scale1 <- layer_128_4_bn1
I0520 11:16:08.367907  5291 net.cpp:395] layer_128_4_scale1 -> layer_128_4_bn1 (in-place)
I0520 11:16:08.367939  5291 layer_factory.hpp:77] Creating layer layer_128_4_scale1
I0520 11:16:08.368037  5291 net.cpp:150] Setting up layer_128_4_scale1
I0520 11:16:08.368046  5291 net.cpp:157] Top shape: 128 512 4 16 (4194304)
I0520 11:16:08.368049  5291 net.cpp:165] Memory required for data: 1621126656
I0520 11:16:08.368055  5291 layer_factory.hpp:77] Creating layer layer_128_4_relu1
I0520 11:16:08.368062  5291 net.cpp:100] Creating Layer layer_128_4_relu1
I0520 11:16:08.368065  5291 net.cpp:434] layer_128_4_relu1 <- layer_128_4_bn1
I0520 11:16:08.368070  5291 net.cpp:395] layer_128_4_relu1 -> layer_128_4_bn1 (in-place)
I0520 11:16:08.368504  5291 net.cpp:150] Setting up layer_128_4_relu1
I0520 11:16:08.368515  5291 net.cpp:157] Top shape: 128 512 4 16 (4194304)
I0520 11:16:08.368517  5291 net.cpp:165] Memory required for data: 1637903872
I0520 11:16:08.368521  5291 layer_factory.hpp:77] Creating layer layer_128_4_conv1
I0520 11:16:08.368530  5291 net.cpp:100] Creating Layer layer_128_4_conv1
I0520 11:16:08.368535  5291 net.cpp:434] layer_128_4_conv1 <- layer_128_4_bn1
I0520 11:16:08.368541  5291 net.cpp:408] layer_128_4_conv1 -> layer_128_4_conv1
I0520 11:16:08.370263  5291 net.cpp:150] Setting up layer_128_4_conv1
I0520 11:16:08.370276  5291 net.cpp:157] Top shape: 128 128 4 16 (1048576)
I0520 11:16:08.370280  5291 net.cpp:165] Memory required for data: 1642098176
I0520 11:16:08.370285  5291 layer_factory.hpp:77] Creating layer layer_128_4_bn2
I0520 11:16:08.370291  5291 net.cpp:100] Creating Layer layer_128_4_bn2
I0520 11:16:08.370296  5291 net.cpp:434] layer_128_4_bn2 <- layer_128_4_conv1
I0520 11:16:08.370316  5291 net.cpp:395] layer_128_4_bn2 -> layer_128_4_conv1 (in-place)
I0520 11:16:08.370493  5291 net.cpp:150] Setting up layer_128_4_bn2
I0520 11:16:08.370501  5291 net.cpp:157] Top shape: 128 128 4 16 (1048576)
I0520 11:16:08.370502  5291 net.cpp:165] Memory required for data: 1646292480
I0520 11:16:08.370508  5291 layer_factory.hpp:77] Creating layer layer_128_4_scale2
I0520 11:16:08.370513  5291 net.cpp:100] Creating Layer layer_128_4_scale2
I0520 11:16:08.370517  5291 net.cpp:434] layer_128_4_scale2 <- layer_128_4_conv1
I0520 11:16:08.370522  5291 net.cpp:395] layer_128_4_scale2 -> layer_128_4_conv1 (in-place)
I0520 11:16:08.370549  5291 layer_factory.hpp:77] Creating layer layer_128_4_scale2
I0520 11:16:08.370646  5291 net.cpp:150] Setting up layer_128_4_scale2
I0520 11:16:08.370654  5291 net.cpp:157] Top shape: 128 128 4 16 (1048576)
I0520 11:16:08.370658  5291 net.cpp:165] Memory required for data: 1650486784
I0520 11:16:08.370664  5291 layer_factory.hpp:77] Creating layer layer_128_4_relu2
I0520 11:16:08.370672  5291 net.cpp:100] Creating Layer layer_128_4_relu2
I0520 11:16:08.370677  5291 net.cpp:434] layer_128_4_relu2 <- layer_128_4_conv1
I0520 11:16:08.370682  5291 net.cpp:395] layer_128_4_relu2 -> layer_128_4_conv1 (in-place)
I0520 11:16:08.370981  5291 net.cpp:150] Setting up layer_128_4_relu2
I0520 11:16:08.370991  5291 net.cpp:157] Top shape: 128 128 4 16 (1048576)
I0520 11:16:08.370993  5291 net.cpp:165] Memory required for data: 1654681088
I0520 11:16:08.370996  5291 layer_factory.hpp:77] Creating layer layer_128_4_conv2
I0520 11:16:08.371006  5291 net.cpp:100] Creating Layer layer_128_4_conv2
I0520 11:16:08.371008  5291 net.cpp:434] layer_128_4_conv2 <- layer_128_4_conv1
I0520 11:16:08.371013  5291 net.cpp:408] layer_128_4_conv2 -> layer_128_4_conv2
I0520 11:16:08.374560  5291 net.cpp:150] Setting up layer_128_4_conv2
I0520 11:16:08.374573  5291 net.cpp:157] Top shape: 128 128 4 16 (1048576)
I0520 11:16:08.374575  5291 net.cpp:165] Memory required for data: 1658875392
I0520 11:16:08.374589  5291 layer_factory.hpp:77] Creating layer layer_128_4_bn3
I0520 11:16:08.374596  5291 net.cpp:100] Creating Layer layer_128_4_bn3
I0520 11:16:08.374599  5291 net.cpp:434] layer_128_4_bn3 <- layer_128_4_conv2
I0520 11:16:08.374604  5291 net.cpp:395] layer_128_4_bn3 -> layer_128_4_conv2 (in-place)
I0520 11:16:08.374763  5291 net.cpp:150] Setting up layer_128_4_bn3
I0520 11:16:08.374770  5291 net.cpp:157] Top shape: 128 128 4 16 (1048576)
I0520 11:16:08.374773  5291 net.cpp:165] Memory required for data: 1663069696
I0520 11:16:08.374781  5291 layer_factory.hpp:77] Creating layer layer_128_4_scale3
I0520 11:16:08.374790  5291 net.cpp:100] Creating Layer layer_128_4_scale3
I0520 11:16:08.374795  5291 net.cpp:434] layer_128_4_scale3 <- layer_128_4_conv2
I0520 11:16:08.374800  5291 net.cpp:395] layer_128_4_scale3 -> layer_128_4_conv2 (in-place)
I0520 11:16:08.374830  5291 layer_factory.hpp:77] Creating layer layer_128_4_scale3
I0520 11:16:08.374920  5291 net.cpp:150] Setting up layer_128_4_scale3
I0520 11:16:08.374928  5291 net.cpp:157] Top shape: 128 128 4 16 (1048576)
I0520 11:16:08.374933  5291 net.cpp:165] Memory required for data: 1667264000
I0520 11:16:08.374938  5291 layer_factory.hpp:77] Creating layer layer_128_4_relu3
I0520 11:16:08.374943  5291 net.cpp:100] Creating Layer layer_128_4_relu3
I0520 11:16:08.374948  5291 net.cpp:434] layer_128_4_relu3 <- layer_128_4_conv2
I0520 11:16:08.374953  5291 net.cpp:395] layer_128_4_relu3 -> layer_128_4_conv2 (in-place)
I0520 11:16:08.375383  5291 net.cpp:150] Setting up layer_128_4_relu3
I0520 11:16:08.375396  5291 net.cpp:157] Top shape: 128 128 4 16 (1048576)
I0520 11:16:08.375398  5291 net.cpp:165] Memory required for data: 1671458304
I0520 11:16:08.375401  5291 layer_factory.hpp:77] Creating layer layer_128_4_conv3
I0520 11:16:08.375411  5291 net.cpp:100] Creating Layer layer_128_4_conv3
I0520 11:16:08.375416  5291 net.cpp:434] layer_128_4_conv3 <- layer_128_4_conv2
I0520 11:16:08.375422  5291 net.cpp:408] layer_128_4_conv3 -> layer_128_4_conv3
I0520 11:16:08.379232  5291 net.cpp:150] Setting up layer_128_4_conv3
I0520 11:16:08.379276  5291 net.cpp:157] Top shape: 128 512 4 16 (4194304)
I0520 11:16:08.379278  5291 net.cpp:165] Memory required for data: 1688235520
I0520 11:16:08.379284  5291 layer_factory.hpp:77] Creating layer layer_128_4_sum
I0520 11:16:08.379292  5291 net.cpp:100] Creating Layer layer_128_4_sum
I0520 11:16:08.379295  5291 net.cpp:434] layer_128_4_sum <- layer_128_4_conv3
I0520 11:16:08.379300  5291 net.cpp:434] layer_128_4_sum <- layer_128_3_sum_layer_128_3_sum_0_split_1
I0520 11:16:08.379304  5291 net.cpp:408] layer_128_4_sum -> layer_128_4_sum
I0520 11:16:08.379328  5291 net.cpp:150] Setting up layer_128_4_sum
I0520 11:16:08.379335  5291 net.cpp:157] Top shape: 128 512 4 16 (4194304)
I0520 11:16:08.379338  5291 net.cpp:165] Memory required for data: 1705012736
I0520 11:16:08.379341  5291 layer_factory.hpp:77] Creating layer last_bn
I0520 11:16:08.379345  5291 net.cpp:100] Creating Layer last_bn
I0520 11:16:08.379349  5291 net.cpp:434] last_bn <- layer_128_4_sum
I0520 11:16:08.379353  5291 net.cpp:395] last_bn -> layer_128_4_sum (in-place)
I0520 11:16:08.379509  5291 net.cpp:150] Setting up last_bn
I0520 11:16:08.379516  5291 net.cpp:157] Top shape: 128 512 4 16 (4194304)
I0520 11:16:08.379520  5291 net.cpp:165] Memory required for data: 1721789952
I0520 11:16:08.379528  5291 layer_factory.hpp:77] Creating layer last_scale
I0520 11:16:08.379537  5291 net.cpp:100] Creating Layer last_scale
I0520 11:16:08.379542  5291 net.cpp:434] last_scale <- layer_128_4_sum
I0520 11:16:08.379549  5291 net.cpp:395] last_scale -> layer_128_4_sum (in-place)
I0520 11:16:08.379581  5291 layer_factory.hpp:77] Creating layer last_scale
I0520 11:16:08.379685  5291 net.cpp:150] Setting up last_scale
I0520 11:16:08.379694  5291 net.cpp:157] Top shape: 128 512 4 16 (4194304)
I0520 11:16:08.379698  5291 net.cpp:165] Memory required for data: 1738567168
I0520 11:16:08.379703  5291 layer_factory.hpp:77] Creating layer last_relu
I0520 11:16:08.379709  5291 net.cpp:100] Creating Layer last_relu
I0520 11:16:08.379714  5291 net.cpp:434] last_relu <- layer_128_4_sum
I0520 11:16:08.379719  5291 net.cpp:395] last_relu -> layer_128_4_sum (in-place)
I0520 11:16:08.380072  5291 net.cpp:150] Setting up last_relu
I0520 11:16:08.380084  5291 net.cpp:157] Top shape: 128 512 4 16 (4194304)
I0520 11:16:08.380089  5291 net.cpp:165] Memory required for data: 1755344384
I0520 11:16:08.380093  5291 layer_factory.hpp:77] Creating layer dropout
I0520 11:16:08.380102  5291 net.cpp:100] Creating Layer dropout
I0520 11:16:08.380106  5291 net.cpp:434] dropout <- layer_128_4_sum
I0520 11:16:08.380112  5291 net.cpp:395] dropout -> layer_128_4_sum (in-place)
I0520 11:16:08.380143  5291 net.cpp:150] Setting up dropout
I0520 11:16:08.380151  5291 net.cpp:157] Top shape: 128 512 4 16 (4194304)
I0520 11:16:08.380154  5291 net.cpp:165] Memory required for data: 1772121600
I0520 11:16:08.380159  5291 layer_factory.hpp:77] Creating layer permuted_data
I0520 11:16:08.380168  5291 net.cpp:100] Creating Layer permuted_data
I0520 11:16:08.380172  5291 net.cpp:434] permuted_data <- layer_128_4_sum
I0520 11:16:08.380178  5291 net.cpp:408] permuted_data -> permuted_data
I0520 11:16:08.380275  5291 net.cpp:150] Setting up permuted_data
I0520 11:16:08.380283  5291 net.cpp:157] Top shape: 16 128 512 4 (4194304)
I0520 11:16:08.380287  5291 net.cpp:165] Memory required for data: 1788898816
I0520 11:16:08.380290  5291 layer_factory.hpp:77] Creating layer permuted_data_permuted_data_0_split
I0520 11:16:08.380297  5291 net.cpp:100] Creating Layer permuted_data_permuted_data_0_split
I0520 11:16:08.380301  5291 net.cpp:434] permuted_data_permuted_data_0_split <- permuted_data
I0520 11:16:08.380307  5291 net.cpp:408] permuted_data_permuted_data_0_split -> permuted_data_permuted_data_0_split_0
I0520 11:16:08.380314  5291 net.cpp:408] permuted_data_permuted_data_0_split -> permuted_data_permuted_data_0_split_1
I0520 11:16:08.380347  5291 net.cpp:150] Setting up permuted_data_permuted_data_0_split
I0520 11:16:08.380354  5291 net.cpp:157] Top shape: 16 128 512 4 (4194304)
I0520 11:16:08.380375  5291 net.cpp:157] Top shape: 16 128 512 4 (4194304)
I0520 11:16:08.380379  5291 net.cpp:165] Memory required for data: 1822453248
I0520 11:16:08.380383  5291 layer_factory.hpp:77] Creating layer lstm-reverse1
I0520 11:16:08.380391  5291 net.cpp:100] Creating Layer lstm-reverse1
I0520 11:16:08.380395  5291 net.cpp:434] lstm-reverse1 <- permuted_data_permuted_data_0_split_0
I0520 11:16:08.380401  5291 net.cpp:408] lstm-reverse1 -> rlstm_input
I0520 11:16:08.380424  5291 net.cpp:150] Setting up lstm-reverse1
I0520 11:16:08.380429  5291 net.cpp:157] Top shape: 16 128 512 4 (4194304)
I0520 11:16:08.380432  5291 net.cpp:165] Memory required for data: 1839230464
I0520 11:16:08.380434  5291 layer_factory.hpp:77] Creating layer lstm2x
I0520 11:16:08.380442  5291 net.cpp:100] Creating Layer lstm2x
I0520 11:16:08.380446  5291 net.cpp:434] lstm2x <- rlstm_input
I0520 11:16:08.380451  5291 net.cpp:434] lstm2x <- indicator_indicator_0_split_0
I0520 11:16:08.380457  5291 net.cpp:408] lstm2x -> lstm2x
I0520 11:16:08.380467  5291 recurrent_layer.cpp:20] Initializing recurrent layer: assuming input batch contains 16 timesteps of 128 independent streams.
I0520 11:16:08.381036  5291 net.cpp:58] Initializing net from parameters: 
layer {
  name: "lstm2x_"
  type: "Input"
  top: "x"
  top: "cont"
  input_param {
    shape {
      dim: 16
      dim: 128
      dim: 512
      dim: 4
    }
    shape {
      dim: 16
      dim: 128
    }
  }
}
layer {
  name: "lstm2x_"
  type: "Input"
  top: "c_0"
  top: "h_0"
  input_param {
    shape {
      dim: 1
      dim: 128
      dim: 100
    }
    shape {
      dim: 1
      dim: 128
      dim: 100
    }
  }
}
layer {
  name: "lstm2x_cont_slice"
  type: "Slice"
  bottom: "cont"
  top: "cont_1"
  top: "cont_2"
  top: "cont_3"
  top: "cont_4"
  top: "cont_5"
  top: "cont_6"
  top: "cont_7"
  top: "cont_8"
  top: "cont_9"
  top: "cont_10"
  top: "cont_11"
  top: "cont_12"
  top: "cont_13"
  top: "cont_14"
  top: "cont_15"
  top: "cont_16"
  slice_param {
    axis: 0
  }
}
layer {
  name: "lstm2x_x_transform"
  type: "InnerProduct"
  bottom: "x"
  top: "W_xc_x"
  param {
    name: "W_xc"
  }
  param {
    name: "b_c"
  }
  propagate_down: true
  inner_product_param {
    num_output: 400
    bias_term: true
    weight_filler {
      type: "xavier"
    }
    bias_filler {
      type: "constant"
      value: 0
    }
    axis: 2
  }
}
layer {
  name: "lstm2x_W_xc_x_slice"
  type: "Slice"
  bottom: "W_xc_x"
  top: "W_xc_x_1"
  top: "W_xc_x_2"
  top: "W_xc_x_3"
  top: "W_xc_x_4"
  top: "W_xc_x_5"
  top: "W_xc_x_6"
  top: "W_xc_x_7"
  top: "W_xc_x_8"
  top: "W_xc_x_9"
  top: "W_xc_x_10"
  top: "W_xc_x_11"
  top: "W_xc_x_12"
  top: "W_xc_x_13"
  top: "W_xc_x_14"
  top: "W_xc_x_15"
  top: "W_xc_x_16"
  slice_param {
    axis: 0
  }
}
layer {
  name: "lstm2x_h_conted_0"
  type: "Scale"
  bottom: "h_0"
  bottom: "cont_1"
  top: "h_conted_0"
  scale_param {
    axis: 0
  }
}
layer {
  name: "lstm2x_transform_1"
  type: "InnerProduct"
  bottom: "h_conted_0"
  top: "W_hc_h_0"
  param {
    name: "W_hc"
  }
  inner_product_param {
    num_output: 400
    bias_term: false
    weight_filler {
      type: "xavier"
    }
    axis: 2
  }
}
layer {
  name: "lstm2x_gate_input_1"
  type: "Eltwise"
  bottom: "W_hc_h_0"
  bottom: "W_xc_x_1"
  top: "gate_input_1"
  eltwise_param {
    operation: SUM
  }
}
layer {
  name: "lstm2x_unit_1"
  type: "LSTMUnit"
  bottom: "c_0"
  bottom: "gate_input_1"
  bottom: "cont_1"
  top: "c_1"
  top: "h_1"
}
layer {
  name: "lstm2x_h_conted_1"
  type: "Scale"
  bottom: "h_1"
  bottom: "cont_2"
  top: "h_conted_1"
  scale_param {
    axis: 0
  }
}
layer {
  name: "lstm2x_transform_2"
  type: "InnerProduct"
  bottom: "h_conted_1"
  top: "W_hc_h_1"
  param {
    name: "W_hc"
  }
  inner_product_param {
    num_output: 400
    bias_term: false
    weight_filler {
      type: "xavier"
    }
    axis: 2
  }
}
layer {
  name: "lstm2x_gate_input_2"
  type: "Eltwise"
  bottom: "W_hc_h_1"
  bottom: "W_xc_x_2"
  top: "gate_input_2"
  eltwise_param {
    operation: SUM
  }
}
layer {
  name: "lstm2x_unit_2"
  type: "LSTMUnit"
  bottom: "c_1"
  bottom: "gate_input_2"
  bottom: "cont_2"
  top: "c_2"
  top: "h_2"
}
layer {
  name: "lstm2x_h_conted_2"
  type: "Scale"
  bottom: "h_2"
  bottom: "cont_3"
  top: "h_conted_2"
  scale_param {
    axis: 0
  }
}
layer {
  name: "lstm2x_transform_3"
  type: "InnerProduct"
  bottom: "h_conted_2"
  top: "W_hc_h_2"
  param {
    name: "W_hc"
  }
  inner_product_param {
    num_output: 400
    bias_term: false
    weight_filler {
      type: "xavier"
    }
    axis: 2
  }
}
layer {
  name: "lstm2x_gate_input_3"
  type: "Eltwise"
  bottom: "W_hc_h_2"
  bottom: "W_xc_x_3"
  top: "gate_input_3"
  eltwise_param {
    operation: SUM
  }
}
layer {
  name: "lstm2x_unit_3"
  type: "LSTMUnit"
  bottom: "c_2"
  bottom: "gate_input_3"
  bottom: "cont_3"
  top: "c_3"
  top: "h_3"
}
layer {
  name: "lstm2x_h_conted_3"
  type: "Scale"
  bottom: "h_3"
  bottom: "cont_4"
  top: "h_conted_3"
  scale_param {
    axis: 0
  }
}
layer {
  name: "lstm2x_transform_4"
  type: "InnerProduct"
  bottom: "h_conted_3"
  top: "W_hc_h_3"
  param {
    name: "W_hc"
  }
  inner_product_param {
    num_output: 400
    bias_term: false
    weight_filler {
      type: "xavier"
    }
    axis: 2
  }
}
layer {
  name: "lstm2x_gate_input_4"
  type: "Eltwise"
  bottom: "W_hc_h_3"
  bottom: "W_xc_x_4"
  top: "gate_input_4"
  eltwise_param {
    operation: SUM
  }
}
layer {
  name: "lstm2x_unit_4"
  type: "LSTMUnit"
  bottom: "c_3"
  bottom: "gate_input_4"
  bottom: "cont_4"
  top: "c_4"
  top: "h_4"
}
layer {
  name: "lstm2x_h_conted_4"
  type: "Scale"
  bottom: "h_4"
  bottom: "cont_5"
  top: "h_conted_4"
  scale_param {
    axis: 0
  }
}
layer {
  name: "lstm2x_transform_5"
  type: "InnerProduct"
  bottom: "h_conted_4"
  top: "W_hc_h_4"
  param {
    name: "W_hc"
  }
  inner_product_param {
    num_output: 400
    bias_term: false
    weight_filler {
      type: "xavier"
    }
    axis: 2
  }
}
layer {
  name: "lstm2x_gate_input_5"
  type: "Eltwise"
  bottom: "W_hc_h_4"
  bottom: "W_xc_x_5"
  top: "gate_input_5"
  eltwise_param {
    operation: SUM
  }
}
layer {
  name: "lstm2x_unit_5"
  type: "LSTMUnit"
  bottom: "c_4"
  bottom: "gate_input_5"
  bottom: "cont_5"
  top: "c_5"
  top: "h_5"
}
layer {
  name: "lstm2x_h_conted_5"
  type: "Scale"
  bottom: "h_5"
  bottom: "cont_6"
  top: "h_conted_5"
  scale_param {
    axis: 0
  }
}
layer {
  name: "lstm2x_transform_6"
  type: "InnerProduct"
  bottom: "h_conted_5"
  top: "W_hc_h_5"
  param {
    name: "W_hc"
  }
  inner_product_param {
    num_output: 400
    bias_term: false
    weight_filler {
      type: "xavier"
    }
    axis: 2
  }
}
layer {
  name: "lstm2x_gate_input_6"
  type: "Eltwise"
  bottom: "W_hc_h_5"
  bottom: "W_xc_x_6"
  top: "gate_input_6"
  eltwise_param {
    operation: SUM
  }
}
layer {
  name: "lstm2x_unit_6"
  type: "LSTMUnit"
  bottom: "c_5"
  bottom: "gate_input_6"
  bottom: "cont_6"
  top: "c_6"
  top: "h_6"
}
layer {
  name: "lstm2x_h_conted_6"
  type: "Scale"
  bottom: "h_6"
  bottom: "cont_7"
  top: "h_conted_6"
  scale_param {
    axis: 0
  }
}
layer {
  name: "lstm2x_transform_7"
  type: "InnerProduct"
  bottom: "h_conted_6"
  top: "W_hc_h_6"
  param {
    name: "W_hc"
  }
  inner_product_param {
    num_output: 400
    bias_term: false
    weight_filler {
      type: "xavier"
    }
    axis: 2
  }
}
layer {
  name: "lstm2x_gate_input_7"
  type: "Eltwise"
  bottom: "W_hc_h_6"
  bottom: "W_xc_x_7"
  top: "gate_input_7"
  eltwise_param {
    operation: SUM
  }
}
layer {
  name: "lstm2x_unit_7"
  type: "LSTMUnit"
  bottom: "c_6"
  bottom: "gate_input_7"
  bottom: "cont_7"
  top: "c_7"
  top: "h_7"
}
layer {
  name: "lstm2x_h_conted_7"
  type: "Scale"
  bottom: "h_7"
  bottom: "cont_8"
  top: "h_conted_7"
  scale_param {
    axis: 0
  }
}
layer {
  name: "lstm2x_transform_8"
  type: "InnerProduct"
  bottom: "h_conted_7"
  top: "W_hc_h_7"
  param {
    name: "W_hc"
  }
  inner_product_param {
    num_output: 400
    bias_term: false
    weight_filler {
      type: "xavier"
    }
    axis: 2
  }
}
layer {
  name: "lstm2x_gate_input_8"
  type: "Eltwise"
  bottom: "W_hc_h_7"
  bottom: "W_xc_x_8"
  top: "gate_input_8"
  eltwise_param {
    operation: SUM
  }
}
layer {
  name: "lstm2x_unit_8"
  type: "LSTMUnit"
  bottom: "c_7"
  bottom: "gate_input_8"
  bottom: "cont_8"
  top: "c_8"
  top: "h_8"
}
layer {
  name: "lstm2x_h_conted_8"
  type: "Scale"
  bottom: "h_8"
  bottom: "cont_9"
  top: "h_conted_8"
  scale_param {
    axis: 0
  }
}
layer {
  name: "lstm2x_transform_9"
  type: "InnerProduct"
  bottom: "h_conted_8"
  top: "W_hc_h_8"
  param {
    name: "W_hc"
  }
  inner_product_param {
    num_output: 400
    bias_term: false
    weight_filler {
      type: "xavier"
    }
    axis: 2
  }
}
layer {
  name: "lstm2x_gate_input_9"
  type: "Eltwise"
  bottom: "W_hc_h_8"
  bottom: "W_xc_x_9"
  top: "gate_input_9"
  eltwise_param {
    operation: SUM
  }
}
layer {
  name: "lstm2x_unit_9"
  type: "LSTMUnit"
  bottom: "c_8"
  bottom: "gate_input_9"
  bottom: "cont_9"
  top: "c_9"
  top: "h_9"
}
layer {
  name: "lstm2x_h_conted_9"
  type: "Scale"
  bottom: "h_9"
  bottom: "cont_10"
  top: "h_conted_9"
  scale_param {
    axis: 0
  }
}
layer {
  name: "lstm2x_transform_10"
  type: "InnerProduct"
  bottom: "h_conted_9"
  top: "W_hc_h_9"
  param {
    name: "W_hc"
  }
  inner_product_param {
    num_output: 400
    bias_term: false
    weight_filler {
      type: "xavier"
    }
    axis: 2
  }
}
layer {
  name: "lstm2x_gate_input_10"
  type: "Eltwise"
  bottom: "W_hc_h_9"
  bottom: "W_xc_x_10"
  top: "gate_input_10"
  eltwise_param {
    operation: SUM
  }
}
layer {
  name: "lstm2x_unit_10"
  type: "LSTMUnit"
  bottom: "c_9"
  bottom: "gate_input_10"
  bottom: "cont_10"
  top: "c_10"
  top: "h_10"
}
layer {
  name: "lstm2x_h_conted_10"
  type: "Scale"
  bottom: "h_10"
  bottom: "cont_11"
  top: "h_conted_10"
  scale_param {
    axis: 0
  }
}
layer {
  name: "lstm2x_transform_11"
  type: "InnerProduct"
  bottom: "h_conted_10"
  top: "W_hc_h_10"
  param {
    name: "W_hc"
  }
  inner_product_param {
    num_output: 400
    bias_term: false
    weight_filler {
      type: "xavier"
    }
    axis: 2
  }
}
layer {
  name: "lstm2x_gate_input_11"
  type: "Eltwise"
  bottom: "W_hc_h_10"
  bottom: "W_xc_x_11"
  top: "gate_input_11"
  eltwise_param {
    operation: SUM
  }
}
layer {
  name: "lstm2x_unit_11"
  type: "LSTMUnit"
  bottom: "c_10"
  bottom: "gate_input_11"
  bottom: "cont_11"
  top: "c_11"
  top: "h_11"
}
layer {
  name: "lstm2x_h_conted_11"
  type: "Scale"
  bottom: "h_11"
  bottom: "cont_12"
  top: "h_conted_11"
  scale_param {
    axis: 0
  }
}
layer {
  name: "lstm2x_transform_12"
  type: "InnerProduct"
  bottom: "h_conted_11"
  top: "W_hc_h_11"
  param {
    name: "W_hc"
  }
  inner_product_param {
    num_output: 400
    bias_term: false
    weight_filler {
      type: "xavier"
    }
    axis: 2
  }
}
layer {
  name: "lstm2x_gate_input_12"
  type: "Eltwise"
  bottom: "W_hc_h_11"
  bottom: "W_xc_x_12"
  top: "gate_input_12"
  eltwise_param {
    operation: SUM
  }
}
layer {
  name: "lstm2x_unit_12"
  type: "LSTMUnit"
  bottom: "c_11"
  bottom: "gate_input_12"
  bottom: "cont_12"
  top: "c_12"
  top: "h_12"
}
layer {
  name: "lstm2x_h_conted_12"
  type: "Scale"
  bottom: "h_12"
  bottom: "cont_13"
  top: "h_conted_12"
  scale_param {
    axis: 0
  }
}
layer {
  name: "lstm2x_transform_13"
  type: "InnerProduct"
  bottom: "h_conted_12"
  top: "W_hc_h_12"
  param {
    name: "W_hc"
  }
  inner_product_param {
    num_output: 400
    bias_term: false
    weight_filler {
      type: "xavier"
    }
    axis: 2
  }
}
layer {
  name: "lstm2x_gate_input_13"
  type: "Eltwise"
  bottom: "W_hc_h_12"
  bottom: "W_xc_x_13"
  top: "gate_input_13"
  eltwise_param {
    operation: SUM
  }
}
layer {
  name: "lstm2x_unit_13"
  type: "LSTMUnit"
  bottom: "c_12"
  bottom: "gate_input_13"
  bottom: "cont_13"
  top: "c_13"
  top: "h_13"
}
layer {
  name: "lstm2x_h_conted_13"
  type: "Scale"
  bottom: "h_13"
  bottom: "cont_14"
  top: "h_conted_13"
  scale_param {
    axis: 0
  }
}
layer {
  name: "lstm2x_transform_14"
  type: "InnerProduct"
  bottom: "h_conted_13"
  top: "W_hc_h_13"
  param {
    name: "W_hc"
  }
  inner_product_param {
    num_output: 400
    bias_term: false
    weight_filler {
      type: "xavier"
    }
    axis: 2
  }
}
layer {
  name: "lstm2x_gate_input_14"
  type: "Eltwise"
  bottom: "W_hc_h_13"
  bottom: "W_xc_x_14"
  top: "gate_input_14"
  eltwise_param {
    operation: SUM
  }
}
layer {
  name: "lstm2x_unit_14"
  type: "LSTMUnit"
  bottom: "c_13"
  bottom: "gate_input_14"
  bottom: "cont_14"
  top: "c_14"
  top: "h_14"
}
layer {
  name: "lstm2x_h_conted_14"
  type: "Scale"
  bottom: "h_14"
  bottom: "cont_15"
  top: "h_conted_14"
  scale_param {
    axis: 0
  }
}
layer {
  name: "lstm2x_transform_15"
  type: "InnerProduct"
  bottom: "h_conted_14"
  top: "W_hc_h_14"
  param {
    name: "W_hc"
  }
  inner_product_param {
    num_output: 400
    bias_term: false
    weight_filler {
      type: "xavier"
    }
    axis: 2
  }
}
layer {
  name: "lstm2x_gate_input_15"
  type: "Eltwise"
  bottom: "W_hc_h_14"
  bottom: "W_xc_x_15"
  top: "gate_input_15"
  eltwise_param {
    operation: SUM
  }
}
layer {
  name: "lstm2x_unit_15"
  type: "LSTMUnit"
  bottom: "c_14"
  bottom: "gate_input_15"
  bottom: "cont_15"
  top: "c_15"
  top: "h_15"
}
layer {
  name: "lstm2x_h_conted_15"
  type: "Scale"
  bottom: "h_15"
  bottom: "cont_16"
  top: "h_conted_15"
  scale_param {
    axis: 0
  }
}
layer {
  name: "lstm2x_transform_16"
  type: "InnerProduct"
  bottom: "h_conted_15"
  top: "W_hc_h_15"
  param {
    name: "W_hc"
  }
  inner_product_param {
    num_output: 400
    bias_term: false
    weight_filler {
      type: "xavier"
    }
    axis: 2
  }
}
layer {
  name: "lstm2x_gate_input_16"
  type: "Eltwise"
  bottom: "W_hc_h_15"
  bottom: "W_xc_x_16"
  top: "gate_input_16"
  eltwise_param {
    operation: SUM
  }
}
layer {
  name: "lstm2x_unit_16"
  type: "LSTMUnit"
  bottom: "c_15"
  bottom: "gate_input_16"
  bottom: "cont_16"
  top: "c_16"
  top: "h_16"
}
layer {
  name: "lstm2x_"
  type: "Split"
  bottom: "c_16"
  top: "c_T"
}
layer {
  name: "lstm2x_h_concat"
  type: "Concat"
  bottom: "h_1"
  bottom: "h_2"
  bottom: "h_3"
  bottom: "h_4"
  bottom: "h_5"
  bottom: "h_6"
  bottom: "h_7"
  bottom: "h_8"
  bottom: "h_9"
  bottom: "h_10"
  bottom: "h_11"
  bottom: "h_12"
  bottom: "h_13"
  bottom: "h_14"
  bottom: "h_15"
  bottom: "h_16"
  top: "h"
  concat_param {
    axis: 0
  }
}
layer {
  name: "h_pseudoloss"
  type: "Reduction"
  bottom: "h"
  top: "h_pseudoloss"
  loss_weight: 1
}
I0520 11:16:08.381541  5291 layer_factory.hpp:77] Creating layer lstm2x_
I0520 11:16:08.381551  5291 net.cpp:100] Creating Layer lstm2x_
I0520 11:16:08.381556  5291 net.cpp:408] lstm2x_ -> x
I0520 11:16:08.381567  5291 net.cpp:408] lstm2x_ -> cont
I0520 11:16:08.381618  5291 net.cpp:150] Setting up lstm2x_
I0520 11:16:08.381624  5291 net.cpp:157] Top shape: 16 128 512 4 (4194304)
I0520 11:16:08.381628  5291 net.cpp:157] Top shape: 16 128 (2048)
I0520 11:16:08.381633  5291 net.cpp:165] Memory required for data: 16785408
I0520 11:16:08.381636  5291 layer_factory.hpp:77] Creating layer lstm2x_
I0520 11:16:08.381641  5291 net.cpp:100] Creating Layer lstm2x_
I0520 11:16:08.381645  5291 net.cpp:408] lstm2x_ -> c_0
I0520 11:16:08.381652  5291 net.cpp:408] lstm2x_ -> h_0
I0520 11:16:08.381691  5291 net.cpp:150] Setting up lstm2x_
I0520 11:16:08.381696  5291 net.cpp:157] Top shape: 1 128 100 (12800)
I0520 11:16:08.381701  5291 net.cpp:157] Top shape: 1 128 100 (12800)
I0520 11:16:08.381705  5291 net.cpp:165] Memory required for data: 16887808
I0520 11:16:08.381708  5291 layer_factory.hpp:77] Creating layer lstm2x_cont_slice
I0520 11:16:08.381714  5291 net.cpp:100] Creating Layer lstm2x_cont_slice
I0520 11:16:08.381718  5291 net.cpp:434] lstm2x_cont_slice <- cont
I0520 11:16:08.381724  5291 net.cpp:408] lstm2x_cont_slice -> cont_1
I0520 11:16:08.381732  5291 net.cpp:408] lstm2x_cont_slice -> cont_2
…
I0520 11:16:08.381791  5291 net.cpp:408] lstm2x_cont_slice -> cont_10
I0520 11:16:08.381796  5291 net.cpp:408] lstm2x_cont_slice -> cont_11
I0520 11:16:08.381803  5291 net.cpp:408] lstm2x_cont_slice -> cont_12
I0520 11:16:08.381808  5291 net.cpp:408] lstm2x_cont_slice -> cont_13
I0520 11:16:08.381814  5291 net.cpp:408] lstm2x_cont_slice -> cont_14
I0520 11:16:08.381820  5291 net.cpp:408] lstm2x_cont_slice -> cont_15
I0520 11:16:08.381826  5291 net.cpp:408] lstm2x_cont_slice -> cont_16
I0520 11:16:08.382014  5291 net.cpp:150] Setting up lstm2x_cont_slice
I0520 11:16:08.382022  5291 net.cpp:157] Top shape: 1 128 (128)
I0520 11:16:08.382026  5291 net.cpp:157] Top shape: 1 128 (128)
I0520 11:16:08.382030  5291 net.cpp:157] Top shape: 1 128 (128)
I0520 11:16:08.382035  5291 net.cpp:157] Top shape: 1 128 (128)
I0520 11:16:08.382041  5291 net.cpp:157] Top shape: 1 128 (128)
I0520 11:16:08.382045  5291 net.cpp:157] Top shape: 1 128 (128)
I0520 11:16:08.382050  5291 net.cpp:157] Top shape: 1 128 (128)
I0520 11:16:08.382053  5291 net.cpp:157] Top shape: 1 128 (128)
I0520 11:16:08.382057  5291 net.cpp:157] Top shape: 1 128 (128)
I0520 11:16:08.382061  5291 net.cpp:157] Top shape: 1 128 (128)
I0520 11:16:08.382066  5291 net.cpp:157] Top shape: 1 128 (128)
I0520 11:16:08.382069  5291 net.cpp:157] Top shape: 1 128 (128)
I0520 11:16:08.382073  5291 net.cpp:157] Top shape: 1 128 (128)
I0520 11:16:08.382077  5291 net.cpp:157] Top shape: 1 128 (128)
I0520 11:16:08.382081  5291 net.cpp:157] Top shape: 1 128 (128)
I0520 11:16:08.382086  5291 net.cpp:157] Top shape: 1 128 (128)
I0520 11:16:08.382088  5291 net.cpp:165] Memory required for data: 16896000
I0520 11:16:08.382092  5291 layer_factory.hpp:77] Creating layer cont_1_lstm2x_cont_slice_0_split
I0520 11:16:08.382097  5291 net.cpp:100] Creating Layer cont_1_lstm2x_cont_slice_0_split
I0520 11:16:08.382102  5291 net.cpp:434] cont_1_lstm2x_cont_slice_0_split <- cont_1
I0520 11:16:08.382107  5291 net.cpp:408] cont_1_lstm2x_cont_slice_0_split -> cont_1_lstm2x_cont_slice_0_split_0
I0520 11:16:08.382112  5291 net.cpp:408] cont_1_lstm2x_cont_slice_0_split -> cont_1_lstm2x_cont_slice_0_split_1
I0520 11:16:08.382143  5291 net.cpp:150] Setting up cont_1_lstm2x_cont_slice_0_split
I0520 11:16:08.382146  5291 net.cpp:157] Top shape: 1 128 (128)
I0520 11:16:08.382151  5291 net.cpp:157] Top shape: 1 128 (128)
I0520 11:16:08.382154  5291 net.cpp:165] Memory required for data: 16897024
I0520 11:16:08.382158  5291 layer_factory.hpp:77] Creating layer cont_2_lstm2x_cont_slice_1_split
I0520 11:16:08.382163  5291 net.cpp:100] Creating Layer cont_2_lstm2x_cont_slice_1_split
I0520 11:16:08.382166  5291 net.cpp:434] cont_2_lstm2x_cont_slice_1_split <- cont_2
I0520 11:16:08.382171  5291 net.cpp:408] cont_2_lstm2x_cont_slice_1_split -> cont_2_lstm2x_cont_slice_1_split_0
I0520 11:16:08.382179  5291 net.cpp:408] cont_2_lstm2x_cont_slice_1_split -> cont_2_lstm2x_cont_slice_1_split_1
I0520 11:16:08.382213  5291 net.cpp:150] Setting up cont_2_lstm2x_cont_slice_1_split
I0520 11:16:08.382218  5291 net.cpp:157] Top shape: 1 128 (128)
I0520 11:16:08.382222  5291 net.cpp:157] Top shape: 1 128 (128)
I0520 11:16:08.382226  5291 net.cpp:165] Memory required for data: 16898048
I0520 11:16:08.382230  5291 layer_factory.hpp:77] Creating layer cont_3_lstm2x_cont_slice_2_split
I0520 11:16:08.382236  5291 net.cpp:100] Creating Layer cont_3_lstm2x_cont_slice_2_split
I0520 11:16:08.382239  5291 net.cpp:434] cont_3_lstm2x_cont_slice_2_split <- cont_3
I0520 11:16:08.382244  5291 net.cpp:408] cont_3_lstm2x_cont_slice_2_split -> cont_3_lstm2x_cont_slice_2_split_0
I0520 11:16:08.382251  5291 net.cpp:408] cont_3_lstm2x_cont_slice_2_split -> cont_3_lstm2x_cont_slice_2_split_1
I0520 11:16:08.382278  5291 net.cpp:150] Setting up cont_3_lstm2x_cont_slice_2_split
I0520 11:16:08.382292  5291 net.cpp:157] Top shape: 1 128 (128)
I0520 11:16:08.382295  5291 net.cpp:157] Top shape: 1 128 (128)
I0520 11:16:08.382298  5291 net.cpp:165] Memory required for data: 16899072
I0520 11:16:08.382302  5291 layer_factory.hpp:77] Creating layer cont_4_lstm2x_cont_slice_3_split
I0520 11:16:08.382308  5291 net.cpp:100] Creating Layer cont_4_lstm2x_cont_slice_3_split
I0520 11:16:08.382311  5291 net.cpp:434] cont_4_lstm2x_cont_slice_3_split <- cont_4
I0520 11:16:08.382316  5291 net.cpp:408] cont_4_lstm2x_cont_slice_3_split -> cont_4_lstm2x_cont_slice_3_split_0
I0520 11:16:08.382323  5291 net.cpp:408] cont_4_lstm2x_cont_slice_3_split -> cont_4_lstm2x_cont_slice_3_split_1
I0520 11:16:08.382351  5291 net.cpp:150] Setting up cont_4_lstm2x_cont_slice_3_split
I0520 11:16:08.382356  5291 net.cpp:157] Top shape: 1 128 (128)
I0520 11:16:08.382360  5291 net.cpp:157] Top shape: 1 128 (128)
I0520 11:16:08.382364  5291 net.cpp:165] Memory required for data: 16900096
I0520 11:16:08.382366  5291 layer_factory.hpp:77] Creating layer cont_5_lstm2x_cont_slice_4_split
I0520 11:16:08.382372  5291 net.cpp:100] Creating Layer cont_5_lstm2x_cont_slice_4_split
I0520 11:16:08.382376  5291 net.cpp:434] cont_5_lstm2x_cont_slice_4_split <- cont_5
I0520 11:16:08.382381  5291 net.cpp:408] cont_5_lstm2x_cont_slice_4_split -> cont_5_lstm2x_cont_slice_4_split_0
I0520 11:16:08.382387  5291 net.cpp:408] cont_5_lstm2x_cont_slice_4_split -> cont_5_lstm2x_cont_slice_4_split_1
I0520 11:16:08.382414  5291 net.cpp:150] Setting up cont_5_lstm2x_cont_slice_4_split
I0520 11:16:08.382418  5291 net.cpp:157] Top shape: 1 128 (128)
I0520 11:16:08.382422  5291 net.cpp:157] Top shape: 1 128 (128)
I0520 11:16:08.382426  5291 net.cpp:165] Memory required for data: 16901120
I0520 11:16:08.382429  5291 layer_factory.hpp:77] Creating layer cont_6_lstm2x_cont_slice_5_split
I0520 11:16:08.382434  5291 net.cpp:100] Creating Layer cont_6_lstm2x_cont_slice_5_split
I0520 11:16:08.382437  5291 net.cpp:434] cont_6_lstm2x_cont_slice_5_split <- cont_6
I0520 11:16:08.382442  5291 net.cpp:408] cont_6_lstm2x_cont_slice_5_split -> cont_6_lstm2x_cont_slice_5_split_0
I0520 11:16:08.382448  5291 net.cpp:408] cont_6_lstm2x_cont_slice_5_split -> cont_6_lstm2x_cont_slice_5_split_1
I0520 11:16:08.382475  5291 net.cpp:150] Setting up cont_6_lstm2x_cont_slice_5_split
I0520 11:16:08.382480  5291 net.cpp:157] Top shape: 1 128 (128)
I0520 11:16:08.382484  5291 net.cpp:157] Top shape: 1 128 (128)
I0520 11:16:08.382488  5291 net.cpp:165] Memory required for data: 16902144
I0520 11:16:08.382490  5291 layer_factory.hpp:77] Creating layer cont_7_lstm2x_cont_slice_6_split
I0520 11:16:08.382498  5291 net.cpp:100] Creating Layer cont_7_lstm2x_cont_slice_6_split
I0520 11:16:08.382501  5291 net.cpp:434] cont_7_lstm2x_cont_slice_6_split <- cont_7
I0520 11:16:08.382506  5291 net.cpp:408] cont_7_lstm2x_cont_slice_6_split -> cont_7_lstm2x_cont_slice_6_split_0
I0520 11:16:08.382514  5291 net.cpp:408] cont_7_lstm2x_cont_slice_6_split -> cont_7_lstm2x_cont_slice_6_split_1
I0520 11:16:08.382541  5291 net.cpp:150] Setting up cont_7_lstm2x_cont_slice_6_split
I0520 11:16:08.382546  5291 net.cpp:157] Top shape: 1 128 (128)
I0520 11:16:08.382550  5291 net.cpp:157] Top shape: 1 128 (128)
I0520 11:16:08.382553  5291 net.cpp:165] Memory required for data: 16903168
I0520 11:16:08.382557  5291 layer_factory.hpp:77] Creating layer cont_8_lstm2x_cont_slice_7_split
I0520 11:16:08.382561  5291 net.cpp:100] Creating Layer cont_8_lstm2x_cont_slice_7_split
I0520 11:16:08.382565  5291 net.cpp:434] cont_8_lstm2x_cont_slice_7_split <- cont_8
I0520 11:16:08.382570  5291 net.cpp:408] cont_8_lstm2x_cont_slice_7_split -> cont_8_lstm2x_cont_slice_7_split_0
I0520 11:16:08.382575  5291 net.cpp:408] cont_8_lstm2x_cont_slice_7_split -> cont_8_lstm2x_cont_slice_7_split_1
I0520 11:16:08.382603  5291 net.cpp:150] Setting up cont_8_lstm2x_cont_slice_7_split
I0520 11:16:08.382608  5291 net.cpp:157] Top shape: 1 128 (128)
I0520 11:16:08.382612  5291 net.cpp:157] Top shape: 1 128 (128)
I0520 11:16:08.382616  5291 net.cpp:165] Memory required for data: 16904192
I0520 11:16:08.382627  5291 layer_factory.hpp:77] Creating layer cont_9_lstm2x_cont_slice_8_split
I0520 11:16:08.382632  5291 net.cpp:100] Creating Layer cont_9_lstm2x_cont_slice_8_split
I0520 11:16:08.382635  5291 net.cpp:434] cont_9_lstm2x_cont_slice_8_split <- cont_9
I0520 11:16:08.382640  5291 net.cpp:408] cont_9_lstm2x_cont_slice_8_split -> cont_9_lstm2x_cont_slice_8_split_0
I0520 11:16:08.382647  5291 net.cpp:408] cont_9_lstm2x_cont_slice_8_split -> cont_9_lstm2x_cont_slice_8_split_1
I0520 11:16:08.382673  5291 net.cpp:150] Setting up cont_9_lstm2x_cont_slice_8_split
I0520 11:16:08.382678  5291 net.cpp:157] Top shape: 1 128 (128)
I0520 11:16:08.382683  5291 net.cpp:157] Top shape: 1 128 (128)
I0520 11:16:08.382685  5291 net.cpp:165] Memory required for data: 16905216
I0520 11:16:08.382688  5291 layer_factory.hpp:77] Creating layer cont_10_lstm2x_cont_slice_9_split
I0520 11:16:08.382694  5291 net.cpp:100] Creating Layer cont_10_lstm2x_cont_slice_9_split
I0520 11:16:08.382699  5291 net.cpp:434] cont_10_lstm2x_cont_slice_9_split <- cont_10
I0520 11:16:08.382704  5291 net.cpp:408] cont_10_lstm2x_cont_slice_9_split -> cont_10_lstm2x_cont_slice_9_split_0
I0520 11:16:08.382709  5291 net.cpp:408] cont_10_lstm2x_cont_slice_9_split -> cont_10_lstm2x_cont_slice_9_split_1
I0520 11:16:08.382736  5291 net.cpp:150] Setting up cont_10_lstm2x_cont_slice_9_split
I0520 11:16:08.382741  5291 net.cpp:157] Top shape: 1 128 (128)
I0520 11:16:08.382745  5291 net.cpp:157] Top shape: 1 128 (128)
I0520 11:16:08.382748  5291 net.cpp:165] Memory required for data: 16906240
I0520 11:16:08.382751  5291 layer_factory.hpp:77] Creating layer cont_11_lstm2x_cont_slice_10_split
I0520 11:16:08.382756  5291 net.cpp:100] Creating Layer cont_11_lstm2x_cont_slice_10_split
I0520 11:16:08.382760  5291 net.cpp:434] cont_11_lstm2x_cont_slice_10_split <- cont_11
I0520 11:16:08.382764  5291 net.cpp:408] cont_11_lstm2x_cont_slice_10_split -> cont_11_lstm2x_cont_slice_10_split_0
I0520 11:16:08.382769  5291 net.cpp:408] cont_11_lstm2x_cont_slice_10_split -> cont_11_lstm2x_cont_slice_10_split_1
I0520 11:16:08.382797  5291 net.cpp:150] Setting up cont_11_lstm2x_cont_slice_10_split
I0520 11:16:08.382802  5291 net.cpp:157] Top shape: 1 128 (128)
I0520 11:16:08.382805  5291 net.cpp:157] Top shape: 1 128 (128)
I0520 11:16:08.382808  5291 net.cpp:165] Memory required for data: 16907264
I0520 11:16:08.382812  5291 layer_factory.hpp:77] Creating layer cont_12_lstm2x_cont_slice_11_split
I0520 11:16:08.382817  5291 net.cpp:100] Creating Layer cont_12_lstm2x_cont_slice_11_split
I0520 11:16:08.382822  5291 net.cpp:434] cont_12_lstm2x_cont_slice_11_split <- cont_12
I0520 11:16:08.382827  5291 net.cpp:408] cont_12_lstm2x_cont_slice_11_split -> cont_12_lstm2x_cont_slice_11_split_0
I0520 11:16:08.382831  5291 net.cpp:408] cont_12_lstm2x_cont_slice_11_split -> cont_12_lstm2x_cont_slice_11_split_1
I0520 11:16:08.382858  5291 net.cpp:150] Setting up cont_12_lstm2x_cont_slice_11_split
I0520 11:16:08.382863  5291 net.cpp:157] Top shape: 1 128 (128)
I0520 11:16:08.382866  5291 net.cpp:157] Top shape: 1 128 (128)
I0520 11:16:08.382869  5291 net.cpp:165] Memory required for data: 16908288
I0520 11:16:08.382874  5291 layer_factory.hpp:77] Creating layer cont_13_lstm2x_cont_slice_12_split
I0520 11:16:08.382877  5291 net.cpp:100] Creating Layer cont_13_lstm2x_cont_slice_12_split
I0520 11:16:08.382881  5291 net.cpp:434] cont_13_lstm2x_cont_slice_12_split <- cont_13
I0520 11:16:08.382886  5291 net.cpp:408] cont_13_lstm2x_cont_slice_12_split -> cont_13_lstm2x_cont_slice_12_split_0
I0520 11:16:08.382891  5291 net.cpp:408] cont_13_lstm2x_cont_slice_12_split -> cont_13_lstm2x_cont_slice_12_split_1
I0520 11:16:08.382920  5291 net.cpp:150] Setting up cont_13_lstm2x_cont_slice_12_split
I0520 11:16:08.382923  5291 net.cpp:157] Top shape: 1 128 (128)
I0520 11:16:08.382927  5291 net.cpp:157] Top shape: 1 128 (128)
I0520 11:16:08.382930  5291 net.cpp:165] Memory required for data: 16909312
I0520 11:16:08.382935  5291 layer_factory.hpp:77] Creating layer cont_14_lstm2x_cont_slice_13_split
I0520 11:16:08.382946  5291 net.cpp:100] Creating Layer cont_14_lstm2x_cont_slice_13_split
I0520 11:16:08.382949  5291 net.cpp:434] cont_14_lstm2x_cont_slice_13_split <- cont_14
I0520 11:16:08.382954  5291 net.cpp:408] cont_14_lstm2x_cont_slice_13_split -> cont_14_lstm2x_cont_slice_13_split_0
I0520 11:16:08.382961  5291 net.cpp:408] cont_14_lstm2x_cont_slice_13_split -> cont_14_lstm2x_cont_slice_13_split_1
I0520 11:16:08.382988  5291 net.cpp:150] Setting up cont_14_lstm2x_cont_slice_13_split
I0520 11:16:08.382992  5291 net.cpp:157] Top shape: 1 128 (128)
I0520 11:16:08.382997  5291 net.cpp:157] Top shape: 1 128 (128)
I0520 11:16:08.382999  5291 net.cpp:165] Memory required for data: 16910336
I0520 11:16:08.383003  5291 layer_factory.hpp:77] Creating layer cont_15_lstm2x_cont_slice_14_split
I0520 11:16:08.383008  5291 net.cpp:100] Creating Layer cont_15_lstm2x_cont_slice_14_split
I0520 11:16:08.383011  5291 net.cpp:434] cont_15_lstm2x_cont_slice_14_split <- cont_15
I0520 11:16:08.383016  5291 net.cpp:408] cont_15_lstm2x_cont_slice_14_split -> cont_15_lstm2x_cont_slice_14_split_0
I0520 11:16:08.383021  5291 net.cpp:408] cont_15_lstm2x_cont_slice_14_split -> cont_15_lstm2x_cont_slice_14_split_1
I0520 11:16:08.383050  5291 net.cpp:150] Setting up cont_15_lstm2x_cont_slice_14_split
I0520 11:16:08.383055  5291 net.cpp:157] Top shape: 1 128 (128)
I0520 11:16:08.383059  5291 net.cpp:157] Top shape: 1 128 (128)
I0520 11:16:08.383062  5291 net.cpp:165] Memory required for data: 16911360
I0520 11:16:08.383065  5291 layer_factory.hpp:77] Creating layer cont_16_lstm2x_cont_slice_15_split
I0520 11:16:08.383071  5291 net.cpp:100] Creating Layer cont_16_lstm2x_cont_slice_15_split
I0520 11:16:08.383075  5291 net.cpp:434] cont_16_lstm2x_cont_slice_15_split <- cont_16
I0520 11:16:08.383080  5291 net.cpp:408] cont_16_lstm2x_cont_slice_15_split -> cont_16_lstm2x_cont_slice_15_split_0
I0520 11:16:08.383085  5291 net.cpp:408] cont_16_lstm2x_cont_slice_15_split -> cont_16_lstm2x_cont_slice_15_split_1
I0520 11:16:08.383112  5291 net.cpp:150] Setting up cont_16_lstm2x_cont_slice_15_split
I0520 11:16:08.383117  5291 net.cpp:157] Top shape: 1 128 (128)
I0520 11:16:08.383121  5291 net.cpp:157] Top shape: 1 128 (128)
I0520 11:16:08.383124  5291 net.cpp:165] Memory required for data: 16912384
I0520 11:16:08.383128  5291 layer_factory.hpp:77] Creating layer lstm2x_x_transform
I0520 11:16:08.383136  5291 net.cpp:100] Creating Layer lstm2x_x_transform
I0520 11:16:08.383139  5291 net.cpp:434] lstm2x_x_transform <- x
I0520 11:16:08.383146  5291 net.cpp:408] lstm2x_x_transform -> W_xc_x
I0520 11:16:08.390097  5291 net.cpp:150] Setting up lstm2x_x_transform
I0520 11:16:08.390116  5291 net.cpp:157] Top shape: 16 128 400 (819200)
I0520 11:16:08.390120  5291 net.cpp:165] Memory required for data: 20189184
I0520 11:16:08.390131  5291 layer_factory.hpp:77] Creating layer lstm2x_W_xc_x_slice
I0520 11:16:08.390142  5291 net.cpp:100] Creating Layer lstm2x_W_xc_x_slice
I0520 11:16:08.390147  5291 net.cpp:434] lstm2x_W_xc_x_slice <- W_xc_x
I0520 11:16:08.390156  5291 net.cpp:408] lstm2x_W_xc_x_slice -> W_xc_x_1
I0520 11:16:08.390164  5291 net.cpp:408] lstm2x_W_xc_x_slice -> W_xc_x_2
…
I0520 11:16:08.390223  5291 net.cpp:408] lstm2x_W_xc_x_slice -> W_xc_x_10
I0520 11:16:08.390229  5291 net.cpp:408] lstm2x_W_xc_x_slice -> W_xc_x_11
I0520 11:16:08.390235  5291 net.cpp:408] lstm2x_W_xc_x_slice -> W_xc_x_12
I0520 11:16:08.390246  5291 net.cpp:408] lstm2x_W_xc_x_slice -> W_xc_x_13
I0520 11:16:08.390254  5291 net.cpp:408] lstm2x_W_xc_x_slice -> W_xc_x_14
I0520 11:16:08.390259  5291 net.cpp:408] lstm2x_W_xc_x_slice -> W_xc_x_15
I0520 11:16:08.390285  5291 net.cpp:408] lstm2x_W_xc_x_slice -> W_xc_x_16
I0520 11:16:08.390485  5291 net.cpp:150] Setting up lstm2x_W_xc_x_slice
I0520 11:16:08.390491  5291 net.cpp:157] Top shape: 1 128 400 (51200)
I0520 11:16:08.390496  5291 net.cpp:157] Top shape: 1 128 400 (51200)
I0520 11:16:08.390499  5291 net.cpp:157] Top shape: 1 128 400 (51200)
I0520 11:16:08.390504  5291 net.cpp:157] Top shape: 1 128 400 (51200)
I0520 11:16:08.390509  5291 net.cpp:157] Top shape: 1 128 400 (51200)
I0520 11:16:08.390514  5291 net.cpp:157] Top shape: 1 128 400 (51200)
I0520 11:16:08.390518  5291 net.cpp:157] Top shape: 1 128 400 (51200)
I0520 11:16:08.390522  5291 net.cpp:157] Top shape: 1 128 400 (51200)
I0520 11:16:08.390527  5291 net.cpp:157] Top shape: 1 128 400 (51200)
I0520 11:16:08.390532  5291 net.cpp:157] Top shape: 1 128 400 (51200)
I0520 11:16:08.390537  5291 net.cpp:157] Top shape: 1 128 400 (51200)
I0520 11:16:08.390542  5291 net.cpp:157] Top shape: 1 128 400 (51200)
I0520 11:16:08.390547  5291 net.cpp:157] Top shape: 1 128 400 (51200)
I0520 11:16:08.390552  5291 net.cpp:157] Top shape: 1 128 400 (51200)
I0520 11:16:08.390556  5291 net.cpp:157] Top shape: 1 128 400 (51200)
I0520 11:16:08.390560  5291 net.cpp:157] Top shape: 1 128 400 (51200)
I0520 11:16:08.390564  5291 net.cpp:165] Memory required for data: 23465984
I0520 11:16:08.390568  5291 layer_factory.hpp:77] Creating layer lstm2x_h_conted_0
I0520 11:16:08.390575  5291 net.cpp:100] Creating Layer lstm2x_h_conted_0
I0520 11:16:08.390581  5291 net.cpp:434] lstm2x_h_conted_0 <- h_0
I0520 11:16:08.390586  5291 net.cpp:434] lstm2x_h_conted_0 <- cont_1_lstm2x_cont_slice_0_split_0
I0520 11:16:08.390596  5291 net.cpp:408] lstm2x_h_conted_0 -> h_conted_0
I0520 11:16:08.390661  5291 net.cpp:150] Setting up lstm2x_h_conted_0
I0520 11:16:08.390666  5291 net.cpp:157] Top shape: 1 128 100 (12800)
I0520 11:16:08.390669  5291 net.cpp:165] Memory required for data: 23517184
I0520 11:16:08.390673  5291 layer_factory.hpp:77] Creating layer lstm2x_transform_1
I0520 11:16:08.390681  5291 net.cpp:100] Creating Layer lstm2x_transform_1
I0520 11:16:08.390686  5291 net.cpp:434] lstm2x_transform_1 <- h_conted_0
I0520 11:16:08.390691  5291 net.cpp:408] lstm2x_transform_1 -> W_hc_h_0
I0520 11:16:08.391029  5291 net.cpp:150] Setting up lstm2x_transform_1
I0520 11:16:08.391036  5291 net.cpp:157] Top shape: 1 128 400 (51200)
I0520 11:16:08.391039  5291 net.cpp:165] Memory required for data: 23721984
I0520 11:16:08.391047  5291 layer_factory.hpp:77] Creating layer lstm2x_gate_input_1
I0520 11:16:08.391054  5291 net.cpp:100] Creating Layer lstm2x_gate_input_1
I0520 11:16:08.391059  5291 net.cpp:434] lstm2x_gate_input_1 <- W_hc_h_0
I0520 11:16:08.391064  5291 net.cpp:434] lstm2x_gate_input_1 <- W_xc_x_1
I0520 11:16:08.391070  5291 net.cpp:408] lstm2x_gate_input_1 -> gate_input_1
I0520 11:16:08.391093  5291 net.cpp:150] Setting up lstm2x_gate_input_1
I0520 11:16:08.391098  5291 net.cpp:157] Top shape: 1 128 400 (51200)
I0520 11:16:08.391101  5291 net.cpp:165] Memory required for data: 23926784
I0520 11:16:08.391105  5291 layer_factory.hpp:77] Creating layer lstm2x_unit_1
I0520 11:16:08.391113  5291 net.cpp:100] Creating Layer lstm2x_unit_1
I0520 11:16:08.391116  5291 net.cpp:434] lstm2x_unit_1 <- c_0
I0520 11:16:08.391121  5291 net.cpp:434] lstm2x_unit_1 <- gate_input_1
I0520 11:16:08.391125  5291 net.cpp:434] lstm2x_unit_1 <- cont_1_lstm2x_cont_slice_0_split_1
I0520 11:16:08.391131  5291 net.cpp:408] lstm2x_unit_1 -> c_1
I0520 11:16:08.391137  5291 net.cpp:408] lstm2x_unit_1 -> h_1
I0520 11:16:08.391183  5291 net.cpp:150] Setting up lstm2x_unit_1
I0520 11:16:08.391189  5291 net.cpp:157] Top shape: 1 128 100 (12800)
I0520 11:16:08.391194  5291 net.cpp:157] Top shape: 1 128 100 (12800)
I0520 11:16:08.391198  5291 net.cpp:165] Memory required for data: 24029184
I0520 11:16:08.391201  5291 layer_factory.hpp:77] Creating layer h_1_lstm2x_unit_1_1_split
I0520 11:16:08.391207  5291 net.cpp:100] Creating Layer h_1_lstm2x_unit_1_1_split
I0520 11:16:08.391222  5291 net.cpp:434] h_1_lstm2x_unit_1_1_split <- h_1
I0520 11:16:08.391228  5291 net.cpp:408] h_1_lstm2x_unit_1_1_split -> h_1_lstm2x_unit_1_1_split_0
I0520 11:16:08.391237  5291 net.cpp:408] h_1_lstm2x_unit_1_1_split -> h_1_lstm2x_unit_1_1_split_1
I0520 11:16:08.391268  5291 net.cpp:150] Setting up h_1_lstm2x_unit_1_1_split
I0520 11:16:08.391273  5291 net.cpp:157] Top shape: 1 128 100 (12800)
I0520 11:16:08.391278  5291 net.cpp:157] Top shape: 1 128 100 (12800)
I0520 11:16:08.391281  5291 net.cpp:165] Memory required for data: 24131584
I0520 11:16:08.391286  5291 layer_factory.hpp:77] Creating layer lstm2x_h_conted_1
I0520 11:16:08.391292  5291 net.cpp:100] Creating Layer lstm2x_h_conted_1
I0520 11:16:08.391296  5291 net.cpp:434] lstm2x_h_conted_1 <- h_1_lstm2x_unit_1_1_split_0
I0520 11:16:08.391302  5291 net.cpp:434] lstm2x_h_conted_1 <- cont_2_lstm2x_cont_slice_1_split_0
I0520 11:16:08.391307  5291 net.cpp:408] lstm2x_h_conted_1 -> h_conted_1
I0520 11:16:08.391364  5291 net.cpp:150] Setting up lstm2x_h_conted_1
I0520 11:16:08.391371  5291 net.cpp:157] Top shape: 1 128 100 (12800)
I0520 11:16:08.391376  5291 net.cpp:165] Memory required for data: 24182784
I0520 11:16:08.391378  5291 layer_factory.hpp:77] Creating layer lstm2x_transform_2
I0520 11:16:08.391388  5291 net.cpp:100] Creating Layer lstm2x_transform_2
I0520 11:16:08.391392  5291 net.cpp:434] lstm2x_transform_2 <- h_conted_1
I0520 11:16:08.391398  5291 net.cpp:408] lstm2x_transform_2 -> W_hc_h_1
I0520 11:16:08.391737  5291 net.cpp:150] Setting up lstm2x_transform_2
I0520 11:16:08.391744  5291 net.cpp:157] Top shape: 1 128 400 (51200)
I0520 11:16:08.391746  5291 net.cpp:165] Memory required for data: 24387584
I0520 11:16:08.391750  5291 net.cpp:493] Sharing parameters 'W_hc' owned by layer 'lstm2x_transform_1', param index 0
I0520 11:16:08.391753  5291 layer_factory.hpp:77] Creating layer lstm2x_gate_input_2
I0520 11:16:08.391757  5291 net.cpp:100] Creating Layer lstm2x_gate_input_2
I0520 11:16:08.391760  5291 net.cpp:434] lstm2x_gate_input_2 <- W_hc_h_1
I0520 11:16:08.391763  5291 net.cpp:434] lstm2x_gate_input_2 <- W_xc_x_2
I0520 11:16:08.391767  5291 net.cpp:408] lstm2x_gate_input_2 -> gate_input_2
I0520 11:16:08.391783  5291 net.cpp:150] Setting up lstm2x_gate_input_2
I0520 11:16:08.391788  5291 net.cpp:157] Top shape: 1 128 400 (51200)
I0520 11:16:08.391789  5291 net.cpp:165] Memory required for data: 24592384
I0520 11:16:08.391791  5291 layer_factory.hpp:77] Creating layer lstm2x_unit_2
I0520 11:16:08.391796  5291 net.cpp:100] Creating Layer lstm2x_unit_2
I0520 11:16:08.391799  5291 net.cpp:434] lstm2x_unit_2 <- c_1
I0520 11:16:08.391803  5291 net.cpp:434] lstm2x_unit_2 <- gate_input_2
I0520 11:16:08.391805  5291 net.cpp:434] lstm2x_unit_2 <- cont_2_lstm2x_cont_slice_1_split_1
I0520 11:16:08.391809  5291 net.cpp:408] lstm2x_unit_2 -> c_2
I0520 11:16:08.391813  5291 net.cpp:408] lstm2x_unit_2 -> h_2
I0520 11:16:08.391844  5291 net.cpp:150] Setting up lstm2x_unit_2
I0520 11:16:08.391847  5291 net.cpp:157] Top shape: 1 128 100 (12800)
I0520 11:16:08.391850  5291 net.cpp:157] Top shape: 1 128 100 (12800)
I0520 11:16:08.391852  5291 net.cpp:165] Memory required for data: 24694784
I0520 11:16:08.391855  5291 layer_factory.hpp:77] Creating layer h_2_lstm2x_unit_2_1_split
I0520 11:16:08.391860  5291 net.cpp:100] Creating Layer h_2_lstm2x_unit_2_1_split
I0520 11:16:08.391861  5291 net.cpp:434] h_2_lstm2x_unit_2_1_split <- h_2
I0520 11:16:08.391865  5291 net.cpp:408] h_2_lstm2x_unit_2_1_split -> h_2_lstm2x_unit_2_1_split_0
I0520 11:16:08.391870  5291 net.cpp:408] h_2_lstm2x_unit_2_1_split -> h_2_lstm2x_unit_2_1_split_1
I0520 11:16:08.391891  5291 net.cpp:150] Setting up h_2_lstm2x_unit_2_1_split
I0520 11:16:08.391894  5291 net.cpp:157] Top shape: 1 128 100 (12800)
I0520 11:16:08.391897  5291 net.cpp:157] Top shape: 1 128 100 (12800)
I0520 11:16:08.391899  5291 net.cpp:165] Memory required for data: 24797184
I0520 11:16:08.391902  5291 layer_factory.hpp:77] Creating layer lstm2x_h_conted_2
I0520 11:16:08.391906  5291 net.cpp:100] Creating Layer lstm2x_h_conted_2
I0520 11:16:08.391917  5291 net.cpp:434] lstm2x_h_conted_2 <- h_2_lstm2x_unit_2_1_split_0
I0520 11:16:08.391921  5291 net.cpp:434] lstm2x_h_conted_2 <- cont_3_lstm2x_cont_slice_2_split_0
I0520 11:16:08.391925  5291 net.cpp:408] lstm2x_h_conted_2 -> h_conted_2
I0520 11:16:08.391966  5291 net.cpp:150] Setting up lstm2x_h_conted_2
I0520 11:16:08.391970  5291 net.cpp:157] Top shape: 1 128 100 (12800)
I0520 11:16:08.391973  5291 net.cpp:165] Memory required for data: 24848384
I0520 11:16:08.391975  5291 layer_factory.hpp:77] Creating layer lstm2x_transform_3
I0520 11:16:08.391983  5291 net.cpp:100] Creating Layer lstm2x_transform_3
I0520 11:16:08.391985  5291 net.cpp:434] lstm2x_transform_3 <- h_conted_2
I0520 11:16:08.391989  5291 net.cpp:408] lstm2x_transform_3 -> W_hc_h_2
I0520 11:16:08.392201  5291 net.cpp:150] Setting up lstm2x_transform_3
I0520 11:16:08.392206  5291 net.cpp:157] Top shape: 1 128 400 (51200)
I0520 11:16:08.392210  5291 net.cpp:165] Memory required for data: 25053184
I0520 11:16:08.392215  5291 net.cpp:493] Sharing parameters 'W_hc' owned by layer 'lstm2x_transform_1', param index 0
I0520 11:16:08.392220  5291 layer_factory.hpp:77] Creating layer lstm2x_gate_input_3
I0520 11:16:08.392226  5291 net.cpp:100] Creating Layer lstm2x_gate_input_3
I0520 11:16:08.392230  5291 net.cpp:434] lstm2x_gate_input_3 <- W_hc_h_2
I0520 11:16:08.392235  5291 net.cpp:434] lstm2x_gate_input_3 <- W_xc_x_3
I0520 11:16:08.392240  5291 net.cpp:408] lstm2x_gate_input_3 -> gate_input_3
I0520 11:16:08.392258  5291 net.cpp:150] Setting up lstm2x_gate_input_3
I0520 11:16:08.392263  5291 net.cpp:157] Top shape: 1 128 400 (51200)
I0520 11:16:08.392266  5291 net.cpp:165] Memory required for data: 25257984
I0520 11:16:08.392271  5291 layer_factory.hpp:77] Creating layer lstm2x_unit_3
I0520 11:16:08.392276  5291 net.cpp:100] Creating Layer lstm2x_unit_3
I0520 11:16:08.392279  5291 net.cpp:434] lstm2x_unit_3 <- c_2
I0520 11:16:08.392283  5291 net.cpp:434] lstm2x_unit_3 <- gate_input_3
I0520 11:16:08.392287  5291 net.cpp:434] lstm2x_unit_3 <- cont_3_lstm2x_cont_slice_2_split_1
I0520 11:16:08.392293  5291 net.cpp:408] lstm2x_unit_3 -> c_3
I0520 11:16:08.392299  5291 net.cpp:408] lstm2x_unit_3 -> h_3
I0520 11:16:08.392338  5291 net.cpp:150] Setting up lstm2x_unit_3
I0520 11:16:08.392343  5291 net.cpp:157] Top shape: 1 128 100 (12800)
I0520 11:16:08.392347  5291 net.cpp:157] Top shape: 1 128 100 (12800)
I0520 11:16:08.392350  5291 net.cpp:165] Memory required for data: 25360384
I0520 11:16:08.392354  5291 layer_factory.hpp:77] Creating layer h_3_lstm2x_unit_3_1_split
I0520 11:16:08.392359  5291 net.cpp:100] Creating Layer h_3_lstm2x_unit_3_1_split
I0520 11:16:08.392364  5291 net.cpp:434] h_3_lstm2x_unit_3_1_split <- h_3
I0520 11:16:08.392369  5291 net.cpp:408] h_3_lstm2x_unit_3_1_split -> h_3_lstm2x_unit_3_1_split_0
I0520 11:16:08.392374  5291 net.cpp:408] h_3_lstm2x_unit_3_1_split -> h_3_lstm2x_unit_3_1_split_1
I0520 11:16:08.392402  5291 net.cpp:150] Setting up h_3_lstm2x_unit_3_1_split
I0520 11:16:08.392406  5291 net.cpp:157] Top shape: 1 128 100 (12800)
I0520 11:16:08.392410  5291 net.cpp:157] Top shape: 1 128 100 (12800)
I0520 11:16:08.392412  5291 net.cpp:165] Memory required for data: 25462784
I0520 11:16:08.392415  5291 layer_factory.hpp:77] Creating layer lstm2x_h_conted_3
I0520 11:16:08.392419  5291 net.cpp:100] Creating Layer lstm2x_h_conted_3
I0520 11:16:08.392422  5291 net.cpp:434] lstm2x_h_conted_3 <- h_3_lstm2x_unit_3_1_split_0
I0520 11:16:08.392426  5291 net.cpp:434] lstm2x_h_conted_3 <- cont_4_lstm2x_cont_slice_3_split_0
I0520 11:16:08.392429  5291 net.cpp:408] lstm2x_h_conted_3 -> h_conted_3
I0520 11:16:08.392472  5291 net.cpp:150] Setting up lstm2x_h_conted_3
I0520 11:16:08.392475  5291 net.cpp:157] Top shape: 1 128 100 (12800)
I0520 11:16:08.392477  5291 net.cpp:165] Memory required for data: 25513984
I0520 11:16:08.392479  5291 layer_factory.hpp:77] Creating layer lstm2x_transform_4
I0520 11:16:08.392485  5291 net.cpp:100] Creating Layer lstm2x_transform_4
I0520 11:16:08.392488  5291 net.cpp:434] lstm2x_transform_4 <- h_conted_3
I0520 11:16:08.392501  5291 net.cpp:408] lstm2x_transform_4 -> W_hc_h_3
I0520 11:16:08.392838  5291 net.cpp:150] Setting up lstm2x_transform_4
I0520 11:16:08.392848  5291 net.cpp:157] Top shape: 1 128 400 (51200)
I0520 11:16:08.392851  5291 net.cpp:165] Memory required for data: 25718784
I0520 11:16:08.392856  5291 net.cpp:493] Sharing parameters 'W_hc' owned by layer 'lstm2x_transform_1', param index 0
I0520 11:16:08.392861  5291 layer_factory.hpp:77] Creating layer lstm2x_gate_input_4
I0520 11:16:08.392869  5291 net.cpp:100] Creating Layer lstm2x_gate_input_4
I0520 11:16:08.392874  5291 net.cpp:434] lstm2x_gate_input_4 <- W_hc_h_3
I0520 11:16:08.392879  5291 net.cpp:434] lstm2x_gate_input_4 <- W_xc_x_4
I0520 11:16:08.392885  5291 net.cpp:408] lstm2x_gate_input_4 -> gate_input_4
I0520 11:16:08.392908  5291 net.cpp:150] Setting up lstm2x_gate_input_4
I0520 11:16:08.392915  5291 net.cpp:157] Top shape: 1 128 400 (51200)
I0520 11:16:08.392918  5291 net.cpp:165] Memory required for data: 25923584
I0520 11:16:08.392922  5291 layer_factory.hpp:77] Creating layer lstm2x_unit_4
I0520 11:16:08.392930  5291 net.cpp:100] Creating Layer lstm2x_unit_4
I0520 11:16:08.392932  5291 net.cpp:434] lstm2x_unit_4 <- c_3
I0520 11:16:08.392936  5291 net.cpp:434] lstm2x_unit_4 <- gate_input_4
I0520 11:16:08.392941  5291 net.cpp:434] lstm2x_unit_4 <- cont_4_lstm2x_cont_slice_3_split_1
I0520 11:16:08.392946  5291 net.cpp:408] lstm2x_unit_4 -> c_4
I0520 11:16:08.392952  5291 net.cpp:408] lstm2x_unit_4 -> h_4
I0520 11:16:08.392992  5291 net.cpp:150] Setting up lstm2x_unit_4
I0520 11:16:08.392997  5291 net.cpp:157] Top shape: 1 128 100 (12800)
I0520 11:16:08.393000  5291 net.cpp:157] Top shape: 1 128 100 (12800)
I0520 11:16:08.393004  5291 net.cpp:165] Memory required for data: 26025984
I0520 11:16:08.393008  5291 layer_factory.hpp:77] Creating layer h_4_lstm2x_unit_4_1_split
I0520 11:16:08.393014  5291 net.cpp:100] Creating Layer h_4_lstm2x_unit_4_1_split
I0520 11:16:08.393018  5291 net.cpp:434] h_4_lstm2x_unit_4_1_split <- h_4
I0520 11:16:08.393021  5291 net.cpp:408] h_4_lstm2x_unit_4_1_split -> h_4_lstm2x_unit_4_1_split_0
I0520 11:16:08.393028  5291 net.cpp:408] h_4_lstm2x_unit_4_1_split -> h_4_lstm2x_unit_4_1_split_1
I0520 11:16:08.393062  5291 net.cpp:150] Setting up h_4_lstm2x_unit_4_1_split
I0520 11:16:08.393067  5291 net.cpp:157] Top shape: 1 128 100 (12800)
I0520 11:16:08.393071  5291 net.cpp:157] Top shape: 1 128 100 (12800)
I0520 11:16:08.393074  5291 net.cpp:165] Memory required for data: 26128384
I0520 11:16:08.393079  5291 layer_factory.hpp:77] Creating layer lstm2x_h_conted_4
I0520 11:16:08.393085  5291 net.cpp:100] Creating Layer lstm2x_h_conted_4
I0520 11:16:08.393087  5291 net.cpp:434] lstm2x_h_conted_4 <- h_4_lstm2x_unit_4_1_split_0
I0520 11:16:08.393091  5291 net.cpp:434] lstm2x_h_conted_4 <- cont_5_lstm2x_cont_slice_4_split_0
I0520 11:16:08.393097  5291 net.cpp:408] lstm2x_h_conted_4 -> h_conted_4
I0520 11:16:08.393151  5291 net.cpp:150] Setting up lstm2x_h_conted_4
I0520 11:16:08.393157  5291 net.cpp:157] Top shape: 1 128 100 (12800)
I0520 11:16:08.393159  5291 net.cpp:165] Memory required for data: 26179584
I0520 11:16:08.393163  5291 layer_factory.hpp:77] Creating layer lstm2x_transform_5
I0520 11:16:08.393170  5291 net.cpp:100] Creating Layer lstm2x_transform_5
I0520 11:16:08.393173  5291 net.cpp:434] lstm2x_transform_5 <- h_conted_4
I0520 11:16:08.393177  5291 net.cpp:408] lstm2x_transform_5 -> W_hc_h_4
I0520 11:16:08.393461  5291 net.cpp:150] Setting up lstm2x_transform_5
I0520 11:16:08.393467  5291 net.cpp:157] Top shape: 1 128 400 (51200)
I0520 11:16:08.393471  5291 net.cpp:165] Memory required for data: 26384384
I0520 11:16:08.393476  5291 net.cpp:493] Sharing parameters 'W_hc' owned by layer 'lstm2x_transform_1', param index 0
I0520 11:16:08.393479  5291 layer_factory.hpp:77] Creating layer lstm2x_gate_input_5
I0520 11:16:08.393486  5291 net.cpp:100] Creating Layer lstm2x_gate_input_5
I0520 11:16:08.393488  5291 net.cpp:434] lstm2x_gate_input_5 <- W_hc_h_4
I0520 11:16:08.393491  5291 net.cpp:434] lstm2x_gate_input_5 <- W_xc_x_5
I0520 11:16:08.393509  5291 net.cpp:408] lstm2x_gate_input_5 -> gate_input_5
I0520 11:16:08.393530  5291 net.cpp:150] Setting up lstm2x_gate_input_5
I0520 11:16:08.393535  5291 net.cpp:157] Top shape: 1 128 400 (51200)
I0520 11:16:08.393538  5291 net.cpp:165] Memory required for data: 26589184
I0520 11:16:08.393543  5291 layer_factory.hpp:77] Creating layer lstm2x_unit_5
I0520 11:16:08.393551  5291 net.cpp:100] Creating Layer lstm2x_unit_5
I0520 11:16:08.393555  5291 net.cpp:434] lstm2x_unit_5 <- c_4
I0520 11:16:08.393559  5291 net.cpp:434] lstm2x_unit_5 <- gate_input_5
I0520 11:16:08.393564  5291 net.cpp:434] lstm2x_unit_5 <- cont_5_lstm2x_cont_slice_4_split_1
I0520 11:16:08.393569  5291 net.cpp:408] lstm2x_unit_5 -> c_5
I0520 11:16:08.393574  5291 net.cpp:408] lstm2x_unit_5 -> h_5
I0520 11:16:08.393615  5291 net.cpp:150] Setting up lstm2x_unit_5
I0520 11:16:08.393620  5291 net.cpp:157] Top shape: 1 128 100 (12800)
I0520 11:16:08.393623  5291 net.cpp:157] Top shape: 1 128 100 (12800)
I0520 11:16:08.393626  5291 net.cpp:165] Memory required for data: 26691584
I0520 11:16:08.393630  5291 layer_factory.hpp:77] Creating layer h_5_lstm2x_unit_5_1_split
I0520 11:16:08.393636  5291 net.cpp:100] Creating Layer h_5_lstm2x_unit_5_1_split
I0520 11:16:08.393640  5291 net.cpp:434] h_5_lstm2x_unit_5_1_split <- h_5
I0520 11:16:08.393645  5291 net.cpp:408] h_5_lstm2x_unit_5_1_split -> h_5_lstm2x_unit_5_1_split_0
I0520 11:16:08.393651  5291 net.cpp:408] h_5_lstm2x_unit_5_1_split -> h_5_lstm2x_unit_5_1_split_1
I0520 11:16:08.393680  5291 net.cpp:150] Setting up h_5_lstm2x_unit_5_1_split
I0520 11:16:08.393685  5291 net.cpp:157] Top shape: 1 128 100 (12800)
I0520 11:16:08.393689  5291 net.cpp:157] Top shape: 1 128 100 (12800)
I0520 11:16:08.393693  5291 net.cpp:165] Memory required for data: 26793984
I0520 11:16:08.393697  5291 layer_factory.hpp:77] Creating layer lstm2x_h_conted_5
I0520 11:16:08.393703  5291 net.cpp:100] Creating Layer lstm2x_h_conted_5
I0520 11:16:08.393707  5291 net.cpp:434] lstm2x_h_conted_5 <- h_5_lstm2x_unit_5_1_split_0
I0520 11:16:08.393710  5291 net.cpp:434] lstm2x_h_conted_5 <- cont_6_lstm2x_cont_slice_5_split_0
I0520 11:16:08.393715  5291 net.cpp:408] lstm2x_h_conted_5 -> h_conted_5
I0520 11:16:08.393769  5291 net.cpp:150] Setting up lstm2x_h_conted_5
I0520 11:16:08.393774  5291 net.cpp:157] Top shape: 1 128 100 (12800)
I0520 11:16:08.393777  5291 net.cpp:165] Memory required for data: 26845184
I0520 11:16:08.393781  5291 layer_factory.hpp:77] Creating layer lstm2x_transform_6
I0520 11:16:08.393788  5291 net.cpp:100] Creating Layer lstm2x_transform_6
I0520 11:16:08.393792  5291 net.cpp:434] lstm2x_transform_6 <- h_conted_5
I0520 11:16:08.393796  5291 net.cpp:408] lstm2x_transform_6 -> W_hc_h_5
I0520 11:16:08.394083  5291 net.cpp:150] Setting up lstm2x_transform_6
I0520 11:16:08.394089  5291 net.cpp:157] Top shape: 1 128 400 (51200)
I0520 11:16:08.394093  5291 net.cpp:165] Memory required for data: 27049984
I0520 11:16:08.394096  5291 net.cpp:493] Sharing parameters 'W_hc' owned by layer 'lstm2x_transform_1', param index 0
I0520 11:16:08.394100  5291 layer_factory.hpp:77] Creating layer lstm2x_gate_input_6
I0520 11:16:08.394105  5291 net.cpp:100] Creating Layer lstm2x_gate_input_6
I0520 11:16:08.394109  5291 net.cpp:434] lstm2x_gate_input_6 <- W_hc_h_5
I0520 11:16:08.394115  5291 net.cpp:434] lstm2x_gate_input_6 <- W_xc_x_6
I0520 11:16:08.394120  5291 net.cpp:408] lstm2x_gate_input_6 -> gate_input_6
I0520 11:16:08.394141  5291 net.cpp:150] Setting up lstm2x_gate_input_6
I0520 11:16:08.394147  5291 net.cpp:157] Top shape: 1 128 400 (51200)
I0520 11:16:08.394151  5291 net.cpp:165] Memory required for data: 27254784
I0520 11:16:08.394155  5291 layer_factory.hpp:77] Creating layer lstm2x_unit_6
I0520 11:16:08.394161  5291 net.cpp:100] Creating Layer lstm2x_unit_6
I0520 11:16:08.394165  5291 net.cpp:434] lstm2x_unit_6 <- c_5
I0520 11:16:08.394170  5291 net.cpp:434] lstm2x_unit_6 <- gate_input_6
I0520 11:16:08.394174  5291 net.cpp:434] lstm2x_unit_6 <- cont_6_lstm2x_cont_slice_5_split_1
I0520 11:16:08.394196  5291 net.cpp:408] lstm2x_unit_6 -> c_6
I0520 11:16:08.394202  5291 net.cpp:408] lstm2x_unit_6 -> h_6
I0520 11:16:08.394239  5291 net.cpp:150] Setting up lstm2x_unit_6
I0520 11:16:08.394244  5291 net.cpp:157] Top shape: 1 128 100 (12800)
I0520 11:16:08.394248  5291 net.cpp:157] Top shape: 1 128 100 (12800)
I0520 11:16:08.394249  5291 net.cpp:165] Memory required for data: 27357184
I0520 11:16:08.394253  5291 layer_factory.hpp:77] Creating layer h_6_lstm2x_unit_6_1_split
I0520 11:16:08.394258  5291 net.cpp:100] Creating Layer h_6_lstm2x_unit_6_1_split
I0520 11:16:08.394260  5291 net.cpp:434] h_6_lstm2x_unit_6_1_split <- h_6
I0520 11:16:08.394263  5291 net.cpp:408] h_6_lstm2x_unit_6_1_split -> h_6_lstm2x_unit_6_1_split_0
I0520 11:16:08.394269  5291 net.cpp:408] h_6_lstm2x_unit_6_1_split -> h_6_lstm2x_unit_6_1_split_1
I0520 11:16:08.394299  5291 net.cpp:150] Setting up h_6_lstm2x_unit_6_1_split
I0520 11:16:08.394306  5291 net.cpp:157] Top shape: 1 128 100 (12800)
I0520 11:16:08.394311  5291 net.cpp:157] Top shape: 1 128 100 (12800)
I0520 11:16:08.394315  5291 net.cpp:165] Memory required for data: 27459584
I0520 11:16:08.394318  5291 layer_factory.hpp:77] Creating layer lstm2x_h_conted_6
I0520 11:16:08.394325  5291 net.cpp:100] Creating Layer lstm2x_h_conted_6
I0520 11:16:08.394330  5291 net.cpp:434] lstm2x_h_conted_6 <- h_6_lstm2x_unit_6_1_split_0
I0520 11:16:08.394333  5291 net.cpp:434] lstm2x_h_conted_6 <- cont_7_lstm2x_cont_slice_6_split_0
I0520 11:16:08.394338  5291 net.cpp:408] lstm2x_h_conted_6 -> h_conted_6
I0520 11:16:08.394392  5291 net.cpp:150] Setting up lstm2x_h_conted_6
I0520 11:16:08.394398  5291 net.cpp:157] Top shape: 1 128 100 (12800)
I0520 11:16:08.394402  5291 net.cpp:165] Memory required for data: 27510784
I0520 11:16:08.394407  5291 layer_factory.hpp:77] Creating layer lstm2x_transform_7
I0520 11:16:08.394412  5291 net.cpp:100] Creating Layer lstm2x_transform_7
I0520 11:16:08.394415  5291 net.cpp:434] lstm2x_transform_7 <- h_conted_6
I0520 11:16:08.394423  5291 net.cpp:408] lstm2x_transform_7 -> W_hc_h_6
I0520 11:16:08.394745  5291 net.cpp:150] Setting up lstm2x_transform_7
I0520 11:16:08.394752  5291 net.cpp:157] Top shape: 1 128 400 (51200)
I0520 11:16:08.394755  5291 net.cpp:165] Memory required for data: 27715584
I0520 11:16:08.394760  5291 net.cpp:493] Sharing parameters 'W_hc' owned by layer 'lstm2x_transform_1', param index 0
I0520 11:16:08.394764  5291 layer_factory.hpp:77] Creating layer lstm2x_gate_input_7
I0520 11:16:08.394770  5291 net.cpp:100] Creating Layer lstm2x_gate_input_7
I0520 11:16:08.394774  5291 net.cpp:434] lstm2x_gate_input_7 <- W_hc_h_6
I0520 11:16:08.394778  5291 net.cpp:434] lstm2x_gate_input_7 <- W_xc_x_7
I0520 11:16:08.394783  5291 net.cpp:408] lstm2x_gate_input_7 -> gate_input_7
I0520 11:16:08.394804  5291 net.cpp:150] Setting up lstm2x_gate_input_7
I0520 11:16:08.394809  5291 net.cpp:157] Top shape: 1 128 400 (51200)
I0520 11:16:08.394812  5291 net.cpp:165] Memory required for data: 27920384
I0520 11:16:08.394815  5291 layer_factory.hpp:77] Creating layer lstm2x_unit_7
I0520 11:16:08.394821  5291 net.cpp:100] Creating Layer lstm2x_unit_7
I0520 11:16:08.394824  5291 net.cpp:434] lstm2x_unit_7 <- c_6
I0520 11:16:08.394829  5291 net.cpp:434] lstm2x_unit_7 <- gate_input_7
I0520 11:16:08.394834  5291 net.cpp:434] lstm2x_unit_7 <- cont_7_lstm2x_cont_slice_6_split_1
I0520 11:16:08.394837  5291 net.cpp:408] lstm2x_unit_7 -> c_7
I0520 11:16:08.394843  5291 net.cpp:408] lstm2x_unit_7 -> h_7
I0520 11:16:08.394881  5291 net.cpp:150] Setting up lstm2x_unit_7
I0520 11:16:08.394886  5291 net.cpp:157] Top shape: 1 128 100 (12800)
I0520 11:16:08.394891  5291 net.cpp:157] Top shape: 1 128 100 (12800)
I0520 11:16:08.394894  5291 net.cpp:165] Memory required for data: 28022784
I0520 11:16:08.394897  5291 layer_factory.hpp:77] Creating layer h_7_lstm2x_unit_7_1_split
I0520 11:16:08.394904  5291 net.cpp:100] Creating Layer h_7_lstm2x_unit_7_1_split
I0520 11:16:08.394907  5291 net.cpp:434] h_7_lstm2x_unit_7_1_split <- h_7
I0520 11:16:08.394912  5291 net.cpp:408] h_7_lstm2x_unit_7_1_split -> h_7_lstm2x_unit_7_1_split_0
I0520 11:16:08.394929  5291 net.cpp:408] h_7_lstm2x_unit_7_1_split -> h_7_lstm2x_unit_7_1_split_1
I0520 11:16:08.394958  5291 net.cpp:150] Setting up h_7_lstm2x_unit_7_1_split
I0520 11:16:08.394963  5291 net.cpp:157] Top shape: 1 128 100 (12800)
I0520 11:16:08.394968  5291 net.cpp:157] Top shape: 1 128 100 (12800)
I0520 11:16:08.394970  5291 net.cpp:165] Memory required for data: 28125184
I0520 11:16:08.394973  5291 layer_factory.hpp:77] Creating layer lstm2x_h_conted_7
I0520 11:16:08.394979  5291 net.cpp:100] Creating Layer lstm2x_h_conted_7
I0520 11:16:08.394984  5291 net.cpp:434] lstm2x_h_conted_7 <- h_7_lstm2x_unit_7_1_split_0
I0520 11:16:08.394987  5291 net.cpp:434] lstm2x_h_conted_7 <- cont_8_lstm2x_cont_slice_7_split_0
I0520 11:16:08.394992  5291 net.cpp:408] lstm2x_h_conted_7 -> h_conted_7
I0520 11:16:08.395045  5291 net.cpp:150] Setting up lstm2x_h_conted_7
I0520 11:16:08.395049  5291 net.cpp:157] Top shape: 1 128 100 (12800)
I0520 11:16:08.395052  5291 net.cpp:165] Memory required for data: 28176384
I0520 11:16:08.395056  5291 layer_factory.hpp:77] Creating layer lstm2x_transform_8
I0520 11:16:08.395062  5291 net.cpp:100] Creating Layer lstm2x_transform_8
I0520 11:16:08.395066  5291 net.cpp:434] lstm2x_transform_8 <- h_conted_7
I0520 11:16:08.395071  5291 net.cpp:408] lstm2x_transform_8 -> W_hc_h_7
I0520 11:16:08.395411  5291 net.cpp:150] Setting up lstm2x_transform_8
I0520 11:16:08.395416  5291 net.cpp:157] Top shape: 1 128 400 (51200)
I0520 11:16:08.395421  5291 net.cpp:165] Memory required for data: 28381184
I0520 11:16:08.395424  5291 net.cpp:493] Sharing parameters 'W_hc' owned by layer 'lstm2x_transform_1', param index 0
I0520 11:16:08.395427  5291 layer_factory.hpp:77] Creating layer lstm2x_gate_input_8
I0520 11:16:08.395433  5291 net.cpp:100] Creating Layer lstm2x_gate_input_8
I0520 11:16:08.395437  5291 net.cpp:434] lstm2x_gate_input_8 <- W_hc_h_7
I0520 11:16:08.395442  5291 net.cpp:434] lstm2x_gate_input_8 <- W_xc_x_8
I0520 11:16:08.395447  5291 net.cpp:408] lstm2x_gate_input_8 -> gate_input_8
I0520 11:16:08.395464  5291 net.cpp:150] Setting up lstm2x_gate_input_8
I0520 11:16:08.395469  5291 net.cpp:157] Top shape: 1 128 400 (51200)
I0520 11:16:08.395473  5291 net.cpp:165] Memory required for data: 28585984
I0520 11:16:08.395476  5291 layer_factory.hpp:77] Creating layer lstm2x_unit_8
I0520 11:16:08.395481  5291 net.cpp:100] Creating Layer lstm2x_unit_8
I0520 11:16:08.395485  5291 net.cpp:434] lstm2x_unit_8 <- c_7
I0520 11:16:08.395489  5291 net.cpp:434] lstm2x_unit_8 <- gate_input_8
I0520 11:16:08.395493  5291 net.cpp:434] lstm2x_unit_8 <- cont_8_lstm2x_cont_slice_7_split_1
I0520 11:16:08.395498  5291 net.cpp:408] lstm2x_unit_8 -> c_8
I0520 11:16:08.395503  5291 net.cpp:408] lstm2x_unit_8 -> h_8
I0520 11:16:08.395542  5291 net.cpp:150] Setting up lstm2x_unit_8
I0520 11:16:08.395547  5291 net.cpp:157] Top shape: 1 128 100 (12800)
I0520 11:16:08.395551  5291 net.cpp:157] Top shape: 1 128 100 (12800)
I0520 11:16:08.395555  5291 net.cpp:165] Memory required for data: 28688384
I0520 11:16:08.395557  5291 layer_factory.hpp:77] Creating layer h_8_lstm2x_unit_8_1_split
I0520 11:16:08.395563  5291 net.cpp:100] Creating Layer h_8_lstm2x_unit_8_1_split
I0520 11:16:08.395566  5291 net.cpp:434] h_8_lstm2x_unit_8_1_split <- h_8
I0520 11:16:08.395571  5291 net.cpp:408] h_8_lstm2x_unit_8_1_split -> h_8_lstm2x_unit_8_1_split_0
I0520 11:16:08.395577  5291 net.cpp:408] h_8_lstm2x_unit_8_1_split -> h_8_lstm2x_unit_8_1_split_1
I0520 11:16:08.395607  5291 net.cpp:150] Setting up h_8_lstm2x_unit_8_1_split
I0520 11:16:08.395620  5291 net.cpp:157] Top shape: 1 128 100 (12800)
I0520 11:16:08.395624  5291 net.cpp:157] Top shape: 1 128 100 (12800)
I0520 11:16:08.395628  5291 net.cpp:165] Memory required for data: 28790784
I0520 11:16:08.395632  5291 layer_factory.hpp:77] Creating layer lstm2x_h_conted_8
I0520 11:16:08.395637  5291 net.cpp:100] Creating Layer lstm2x_h_conted_8
I0520 11:16:08.395640  5291 net.cpp:434] lstm2x_h_conted_8 <- h_8_lstm2x_unit_8_1_split_0
I0520 11:16:08.395644  5291 net.cpp:434] lstm2x_h_conted_8 <- cont_9_lstm2x_cont_slice_8_split_0
I0520 11:16:08.395665  5291 net.cpp:408] lstm2x_h_conted_8 -> h_conted_8
I0520 11:16:08.395718  5291 net.cpp:150] Setting up lstm2x_h_conted_8
I0520 11:16:08.395723  5291 net.cpp:157] Top shape: 1 128 100 (12800)
I0520 11:16:08.395726  5291 net.cpp:165] Memory required for data: 28841984
I0520 11:16:08.395730  5291 layer_factory.hpp:77] Creating layer lstm2x_transform_9
…
I0520 11:16:08.497431  5291 layer_factory.hpp:77] Creating layer layer_128_1_conv3
I0520 11:16:08.497442  5291 net.cpp:100] Creating Layer layer_128_1_conv3
I0520 11:16:08.497445  5291 net.cpp:434] layer_128_1_conv3 <- layer_128_1_conv2
I0520 11:16:08.497454  5291 net.cpp:408] layer_128_1_conv3 -> layer_128_1_conv3
I0520 11:16:08.499557  5291 net.cpp:150] Setting up layer_128_1_conv3
I0520 11:16:08.499579  5291 net.cpp:157] Top shape: 128 512 4 16 (4194304)
I0520 11:16:08.499583  5291 net.cpp:165] Memory required for data: 1218480640
I0520 11:16:08.499589  5291 layer_factory.hpp:77] Creating layer layer_128_1_conv_expand
I0520 11:16:08.499608  5291 net.cpp:100] Creating Layer layer_128_1_conv_expand
I0520 11:16:08.499614  5291 net.cpp:434] layer_128_1_conv_expand <- layer_128_1_bn1_layer_128_1_relu1_0_split_1
I0520 11:16:08.499621  5291 net.cpp:408] layer_128_1_conv_expand -> layer_128_1_conv_expand
I0520 11:16:08.502159  5291 net.cpp:150] Setting up layer_128_1_conv_expand
I0520 11:16:08.502184  5291 net.cpp:157] Top shape: 128 512 4 16 (4194304)
I0520 11:16:08.502198  5291 net.cpp:165] Memory required for data: 1235257856
I0520 11:16:08.502208  5291 layer_factory.hpp:77] Creating layer layer_128_1_sum
I0520 11:16:08.502218  5291 net.cpp:100] Creating Layer layer_128_1_sum
I0520 11:16:08.502223  5291 net.cpp:434] layer_128_1_sum <- layer_128_1_conv3
I0520 11:16:08.502226  5291 net.cpp:434] layer_128_1_sum <- layer_128_1_conv_expand
I0520 11:16:08.502231  5291 net.cpp:408] layer_128_1_sum -> layer_128_1_sum
I0520 11:16:08.502254  5291 net.cpp:150] Setting up layer_128_1_sum
I0520 11:16:08.502257  5291 net.cpp:157] Top shape: 128 512 4 16 (4194304)
I0520 11:16:08.502259  5291 net.cpp:165] Memory required for data: 1252035072
I0520 11:16:08.502262  5291 layer_factory.hpp:77] Creating layer layer_128_1_sum_layer_128_1_sum_0_split
I0520 11:16:08.502267  5291 net.cpp:100] Creating Layer layer_128_1_sum_layer_128_1_sum_0_split
I0520 11:16:08.502270  5291 net.cpp:434] layer_128_1_sum_layer_128_1_sum_0_split <- layer_128_1_sum
I0520 11:16:08.502275  5291 net.cpp:408] layer_128_1_sum_layer_128_1_sum_0_split -> layer_128_1_sum_layer_128_1_sum_0_split_0
I0520 11:16:08.502280  5291 net.cpp:408] layer_128_1_sum_layer_128_1_sum_0_split -> layer_128_1_sum_layer_128_1_sum_0_split_1
I0520 11:16:08.502305  5291 net.cpp:150] Setting up layer_128_1_sum_layer_128_1_sum_0_split
I0520 11:16:08.502310  5291 net.cpp:157] Top shape: 128 512 4 16 (4194304)
I0520 11:16:08.502312  5291 net.cpp:157] Top shape: 128 512 4 16 (4194304)
I0520 11:16:08.502315  5291 net.cpp:165] Memory required for data: 1285589504
I0520 11:16:08.502317  5291 layer_factory.hpp:77] Creating layer layer_128_2_bn1
I0520 11:16:08.502324  5291 net.cpp:100] Creating Layer layer_128_2_bn1
I0520 11:16:08.502326  5291 net.cpp:434] layer_128_2_bn1 <- layer_128_1_sum_layer_128_1_sum_0_split_0
I0520 11:16:08.502331  5291 net.cpp:408] layer_128_2_bn1 -> layer_128_2_bn1
I0520 11:16:08.502501  5291 net.cpp:150] Setting up layer_128_2_bn1
I0520 11:16:08.502508  5291 net.cpp:157] Top shape: 128 512 4 16 (4194304)
I0520 11:16:08.502511  5291 net.cpp:165] Memory required for data: 1302366720
I0520 11:16:08.502517  5291 layer_factory.hpp:77] Creating layer layer_128_2_scale1
I0520 11:16:08.502523  5291 net.cpp:100] Creating Layer layer_128_2_scale1
I0520 11:16:08.502526  5291 net.cpp:434] layer_128_2_scale1 <- layer_128_2_bn1
I0520 11:16:08.502530  5291 net.cpp:395] layer_128_2_scale1 -> layer_128_2_bn1 (in-place)
I0520 11:16:08.502557  5291 layer_factory.hpp:77] Creating layer layer_128_2_scale1
I0520 11:16:08.502637  5291 net.cpp:150] Setting up layer_128_2_scale1
I0520 11:16:08.502643  5291 net.cpp:157] Top shape: 128 512 4 16 (4194304)
I0520 11:16:08.502646  5291 net.cpp:165] Memory required for data: 1319143936
I0520 11:16:08.502650  5291 layer_factory.hpp:77] Creating layer layer_128_2_relu1
I0520 11:16:08.502657  5291 net.cpp:100] Creating Layer layer_128_2_relu1
I0520 11:16:08.502660  5291 net.cpp:434] layer_128_2_relu1 <- layer_128_2_bn1
I0520 11:16:08.502663  5291 net.cpp:395] layer_128_2_relu1 -> layer_128_2_bn1 (in-place)
I0520 11:16:08.503093  5291 net.cpp:150] Setting up layer_128_2_relu1
I0520 11:16:08.503105  5291 net.cpp:157] Top shape: 128 512 4 16 (4194304)
I0520 11:16:08.503108  5291 net.cpp:165] Memory required for data: 1335921152
I0520 11:16:08.503113  5291 layer_factory.hpp:77] Creating layer layer_128_2_conv1
I0520 11:16:08.503146  5291 net.cpp:100] Creating Layer layer_128_2_conv1
I0520 11:16:08.503149  5291 net.cpp:434] layer_128_2_conv1 <- layer_128_2_bn1
I0520 11:16:08.503155  5291 net.cpp:408] layer_128_2_conv1 -> layer_128_2_conv1
I0520 11:16:08.504957  5291 net.cpp:150] Setting up layer_128_2_conv1
I0520 11:16:08.504971  5291 net.cpp:157] Top shape: 128 128 4 16 (1048576)
I0520 11:16:08.504974  5291 net.cpp:165] Memory required for data: 1340115456
I0520 11:16:08.504981  5291 layer_factory.hpp:77] Creating layer layer_128_2_bn2
I0520 11:16:08.504988  5291 net.cpp:100] Creating Layer layer_128_2_bn2
I0520 11:16:08.504993  5291 net.cpp:434] layer_128_2_bn2 <- layer_128_2_conv1
I0520 11:16:08.504997  5291 net.cpp:395] layer_128_2_bn2 -> layer_128_2_conv1 (in-place)
I0520 11:16:08.505151  5291 net.cpp:150] Setting up layer_128_2_bn2
I0520 11:16:08.505156  5291 net.cpp:157] Top shape: 128 128 4 16 (1048576)
I0520 11:16:08.505159  5291 net.cpp:165] Memory required for data: 1344309760
I0520 11:16:08.505165  5291 layer_factory.hpp:77] Creating layer layer_128_2_scale2
I0520 11:16:08.505173  5291 net.cpp:100] Creating Layer layer_128_2_scale2
I0520 11:16:08.505177  5291 net.cpp:434] layer_128_2_scale2 <- layer_128_2_conv1
I0520 11:16:08.505180  5291 net.cpp:395] layer_128_2_scale2 -> layer_128_2_conv1 (in-place)
I0520 11:16:08.505210  5291 layer_factory.hpp:77] Creating layer layer_128_2_scale2
I0520 11:16:08.505290  5291 net.cpp:150] Setting up layer_128_2_scale2
I0520 11:16:08.505296  5291 net.cpp:157] Top shape: 128 128 4 16 (1048576)
I0520 11:16:08.505300  5291 net.cpp:165] Memory required for data: 1348504064
I0520 11:16:08.505303  5291 layer_factory.hpp:77] Creating layer layer_128_2_relu2
I0520 11:16:08.505308  5291 net.cpp:100] Creating Layer layer_128_2_relu2
I0520 11:16:08.505312  5291 net.cpp:434] layer_128_2_relu2 <- layer_128_2_conv1
I0520 11:16:08.505316  5291 net.cpp:395] layer_128_2_relu2 -> layer_128_2_conv1 (in-place)
I0520 11:16:08.505594  5291 net.cpp:150] Setting up layer_128_2_relu2
I0520 11:16:08.505601  5291 net.cpp:157] Top shape: 128 128 4 16 (1048576)
I0520 11:16:08.505604  5291 net.cpp:165] Memory required for data: 1352698368
I0520 11:16:08.505606  5291 layer_factory.hpp:77] Creating layer layer_128_2_conv2
I0520 11:16:08.505617  5291 net.cpp:100] Creating Layer layer_128_2_conv2
I0520 11:16:08.505620  5291 net.cpp:434] layer_128_2_conv2 <- layer_128_2_conv1
I0520 11:16:08.505626  5291 net.cpp:408] layer_128_2_conv2 -> layer_128_2_conv2
I0520 11:16:08.510394  5291 net.cpp:150] Setting up layer_128_2_conv2
I0520 11:16:08.510417  5291 net.cpp:157] Top shape: 128 128 4 16 (1048576)
I0520 11:16:08.510421  5291 net.cpp:165] Memory required for data: 1356892672
I0520 11:16:08.510429  5291 layer_factory.hpp:77] Creating layer layer_128_2_bn3
I0520 11:16:08.510440  5291 net.cpp:100] Creating Layer layer_128_2_bn3
I0520 11:16:08.510444  5291 net.cpp:434] layer_128_2_bn3 <- layer_128_2_conv2
I0520 11:16:08.510452  5291 net.cpp:395] layer_128_2_bn3 -> layer_128_2_conv2 (in-place)
I0520 11:16:08.510646  5291 net.cpp:150] Setting up layer_128_2_bn3
I0520 11:16:08.510654  5291 net.cpp:157] Top shape: 128 128 4 16 (1048576)
I0520 11:16:08.510658  5291 net.cpp:165] Memory required for data: 1361086976
I0520 11:16:08.510663  5291 layer_factory.hpp:77] Creating layer layer_128_2_scale3
I0520 11:16:08.510669  5291 net.cpp:100] Creating Layer layer_128_2_scale3
I0520 11:16:08.510671  5291 net.cpp:434] layer_128_2_scale3 <- layer_128_2_conv2
I0520 11:16:08.510676  5291 net.cpp:395] layer_128_2_scale3 -> layer_128_2_conv2 (in-place)
I0520 11:16:08.510704  5291 layer_factory.hpp:77] Creating layer layer_128_2_scale3
I0520 11:16:08.510784  5291 net.cpp:150] Setting up layer_128_2_scale3
I0520 11:16:08.510789  5291 net.cpp:157] Top shape: 128 128 4 16 (1048576)
I0520 11:16:08.510792  5291 net.cpp:165] Memory required for data: 1365281280
I0520 11:16:08.510797  5291 layer_factory.hpp:77] Creating layer layer_128_2_relu3
I0520 11:16:08.510802  5291 net.cpp:100] Creating Layer layer_128_2_relu3
I0520 11:16:08.510826  5291 net.cpp:434] layer_128_2_relu3 <- layer_128_2_conv2
I0520 11:16:08.510833  5291 net.cpp:395] layer_128_2_relu3 -> layer_128_2_conv2 (in-place)
I0520 11:16:08.511292  5291 net.cpp:150] Setting up layer_128_2_relu3
I0520 11:16:08.511307  5291 net.cpp:157] Top shape: 128 128 4 16 (1048576)
I0520 11:16:08.511310  5291 net.cpp:165] Memory required for data: 1369475584
I0520 11:16:08.511314  5291 layer_factory.hpp:77] Creating layer layer_128_2_conv3
I0520 11:16:08.511328  5291 net.cpp:100] Creating Layer layer_128_2_conv3
I0520 11:16:08.511333  5291 net.cpp:434] layer_128_2_conv3 <- layer_128_2_conv2
I0520 11:16:08.511342  5291 net.cpp:408] layer_128_2_conv3 -> layer_128_2_conv3
I0520 11:16:08.512974  5291 net.cpp:150] Setting up layer_128_2_conv3
I0520 11:16:08.512987  5291 net.cpp:157] Top shape: 128 512 4 16 (4194304)
I0520 11:16:08.512990  5291 net.cpp:165] Memory required for data: 1386252800
I0520 11:16:08.512997  5291 layer_factory.hpp:77] Creating layer layer_128_2_sum
I0520 11:16:08.513006  5291 net.cpp:100] Creating Layer layer_128_2_sum
I0520 11:16:08.513012  5291 net.cpp:434] layer_128_2_sum <- layer_128_2_conv3
I0520 11:16:08.513017  5291 net.cpp:434] layer_128_2_sum <- layer_128_1_sum_layer_128_1_sum_0_split_1
I0520 11:16:08.513023  5291 net.cpp:408] layer_128_2_sum -> layer_128_2_sum
I0520 11:16:08.513044  5291 net.cpp:150] Setting up layer_128_2_sum
I0520 11:16:08.513049  5291 net.cpp:157] Top shape: 128 512 4 16 (4194304)
I0520 11:16:08.513052  5291 net.cpp:165] Memory required for data: 1403030016
I0520 11:16:08.513056  5291 layer_factory.hpp:77] Creating layer layer_128_2_sum_layer_128_2_sum_0_split
I0520 11:16:08.513062  5291 net.cpp:100] Creating Layer layer_128_2_sum_layer_128_2_sum_0_split
I0520 11:16:08.513067  5291 net.cpp:434] layer_128_2_sum_layer_128_2_sum_0_split <- layer_128_2_sum
I0520 11:16:08.513072  5291 net.cpp:408] layer_128_2_sum_layer_128_2_sum_0_split -> layer_128_2_sum_layer_128_2_sum_0_split_0
I0520 11:16:08.513080  5291 net.cpp:408] layer_128_2_sum_layer_128_2_sum_0_split -> layer_128_2_sum_layer_128_2_sum_0_split_1
I0520 11:16:08.513108  5291 net.cpp:150] Setting up layer_128_2_sum_layer_128_2_sum_0_split
I0520 11:16:08.513113  5291 net.cpp:157] Top shape: 128 512 4 16 (4194304)
I0520 11:16:08.513116  5291 net.cpp:157] Top shape: 128 512 4 16 (4194304)
I0520 11:16:08.513119  5291 net.cpp:165] Memory required for data: 1436584448
I0520 11:16:08.513123  5291 layer_factory.hpp:77] Creating layer layer_128_3_bn1
I0520 11:16:08.513130  5291 net.cpp:100] Creating Layer layer_128_3_bn1
I0520 11:16:08.513134  5291 net.cpp:434] layer_128_3_bn1 <- layer_128_2_sum_layer_128_2_sum_0_split_0
I0520 11:16:08.513139  5291 net.cpp:408] layer_128_3_bn1 -> layer_128_3_bn1
I0520 11:16:08.513280  5291 net.cpp:150] Setting up layer_128_3_bn1
I0520 11:16:08.513285  5291 net.cpp:157] Top shape: 128 512 4 16 (4194304)
I0520 11:16:08.513288  5291 net.cpp:165] Memory required for data: 1453361664
I0520 11:16:08.513294  5291 layer_factory.hpp:77] Creating layer layer_128_3_scale1
I0520 11:16:08.513301  5291 net.cpp:100] Creating Layer layer_128_3_scale1
I0520 11:16:08.513304  5291 net.cpp:434] layer_128_3_scale1 <- layer_128_3_bn1
I0520 11:16:08.513310  5291 net.cpp:395] layer_128_3_scale1 -> layer_128_3_bn1 (in-place)
I0520 11:16:08.513339  5291 layer_factory.hpp:77] Creating layer layer_128_3_scale1
I0520 11:16:08.513414  5291 net.cpp:150] Setting up layer_128_3_scale1
I0520 11:16:08.513420  5291 net.cpp:157] Top shape: 128 512 4 16 (4194304)
I0520 11:16:08.513422  5291 net.cpp:165] Memory required for data: 1470138880
I0520 11:16:08.513428  5291 layer_factory.hpp:77] Creating layer layer_128_3_relu1
I0520 11:16:08.513435  5291 net.cpp:100] Creating Layer layer_128_3_relu1
I0520 11:16:08.513439  5291 net.cpp:434] layer_128_3_relu1 <- layer_128_3_bn1
I0520 11:16:08.513444  5291 net.cpp:395] layer_128_3_relu1 -> layer_128_3_bn1 (in-place)
I0520 11:16:08.513851  5291 net.cpp:150] Setting up layer_128_3_relu1
I0520 11:16:08.513862  5291 net.cpp:157] Top shape: 128 512 4 16 (4194304)
I0520 11:16:08.513883  5291 net.cpp:165] Memory required for data: 1486916096
I0520 11:16:08.513886  5291 layer_factory.hpp:77] Creating layer layer_128_3_conv1
I0520 11:16:08.513900  5291 net.cpp:100] Creating Layer layer_128_3_conv1
I0520 11:16:08.513906  5291 net.cpp:434] layer_128_3_conv1 <- layer_128_3_bn1
I0520 11:16:08.513911  5291 net.cpp:408] layer_128_3_conv1 -> layer_128_3_conv1
I0520 11:16:08.515627  5291 net.cpp:150] Setting up layer_128_3_conv1
I0520 11:16:08.515641  5291 net.cpp:157] Top shape: 128 128 4 16 (1048576)
I0520 11:16:08.515645  5291 net.cpp:165] Memory required for data: 1491110400
I0520 11:16:08.515651  5291 layer_factory.hpp:77] Creating layer layer_128_3_bn2
I0520 11:16:08.515660  5291 net.cpp:100] Creating Layer layer_128_3_bn2
I0520 11:16:08.515664  5291 net.cpp:434] layer_128_3_bn2 <- layer_128_3_conv1
I0520 11:16:08.515671  5291 net.cpp:395] layer_128_3_bn2 -> layer_128_3_conv1 (in-place)
I0520 11:16:08.515808  5291 net.cpp:150] Setting up layer_128_3_bn2
I0520 11:16:08.515813  5291 net.cpp:157] Top shape: 128 128 4 16 (1048576)
I0520 11:16:08.515816  5291 net.cpp:165] Memory required for data: 1495304704
I0520 11:16:08.515825  5291 layer_factory.hpp:77] Creating layer layer_128_3_scale2
I0520 11:16:08.515832  5291 net.cpp:100] Creating Layer layer_128_3_scale2
I0520 11:16:08.515837  5291 net.cpp:434] layer_128_3_scale2 <- layer_128_3_conv1
I0520 11:16:08.515841  5291 net.cpp:395] layer_128_3_scale2 -> layer_128_3_conv1 (in-place)
I0520 11:16:08.515867  5291 layer_factory.hpp:77] Creating layer layer_128_3_scale2
I0520 11:16:08.515944  5291 net.cpp:150] Setting up layer_128_3_scale2
I0520 11:16:08.515949  5291 net.cpp:157] Top shape: 128 128 4 16 (1048576)
I0520 11:16:08.515952  5291 net.cpp:165] Memory required for data: 1499499008
I0520 11:16:08.515957  5291 layer_factory.hpp:77] Creating layer layer_128_3_relu2
I0520 11:16:08.515965  5291 net.cpp:100] Creating Layer layer_128_3_relu2
I0520 11:16:08.515969  5291 net.cpp:434] layer_128_3_relu2 <- layer_128_3_conv1
I0520 11:16:08.515974  5291 net.cpp:395] layer_128_3_relu2 -> layer_128_3_conv1 (in-place)
I0520 11:16:08.516244  5291 net.cpp:150] Setting up layer_128_3_relu2
I0520 11:16:08.516252  5291 net.cpp:157] Top shape: 128 128 4 16 (1048576)
I0520 11:16:08.516254  5291 net.cpp:165] Memory required for data: 1503693312
I0520 11:16:08.516258  5291 layer_factory.hpp:77] Creating layer layer_128_3_conv2
I0520 11:16:08.516268  5291 net.cpp:100] Creating Layer layer_128_3_conv2
I0520 11:16:08.516273  5291 net.cpp:434] layer_128_3_conv2 <- layer_128_3_conv1
I0520 11:16:08.516280  5291 net.cpp:408] layer_128_3_conv2 -> layer_128_3_conv2
I0520 11:16:08.520045  5291 net.cpp:150] Setting up layer_128_3_conv2
I0520 11:16:08.520067  5291 net.cpp:157] Top shape: 128 128 4 16 (1048576)
I0520 11:16:08.520071  5291 net.cpp:165] Memory required for data: 1507887616
I0520 11:16:08.520077  5291 layer_factory.hpp:77] Creating layer layer_128_3_bn3
I0520 11:16:08.520092  5291 net.cpp:100] Creating Layer layer_128_3_bn3
I0520 11:16:08.520097  5291 net.cpp:434] layer_128_3_bn3 <- layer_128_3_conv2
I0520 11:16:08.520102  5291 net.cpp:395] layer_128_3_bn3 -> layer_128_3_conv2 (in-place)
I0520 11:16:08.520257  5291 net.cpp:150] Setting up layer_128_3_bn3
I0520 11:16:08.520263  5291 net.cpp:157] Top shape: 128 128 4 16 (1048576)
I0520 11:16:08.520267  5291 net.cpp:165] Memory required for data: 1512081920
I0520 11:16:08.520272  5291 layer_factory.hpp:77] Creating layer layer_128_3_scale3
I0520 11:16:08.520279  5291 net.cpp:100] Creating Layer layer_128_3_scale3
I0520 11:16:08.520282  5291 net.cpp:434] layer_128_3_scale3 <- layer_128_3_conv2
I0520 11:16:08.520285  5291 net.cpp:395] layer_128_3_scale3 -> layer_128_3_conv2 (in-place)
I0520 11:16:08.520309  5291 layer_factory.hpp:77] Creating layer layer_128_3_scale3
I0520 11:16:08.520381  5291 net.cpp:150] Setting up layer_128_3_scale3
I0520 11:16:08.520387  5291 net.cpp:157] Top shape: 128 128 4 16 (1048576)
I0520 11:16:08.520390  5291 net.cpp:165] Memory required for data: 1516276224
I0520 11:16:08.520393  5291 layer_factory.hpp:77] Creating layer layer_128_3_relu3
I0520 11:16:08.520426  5291 net.cpp:100] Creating Layer layer_128_3_relu3
I0520 11:16:08.520429  5291 net.cpp:434] layer_128_3_relu3 <- layer_128_3_conv2
I0520 11:16:08.520432  5291 net.cpp:395] layer_128_3_relu3 -> layer_128_3_conv2 (in-place)
I0520 11:16:08.520929  5291 net.cpp:150] Setting up layer_128_3_relu3
I0520 11:16:08.520946  5291 net.cpp:157] Top shape: 128 128 4 16 (1048576)
I0520 11:16:08.520949  5291 net.cpp:165] Memory required for data: 1520470528
I0520 11:16:08.520952  5291 layer_factory.hpp:77] Creating layer layer_128_3_conv3
I0520 11:16:08.520967  5291 net.cpp:100] Creating Layer layer_128_3_conv3
I0520 11:16:08.520970  5291 net.cpp:434] layer_128_3_conv3 <- layer_128_3_conv2
I0520 11:16:08.520977  5291 net.cpp:408] layer_128_3_conv3 -> layer_128_3_conv3
I0520 11:16:08.522698  5291 net.cpp:150] Setting up layer_128_3_conv3
I0520 11:16:08.522716  5291 net.cpp:157] Top shape: 128 512 4 16 (4194304)
I0520 11:16:08.522718  5291 net.cpp:165] Memory required for data: 1537247744
I0520 11:16:08.522724  5291 layer_factory.hpp:77] Creating layer layer_128_3_sum
I0520 11:16:08.522732  5291 net.cpp:100] Creating Layer layer_128_3_sum
I0520 11:16:08.522735  5291 net.cpp:434] layer_128_3_sum <- layer_128_3_conv3
I0520 11:16:08.522739  5291 net.cpp:434] layer_128_3_sum <- layer_128_2_sum_layer_128_2_sum_0_split_1
I0520 11:16:08.522743  5291 net.cpp:408] layer_128_3_sum -> layer_128_3_sum
I0520 11:16:08.522761  5291 net.cpp:150] Setting up layer_128_3_sum
I0520 11:16:08.522765  5291 net.cpp:157] Top shape: 128 512 4 16 (4194304)
I0520 11:16:08.522768  5291 net.cpp:165] Memory required for data: 1554024960
I0520 11:16:08.522770  5291 layer_factory.hpp:77] Creating layer layer_128_3_sum_layer_128_3_sum_0_split
I0520 11:16:08.522783  5291 net.cpp:100] Creating Layer layer_128_3_sum_layer_128_3_sum_0_split
I0520 11:16:08.522789  5291 net.cpp:434] layer_128_3_sum_layer_128_3_sum_0_split <- layer_128_3_sum
I0520 11:16:08.522794  5291 net.cpp:408] layer_128_3_sum_layer_128_3_sum_0_split -> layer_128_3_sum_layer_128_3_sum_0_split_0
I0520 11:16:08.522800  5291 net.cpp:408] layer_128_3_sum_layer_128_3_sum_0_split -> layer_128_3_sum_layer_128_3_sum_0_split_1
I0520 11:16:08.522827  5291 net.cpp:150] Setting up layer_128_3_sum_layer_128_3_sum_0_split
I0520 11:16:08.522832  5291 net.cpp:157] Top shape: 128 512 4 16 (4194304)
I0520 11:16:08.522836  5291 net.cpp:157] Top shape: 128 512 4 16 (4194304)
I0520 11:16:08.522840  5291 net.cpp:165] Memory required for data: 1587579392
I0520 11:16:08.522842  5291 layer_factory.hpp:77] Creating layer layer_128_4_bn1
I0520 11:16:08.522852  5291 net.cpp:100] Creating Layer layer_128_4_bn1
I0520 11:16:08.522856  5291 net.cpp:434] layer_128_4_bn1 <- layer_128_3_sum_layer_128_3_sum_0_split_0
I0520 11:16:08.522861  5291 net.cpp:408] layer_128_4_bn1 -> layer_128_4_bn1
I0520 11:16:08.522994  5291 net.cpp:150] Setting up layer_128_4_bn1
I0520 11:16:08.522999  5291 net.cpp:157] Top shape: 128 512 4 16 (4194304)
I0520 11:16:08.523001  5291 net.cpp:165] Memory required for data: 1604356608
I0520 11:16:08.523008  5291 layer_factory.hpp:77] Creating layer layer_128_4_scale1
I0520 11:16:08.523017  5291 net.cpp:100] Creating Layer layer_128_4_scale1
I0520 11:16:08.523022  5291 net.cpp:434] layer_128_4_scale1 <- layer_128_4_bn1
I0520 11:16:08.523026  5291 net.cpp:395] layer_128_4_scale1 -> layer_128_4_bn1 (in-place)
I0520 11:16:08.523051  5291 layer_factory.hpp:77] Creating layer layer_128_4_scale1
I0520 11:16:08.523138  5291 net.cpp:150] Setting up layer_128_4_scale1
I0520 11:16:08.523145  5291 net.cpp:157] Top shape: 128 512 4 16 (4194304)
I0520 11:16:08.523149  5291 net.cpp:165] Memory required for data: 1621133824
I0520 11:16:08.523154  5291 layer_factory.hpp:77] Creating layer layer_128_4_relu1
I0520 11:16:08.523162  5291 net.cpp:100] Creating Layer layer_128_4_relu1
I0520 11:16:08.523165  5291 net.cpp:434] layer_128_4_relu1 <- layer_128_4_bn1
I0520 11:16:08.523175  5291 net.cpp:395] layer_128_4_relu1 -> layer_128_4_bn1 (in-place)
I0520 11:16:08.523545  5291 net.cpp:150] Setting up layer_128_4_relu1
I0520 11:16:08.523576  5291 net.cpp:157] Top shape: 128 512 4 16 (4194304)
I0520 11:16:08.523579  5291 net.cpp:165] Memory required for data: 1637911040
I0520 11:16:08.523583  5291 layer_factory.hpp:77] Creating layer layer_128_4_conv1
I0520 11:16:08.523594  5291 net.cpp:100] Creating Layer layer_128_4_conv1
I0520 11:16:08.523599  5291 net.cpp:434] layer_128_4_conv1 <- layer_128_4_bn1
I0520 11:16:08.523607  5291 net.cpp:408] layer_128_4_conv1 -> layer_128_4_conv1
I0520 11:16:08.525876  5291 net.cpp:150] Setting up layer_128_4_conv1
I0520 11:16:08.525892  5291 net.cpp:157] Top shape: 128 128 4 16 (1048576)
I0520 11:16:08.525893  5291 net.cpp:165] Memory required for data: 1642105344
I0520 11:16:08.525899  5291 layer_factory.hpp:77] Creating layer layer_128_4_bn2
I0520 11:16:08.525907  5291 net.cpp:100] Creating Layer layer_128_4_bn2
I0520 11:16:08.525909  5291 net.cpp:434] layer_128_4_bn2 <- layer_128_4_conv1
I0520 11:16:08.525914  5291 net.cpp:395] layer_128_4_bn2 -> layer_128_4_conv1 (in-place)
I0520 11:16:08.526060  5291 net.cpp:150] Setting up layer_128_4_bn2
I0520 11:16:08.526067  5291 net.cpp:157] Top shape: 128 128 4 16 (1048576)
I0520 11:16:08.526069  5291 net.cpp:165] Memory required for data: 1646299648
I0520 11:16:08.526073  5291 layer_factory.hpp:77] Creating layer layer_128_4_scale2
I0520 11:16:08.526082  5291 net.cpp:100] Creating Layer layer_128_4_scale2
I0520 11:16:08.526083  5291 net.cpp:434] layer_128_4_scale2 <- layer_128_4_conv1
I0520 11:16:08.526087  5291 net.cpp:395] layer_128_4_scale2 -> layer_128_4_conv1 (in-place)
I0520 11:16:08.526109  5291 layer_factory.hpp:77] Creating layer layer_128_4_scale2
I0520 11:16:08.526176  5291 net.cpp:150] Setting up layer_128_4_scale2
I0520 11:16:08.526181  5291 net.cpp:157] Top shape: 128 128 4 16 (1048576)
I0520 11:16:08.526183  5291 net.cpp:165] Memory required for data: 1650493952
I0520 11:16:08.526196  5291 layer_factory.hpp:77] Creating layer layer_128_4_relu2
I0520 11:16:08.526202  5291 net.cpp:100] Creating Layer layer_128_4_relu2
I0520 11:16:08.526204  5291 net.cpp:434] layer_128_4_relu2 <- layer_128_4_conv1
I0520 11:16:08.526208  5291 net.cpp:395] layer_128_4_relu2 -> layer_128_4_conv1 (in-place)
I0520 11:16:08.526590  5291 net.cpp:150] Setting up layer_128_4_relu2
I0520 11:16:08.526602  5291 net.cpp:157] Top shape: 128 128 4 16 (1048576)
I0520 11:16:08.526603  5291 net.cpp:165] Memory required for data: 1654688256
I0520 11:16:08.526607  5291 layer_factory.hpp:77] Creating layer layer_128_4_conv2
I0520 11:16:08.526616  5291 net.cpp:100] Creating Layer layer_128_4_conv2
I0520 11:16:08.526620  5291 net.cpp:434] layer_128_4_conv2 <- layer_128_4_conv1
I0520 11:16:08.526625  5291 net.cpp:408] layer_128_4_conv2 -> layer_128_4_conv2
I0520 11:16:08.530591  5291 net.cpp:150] Setting up layer_128_4_conv2
I0520 11:16:08.530606  5291 net.cpp:157] Top shape: 128 128 4 16 (1048576)
I0520 11:16:08.530607  5291 net.cpp:165] Memory required for data: 1658882560
I0520 11:16:08.530622  5291 layer_factory.hpp:77] Creating layer layer_128_4_bn3
I0520 11:16:08.530628  5291 net.cpp:100] Creating Layer layer_128_4_bn3
I0520 11:16:08.530632  5291 net.cpp:434] layer_128_4_bn3 <- layer_128_4_conv2
I0520 11:16:08.530638  5291 net.cpp:395] layer_128_4_bn3 -> layer_128_4_conv2 (in-place)
I0520 11:16:08.530774  5291 net.cpp:150] Setting up layer_128_4_bn3
I0520 11:16:08.530779  5291 net.cpp:157] Top shape: 128 128 4 16 (1048576)
I0520 11:16:08.530782  5291 net.cpp:165] Memory required for data: 1663076864
I0520 11:16:08.530786  5291 layer_factory.hpp:77] Creating layer layer_128_4_scale3
I0520 11:16:08.530793  5291 net.cpp:100] Creating Layer layer_128_4_scale3
I0520 11:16:08.530797  5291 net.cpp:434] layer_128_4_scale3 <- layer_128_4_conv2
I0520 11:16:08.530802  5291 net.cpp:395] layer_128_4_scale3 -> layer_128_4_conv2 (in-place)
I0520 11:16:08.530822  5291 layer_factory.hpp:77] Creating layer layer_128_4_scale3
I0520 11:16:08.530891  5291 net.cpp:150] Setting up layer_128_4_scale3
I0520 11:16:08.530896  5291 net.cpp:157] Top shape: 128 128 4 16 (1048576)
I0520 11:16:08.530913  5291 net.cpp:165] Memory required for data: 1667271168
I0520 11:16:08.530917  5291 layer_factory.hpp:77] Creating layer layer_128_4_relu3
I0520 11:16:08.530923  5291 net.cpp:100] Creating Layer layer_128_4_relu3
I0520 11:16:08.530925  5291 net.cpp:434] layer_128_4_relu3 <- layer_128_4_conv2
I0520 11:16:08.530930  5291 net.cpp:395] layer_128_4_relu3 -> layer_128_4_conv2 (in-place)
I0520 11:16:08.531178  5291 net.cpp:150] Setting up layer_128_4_relu3
I0520 11:16:08.531184  5291 net.cpp:157] Top shape: 128 128 4 16 (1048576)
I0520 11:16:08.531188  5291 net.cpp:165] Memory required for data: 1671465472
I0520 11:16:08.531189  5291 layer_factory.hpp:77] Creating layer layer_128_4_conv3
I0520 11:16:08.531198  5291 net.cpp:100] Creating Layer layer_128_4_conv3
I0520 11:16:08.531203  5291 net.cpp:434] layer_128_4_conv3 <- layer_128_4_conv2
I0520 11:16:08.531206  5291 net.cpp:408] layer_128_4_conv3 -> layer_128_4_conv3
I0520 11:16:08.532815  5291 net.cpp:150] Setting up layer_128_4_conv3
I0520 11:16:08.532827  5291 net.cpp:157] Top shape: 128 512 4 16 (4194304)
I0520 11:16:08.532830  5291 net.cpp:165] Memory required for data: 1688242688
I0520 11:16:08.532835  5291 layer_factory.hpp:77] Creating layer layer_128_4_sum
I0520 11:16:08.532856  5291 net.cpp:100] Creating Layer layer_128_4_sum
I0520 11:16:08.532861  5291 net.cpp:434] layer_128_4_sum <- layer_128_4_conv3
I0520 11:16:08.532866  5291 net.cpp:434] layer_128_4_sum <- layer_128_3_sum_layer_128_3_sum_0_split_1
I0520 11:16:08.532869  5291 net.cpp:408] layer_128_4_sum -> layer_128_4_sum
I0520 11:16:08.532886  5291 net.cpp:150] Setting up layer_128_4_sum
I0520 11:16:08.532891  5291 net.cpp:157] Top shape: 128 512 4 16 (4194304)
I0520 11:16:08.532892  5291 net.cpp:165] Memory required for data: 1705019904
I0520 11:16:08.532896  5291 layer_factory.hpp:77] Creating layer last_bn
I0520 11:16:08.532901  5291 net.cpp:100] Creating Layer last_bn
I0520 11:16:08.532903  5291 net.cpp:434] last_bn <- layer_128_4_sum
I0520 11:16:08.532908  5291 net.cpp:395] last_bn -> layer_128_4_sum (in-place)
I0520 11:16:08.533035  5291 net.cpp:150] Setting up last_bn
I0520 11:16:08.533038  5291 net.cpp:157] Top shape: 128 512 4 16 (4194304)
I0520 11:16:08.533041  5291 net.cpp:165] Memory required for data: 1721797120
I0520 11:16:08.533046  5291 layer_factory.hpp:77] Creating layer last_scale
I0520 11:16:08.533049  5291 net.cpp:100] Creating Layer last_scale
I0520 11:16:08.533052  5291 net.cpp:434] last_scale <- layer_128_4_sum
I0520 11:16:08.533056  5291 net.cpp:395] last_scale -> layer_128_4_sum (in-place)
I0520 11:16:08.533077  5291 layer_factory.hpp:77] Creating layer last_scale
I0520 11:16:08.533145  5291 net.cpp:150] Setting up last_scale
I0520 11:16:08.533150  5291 net.cpp:157] Top shape: 128 512 4 16 (4194304)
I0520 11:16:08.533152  5291 net.cpp:165] Memory required for data: 1738574336
I0520 11:16:08.533156  5291 layer_factory.hpp:77] Creating layer last_relu
I0520 11:16:08.533161  5291 net.cpp:100] Creating Layer last_relu
I0520 11:16:08.533164  5291 net.cpp:434] last_relu <- layer_128_4_sum
I0520 11:16:08.533167  5291 net.cpp:395] last_relu -> layer_128_4_sum (in-place)
I0520 11:16:08.533540  5291 net.cpp:150] Setting up last_relu
I0520 11:16:08.533550  5291 net.cpp:157] Top shape: 128 512 4 16 (4194304)
I0520 11:16:08.533551  5291 net.cpp:165] Memory required for data: 1755351552
I0520 11:16:08.533555  5291 layer_factory.hpp:77] Creating layer dropout
I0520 11:16:08.533560  5291 net.cpp:100] Creating Layer dropout
I0520 11:16:08.533563  5291 net.cpp:434] dropout <- layer_128_4_sum
I0520 11:16:08.533568  5291 net.cpp:395] dropout -> layer_128_4_sum (in-place)
I0520 11:16:08.533586  5291 net.cpp:150] Setting up dropout
I0520 11:16:08.533591  5291 net.cpp:157] Top shape: 128 512 4 16 (4194304)
I0520 11:16:08.533593  5291 net.cpp:165] Memory required for data: 1772128768
I0520 11:16:08.533596  5291 layer_factory.hpp:77] Creating layer permuted_data
I0520 11:16:08.533601  5291 net.cpp:100] Creating Layer permuted_data
I0520 11:16:08.533602  5291 net.cpp:434] permuted_data <- layer_128_4_sum
I0520 11:16:08.533618  5291 net.cpp:408] permuted_data -> permuted_data
I0520 11:16:08.533689  5291 net.cpp:150] Setting up permuted_data
I0520 11:16:08.533692  5291 net.cpp:157] Top shape: 16 128 512 4 (4194304)
I0520 11:16:08.533695  5291 net.cpp:165] Memory required for data: 1788905984
I0520 11:16:08.533697  5291 layer_factory.hpp:77] Creating layer permuted_data_permuted_data_0_split
I0520 11:16:08.533702  5291 net.cpp:100] Creating Layer permuted_data_permuted_data_0_split
I0520 11:16:08.533704  5291 net.cpp:434] permuted_data_permuted_data_0_split <- permuted_data
I0520 11:16:08.533708  5291 net.cpp:408] permuted_data_permuted_data_0_split -> permuted_data_permuted_data_0_split_0
I0520 11:16:08.533712  5291 net.cpp:408] permuted_data_permuted_data_0_split -> permuted_data_permuted_data_0_split_1
I0520 11:16:08.533735  5291 net.cpp:150] Setting up permuted_data_permuted_data_0_split
I0520 11:16:08.533738  5291 net.cpp:157] Top shape: 16 128 512 4 (4194304)
I0520 11:16:08.533741  5291 net.cpp:157] Top shape: 16 128 512 4 (4194304)
I0520 11:16:08.533743  5291 net.cpp:165] Memory required for data: 1822460416
I0520 11:16:08.533746  5291 layer_factory.hpp:77] Creating layer lstm-reverse1
I0520 11:16:08.533752  5291 net.cpp:100] Creating Layer lstm-reverse1
I0520 11:16:08.533754  5291 net.cpp:434] lstm-reverse1 <- permuted_data_permuted_data_0_split_0
I0520 11:16:08.533757  5291 net.cpp:408] lstm-reverse1 -> rlstm_input
I0520 11:16:08.533771  5291 net.cpp:150] Setting up lstm-reverse1
I0520 11:16:08.533776  5291 net.cpp:157] Top shape: 16 128 512 4 (4194304)
I0520 11:16:08.533777  5291 net.cpp:165] Memory required for data: 1839237632
I0520 11:16:08.533779  5291 layer_factory.hpp:77] Creating layer lstm2x
I0520 11:16:08.533784  5291 net.cpp:100] Creating Layer lstm2x
I0520 11:16:08.533787  5291 net.cpp:434] lstm2x <- rlstm_input
I0520 11:16:08.533790  5291 net.cpp:434] lstm2x <- indicator_indicator_0_split_0
I0520 11:16:08.533794  5291 net.cpp:408] lstm2x -> lstm2x
I0520 11:16:08.533802  5291 recurrent_layer.cpp:20] Initializing recurrent layer: assuming input batch contains 16 timesteps of 128 independent streams.
I0520 11:16:08.534174  5291 net.cpp:58] Initializing net from parameters: 
layer {
  name: "lstm2x_"
  type: "Input"
  top: "x"
  top: "cont"
  input_param {
    shape {
      dim: 16
      dim: 128
      dim: 512
      dim: 4
    }
    shape {
      dim: 16
      dim: 128
    }
  }
}
layer {
  name: "lstm2x_"
  type: "Input"
  top: "c_0"
  top: "h_0"
  input_param {
    shape {
      dim: 1
      dim: 128
      dim: 100
    }
    shape {
      dim: 1
      dim: 128
      dim: 100
    }
  }
}
layer {
  name: "lstm2x_cont_slice"
  type: "Slice"
  bottom: "cont"
  top: "cont_1"
  top: "cont_2"
  top: "cont_3"
  top: "cont_4"
  top: "cont_5"
  top: "cont_6"
  top: "cont_7"
  top: "cont_8"
  top: "cont_9"
  top: "cont_10"
  top: "cont_11"
  top: "cont_12"
  top: "cont_13"
  top: "cont_14"
  top: "cont_15"
  top: "cont_16"
  slice_param {
    axis: 0
  }
}
layer {
  name: "lstm2x_x_transform"
  type: "InnerProduct"
  bottom: "x"
  top: "W_xc_x"
  param {
    name: "W_xc"
  }
  param {
    name: "b_c"
  }
  propagate_down: true
  inner_product_param {
    num_output: 400
    bias_term: true
    weight_filler {
      type: "xavier"
    }
    bias_filler {
      type: "constant"
      value: 0
    }
    axis: 2
  }
}
layer {
  name: "lstm2x_W_xc_x_slice"
  type: "Slice"
  bottom: "W_xc_x"
  top: "W_xc_x_1"
  top: "W_xc_x_2"
  top: "W_xc_x_3"
  top: "W_xc_x_4"
  top: "W_xc_x_5"
  top: "W_xc_x_6"
  top: "W_xc_x_7"
  top: "W_xc_x_8"
  top: "W_xc_x_9"
  top: "W_xc_x_10"
  top: "W_xc_x_11"
  top: "W_xc_x_12"
  top: "W_xc_x_13"
  top: "W_xc_x_14"
  top: "W_xc_x_15"
  top: "W_xc_x_16"
  slice_param {
    axis: 0
  }
}
layer {
  name: "lstm2x_h_conted_0"
  type: "Scale"
  bottom: "h_0"
  bottom: "cont_1"
  top: "h_conted_0"
  scale_param {
    axis: 0
  }
}
layer {
  name: "lstm2x_transform_1"
  type: "InnerProduct"
  bottom: "h_conted_0"
  top: "W_hc_h_0"
  param {
    name: "W_hc"
  }
  inner_product_param {
    num_output: 400
    bias_term: false
    weight_filler {
      type: "xavier"
    }
    axis: 2
  }
}
layer {
  name: "lstm2x_gate_input_1"
  type: "Eltwise"
  bottom: "W_hc_h_0"
  bottom: "W_xc_x_1"
  top: "gate_input_1"
  eltwise_param {
    operation: SUM
  }
}
layer {
  name: "lstm2x_unit_1"
  type: "LSTMUnit"
  bottom: "c_0"
  bottom: "gate_input_1"
  bottom: "cont_1"
  top: "c_1"
  top: "h_1"
}
layer {
  name: "lstm2x_h_conted_1"
  type: "Scale"
  bottom: "h_1"
  bottom: "cont_2"
  top: "h_conted_1"
  scale_param {
    axis: 0
  }
}
layer {
  name: "lstm2x_transform_2"
  type: "InnerProduct"
  bottom: "h_conted_1"
  top: "W_hc_h_1"
  param {
    name: "W_hc"
  }
  inner_product_param {
    num_output: 400
    bias_term: false
    weight_filler {
      type: "xavier"
    }
    axis: 2
  }
}
layer {
  name: "lstm2x_gate_input_2"
  type: "Eltwise"
  bottom: "W_hc_h_1"
  bottom: "W_xc_x_2"
  top: "gate_input_2"
  eltwise_param {
    operation: SUM
  }
}
layer {
  name: "lstm2x_unit_2"
  type: "LSTMUnit"
  bottom: "c_1"
  bottom: "gate_input_2"
  bottom: "cont_2"
  top: "c_2"
  top: "h_2"
}
layer {
  name: "lstm2x_h_conted_2"
  type: "Scale"
  bottom: "h_2"
  bottom: "cont_3"
  top: "h_conted_2"
  scale_param {
    axis: 0
  }
}
layer {
  name: "lstm2x_transform_3"
  type: "InnerProduct"
  bottom: "h_conted_2"
  top: "W_hc_h_2"
  param {
    name: "W_hc"
  }
  inner_product_param {
    num_output: 400
    bias_term: false
    weight_filler {
      type: "xavier"
    }
    axis: 2
  }
}
layer {
  name: "lstm2x_gate_input_3"
  type: "Eltwise"
  bottom: "W_hc_h_2"
  bottom: "W_xc_x_3"
  top: "gate_input_3"
  eltwise_param {
    operation: SUM
  }
}
layer {
  name: "lstm2x_unit_3"
  type: "LSTMUnit"
  bottom: "c_2"
  bottom: "gate_input_3"
  bottom: "cont_3"
  top: "c_3"
  top: "h_3"
}
layer {
  name: "lstm2x_h_conted_3"
  type: "Scale"
  bottom: "h_3"
  bottom: "cont_4"
  top: "h_conted_3"
  scale_param {
    axis: 0
  }
}
layer {
  name: "lstm2x_transform_4"
  type: "InnerProduct"
  bottom: "h_conted_3"
  top: "W_hc_h_3"
  param {
    name: "W_hc"
  }
  inner_product_param {
    num_output: 400
    bias_term: false
    weight_filler {
      type: "xavier"
    }
    axis: 2
  }
}
layer {
  name: "lstm2x_gate_input_4"
  type: "Eltwise"
  bottom: "W_hc_h_3"
  bottom: "W_xc_x_4"
  top: "gate_input_4"
  eltwise_param {
    operation: SUM
  }
}
layer {
  name: "lstm2x_unit_4"
  type: "LSTMUnit"
  bottom: "c_3"
  bottom: "gate_input_4"
  bottom: "cont_4"
  top: "c_4"
  top: "h_4"
}
layer {
  name: "lstm2x_h_conted_4"
  type: "Scale"
  bottom: "h_4"
  bottom: "cont_5"
  top: "h_conted_4"
  scale_param {
    axis: 0
  }
}
layer {
  name: "lstm2x_transform_5"
  type: "InnerProduct"
  bottom: "h_conted_4"
  top: "W_hc_h_4"
  param {
    name: "W_hc"
  }
  inner_product_param {
    num_output: 400
    bias_term: false
    weight_filler {
      type: "xavier"
    }
    axis: 2
  }
}
layer {
  name: "lstm2x_gate_input_5"
  type: "Eltwise"
  bottom: "W_hc_h_4"
  bottom: "W_xc_x_5"
  top: "gate_input_5"
  eltwise_param {
    operation: SUM
  }
}
layer {
  name: "lstm2x_unit_5"
  type: "LSTMUnit"
  bottom: "c_4"
  bottom: "gate_input_5"
  bottom: "cont_5"
  top: "c_5"
  top: "h_5"
}
layer {
  name: "lstm2x_h_conted_5"
  type: "Scale"
  bottom: "h_5"
  bottom: "cont_6"
  top: "h_conted_5"
  scale_param {
    axis: 0
  }
}
layer {
  name: "lstm2x_transform_6"
  type: "InnerProduct"
  bottom: "h_conted_5"
  top: "W_hc_h_5"
  param {
    name: "W_hc"
  }
  inner_product_param {
    num_output: 400
    bias_term: false
    weight_filler {
      type: "xavier"
    }
    axis: 2
  }
}
layer {
  name: "lstm2x_gate_input_6"
  type: "Eltwise"
  bottom: "W_hc_h_5"
  bottom: "W_xc_x_6"
  top: "gate_input_6"
  eltwise_param {
    operation: SUM
  }
}
layer {
  name: "lstm2x_unit_6"
  type: "LSTMUnit"
  bottom: "c_5"
  bottom: "gate_input_6"
  bottom: "cont_6"
  top: "c_6"
  top: "h_6"
}
layer {
  name: "lstm2x_h_conted_6"
  type: "Scale"
  bottom: "h_6"
  bottom: "cont_7"
  top: "h_conted_6"
  scale_param {
    axis: 0
  }
}
layer {
  name: "lstm2x_transform_7"
  type: "InnerProduct"
  bottom: "h_conted_6"
  top: "W_hc_h_6"
  param {
    name: "W_hc"
  }
  inner_product_param {
    num_output: 400
    bias_term: false
    weight_filler {
      type: "xavier"
    }
    axis: 2
  }
}
layer {
  name: "lstm2x_gate_input_7"
  type: "Eltwise"
  bottom: "W_hc_h_6"
  bottom: "W_xc_x_7"
  top: "gate_input_7"
  eltwise_param {
    operation: SUM
  }
}
layer {
  name: "lstm2x_unit_7"
  type: "LSTMUnit"
  bottom: "c_6"
  bottom: "gate_input_7"
  bottom: "cont_7"
  top: "c_7"
  top: "h_7"
}
layer {
  name: "lstm2x_h_conted_7"
  type: "Scale"
  bottom: "h_7"
  bottom: "cont_8"
  top: "h_conted_7"
  scale_param {
    axis: 0
  }
}
layer {
  name: "lstm2x_transform_8"
  type: "InnerProduct"
  bottom: "h_conted_7"
  top: "W_hc_h_7"
  param {
    name: "W_hc"
  }
  inner_product_param {
    num_output: 400
    bias_term: false
    weight_filler {
      type: "xavier"
    }
    axis: 2
  }
}
layer {
  name: "lstm2x_gate_input_8"
  type: "Eltwise"
  bottom: "W_hc_h_7"
  bottom: "W_xc_x_8"
  top: "gate_input_8"
  eltwise_param {
    operation: SUM
  }
}
layer {
  name: "lstm2x_unit_8"
  type: "LSTMUnit"
  bottom: "c_7"
  bottom: "gate_input_8"
  bottom: "cont_8"
  top: "c_8"
  top: "h_8"
}
layer {
  name: "lstm2x_h_conted_8"
  type: "Scale"
  bottom: "h_8"
  bottom: "cont_9"
  top: "h_conted_8"
  scale_param {
    axis: 0
  }
}
layer {
  name: "lstm2x_transform_9"
  type: "InnerProduct"
  bottom: "h_conted_8"
  top: "W_hc_h_8"
  param {
    name: "W_hc"
  }
  inner_product_param {
    num_output: 400
    bias_term: false
    weight_filler {
      type: "xavier"
    }
    axis: 2
  }
}
layer {
  name: "lstm2x_gate_input_9"
  type: "Eltwise"
  bottom: "W_hc_h_8"
  bottom: "W_xc_x_9"
  top: "gate_input_9"
  eltwise_param {
    operation: SUM
  }
}
layer {
  name: "lstm2x_unit_9"
  type: "LSTMUnit"
  bottom: "c_8"
  bottom: "gate_input_9"
  bottom: "cont_9"
  top: "c_9"
  top: "h_9"
}
layer {
  name: "lstm2x_h_conted_9"
  type: "Scale"
  bottom: "h_9"
  bottom: "cont_10"
  top: "h_conted_9"
  scale_param {
    axis: 0
  }
}
layer {
  name: "lstm2x_transform_10"
  type: "InnerProduct"
  bottom: "h_conted_9"
  top: "W_hc_h_9"
  param {
    name: "W_hc"
  }
  inner_product_param {
    num_output: 400
    bias_term: false
    weight_filler {
      type: "xavier"
    }
    axis: 2
  }
}
layer {
  name: "lstm2x_gate_input_10"
  type: "Eltwise"
  bottom: "W_hc_h_9"
  bottom: "W_xc_x_10"
  top: "gate_input_10"
  eltwise_param {
    operation: SUM
  }
}
layer {
  name: "lstm2x_unit_10"
  type: "LSTMUnit"
  bottom: "c_9"
  bottom: "gate_input_10"
  bottom: "cont_10"
  top: "c_10"
  top: "h_10"
}
layer {
  name: "lstm2x_h_conted_10"
  type: "Scale"
  bottom: "h_10"
  bottom: "cont_11"
  top: "h_conted_10"
  scale_param {
    axis: 0
  }
}
layer {
  name: "lstm2x_transform_11"
  type: "InnerProduct"
  bottom: "h_conted_10"
  top: "W_hc_h_10"
  param {
    name: "W_hc"
  }
  inner_product_param {
    num_output: 400
    bias_term: false
    weight_filler {
      type: "xavier"
    }
    axis: 2
  }
}
layer {
  name: "lstm2x_gate_input_11"
  type: "Eltwise"
  bottom: "W_hc_h_10"
  bottom: "W_xc_x_11"
  top: "gate_input_11"
  eltwise_param {
    operation: SUM
  }
}
layer {
  name: "lstm2x_unit_11"
  type: "LSTMUnit"
  bottom: "c_10"
  bottom: "gate_input_11"
  bottom: "cont_11"
  top: "c_11"
  top: "h_11"
}
layer {
  name: "lstm2x_h_conted_11"
  type: "Scale"
  bottom: "h_11"
  bottom: "cont_12"
  top: "h_conted_11"
  scale_param {
    axis: 0
  }
}
layer {
  name: "lstm2x_transform_12"
  type: "InnerProduct"
  bottom: "h_conted_11"
  top: "W_hc_h_11"
  param {
    name: "W_hc"
  }
  inner_product_param {
    num_output: 400
    bias_term: false
    weight_filler {
      type: "xavier"
    }
    axis: 2
  }
}
layer {
  name: "lstm2x_gate_input_12"
  type: "Eltwise"
  bottom: "W_hc_h_11"
  bottom: "W_xc_x_12"
  top: "gate_input_12"
  eltwise_param {
    operation: SUM
  }
}
layer {
  name: "lstm2x_unit_12"
  type: "LSTMUnit"
  bottom: "c_11"
  bottom: "gate_input_12"
  bottom: "cont_12"
  top: "c_12"
  top: "h_12"
}
layer {
  name: "lstm2x_h_conted_12"
  type: "Scale"
  bottom: "h_12"
  bottom: "cont_13"
  top: "h_conted_12"
  scale_param {
    axis: 0
  }
}
layer {
  name: "lstm2x_transform_13"
  type: "InnerProduct"
  bottom: "h_conted_12"
  top: "W_hc_h_12"
  param {
    name: "W_hc"
  }
  inner_product_param {
    num_output: 400
    bias_term: false
    weight_filler {
      type: "xavier"
    }
    axis: 2
  }
}
layer {
  name: "lstm2x_gate_input_13"
  type: "Eltwise"
  bottom: "W_hc_h_12"
  bottom: "W_xc_x_13"
  top: "gate_input_13"
  eltwise_param {
    operation: SUM
  }
}
layer {
  name: "lstm2x_unit_13"
  type: "LSTMUnit"
  bottom: "c_12"
  bottom: "gate_input_13"
  bottom: "cont_13"
  top: "c_13"
  top: "h_13"
}
layer {
  name: "lstm2x_h_conted_13"
  type: "Scale"
  bottom: "h_13"
  bottom: "cont_14"
  top: "h_conted_13"
  scale_param {
    axis: 0
  }
}
layer {
  name: "lstm2x_transform_14"
  type: "InnerProduct"
  bottom: "h_conted_13"
  top: "W_hc_h_13"
  param {
    name: "W_hc"
  }
  inner_product_param {
    num_output: 400
    bias_term: false
    weight_filler {
      type: "xavier"
    }
    axis: 2
  }
}
layer {
  name: "lstm2x_gate_input_14"
  type: "Eltwise"
  bottom: "W_hc_h_13"
  bottom: "W_xc_x_14"
  top: "gate_input_14"
  eltwise_param {
    operation: SUM
  }
}
layer {
  name: "lstm2x_unit_14"
  type: "LSTMUnit"
  bottom: "c_13"
  bottom: "gate_input_14"
  bottom: "cont_14"
  top: "c_14"
  top: "h_14"
}
layer {
  name: "lstm2x_h_conted_14"
  type: "Scale"
  bottom: "h_14"
  bottom: "cont_15"
  top: "h_conted_14"
  scale_param {
    axis: 0
  }
}
layer {
  name: "lstm2x_transform_15"
  type: "InnerProduct"
  bottom: "h_conted_14"
  top: "W_hc_h_14"
  param {
    name: "W_hc"
  }
  inner_product_param {
    num_output: 400
    bias_term: false
    weight_filler {
      type: "xavier"
    }
    axis: 2
  }
}
layer {
  name: "lstm2x_gate_input_15"
  type: "Eltwise"
  bottom: "W_hc_h_14"
  bottom: "W_xc_x_15"
  top: "gate_input_15"
  eltwise_param {
    operation: SUM
  }
}
layer {
  name: "lstm2x_unit_15"
  type: "LSTMUnit"
  bottom: "c_14"
  bottom: "gate_input_15"
  bottom: "cont_15"
  top: "c_15"
  top: "h_15"
}
layer {
  name: "lstm2x_h_conted_15"
  type: "Scale"
  bottom: "h_15"
  bottom: "cont_16"
  top: "h_conted_15"
  scale_param {
    axis: 0
  }
}
layer {
  name: "lstm2x_transform_16"
  type: "InnerProduct"
  bottom: "h_conted_15"
  top: "W_hc_h_15"
  param {
    name: "W_hc"
  }
  inner_product_param {
    num_output: 400
    bias_term: false
    weight_filler {
      type: "xavier"
    }
    axis: 2
  }
}
layer {
  name: "lstm2x_gate_input_16"
  type: "Eltwise"
  bottom: "W_hc_h_15"
  bottom: "W_xc_x_16"
  top: "gate_input_16"
  eltwise_param {
    operation: SUM
  }
}
layer {
  name: "lstm2x_unit_16"
  type: "LSTMUnit"
  bottom: "c_15"
  bottom: "gate_input_16"
  bottom: "cont_16"
  top: "c_16"
  top: "h_16"
}
layer {
  name: "lstm2x_"
  type: "Split"
  bottom: "c_16"
  top: "c_T"
}
layer {
  name: "lstm2x_h_concat"
  type: "Concat"
  bottom: "h_1"
  bottom: "h_2"
  bottom: "h_3"
  bottom: "h_4"
  bottom: "h_5"
  bottom: "h_6"
  bottom: "h_7"
  bottom: "h_8"
  bottom: "h_9"
  bottom: "h_10"
  bottom: "h_11"
  bottom: "h_12"
  bottom: "h_13"
  bottom: "h_14"
  bottom: "h_15"
  bottom: "h_16"
  top: "h"
  concat_param {
    axis: 0
  }
}
layer {
  name: "h_pseudoloss"
  type: "Reduction"
  bottom: "h"
  top: "h_pseudoloss"
  loss_weight: 1
}
I0520 11:16:08.534562  5291 layer_factory.hpp:77] Creating layer lstm2x_
I0520 11:16:08.534571  5291 net.cpp:100] Creating Layer lstm2x_
I0520 11:16:08.534575  5291 net.cpp:408] lstm2x_ -> x
I0520 11:16:08.534582  5291 net.cpp:408] lstm2x_ -> cont
I0520 11:16:08.534624  5291 net.cpp:150] Setting up lstm2x_
I0520 11:16:08.534628  5291 net.cpp:157] Top shape: 16 128 512 4 (4194304)
I0520 11:16:08.534631  5291 net.cpp:157] Top shape: 16 128 (2048)
I0520 11:16:08.534634  5291 net.cpp:165] Memory required for data: 16785408
I0520 11:16:08.534636  5291 layer_factory.hpp:77] Creating layer lstm2x_
I0520 11:16:08.534641  5291 net.cpp:100] Creating Layer lstm2x_
I0520 11:16:08.534651  5291 net.cpp:408] lstm2x_ -> c_0
I0520 11:16:08.534657  5291 net.cpp:408] lstm2x_ -> h_0
I0520 11:16:08.534685  5291 net.cpp:150] Setting up lstm2x_
I0520 11:16:08.534689  5291 net.cpp:157] Top shape: 1 128 100 (12800)
I0520 11:16:08.534693  5291 net.cpp:157] Top shape: 1 128 100 (12800)
I0520 11:16:08.534695  5291 net.cpp:165] Memory required for data: 16887808
I0520 11:16:08.534698  5291 layer_factory.hpp:77] Creating layer lstm2x_cont_slice
I0520 11:16:08.534703  5291 net.cpp:100] Creating Layer lstm2x_cont_slice
I0520 11:16:08.534705  5291 net.cpp:434] lstm2x_cont_slice <- cont
I0520 11:16:08.534709  5291 net.cpp:408] lstm2x_cont_slice -> cont_1
I0520 11:16:08.534715  5291 net.cpp:408] lstm2x_cont_slice -> cont_2
…
I0520 11:16:08.574156  5291 net.cpp:228] lstm1x_ does not need backward computation.
I0520 11:16:08.574159  5291 net.cpp:270] This network produces output c_T
I0520 11:16:08.574163  5291 net.cpp:270] This network produces output h_pseudoloss
I0520 11:16:08.574416  5291 net.cpp:283] Network initialization done.
I0520 11:16:08.574586  5291 recurrent_layer.cpp:150] Adding parameter 0: W_xc
I0520 11:16:08.574590  5291 recurrent_layer.cpp:150] Adding parameter 1: b_c
I0520 11:16:08.574594  5291 recurrent_layer.cpp:150] Adding parameter 2: W_hc
I0520 11:16:08.574867  5291 net.cpp:150] Setting up lstm1x
I0520 11:16:08.574875  5291 net.cpp:157] Top shape: 16 128 100 (204800)
I0520 11:16:08.574879  5291 net.cpp:165] Memory required for data: 1841695232
I0520 11:16:08.574887  5291 layer_factory.hpp:77] Creating layer merge_lstm_rlstmx
I0520 11:16:08.574893  5291 net.cpp:100] Creating Layer merge_lstm_rlstmx
I0520 11:16:08.574898  5291 net.cpp:434] merge_lstm_rlstmx <- lstm1x
I0520 11:16:08.574903  5291 net.cpp:434] merge_lstm_rlstmx <- rlstmx
I0520 11:16:08.574908  5291 net.cpp:408] merge_lstm_rlstmx -> merge_lstm_rlstmx
I0520 11:16:08.574931  5291 net.cpp:150] Setting up merge_lstm_rlstmx
I0520 11:16:08.574935  5291 net.cpp:157] Top shape: 16 128 200 (409600)
I0520 11:16:08.574939  5291 net.cpp:165] Memory required for data: 1843333632
I0520 11:16:08.574941  5291 layer_factory.hpp:77] Creating layer fc1x
I0520 11:16:08.574947  5291 net.cpp:100] Creating Layer fc1x
I0520 11:16:08.574950  5291 net.cpp:434] fc1x <- merge_lstm_rlstmx
I0520 11:16:08.574955  5291 net.cpp:408] fc1x -> fc1x
I0520 11:16:08.575127  5291 net.cpp:150] Setting up fc1x
I0520 11:16:08.575132  5291 net.cpp:157] Top shape: 16 128 66 (135168)
I0520 11:16:08.575135  5291 net.cpp:165] Memory required for data: 1843874304
I0520 11:16:08.575140  5291 layer_factory.hpp:77] Creating layer fc1x_fc1x_0_split
I0520 11:16:08.575145  5291 net.cpp:100] Creating Layer fc1x_fc1x_0_split
I0520 11:16:08.575148  5291 net.cpp:434] fc1x_fc1x_0_split <- fc1x
I0520 11:16:08.575152  5291 net.cpp:408] fc1x_fc1x_0_split -> fc1x_fc1x_0_split_0
I0520 11:16:08.575158  5291 net.cpp:408] fc1x_fc1x_0_split -> fc1x_fc1x_0_split_1
I0520 11:16:08.575186  5291 net.cpp:150] Setting up fc1x_fc1x_0_split
I0520 11:16:08.575189  5291 net.cpp:157] Top shape: 16 128 66 (135168)
I0520 11:16:08.575193  5291 net.cpp:157] Top shape: 16 128 66 (135168)
I0520 11:16:08.575196  5291 net.cpp:165] Memory required for data: 1844955648
I0520 11:16:08.575199  5291 layer_factory.hpp:77] Creating layer ctcloss
I0520 11:16:08.575204  5291 net.cpp:100] Creating Layer ctcloss
I0520 11:16:08.576561  5291 net.cpp:434] ctcloss <- fc1x_fc1x_0_split_0
I0520 11:16:08.576575  5291 net.cpp:434] ctcloss <- label_data_1_split_0
I0520 11:16:08.576581  5291 net.cpp:408] ctcloss -> ctcloss
I0520 11:16:08.576627  5291 net.cpp:150] Setting up ctcloss
I0520 11:16:08.576633  5291 net.cpp:157] Top shape: (1)
I0520 11:16:08.576653  5291 net.cpp:160]     with loss weight 1
I0520 11:16:08.576663  5291 net.cpp:165] Memory required for data: 1844955652
I0520 11:16:08.576668  5291 layer_factory.hpp:77] Creating layer acc
I0520 11:16:08.576680  5291 net.cpp:100] Creating Layer acc
I0520 11:16:08.576683  5291 net.cpp:434] acc <- fc1x_fc1x_0_split_1
I0520 11:16:08.576687  5291 net.cpp:434] acc <- label_data_1_split_1
I0520 11:16:08.576692  5291 net.cpp:408] acc -> acc
I0520 11:16:08.576720  5291 net.cpp:150] Setting up acc
I0520 11:16:08.576725  5291 net.cpp:157] Top shape: 1 2 1 1 (2)
I0520 11:16:08.576727  5291 net.cpp:165] Memory required for data: 1844955660
I0520 11:16:08.576730  5291 net.cpp:228] acc does not need backward computation.
I0520 11:16:08.576735  5291 net.cpp:226] ctcloss needs backward computation.
I0520 11:16:08.576738  5291 net.cpp:226] fc1x_fc1x_0_split needs backward computation.
I0520 11:16:08.576741  5291 net.cpp:226] fc1x needs backward computation.
…
