…
I0521 09:36:43.944380  3675 net.cpp:322] The NetState phase (0) differed from the phase (1) specified by a rule in layer acc
I0521 09:36:43.945492  3675 net.cpp:58] Initializing net from parameters: 
state {
  phase: TRAIN
  level: 0
  stage: ""
}
layer {
  name: "data"
  type: "HDF5Data"
  top: "data"
  top: "label"
  include {
    phase: TRAIN
  }
  hdf5_data_param {
    source: "/home/zhuyipin/DATASET/ccpd/bbox_caffe_data_gen/training.list"
    batch_size: 128
  }
}
layer {
  name: "indicator"
  type: "ContinuationIndicator"
  top: "indicator"
  continuation_indicator_param {
    time_step: 16
    batch_size: 128
  }
}
layer {
  name: "data_bn"
  type: "BatchNorm"
  bottom: "data"
  top: "data_bn"
}
layer {
  name: "data_scale"
  type: "Scale"
  bottom: "data_bn"
  top: "data_bn"
  param {
    lr_mult: 1
    decay_mult: 1
  }
  param {
    lr_mult: 2
    decay_mult: 1
  }
  scale_param {
    bias_term: true
  }
}
layer {
  name: "conv1"
  type: "Convolution"
  bottom: "data_bn"
  top: "conv1"
  param {
    lr_mult: 1
    decay_mult: 1
  }
  param {
    lr_mult: 2
    decay_mult: 1
  }
  convolution_param {
    num_output: 64
    pad: 3
    kernel_size: 7
    stride: 2
    weight_filler {
      type: "msra"
      variance_norm: FAN_OUT
    }
    bias_filler {
      type: "constant"
      value: 0
    }
  }
}
layer {
  name: "conv1_bn"
  type: "BatchNorm"
  bottom: "conv1"
  top: "conv1"
}
layer {
  name: "conv1_scale"
  type: "Scale"
  bottom: "conv1"
  top: "conv1"
  param {
    lr_mult: 1
    decay_mult: 1
  }
  param {
    lr_mult: 2
    decay_mult: 1
  }
  scale_param {
    bias_term: true
  }
}
layer {
  name: "conv1_relu"
  type: "ReLU"
  bottom: "conv1"
  top: "conv1"
}
layer {
  name: "conv1_pool"
  type: "Pooling"
  bottom: "conv1"
  top: "conv1_pool"
  pooling_param {
    kernel_size: 3
    stride: 2
  }
}
layer {
  name: "layer_64_1_conv1"
  type: "Convolution"
  bottom: "conv1_pool"
  top: "layer_64_1_conv1"
  param {
    lr_mult: 1
    decay_mult: 1
  }
  convolution_param {
    num_output: 64
    bias_term: false
    pad: 0
    kernel_size: 1
    stride: 1
    weight_filler {
      type: "msra"
    }
    bias_filler {
      type: "constant"
      value: 0
    }
  }
}
layer {
  name: "layer_64_1_bn2"
  type: "BatchNorm"
  bottom: "layer_64_1_conv1"
  top: "layer_64_1_conv1"
}
layer {
  name: "layer_64_1_scale2"
  type: "Scale"
  bottom: "layer_64_1_conv1"
  top: "layer_64_1_conv1"
  param {
    lr_mult: 1
    decay_mult: 1
  }
  param {
    lr_mult: 2
    decay_mult: 1
  }
  scale_param {
    bias_term: true
  }
}
layer {
  name: "layer_64_1_relu2"
  type: "ReLU"
  bottom: "layer_64_1_conv1"
  top: "layer_64_1_conv1"
}
layer {
  name: "layer_64_1_conv2"
  type: "Convolution"
  bottom: "layer_64_1_conv1"
  top: "layer_64_1_conv2"
  param {
    lr_mult: 1
    decay_mult: 1
  }
  convolution_param {
    num_output: 64
    bias_term: false
    pad: 1
    kernel_size: 3
    stride: 1
    weight_filler {
      type: "msra"
    }
    bias_filler {
      type: "constant"
      value: 0
    }
  }
}
layer {
  name: "layer_64_1_bn3"
  type: "BatchNorm"
  bottom: "layer_64_1_conv2"
  top: "layer_64_1_conv2"
}
layer {
  name: "layer_64_1_scale3"
  type: "Scale"
  bottom: "layer_64_1_conv2"
  top: "layer_64_1_conv2"
  param {
    lr_mult: 1
    decay_mult: 1
  }
  param {
    lr_mult: 2
    decay_mult: 1
  }
  scale_param {
    bias_term: true
  }
}
layer {
  name: "layer_64_1_relu3"
  type: "ReLU"
  bottom: "layer_64_1_conv2"
  top: "layer_64_1_conv2"
}
layer {
  name: "layer_64_1_conv3"
  type: "Convolution"
  bottom: "layer_64_1_conv2"
  top: "layer_64_1_conv3"
  param {
    lr_mult: 1
    decay_mult: 1
  }
  convolution_param {
    num_output: 256
    bias_term: false
    pad: 0
    kernel_size: 1
    stride: 1
    weight_filler {
      type: "msra"
    }
    bias_filler {
      type: "constant"
      value: 0
    }
  }
}
layer {
  name: "layer_64_1_conv_expand"
  type: "Convolution"
  bottom: "layer_64_1_conv1"
  top: "layer_64_1_conv_expand"
  param {
    lr_mult: 1
    decay_mult: 1
  }
  convolution_param {
    num_output: 256
    bias_term: false
    pad: 0
    kernel_size: 1
    stride: 1
    weight_filler {
      type: "msra"
    }
    bias_filler {
      type: "constant"
      value: 0
    }
  }
}
layer {
  name: "layer_64_1_sum"
  type: "Eltwise"
  bottom: "layer_64_1_conv3"
  bottom: "layer_64_1_conv_expand"
  top: "layer_64_1_sum"
}
layer {
  name: "layer_64_2_bn1"
  type: "BatchNorm"
  bottom: "layer_64_1_sum"
  top: "layer_64_2_bn1"
}
layer {
  name: "layer_64_2_scale1"
  type: "Scale"
  bottom: "layer_64_2_bn1"
  top: "layer_64_2_bn1"
  param {
    lr_mult: 1
    decay_mult: 1
  }
  param {
    lr_mult: 2
    decay_mult: 1
  }
  scale_param {
    bias_term: true
  }
}
layer {
  name: "layer_64_2_relu1"
  type: "ReLU"
  bottom: "layer_64_2_bn1"
  top: "layer_64_2_bn1"
}
layer {
  name: "layer_64_2_conv1"
  type: "Convolution"
  bottom: "layer_64_2_bn1"
  top: "layer_64_2_conv1"
  param {
    lr_mult: 1
    decay_mult: 1
  }
  convolution_param {
    num_output: 64
    bias_term: false
    pad: 0
    kernel_size: 1
    stride: 1
    weight_filler {
      type: "msra"
    }
    bias_filler {
      type: "constant"
      value: 0
    }
  }
}
layer {
  name: "layer_64_2_bn2"
  type: "BatchNorm"
  bottom: "layer_64_2_conv1"
  top: "layer_64_2_conv1"
}
layer {
  name: "layer_64_2_scale2"
  type: "Scale"
  bottom: "layer_64_2_conv1"
  top: "layer_64_2_conv1"
  param {
    lr_mult: 1
    decay_mult: 1
  }
  param {
    lr_mult: 2
    decay_mult: 1
  }
  scale_param {
    bias_term: true
  }
}
layer {
  name: "layer_64_2_relu2"
  type: "ReLU"
  bottom: "layer_64_2_conv1"
  top: "layer_64_2_conv1"
}
layer {
  name: "layer_64_2_conv2"
  type: "Convolution"
  bottom: "layer_64_2_conv1"
  top: "layer_64_2_conv2"
  param {
    lr_mult: 1
    decay_mult: 1
  }
  convolution_param {
    num_output: 64
    bias_term: false
    pad: 1
    kernel_size: 3
    stride: 1
    weight_filler {
      type: "msra"
    }
    bias_filler {
      type: "constant"
      value: 0
    }
  }
}
layer {
  name: "layer_64_2_bn3"
  type: "BatchNorm"
  bottom: "layer_64_2_conv2"
  top: "layer_64_2_conv2"
}
layer {
  name: "layer_64_2_scale3"
  type: "Scale"
  bottom: "layer_64_2_conv2"
  top: "layer_64_2_conv2"
  param {
    lr_mult: 1
    decay_mult: 1
  }
  param {
    lr_mult: 2
    decay_mult: 1
  }
  scale_param {
    bias_term: true
  }
}
layer {
  name: "layer_64_2_relu3"
  type: "ReLU"
  bottom: "layer_64_2_conv2"
  top: "layer_64_2_conv2"
}
layer {
  name: "layer_64_2_conv3"
  type: "Convolution"
  bottom: "layer_64_2_conv2"
  top: "layer_64_2_conv3"
  param {
    lr_mult: 1
    decay_mult: 1
  }
  convolution_param {
    num_output: 256
    bias_term: false
    pad: 0
    kernel_size: 1
    stride: 1
    weight_filler {
      type: "msra"
    }
    bias_filler {
      type: "constant"
      value: 0
    }
  }
}
layer {
  name: "layer_64_2_sum"
  type: "Eltwise"
  bottom: "layer_64_2_conv3"
  bottom: "layer_64_1_sum"
  top: "layer_64_2_sum"
}
layer {
  name: "layer_64_3_bn1"
  type: "BatchNorm"
  bottom: "layer_64_2_sum"
  top: "layer_64_3_bn1"
}
layer {
  name: "layer_64_3_scale1"
  type: "Scale"
  bottom: "layer_64_3_bn1"
  top: "layer_64_3_bn1"
  param {
    lr_mult: 1
    decay_mult: 1
  }
  param {
    lr_mult: 2
    decay_mult: 1
  }
  scale_param {
    bias_term: true
  }
}
layer {
  name: "layer_64_3_relu1"
  type: "ReLU"
  bottom: "layer_64_3_bn1"
  top: "layer_64_3_bn1"
}
layer {
  name: "layer_64_3_conv1"
  type: "Convolution"
  bottom: "layer_64_3_bn1"
  top: "layer_64_3_conv1"
  param {
    lr_mult: 1
    decay_mult: 1
  }
  convolution_param {
    num_output: 64
    bias_term: false
    pad: 0
    kernel_size: 1
    stride: 1
    weight_filler {
      type: "msra"
    }
    bias_filler {
      type: "constant"
      value: 0
    }
  }
}
layer {
  name: "layer_64_3_bn2"
  type: "BatchNorm"
  bottom: "layer_64_3_conv1"
  top: "layer_64_3_conv1"
}
layer {
  name: "layer_64_3_scale2"
  type: "Scale"
  bottom: "layer_64_3_conv1"
  top: "layer_64_3_conv1"
  param {
    lr_mult: 1
    decay_mult: 1
  }
  param {
    lr_mult: 2
    decay_mult: 1
  }
  scale_param {
    bias_term: true
  }
}
layer {
  name: "layer_64_3_relu2"
  type: "ReLU"
  bottom: "layer_64_3_conv1"
  top: "layer_64_3_conv1"
}
layer {
  name: "layer_64_3_conv2"
  type: "Convolution"
  bottom: "layer_64_3_conv1"
  top: "layer_64_3_conv2"
  param {
    lr_mult: 1
    decay_mult: 1
  }
  convolution_param {
    num_output: 64
    bias_term: false
    pad: 1
    kernel_size: 3
    stride: 1
    weight_filler {
      type: "msra"
    }
    bias_filler {
      type: "constant"
      value: 0
    }
  }
}
layer {
  name: "layer_64_3_bn3"
  type: "BatchNorm"
  bottom: "layer_64_3_conv2"
  top: "layer_64_3_conv2"
}
layer {
  name: "layer_64_3_scale3"
  type: "Scale"
  bottom: "layer_64_3_conv2"
  top: "layer_64_3_conv2"
  param {
    lr_mult: 1
    decay_mult: 1
  }
  param {
    lr_mult: 2
    decay_mult: 1
  }
  scale_param {
    bias_term: true
  }
}
layer {
  name: "layer_64_3_relu3"
  type: "ReLU"
  bottom: "layer_64_3_conv2"
  top: "layer_64_3_conv2"
}
layer {
  name: "layer_64_3_conv3"
  type: "Convolution"
  bottom: "layer_64_3_conv2"
  top: "layer_64_3_conv3"
  param {
    lr_mult: 1
    decay_mult: 1
  }
  convolution_param {
    num_output: 256
    bias_term: false
    pad: 0
    kernel_size: 1
    stride: 1
    weight_filler {
      type: "msra"
    }
    bias_filler {
      type: "constant"
      value: 0
    }
  }
}
layer {
  name: "layer_64_3_sum"
  type: "Eltwise"
  bottom: "layer_64_3_conv3"
  bottom: "layer_64_2_sum"
  top: "layer_64_3_sum"
}
layer {
  name: "layer_128_1_bn1"
  type: "BatchNorm"
  bottom: "layer_64_3_sum"
  top: "layer_128_1_bn1"
}
layer {
  name: "layer_128_1_scale1"
  type: "Scale"
  bottom: "layer_128_1_bn1"
  top: "layer_128_1_bn1"
  param {
    lr_mult: 1
    decay_mult: 1
  }
  param {
    lr_mult: 2
    decay_mult: 1
  }
  scale_param {
    bias_term: true
  }
}
layer {
  name: "layer_128_1_relu1"
  type: "ReLU"
  bottom: "layer_128_1_bn1"
  top: "layer_128_1_bn1"
}
layer {
  name: "layer_128_1_conv1"
  type: "Convolution"
  bottom: "layer_128_1_bn1"
  top: "layer_128_1_conv1"
  param {
    lr_mult: 1
    decay_mult: 1
  }
  convolution_param {
    num_output: 128
    bias_term: false
    pad: 0
    kernel_size: 1
    stride: 1
    weight_filler {
      type: "msra"
    }
    bias_filler {
      type: "constant"
      value: 0
    }
  }
}
layer {
  name: "layer_128_1_bn2"
  type: "BatchNorm"
  bottom: "layer_128_1_conv1"
  top: "layer_128_1_conv1"
}
layer {
  name: "layer_128_1_scale2"
  type: "Scale"
  bottom: "layer_128_1_conv1"
  top: "layer_128_1_conv1"
  param {
    lr_mult: 1
    decay_mult: 1
  }
  param {
    lr_mult: 2
    decay_mult: 1
  }
  scale_param {
    bias_term: true
  }
}
layer {
  name: "layer_128_1_relu2"
  type: "ReLU"
  bottom: "layer_128_1_conv1"
  top: "layer_128_1_conv1"
}
layer {
  name: "layer_128_1_conv2"
  type: "Convolution"
  bottom: "layer_128_1_conv1"
  top: "layer_128_1_conv2"
  param {
    lr_mult: 1
    decay_mult: 1
  }
  convolution_param {
    num_output: 128
    bias_term: false
    pad: 1
    kernel_size: 3
    stride: 2
    weight_filler {
      type: "msra"
    }
    bias_filler {
      type: "constant"
      value: 0
    }
  }
}
layer {
  name: "layer_128_1_bn3"
  type: "BatchNorm"
  bottom: "layer_128_1_conv2"
  top: "layer_128_1_conv2"
}
layer {
  name: "layer_128_1_scale3"
  type: "Scale"
  bottom: "layer_128_1_conv2"
  top: "layer_128_1_conv2"
  param {
    lr_mult: 1
    decay_mult: 1
  }
  param {
    lr_mult: 2
    decay_mult: 1
  }
  scale_param {
    bias_term: true
  }
}
layer {
  name: "layer_128_1_relu3"
  type: "ReLU"
  bottom: "layer_128_1_conv2"
  top: "layer_128_1_conv2"
}
layer {
  name: "layer_128_1_conv3"
  type: "Convolution"
  bottom: "layer_128_1_conv2"
  top: "layer_128_1_conv3"
  param {
    lr_mult: 1
    decay_mult: 1
  }
  convolution_param {
    num_output: 512
    bias_term: false
    pad: 0
    kernel_size: 1
    stride: 1
    weight_filler {
      type: "msra"
    }
    bias_filler {
      type: "constant"
      value: 0
    }
  }
}
layer {
  name: "layer_128_1_conv_expand"
  type: "Convolution"
  bottom: "layer_128_1_bn1"
  top: "layer_128_1_conv_expand"
  param {
    lr_mult: 1
    decay_mult: 1
  }
  convolution_param {
    num_output: 512
    bias_term: false
    pad: 0
    kernel_size: 1
    stride: 2
    weight_filler {
      type: "msra"
    }
    bias_filler {
      type: "constant"
      value: 0
    }
  }
}
layer {
  name: "layer_128_1_sum"
  type: "Eltwise"
  bottom: "layer_128_1_conv3"
  bottom: "layer_128_1_conv_expand"
  top: "layer_128_1_sum"
}
layer {
  name: "layer_128_2_bn1"
  type: "BatchNorm"
  bottom: "layer_128_1_sum"
  top: "layer_128_2_bn1"
}
layer {
  name: "layer_128_2_scale1"
  type: "Scale"
  bottom: "layer_128_2_bn1"
  top: "layer_128_2_bn1"
  param {
    lr_mult: 1
    decay_mult: 1
  }
  param {
    lr_mult: 2
    decay_mult: 1
  }
  scale_param {
    bias_term: true
  }
}
layer {
  name: "layer_128_2_relu1"
  type: "ReLU"
  bottom: "layer_128_2_bn1"
  top: "layer_128_2_bn1"
}
layer {
  name: "layer_128_2_conv1"
  type: "Convolution"
  bottom: "layer_128_2_bn1"
  top: "layer_128_2_conv1"
  param {
    lr_mult: 1
    decay_mult: 1
  }
  convolution_param {
    num_output: 128
    bias_term: false
    pad: 0
    kernel_size: 1
    stride: 1
    weight_filler {
      type: "msra"
    }
    bias_filler {
      type: "constant"
      value: 0
    }
  }
}
layer {
  name: "layer_128_2_bn2"
  type: "BatchNorm"
  bottom: "layer_128_2_conv1"
  top: "layer_128_2_conv1"
}
layer {
  name: "layer_128_2_scale2"
  type: "Scale"
  bottom: "layer_128_2_conv1"
  top: "layer_128_2_conv1"
  param {
    lr_mult: 1
    decay_mult: 1
  }
  param {
    lr_mult: 2
    decay_mult: 1
  }
  scale_param {
    bias_term: true
  }
}
layer {
  name: "layer_128_2_relu2"
  type: "ReLU"
  bottom: "layer_128_2_conv1"
  top: "layer_128_2_conv1"
}
layer {
  name: "layer_128_2_conv2"
  type: "Convolution"
  bottom: "layer_128_2_conv1"
  top: "layer_128_2_conv2"
  param {
    lr_mult: 1
    decay_mult: 1
  }
  convolution_param {
    num_output: 128
    bias_term: false
    pad: 1
    kernel_size: 3
    stride: 1
    weight_filler {
      type: "msra"
    }
    bias_filler {
      type: "constant"
      value: 0
    }
  }
}
layer {
  name: "layer_128_2_bn3"
  type: "BatchNorm"
  bottom: "layer_128_2_conv2"
  top: "layer_128_2_conv2"
}
layer {
  name: "layer_128_2_scale3"
  type: "Scale"
  bottom: "layer_128_2_conv2"
  top: "layer_128_2_conv2"
  param {
    lr_mult: 1
    decay_mult: 1
  }
  param {
    lr_mult: 2
    decay_mult: 1
  }
  scale_param {
    bias_term: true
  }
}
layer {
  name: "layer_128_2_relu3"
  type: "ReLU"
  bottom: "layer_128_2_conv2"
  top: "layer_128_2_conv2"
}
layer {
  name: "layer_128_2_conv3"
  type: "Convolution"
  bottom: "layer_128_2_conv2"
  top: "layer_128_2_conv3"
  param {
    lr_mult: 1
    decay_mult: 1
  }
  convolution_param {
    num_output: 512
    bias_term: false
    pad: 0
    kernel_size: 1
    stride: 1
    weight_filler {
      type: "msra"
    }
    bias_filler {
      type: "constant"
      value: 0
    }
  }
}
layer {
  name: "layer_128_2_sum"
  type: "Eltwise"
  bottom: "layer_128_2_conv3"
  bottom: "layer_128_1_sum"
  top: "layer_128_2_sum"
}
layer {
  name: "layer_128_3_bn1"
  type: "BatchNorm"
  bottom: "layer_128_2_sum"
  top: "layer_128_3_bn1"
}
layer {
  name: "layer_128_3_scale1"
  type: "Scale"
  bottom: "layer_128_3_bn1"
  top: "layer_128_3_bn1"
  param {
    lr_mult: 1
    decay_mult: 1
  }
  param {
    lr_mult: 2
    decay_mult: 1
  }
  scale_param {
    bias_term: true
  }
}
layer {
  name: "layer_128_3_relu1"
  type: "ReLU"
  bottom: "layer_128_3_bn1"
  top: "layer_128_3_bn1"
}
layer {
  name: "layer_128_3_conv1"
  type: "Convolution"
  bottom: "layer_128_3_bn1"
  top: "layer_128_3_conv1"
  param {
    lr_mult: 1
    decay_mult: 1
  }
  convolution_param {
    num_output: 128
    bias_term: false
    pad: 0
    kernel_size: 1
    stride: 1
    weight_filler {
      type: "msra"
    }
    bias_filler {
      type: "constant"
      value: 0
    }
  }
}
layer {
  name: "layer_128_3_bn2"
  type: "BatchNorm"
  bottom: "layer_128_3_conv1"
  top: "layer_128_3_conv1"
}
layer {
  name: "layer_128_3_scale2"
  type: "Scale"
  bottom: "layer_128_3_conv1"
  top: "layer_128_3_conv1"
  param {
    lr_mult: 1
    decay_mult: 1
  }
  param {
    lr_mult: 2
    decay_mult: 1
  }
  scale_param {
    bias_term: true
  }
}
layer {
  name: "layer_128_3_relu2"
  type: "ReLU"
  bottom: "layer_128_3_conv1"
  top: "layer_128_3_conv1"
}
layer {
  name: "layer_128_3_conv2"
  type: "Convolution"
  bottom: "layer_128_3_conv1"
  top: "layer_128_3_conv2"
  param {
    lr_mult: 1
    decay_mult: 1
  }
  convolution_param {
    num_output: 128
    bias_term: false
    pad: 1
    kernel_size: 3
    stride: 1
    weight_filler {
      type: "msra"
    }
    bias_filler {
      type: "constant"
      value: 0
    }
  }
}
layer {
  name: "layer_128_3_bn3"
  type: "BatchNorm"
  bottom: "layer_128_3_conv2"
  top: "layer_128_3_conv2"
}
layer {
  name: "layer_128_3_scale3"
  type: "Scale"
  bottom: "layer_128_3_conv2"
  top: "layer_128_3_conv2"
  param {
    lr_mult: 1
    decay_mult: 1
  }
  param {
    lr_mult: 2
    decay_mult: 1
  }
  scale_param {
    bias_term: true
  }
}
layer {
  name: "layer_128_3_relu3"
  type: "ReLU"
  bottom: "layer_128_3_conv2"
  top: "layer_128_3_conv2"
}
layer {
  name: "layer_128_3_conv3"
  type: "Convolution"
  bottom: "layer_128_3_conv2"
  top: "layer_128_3_conv3"
  param {
    lr_mult: 1
    decay_mult: 1
  }
  convolution_param {
    num_output: 512
    bias_term: false
    pad: 0
    kernel_size: 1
    stride: 1
    weight_filler {
      type: "msra"
    }
    bias_filler {
      type: "constant"
      value: 0
    }
  }
}
layer {
  name: "layer_128_3_sum"
  type: "Eltwise"
  bottom: "layer_128_3_conv3"
  bottom: "layer_128_2_sum"
  top: "layer_128_3_sum"
}
layer {
  name: "layer_128_4_bn1"
  type: "BatchNorm"
  bottom: "layer_128_3_sum"
  top: "layer_128_4_bn1"
}
layer {
  name: "layer_128_4_scale1"
  type: "Scale"
  bottom: "layer_128_4_bn1"
  top: "layer_128_4_bn1"
  param {
    lr_mult: 1
    decay_mult: 1
  }
  param {
    lr_mult: 2
    decay_mult: 1
  }
  scale_param {
    bias_term: true
  }
}
layer {
  name: "layer_128_4_relu1"
  type: "ReLU"
  bottom: "layer_128_4_bn1"
  top: "layer_128_4_bn1"
}
layer {
  name: "layer_128_4_conv1"
  type: "Convolution"
  bottom: "layer_128_4_bn1"
  top: "layer_128_4_conv1"
  param {
    lr_mult: 1
    decay_mult: 1
  }
  convolution_param {
    num_output: 128
    bias_term: false
    pad: 0
    kernel_size: 1
    stride: 1
    weight_filler {
      type: "msra"
    }
    bias_filler {
      type: "constant"
      value: 0
    }
  }
}
layer {
  name: "layer_128_4_bn2"
  type: "BatchNorm"
  bottom: "layer_128_4_conv1"
  top: "layer_128_4_conv1"
}
layer {
  name: "layer_128_4_scale2"
  type: "Scale"
  bottom: "layer_128_4_conv1"
  top: "layer_128_4_conv1"
  param {
    lr_mult: 1
    decay_mult: 1
  }
  param {
    lr_mult: 2
    decay_mult: 1
  }
  scale_param {
    bias_term: true
  }
}
layer {
  name: "layer_128_4_relu2"
  type: "ReLU"
  bottom: "layer_128_4_conv1"
  top: "layer_128_4_conv1"
}
layer {
  name: "layer_128_4_conv2"
  type: "Convolution"
  bottom: "layer_128_4_conv1"
  top: "layer_128_4_conv2"
  param {
    lr_mult: 1
    decay_mult: 1
  }
  convolution_param {
    num_output: 128
    bias_term: false
    pad: 1
    kernel_size: 3
    stride: 1
    weight_filler {
      type: "msra"
    }
    bias_filler {
      type: "constant"
      value: 0
    }
  }
}
layer {
  name: "layer_128_4_bn3"
  type: "BatchNorm"
  bottom: "layer_128_4_conv2"
  top: "layer_128_4_conv2"
}
layer {
  name: "layer_128_4_scale3"
  type: "Scale"
  bottom: "layer_128_4_conv2"
  top: "layer_128_4_conv2"
  param {
    lr_mult: 1
    decay_mult: 1
  }
  param {
    lr_mult: 2
    decay_mult: 1
  }
  scale_param {
    bias_term: true
  }
}
layer {
  name: "layer_128_4_relu3"
  type: "ReLU"
  bottom: "layer_128_4_conv2"
  top: "layer_128_4_conv2"
}
layer {
  name: "layer_128_4_conv3"
  type: "Convolution"
  bottom: "layer_128_4_conv2"
  top: "layer_128_4_conv3"
  param {
    lr_mult: 1
    decay_mult: 1
  }
  convolution_param {
    num_output: 512
    bias_term: false
    pad: 0
    kernel_size: 1
    stride: 1
    weight_filler {
      type: "msra"
    }
    bias_filler {
      type: "constant"
      value: 0
    }
  }
}
layer {
  name: "layer_128_4_sum"
  type: "Eltwise"
  bottom: "layer_128_4_conv3"
  bottom: "layer_128_3_sum"
  top: "layer_128_4_sum"
}
layer {
  name: "last_bn"
  type: "BatchNorm"
  bottom: "layer_128_4_sum"
  top: "layer_128_4_sum"
}
layer {
  name: "last_scale"
  type: "Scale"
  bottom: "layer_128_4_sum"
  top: "layer_128_4_sum"
  param {
    lr_mult: 1
    decay_mult: 1
  }
  param {
    lr_mult: 2
    decay_mult: 1
  }
  scale_param {
    bias_term: true
  }
}
layer {
  name: "last_relu"
  type: "ReLU"
  bottom: "layer_128_4_sum"
  top: "layer_128_4_sum"
}
layer {
  name: "dropout"
  type: "Dropout"
  bottom: "layer_128_4_sum"
  top: "layer_128_4_sum"
  dropout_param {
    dropout_ratio: 0.7
  }
}
layer {
  name: "permuted_data"
  type: "Permute"
  bottom: "layer_128_4_sum"
  top: "permuted_data"
  permute_param {
    order: 3
    order: 0
    order: 1
    order: 2
  }
}
layer {
  name: "lstm-reverse1"
  type: "Reverse"
  bottom: "permuted_data"
  top: "rlstm_input"
  reverse_param {
    axis: 0
  }
}
layer {
  name: "lstm2x"
  type: "LSTM"
  bottom: "rlstm_input"
  bottom: "indicator"
  top: "lstm2x"
  recurrent_param {
    num_output: 100
    weight_filler {
      type: "xavier"
    }
    bias_filler {
      type: "constant"
      value: 0
    }
  }
}
layer {
  name: "lstm-reverse2"
  type: "Reverse"
  bottom: "lstm2x"
  top: "rlstmx"
  reverse_param {
    axis: 0
  }
}
layer {
  name: "lstm1x"
  type: "LSTM"
  bottom: "permuted_data"
  bottom: "indicator"
  top: "lstm1x"
  recurrent_param {
    num_output: 100
    weight_filler {
      type: "xavier"
    }
    bias_filler {
      type: "constant"
      value: 0
    }
  }
}
layer {
  name: "merge_lstm_rlstmx"
  type: "Concat"
  bottom: "lstm1x"
  bottom: "rlstmx"
  top: "merge_lstm_rlstmx"
  concat_param {
    axis: 2
  }
}
layer {
  name: "fc1x"
  type: "InnerProduct"
  bottom: "merge_lstm_rlstmx"
  top: "fc1x"
  param {
    lr_mult: 1
    decay_mult: 1
  }
  param {
    lr_mult: 2
    decay_mult: 0
  }
  inner_product_param {
    num_output: 66
    weight_filler {
      type: "xavier"
    }
    bias_filler {
      type: "constant"
      value: 0
    }
    axis: 2
  }
}
layer {
  name: "ctcloss"
  type: "WarpCTCLoss"
  bottom: "fc1x"
  bottom: "label"
  top: "ctcloss"
  loss_weight: 1
  ctc_loss_param {
    blank_index: 65
  }
}
I0521 09:36:43.946563  3675 layer_factory.hpp:77] Creating layer data
I0521 09:36:43.946599  3675 net.cpp:100] Creating Layer data
I0521 09:36:43.946609  3675 net.cpp:408] data -> data
I0521 09:36:43.946635  3675 net.cpp:408] data -> label
I0521 09:36:43.946647  3675 hdf5_data_layer.cpp:79] Loading list of HDF5 filenames from: /home/zhuyipin/DATASET/ccpd/bbox_caffe_data_gen/training.list
I0521 09:36:43.947023  3675 hdf5_data_layer.cpp:93] Number of HDF5 files: 10
I0521 09:36:43.962225  3675 hdf5.cpp:32] Datatype class: H5T_FLOAT
I0521 09:36:44.329705  3675 net.cpp:150] Setting up data
I0521 09:36:44.329756  3675 net.cpp:157] Top shape: 128 3 32 128 (1572864)
I0521 09:36:44.329761  3675 net.cpp:157] Top shape: 128 7 (896)
I0521 09:36:44.329763  3675 net.cpp:165] Memory required for data: 6295040
I0521 09:36:44.329787  3675 layer_factory.hpp:77] Creating layer indicator
I0521 09:36:44.329798  3675 net.cpp:100] Creating Layer indicator
I0521 09:36:44.329802  3675 net.cpp:408] indicator -> indicator
I0521 09:36:44.329826  3675 net.cpp:150] Setting up indicator
I0521 09:36:44.329829  3675 net.cpp:157] Top shape: 16 128 (2048)
I0521 09:36:44.329833  3675 net.cpp:165] Memory required for data: 6303232
I0521 09:36:44.329834  3675 layer_factory.hpp:77] Creating layer indicator_indicator_0_split
I0521 09:36:44.329839  3675 net.cpp:100] Creating Layer indicator_indicator_0_split
I0521 09:36:44.329843  3675 net.cpp:434] indicator_indicator_0_split <- indicator
I0521 09:36:44.329854  3675 net.cpp:408] indicator_indicator_0_split -> indicator_indicator_0_split_0
I0521 09:36:44.329859  3675 net.cpp:408] indicator_indicator_0_split -> indicator_indicator_0_split_1
I0521 09:36:44.329879  3675 net.cpp:150] Setting up indicator_indicator_0_split
I0521 09:36:44.329882  3675 net.cpp:157] Top shape: 16 128 (2048)
I0521 09:36:44.329885  3675 net.cpp:157] Top shape: 16 128 (2048)
I0521 09:36:44.329886  3675 net.cpp:165] Memory required for data: 6319616
I0521 09:36:44.329890  3675 layer_factory.hpp:77] Creating layer data_bn
I0521 09:36:44.329895  3675 net.cpp:100] Creating Layer data_bn
I0521 09:36:44.329896  3675 net.cpp:434] data_bn <- data
I0521 09:36:44.329900  3675 net.cpp:408] data_bn -> data_bn
I0521 09:36:44.330032  3675 net.cpp:150] Setting up data_bn
I0521 09:36:44.330039  3675 net.cpp:157] Top shape: 128 3 32 128 (1572864)
I0521 09:36:44.330041  3675 net.cpp:165] Memory required for data: 12611072
I0521 09:36:44.330055  3675 layer_factory.hpp:77] Creating layer data_scale
I0521 09:36:44.330062  3675 net.cpp:100] Creating Layer data_scale
I0521 09:36:44.330065  3675 net.cpp:434] data_scale <- data_bn
I0521 09:36:44.330068  3675 net.cpp:395] data_scale -> data_bn (in-place)
I0521 09:36:44.330096  3675 layer_factory.hpp:77] Creating layer data_scale
I0521 09:36:44.330413  3675 net.cpp:150] Setting up data_scale
I0521 09:36:44.330420  3675 net.cpp:157] Top shape: 128 3 32 128 (1572864)
I0521 09:36:44.330421  3675 net.cpp:165] Memory required for data: 18902528
I0521 09:36:44.330427  3675 layer_factory.hpp:77] Creating layer conv1
I0521 09:36:44.330438  3675 net.cpp:100] Creating Layer conv1
I0521 09:36:44.330440  3675 net.cpp:434] conv1 <- data_bn
I0521 09:36:44.330446  3675 net.cpp:408] conv1 -> conv1
I0521 09:36:45.557001  3675 net.cpp:150] Setting up conv1
I0521 09:36:45.557060  3675 net.cpp:157] Top shape: 128 64 16 64 (8388608)
I0521 09:36:45.557062  3675 net.cpp:165] Memory required for data: 52456960
I0521 09:36:45.557072  3675 layer_factory.hpp:77] Creating layer conv1_bn
I0521 09:36:45.557081  3675 net.cpp:100] Creating Layer conv1_bn
I0521 09:36:45.557085  3675 net.cpp:434] conv1_bn <- conv1
I0521 09:36:45.557091  3675 net.cpp:395] conv1_bn -> conv1 (in-place)
I0521 09:36:45.557222  3675 net.cpp:150] Setting up conv1_bn
I0521 09:36:45.557227  3675 net.cpp:157] Top shape: 128 64 16 64 (8388608)
I0521 09:36:45.557230  3675 net.cpp:165] Memory required for data: 86011392
I0521 09:36:45.557236  3675 layer_factory.hpp:77] Creating layer conv1_scale
I0521 09:36:45.557243  3675 net.cpp:100] Creating Layer conv1_scale
I0521 09:36:45.557245  3675 net.cpp:434] conv1_scale <- conv1
I0521 09:36:45.557250  3675 net.cpp:395] conv1_scale -> conv1 (in-place)
I0521 09:36:45.557272  3675 layer_factory.hpp:77] Creating layer conv1_scale
I0521 09:36:45.557339  3675 net.cpp:150] Setting up conv1_scale
I0521 09:36:45.557344  3675 net.cpp:157] Top shape: 128 64 16 64 (8388608)
I0521 09:36:45.557346  3675 net.cpp:165] Memory required for data: 119565824
I0521 09:36:45.557351  3675 layer_factory.hpp:77] Creating layer conv1_relu
I0521 09:36:45.557360  3675 net.cpp:100] Creating Layer conv1_relu
I0521 09:36:45.557389  3675 net.cpp:434] conv1_relu <- conv1
I0521 09:36:45.557394  3675 net.cpp:395] conv1_relu -> conv1 (in-place)
I0521 09:36:45.557641  3675 net.cpp:150] Setting up conv1_relu
I0521 09:36:45.557648  3675 net.cpp:157] Top shape: 128 64 16 64 (8388608)
I0521 09:36:45.557651  3675 net.cpp:165] Memory required for data: 153120256
I0521 09:36:45.557654  3675 layer_factory.hpp:77] Creating layer conv1_pool
I0521 09:36:45.557660  3675 net.cpp:100] Creating Layer conv1_pool
I0521 09:36:45.557663  3675 net.cpp:434] conv1_pool <- conv1
I0521 09:36:45.557667  3675 net.cpp:408] conv1_pool -> conv1_pool
I0521 09:36:45.557704  3675 net.cpp:150] Setting up conv1_pool
I0521 09:36:45.557713  3675 net.cpp:157] Top shape: 128 64 8 32 (2097152)
I0521 09:36:45.557715  3675 net.cpp:165] Memory required for data: 161508864
I0521 09:36:45.557718  3675 layer_factory.hpp:77] Creating layer layer_64_1_conv1
I0521 09:36:45.557729  3675 net.cpp:100] Creating Layer layer_64_1_conv1
I0521 09:36:45.557732  3675 net.cpp:434] layer_64_1_conv1 <- conv1_pool
I0521 09:36:45.557739  3675 net.cpp:408] layer_64_1_conv1 -> layer_64_1_conv1
I0521 09:36:45.559173  3675 net.cpp:150] Setting up layer_64_1_conv1
I0521 09:36:45.559193  3675 net.cpp:157] Top shape: 128 64 8 32 (2097152)
I0521 09:36:45.559197  3675 net.cpp:165] Memory required for data: 169897472
I0521 09:36:45.559206  3675 layer_factory.hpp:77] Creating layer layer_64_1_bn2
I0521 09:36:45.559214  3675 net.cpp:100] Creating Layer layer_64_1_bn2
I0521 09:36:45.559219  3675 net.cpp:434] layer_64_1_bn2 <- layer_64_1_conv1
I0521 09:36:45.559226  3675 net.cpp:395] layer_64_1_bn2 -> layer_64_1_conv1 (in-place)
I0521 09:36:45.559401  3675 net.cpp:150] Setting up layer_64_1_bn2
I0521 09:36:45.559408  3675 net.cpp:157] Top shape: 128 64 8 32 (2097152)
I0521 09:36:45.559412  3675 net.cpp:165] Memory required for data: 178286080
I0521 09:36:45.559417  3675 layer_factory.hpp:77] Creating layer layer_64_1_scale2
I0521 09:36:45.559423  3675 net.cpp:100] Creating Layer layer_64_1_scale2
I0521 09:36:45.559425  3675 net.cpp:434] layer_64_1_scale2 <- layer_64_1_conv1
I0521 09:36:45.559430  3675 net.cpp:395] layer_64_1_scale2 -> layer_64_1_conv1 (in-place)
I0521 09:36:45.559454  3675 layer_factory.hpp:77] Creating layer layer_64_1_scale2
I0521 09:36:45.559535  3675 net.cpp:150] Setting up layer_64_1_scale2
I0521 09:36:45.559542  3675 net.cpp:157] Top shape: 128 64 8 32 (2097152)
I0521 09:36:45.559545  3675 net.cpp:165] Memory required for data: 186674688
I0521 09:36:45.559551  3675 layer_factory.hpp:77] Creating layer layer_64_1_relu2
I0521 09:36:45.559558  3675 net.cpp:100] Creating Layer layer_64_1_relu2
I0521 09:36:45.559562  3675 net.cpp:434] layer_64_1_relu2 <- layer_64_1_conv1
I0521 09:36:45.559567  3675 net.cpp:395] layer_64_1_relu2 -> layer_64_1_conv1 (in-place)
I0521 09:36:45.560001  3675 net.cpp:150] Setting up layer_64_1_relu2
I0521 09:36:45.560016  3675 net.cpp:157] Top shape: 128 64 8 32 (2097152)
I0521 09:36:45.560021  3675 net.cpp:165] Memory required for data: 195063296
I0521 09:36:45.560026  3675 layer_factory.hpp:77] Creating layer layer_64_1_conv1_layer_64_1_relu2_0_split
I0521 09:36:45.560034  3675 net.cpp:100] Creating Layer layer_64_1_conv1_layer_64_1_relu2_0_split
I0521 09:36:45.560037  3675 net.cpp:434] layer_64_1_conv1_layer_64_1_relu2_0_split <- layer_64_1_conv1
I0521 09:36:45.560042  3675 net.cpp:408] layer_64_1_conv1_layer_64_1_relu2_0_split -> layer_64_1_conv1_layer_64_1_relu2_0_split_0
I0521 09:36:45.560048  3675 net.cpp:408] layer_64_1_conv1_layer_64_1_relu2_0_split -> layer_64_1_conv1_layer_64_1_relu2_0_split_1
I0521 09:36:45.560086  3675 net.cpp:150] Setting up layer_64_1_conv1_layer_64_1_relu2_0_split
I0521 09:36:45.560097  3675 net.cpp:157] Top shape: 128 64 8 32 (2097152)
I0521 09:36:45.560101  3675 net.cpp:157] Top shape: 128 64 8 32 (2097152)
I0521 09:36:45.560103  3675 net.cpp:165] Memory required for data: 211840512
I0521 09:36:45.560106  3675 layer_factory.hpp:77] Creating layer layer_64_1_conv2
I0521 09:36:45.560114  3675 net.cpp:100] Creating Layer layer_64_1_conv2
I0521 09:36:45.560134  3675 net.cpp:434] layer_64_1_conv2 <- layer_64_1_conv1_layer_64_1_relu2_0_split_0
I0521 09:36:45.560142  3675 net.cpp:408] layer_64_1_conv2 -> layer_64_1_conv2
I0521 09:36:45.562032  3675 net.cpp:150] Setting up layer_64_1_conv2
I0521 09:36:45.562047  3675 net.cpp:157] Top shape: 128 64 8 32 (2097152)
I0521 09:36:45.562049  3675 net.cpp:165] Memory required for data: 220229120
I0521 09:36:45.562054  3675 layer_factory.hpp:77] Creating layer layer_64_1_bn3
I0521 09:36:45.562062  3675 net.cpp:100] Creating Layer layer_64_1_bn3
I0521 09:36:45.562064  3675 net.cpp:434] layer_64_1_bn3 <- layer_64_1_conv2
I0521 09:36:45.562068  3675 net.cpp:395] layer_64_1_bn3 -> layer_64_1_conv2 (in-place)
I0521 09:36:45.562194  3675 net.cpp:150] Setting up layer_64_1_bn3
I0521 09:36:45.562201  3675 net.cpp:157] Top shape: 128 64 8 32 (2097152)
I0521 09:36:45.562202  3675 net.cpp:165] Memory required for data: 228617728
I0521 09:36:45.562207  3675 layer_factory.hpp:77] Creating layer layer_64_1_scale3
I0521 09:36:45.562212  3675 net.cpp:100] Creating Layer layer_64_1_scale3
I0521 09:36:45.562216  3675 net.cpp:434] layer_64_1_scale3 <- layer_64_1_conv2
I0521 09:36:45.562219  3675 net.cpp:395] layer_64_1_scale3 -> layer_64_1_conv2 (in-place)
I0521 09:36:45.562242  3675 layer_factory.hpp:77] Creating layer layer_64_1_scale3
I0521 09:36:45.562331  3675 net.cpp:150] Setting up layer_64_1_scale3
I0521 09:36:45.562340  3675 net.cpp:157] Top shape: 128 64 8 32 (2097152)
I0521 09:36:45.562345  3675 net.cpp:165] Memory required for data: 237006336
I0521 09:36:45.562351  3675 layer_factory.hpp:77] Creating layer layer_64_1_relu3
I0521 09:36:45.562357  3675 net.cpp:100] Creating Layer layer_64_1_relu3
I0521 09:36:45.562361  3675 net.cpp:434] layer_64_1_relu3 <- layer_64_1_conv2
I0521 09:36:45.562366  3675 net.cpp:395] layer_64_1_relu3 -> layer_64_1_conv2 (in-place)
I0521 09:36:45.562615  3675 net.cpp:150] Setting up layer_64_1_relu3
I0521 09:36:45.562628  3675 net.cpp:157] Top shape: 128 64 8 32 (2097152)
I0521 09:36:45.562631  3675 net.cpp:165] Memory required for data: 245394944
I0521 09:36:45.562635  3675 layer_factory.hpp:77] Creating layer layer_64_1_conv3
I0521 09:36:45.562644  3675 net.cpp:100] Creating Layer layer_64_1_conv3
I0521 09:36:45.562647  3675 net.cpp:434] layer_64_1_conv3 <- layer_64_1_conv2
I0521 09:36:45.562652  3675 net.cpp:408] layer_64_1_conv3 -> layer_64_1_conv3
I0521 09:36:45.564765  3675 net.cpp:150] Setting up layer_64_1_conv3
I0521 09:36:45.564792  3675 net.cpp:157] Top shape: 128 256 8 32 (8388608)
I0521 09:36:45.564796  3675 net.cpp:165] Memory required for data: 278949376
I0521 09:36:45.564802  3675 layer_factory.hpp:77] Creating layer layer_64_1_conv_expand
I0521 09:36:45.564811  3675 net.cpp:100] Creating Layer layer_64_1_conv_expand
I0521 09:36:45.564815  3675 net.cpp:434] layer_64_1_conv_expand <- layer_64_1_conv1_layer_64_1_relu2_0_split_1
I0521 09:36:45.564821  3675 net.cpp:408] layer_64_1_conv_expand -> layer_64_1_conv_expand
I0521 09:36:45.566020  3675 net.cpp:150] Setting up layer_64_1_conv_expand
I0521 09:36:45.566035  3675 net.cpp:157] Top shape: 128 256 8 32 (8388608)
I0521 09:36:45.566040  3675 net.cpp:165] Memory required for data: 312503808
I0521 09:36:45.566045  3675 layer_factory.hpp:77] Creating layer layer_64_1_sum
I0521 09:36:45.566051  3675 net.cpp:100] Creating Layer layer_64_1_sum
I0521 09:36:45.566056  3675 net.cpp:434] layer_64_1_sum <- layer_64_1_conv3
I0521 09:36:45.566061  3675 net.cpp:434] layer_64_1_sum <- layer_64_1_conv_expand
I0521 09:36:45.566066  3675 net.cpp:408] layer_64_1_sum -> layer_64_1_sum
I0521 09:36:45.566084  3675 net.cpp:150] Setting up layer_64_1_sum
I0521 09:36:45.566089  3675 net.cpp:157] Top shape: 128 256 8 32 (8388608)
I0521 09:36:45.566092  3675 net.cpp:165] Memory required for data: 346058240
I0521 09:36:45.566097  3675 layer_factory.hpp:77] Creating layer layer_64_1_sum_layer_64_1_sum_0_split
I0521 09:36:45.566102  3675 net.cpp:100] Creating Layer layer_64_1_sum_layer_64_1_sum_0_split
I0521 09:36:45.566107  3675 net.cpp:434] layer_64_1_sum_layer_64_1_sum_0_split <- layer_64_1_sum
I0521 09:36:45.566128  3675 net.cpp:408] layer_64_1_sum_layer_64_1_sum_0_split -> layer_64_1_sum_layer_64_1_sum_0_split_0
I0521 09:36:45.566133  3675 net.cpp:408] layer_64_1_sum_layer_64_1_sum_0_split -> layer_64_1_sum_layer_64_1_sum_0_split_1
I0521 09:36:45.566159  3675 net.cpp:150] Setting up layer_64_1_sum_layer_64_1_sum_0_split
I0521 09:36:45.566162  3675 net.cpp:157] Top shape: 128 256 8 32 (8388608)
I0521 09:36:45.566166  3675 net.cpp:157] Top shape: 128 256 8 32 (8388608)
I0521 09:36:45.566169  3675 net.cpp:165] Memory required for data: 413167104
I0521 09:36:45.566171  3675 layer_factory.hpp:77] Creating layer layer_64_2_bn1
I0521 09:36:45.566176  3675 net.cpp:100] Creating Layer layer_64_2_bn1
I0521 09:36:45.566180  3675 net.cpp:434] layer_64_2_bn1 <- layer_64_1_sum_layer_64_1_sum_0_split_0
I0521 09:36:45.566185  3675 net.cpp:408] layer_64_2_bn1 -> layer_64_2_bn1
I0521 09:36:45.566332  3675 net.cpp:150] Setting up layer_64_2_bn1
I0521 09:36:45.566342  3675 net.cpp:157] Top shape: 128 256 8 32 (8388608)
I0521 09:36:45.566345  3675 net.cpp:165] Memory required for data: 446721536
I0521 09:36:45.566351  3675 layer_factory.hpp:77] Creating layer layer_64_2_scale1
I0521 09:36:45.566359  3675 net.cpp:100] Creating Layer layer_64_2_scale1
I0521 09:36:45.566361  3675 net.cpp:434] layer_64_2_scale1 <- layer_64_2_bn1
I0521 09:36:45.566366  3675 net.cpp:395] layer_64_2_scale1 -> layer_64_2_bn1 (in-place)
I0521 09:36:45.566395  3675 layer_factory.hpp:77] Creating layer layer_64_2_scale1
I0521 09:36:45.566463  3675 net.cpp:150] Setting up layer_64_2_scale1
I0521 09:36:45.566468  3675 net.cpp:157] Top shape: 128 256 8 32 (8388608)
I0521 09:36:45.566473  3675 net.cpp:165] Memory required for data: 480275968
I0521 09:36:45.566476  3675 layer_factory.hpp:77] Creating layer layer_64_2_relu1
I0521 09:36:45.566480  3675 net.cpp:100] Creating Layer layer_64_2_relu1
I0521 09:36:45.566483  3675 net.cpp:434] layer_64_2_relu1 <- layer_64_2_bn1
I0521 09:36:45.566488  3675 net.cpp:395] layer_64_2_relu1 -> layer_64_2_bn1 (in-place)
I0521 09:36:45.566874  3675 net.cpp:150] Setting up layer_64_2_relu1
I0521 09:36:45.566887  3675 net.cpp:157] Top shape: 128 256 8 32 (8388608)
I0521 09:36:45.566891  3675 net.cpp:165] Memory required for data: 513830400
I0521 09:36:45.566895  3675 layer_factory.hpp:77] Creating layer layer_64_2_conv1
I0521 09:36:45.566906  3675 net.cpp:100] Creating Layer layer_64_2_conv1
I0521 09:36:45.566911  3675 net.cpp:434] layer_64_2_conv1 <- layer_64_2_bn1
I0521 09:36:45.566918  3675 net.cpp:408] layer_64_2_conv1 -> layer_64_2_conv1
I0521 09:36:45.568081  3675 net.cpp:150] Setting up layer_64_2_conv1
I0521 09:36:45.568095  3675 net.cpp:157] Top shape: 128 64 8 32 (2097152)
I0521 09:36:45.568099  3675 net.cpp:165] Memory required for data: 522219008
I0521 09:36:45.568104  3675 layer_factory.hpp:77] Creating layer layer_64_2_bn2
I0521 09:36:45.568109  3675 net.cpp:100] Creating Layer layer_64_2_bn2
I0521 09:36:45.568114  3675 net.cpp:434] layer_64_2_bn2 <- layer_64_2_conv1
I0521 09:36:45.568118  3675 net.cpp:395] layer_64_2_bn2 -> layer_64_2_conv1 (in-place)
I0521 09:36:45.568279  3675 net.cpp:150] Setting up layer_64_2_bn2
I0521 09:36:45.568285  3675 net.cpp:157] Top shape: 128 64 8 32 (2097152)
I0521 09:36:45.568289  3675 net.cpp:165] Memory required for data: 530607616
I0521 09:36:45.568297  3675 layer_factory.hpp:77] Creating layer layer_64_2_scale2
I0521 09:36:45.568306  3675 net.cpp:100] Creating Layer layer_64_2_scale2
I0521 09:36:45.568311  3675 net.cpp:434] layer_64_2_scale2 <- layer_64_2_conv1
I0521 09:36:45.568316  3675 net.cpp:395] layer_64_2_scale2 -> layer_64_2_conv1 (in-place)
I0521 09:36:45.568341  3675 layer_factory.hpp:77] Creating layer layer_64_2_scale2
I0521 09:36:45.568419  3675 net.cpp:150] Setting up layer_64_2_scale2
I0521 09:36:45.568428  3675 net.cpp:157] Top shape: 128 64 8 32 (2097152)
I0521 09:36:45.568431  3675 net.cpp:165] Memory required for data: 538996224
I0521 09:36:45.568437  3675 layer_factory.hpp:77] Creating layer layer_64_2_relu2
I0521 09:36:45.568442  3675 net.cpp:100] Creating Layer layer_64_2_relu2
I0521 09:36:45.568459  3675 net.cpp:434] layer_64_2_relu2 <- layer_64_2_conv1
I0521 09:36:45.568464  3675 net.cpp:395] layer_64_2_relu2 -> layer_64_2_conv1 (in-place)
I0521 09:36:45.568846  3675 net.cpp:150] Setting up layer_64_2_relu2
I0521 09:36:45.568861  3675 net.cpp:157] Top shape: 128 64 8 32 (2097152)
I0521 09:36:45.568863  3675 net.cpp:165] Memory required for data: 547384832
I0521 09:36:45.568866  3675 layer_factory.hpp:77] Creating layer layer_64_2_conv2
I0521 09:36:45.568874  3675 net.cpp:100] Creating Layer layer_64_2_conv2
I0521 09:36:45.568877  3675 net.cpp:434] layer_64_2_conv2 <- layer_64_2_conv1
I0521 09:36:45.568882  3675 net.cpp:408] layer_64_2_conv2 -> layer_64_2_conv2
I0521 09:36:45.571246  3675 net.cpp:150] Setting up layer_64_2_conv2
I0521 09:36:45.571264  3675 net.cpp:157] Top shape: 128 64 8 32 (2097152)
I0521 09:36:45.571267  3675 net.cpp:165] Memory required for data: 555773440
I0521 09:36:45.571274  3675 layer_factory.hpp:77] Creating layer layer_64_2_bn3
I0521 09:36:45.571282  3675 net.cpp:100] Creating Layer layer_64_2_bn3
I0521 09:36:45.571287  3675 net.cpp:434] layer_64_2_bn3 <- layer_64_2_conv2
I0521 09:36:45.571293  3675 net.cpp:395] layer_64_2_bn3 -> layer_64_2_conv2 (in-place)
I0521 09:36:45.571426  3675 net.cpp:150] Setting up layer_64_2_bn3
I0521 09:36:45.571432  3675 net.cpp:157] Top shape: 128 64 8 32 (2097152)
I0521 09:36:45.571436  3675 net.cpp:165] Memory required for data: 564162048
I0521 09:36:45.571444  3675 layer_factory.hpp:77] Creating layer layer_64_2_scale3
I0521 09:36:45.571456  3675 net.cpp:100] Creating Layer layer_64_2_scale3
I0521 09:36:45.571460  3675 net.cpp:434] layer_64_2_scale3 <- layer_64_2_conv2
I0521 09:36:45.571466  3675 net.cpp:395] layer_64_2_scale3 -> layer_64_2_conv2 (in-place)
I0521 09:36:45.571504  3675 layer_factory.hpp:77] Creating layer layer_64_2_scale3
I0521 09:36:45.571578  3675 net.cpp:150] Setting up layer_64_2_scale3
I0521 09:36:45.571584  3675 net.cpp:157] Top shape: 128 64 8 32 (2097152)
I0521 09:36:45.571588  3675 net.cpp:165] Memory required for data: 572550656
I0521 09:36:45.571594  3675 layer_factory.hpp:77] Creating layer layer_64_2_relu3
I0521 09:36:45.571602  3675 net.cpp:100] Creating Layer layer_64_2_relu3
I0521 09:36:45.571605  3675 net.cpp:434] layer_64_2_relu3 <- layer_64_2_conv2
I0521 09:36:45.571610  3675 net.cpp:395] layer_64_2_relu3 -> layer_64_2_conv2 (in-place)
I0521 09:36:45.571862  3675 net.cpp:150] Setting up layer_64_2_relu3
I0521 09:36:45.571877  3675 net.cpp:157] Top shape: 128 64 8 32 (2097152)
I0521 09:36:45.571879  3675 net.cpp:165] Memory required for data: 580939264
I0521 09:36:45.571882  3675 layer_factory.hpp:77] Creating layer layer_64_2_conv3
I0521 09:36:45.571892  3675 net.cpp:100] Creating Layer layer_64_2_conv3
I0521 09:36:45.571894  3675 net.cpp:434] layer_64_2_conv3 <- layer_64_2_conv2
I0521 09:36:45.571899  3675 net.cpp:408] layer_64_2_conv3 -> layer_64_2_conv3
I0521 09:36:45.573205  3675 net.cpp:150] Setting up layer_64_2_conv3
I0521 09:36:45.573220  3675 net.cpp:157] Top shape: 128 256 8 32 (8388608)
I0521 09:36:45.573222  3675 net.cpp:165] Memory required for data: 614493696
I0521 09:36:45.573227  3675 layer_factory.hpp:77] Creating layer layer_64_2_sum
I0521 09:36:45.573233  3675 net.cpp:100] Creating Layer layer_64_2_sum
I0521 09:36:45.573237  3675 net.cpp:434] layer_64_2_sum <- layer_64_2_conv3
I0521 09:36:45.573241  3675 net.cpp:434] layer_64_2_sum <- layer_64_1_sum_layer_64_1_sum_0_split_1
I0521 09:36:45.573246  3675 net.cpp:408] layer_64_2_sum -> layer_64_2_sum
I0521 09:36:45.573262  3675 net.cpp:150] Setting up layer_64_2_sum
I0521 09:36:45.573267  3675 net.cpp:157] Top shape: 128 256 8 32 (8388608)
I0521 09:36:45.573271  3675 net.cpp:165] Memory required for data: 648048128
I0521 09:36:45.573273  3675 layer_factory.hpp:77] Creating layer layer_64_2_sum_layer_64_2_sum_0_split
I0521 09:36:45.573279  3675 net.cpp:100] Creating Layer layer_64_2_sum_layer_64_2_sum_0_split
I0521 09:36:45.573282  3675 net.cpp:434] layer_64_2_sum_layer_64_2_sum_0_split <- layer_64_2_sum
I0521 09:36:45.573305  3675 net.cpp:408] layer_64_2_sum_layer_64_2_sum_0_split -> layer_64_2_sum_layer_64_2_sum_0_split_0
I0521 09:36:45.573310  3675 net.cpp:408] layer_64_2_sum_layer_64_2_sum_0_split -> layer_64_2_sum_layer_64_2_sum_0_split_1
I0521 09:36:45.573331  3675 net.cpp:150] Setting up layer_64_2_sum_layer_64_2_sum_0_split
I0521 09:36:45.573338  3675 net.cpp:157] Top shape: 128 256 8 32 (8388608)
I0521 09:36:45.573340  3675 net.cpp:157] Top shape: 128 256 8 32 (8388608)
I0521 09:36:45.573343  3675 net.cpp:165] Memory required for data: 715156992
I0521 09:36:45.573345  3675 layer_factory.hpp:77] Creating layer layer_64_3_bn1
I0521 09:36:45.573350  3675 net.cpp:100] Creating Layer layer_64_3_bn1
I0521 09:36:45.573354  3675 net.cpp:434] layer_64_3_bn1 <- layer_64_2_sum_layer_64_2_sum_0_split_0
I0521 09:36:45.573356  3675 net.cpp:408] layer_64_3_bn1 -> layer_64_3_bn1
I0521 09:36:45.573503  3675 net.cpp:150] Setting up layer_64_3_bn1
I0521 09:36:45.573509  3675 net.cpp:157] Top shape: 128 256 8 32 (8388608)
I0521 09:36:45.573513  3675 net.cpp:165] Memory required for data: 748711424
I0521 09:36:45.573519  3675 layer_factory.hpp:77] Creating layer layer_64_3_scale1
I0521 09:36:45.573525  3675 net.cpp:100] Creating Layer layer_64_3_scale1
I0521 09:36:45.573529  3675 net.cpp:434] layer_64_3_scale1 <- layer_64_3_bn1
I0521 09:36:45.573534  3675 net.cpp:395] layer_64_3_scale1 -> layer_64_3_bn1 (in-place)
I0521 09:36:45.573561  3675 layer_factory.hpp:77] Creating layer layer_64_3_scale1
I0521 09:36:45.573635  3675 net.cpp:150] Setting up layer_64_3_scale1
I0521 09:36:45.573642  3675 net.cpp:157] Top shape: 128 256 8 32 (8388608)
I0521 09:36:45.573644  3675 net.cpp:165] Memory required for data: 782265856
I0521 09:36:45.573648  3675 layer_factory.hpp:77] Creating layer layer_64_3_relu1
I0521 09:36:45.573653  3675 net.cpp:100] Creating Layer layer_64_3_relu1
I0521 09:36:45.573657  3675 net.cpp:434] layer_64_3_relu1 <- layer_64_3_bn1
I0521 09:36:45.573663  3675 net.cpp:395] layer_64_3_relu1 -> layer_64_3_bn1 (in-place)
I0521 09:36:45.574028  3675 net.cpp:150] Setting up layer_64_3_relu1
I0521 09:36:45.574043  3675 net.cpp:157] Top shape: 128 256 8 32 (8388608)
I0521 09:36:45.574048  3675 net.cpp:165] Memory required for data: 815820288
I0521 09:36:45.574051  3675 layer_factory.hpp:77] Creating layer layer_64_3_conv1
I0521 09:36:45.574059  3675 net.cpp:100] Creating Layer layer_64_3_conv1
I0521 09:36:45.574062  3675 net.cpp:434] layer_64_3_conv1 <- layer_64_3_bn1
I0521 09:36:45.574067  3675 net.cpp:408] layer_64_3_conv1 -> layer_64_3_conv1
I0521 09:36:45.575562  3675 net.cpp:150] Setting up layer_64_3_conv1
I0521 09:36:45.575575  3675 net.cpp:157] Top shape: 128 64 8 32 (2097152)
I0521 09:36:45.575578  3675 net.cpp:165] Memory required for data: 824208896
I0521 09:36:45.575583  3675 layer_factory.hpp:77] Creating layer layer_64_3_bn2
I0521 09:36:45.575593  3675 net.cpp:100] Creating Layer layer_64_3_bn2
I0521 09:36:45.575598  3675 net.cpp:434] layer_64_3_bn2 <- layer_64_3_conv1
I0521 09:36:45.575604  3675 net.cpp:395] layer_64_3_bn2 -> layer_64_3_conv1 (in-place)
I0521 09:36:45.575760  3675 net.cpp:150] Setting up layer_64_3_bn2
I0521 09:36:45.575772  3675 net.cpp:157] Top shape: 128 64 8 32 (2097152)
I0521 09:36:45.575774  3675 net.cpp:165] Memory required for data: 832597504
I0521 09:36:45.575783  3675 layer_factory.hpp:77] Creating layer layer_64_3_scale2
I0521 09:36:45.575791  3675 net.cpp:100] Creating Layer layer_64_3_scale2
I0521 09:36:45.575795  3675 net.cpp:434] layer_64_3_scale2 <- layer_64_3_conv1
I0521 09:36:45.575803  3675 net.cpp:395] layer_64_3_scale2 -> layer_64_3_conv1 (in-place)
I0521 09:36:45.575834  3675 layer_factory.hpp:77] Creating layer layer_64_3_scale2
I0521 09:36:45.575932  3675 net.cpp:150] Setting up layer_64_3_scale2
I0521 09:36:45.575942  3675 net.cpp:157] Top shape: 128 64 8 32 (2097152)
I0521 09:36:45.575945  3675 net.cpp:165] Memory required for data: 840986112
I0521 09:36:45.575951  3675 layer_factory.hpp:77] Creating layer layer_64_3_relu2
I0521 09:36:45.575958  3675 net.cpp:100] Creating Layer layer_64_3_relu2
I0521 09:36:45.575978  3675 net.cpp:434] layer_64_3_relu2 <- layer_64_3_conv1
I0521 09:36:45.575984  3675 net.cpp:395] layer_64_3_relu2 -> layer_64_3_conv1 (in-place)
I0521 09:36:45.576359  3675 net.cpp:150] Setting up layer_64_3_relu2
I0521 09:36:45.576373  3675 net.cpp:157] Top shape: 128 64 8 32 (2097152)
I0521 09:36:45.576378  3675 net.cpp:165] Memory required for data: 849374720
I0521 09:36:45.576382  3675 layer_factory.hpp:77] Creating layer layer_64_3_conv2
I0521 09:36:45.576395  3675 net.cpp:100] Creating Layer layer_64_3_conv2
I0521 09:36:45.576400  3675 net.cpp:434] layer_64_3_conv2 <- layer_64_3_conv1
I0521 09:36:45.576409  3675 net.cpp:408] layer_64_3_conv2 -> layer_64_3_conv2
I0521 09:36:45.578510  3675 net.cpp:150] Setting up layer_64_3_conv2
I0521 09:36:45.578526  3675 net.cpp:157] Top shape: 128 64 8 32 (2097152)
I0521 09:36:45.578531  3675 net.cpp:165] Memory required for data: 857763328
I0521 09:36:45.578536  3675 layer_factory.hpp:77] Creating layer layer_64_3_bn3
I0521 09:36:45.578546  3675 net.cpp:100] Creating Layer layer_64_3_bn3
I0521 09:36:45.578549  3675 net.cpp:434] layer_64_3_bn3 <- layer_64_3_conv2
I0521 09:36:45.578554  3675 net.cpp:395] layer_64_3_bn3 -> layer_64_3_conv2 (in-place)
I0521 09:36:45.578734  3675 net.cpp:150] Setting up layer_64_3_bn3
I0521 09:36:45.578744  3675 net.cpp:157] Top shape: 128 64 8 32 (2097152)
I0521 09:36:45.578748  3675 net.cpp:165] Memory required for data: 866151936
I0521 09:36:45.578755  3675 layer_factory.hpp:77] Creating layer layer_64_3_scale3
I0521 09:36:45.578765  3675 net.cpp:100] Creating Layer layer_64_3_scale3
I0521 09:36:45.578769  3675 net.cpp:434] layer_64_3_scale3 <- layer_64_3_conv2
I0521 09:36:45.578775  3675 net.cpp:395] layer_64_3_scale3 -> layer_64_3_conv2 (in-place)
I0521 09:36:45.578807  3675 layer_factory.hpp:77] Creating layer layer_64_3_scale3
I0521 09:36:45.578905  3675 net.cpp:150] Setting up layer_64_3_scale3
I0521 09:36:45.578913  3675 net.cpp:157] Top shape: 128 64 8 32 (2097152)
I0521 09:36:45.578917  3675 net.cpp:165] Memory required for data: 874540544
I0521 09:36:45.578922  3675 layer_factory.hpp:77] Creating layer layer_64_3_relu3
I0521 09:36:45.578930  3675 net.cpp:100] Creating Layer layer_64_3_relu3
I0521 09:36:45.578934  3675 net.cpp:434] layer_64_3_relu3 <- layer_64_3_conv2
I0521 09:36:45.578939  3675 net.cpp:395] layer_64_3_relu3 -> layer_64_3_conv2 (in-place)
I0521 09:36:45.580531  3675 net.cpp:150] Setting up layer_64_3_relu3
I0521 09:36:45.580549  3675 net.cpp:157] Top shape: 128 64 8 32 (2097152)
I0521 09:36:45.580552  3675 net.cpp:165] Memory required for data: 882929152
I0521 09:36:45.580557  3675 layer_factory.hpp:77] Creating layer layer_64_3_conv3
I0521 09:36:45.580569  3675 net.cpp:100] Creating Layer layer_64_3_conv3
I0521 09:36:45.580572  3675 net.cpp:434] layer_64_3_conv3 <- layer_64_3_conv2
I0521 09:36:45.580579  3675 net.cpp:408] layer_64_3_conv3 -> layer_64_3_conv3
I0521 09:36:45.582013  3675 net.cpp:150] Setting up layer_64_3_conv3
I0521 09:36:45.582027  3675 net.cpp:157] Top shape: 128 256 8 32 (8388608)
I0521 09:36:45.582031  3675 net.cpp:165] Memory required for data: 916483584
I0521 09:36:45.582036  3675 layer_factory.hpp:77] Creating layer layer_64_3_sum
I0521 09:36:45.582042  3675 net.cpp:100] Creating Layer layer_64_3_sum
I0521 09:36:45.582046  3675 net.cpp:434] layer_64_3_sum <- layer_64_3_conv3
I0521 09:36:45.582049  3675 net.cpp:434] layer_64_3_sum <- layer_64_2_sum_layer_64_2_sum_0_split_1
I0521 09:36:45.582054  3675 net.cpp:408] layer_64_3_sum -> layer_64_3_sum
I0521 09:36:45.582077  3675 net.cpp:150] Setting up layer_64_3_sum
I0521 09:36:45.582083  3675 net.cpp:157] Top shape: 128 256 8 32 (8388608)
I0521 09:36:45.582085  3675 net.cpp:165] Memory required for data: 950038016
I0521 09:36:45.582088  3675 layer_factory.hpp:77] Creating layer layer_128_1_bn1
I0521 09:36:45.582095  3675 net.cpp:100] Creating Layer layer_128_1_bn1
I0521 09:36:45.582098  3675 net.cpp:434] layer_128_1_bn1 <- layer_64_3_sum
I0521 09:36:45.582104  3675 net.cpp:408] layer_128_1_bn1 -> layer_128_1_bn1
I0521 09:36:45.582293  3675 net.cpp:150] Setting up layer_128_1_bn1
I0521 09:36:45.582304  3675 net.cpp:157] Top shape: 128 256 8 32 (8388608)
I0521 09:36:45.582306  3675 net.cpp:165] Memory required for data: 983592448
I0521 09:36:45.582321  3675 layer_factory.hpp:77] Creating layer layer_128_1_scale1
I0521 09:36:45.582331  3675 net.cpp:100] Creating Layer layer_128_1_scale1
I0521 09:36:45.582340  3675 net.cpp:434] layer_128_1_scale1 <- layer_128_1_bn1
I0521 09:36:45.582346  3675 net.cpp:395] layer_128_1_scale1 -> layer_128_1_bn1 (in-place)
I0521 09:36:45.582381  3675 layer_factory.hpp:77] Creating layer layer_128_1_scale1
I0521 09:36:45.582480  3675 net.cpp:150] Setting up layer_128_1_scale1
I0521 09:36:45.582489  3675 net.cpp:157] Top shape: 128 256 8 32 (8388608)
I0521 09:36:45.582494  3675 net.cpp:165] Memory required for data: 1017146880
I0521 09:36:45.582500  3675 layer_factory.hpp:77] Creating layer layer_128_1_relu1
I0521 09:36:45.582505  3675 net.cpp:100] Creating Layer layer_128_1_relu1
I0521 09:36:45.582509  3675 net.cpp:434] layer_128_1_relu1 <- layer_128_1_bn1
I0521 09:36:45.582515  3675 net.cpp:395] layer_128_1_relu1 -> layer_128_1_bn1 (in-place)
I0521 09:36:45.582872  3675 net.cpp:150] Setting up layer_128_1_relu1
I0521 09:36:45.582886  3675 net.cpp:157] Top shape: 128 256 8 32 (8388608)
I0521 09:36:45.582890  3675 net.cpp:165] Memory required for data: 1050701312
I0521 09:36:45.582892  3675 layer_factory.hpp:77] Creating layer layer_128_1_bn1_layer_128_1_relu1_0_split
I0521 09:36:45.582901  3675 net.cpp:100] Creating Layer layer_128_1_bn1_layer_128_1_relu1_0_split
I0521 09:36:45.582906  3675 net.cpp:434] layer_128_1_bn1_layer_128_1_relu1_0_split <- layer_128_1_bn1
I0521 09:36:45.582911  3675 net.cpp:408] layer_128_1_bn1_layer_128_1_relu1_0_split -> layer_128_1_bn1_layer_128_1_relu1_0_split_0
I0521 09:36:45.582919  3675 net.cpp:408] layer_128_1_bn1_layer_128_1_relu1_0_split -> layer_128_1_bn1_layer_128_1_relu1_0_split_1
I0521 09:36:45.582958  3675 net.cpp:150] Setting up layer_128_1_bn1_layer_128_1_relu1_0_split
I0521 09:36:45.582967  3675 net.cpp:157] Top shape: 128 256 8 32 (8388608)
I0521 09:36:45.582971  3675 net.cpp:157] Top shape: 128 256 8 32 (8388608)
I0521 09:36:45.582974  3675 net.cpp:165] Memory required for data: 1117810176
I0521 09:36:45.582979  3675 layer_factory.hpp:77] Creating layer layer_128_1_conv1
I0521 09:36:45.582989  3675 net.cpp:100] Creating Layer layer_128_1_conv1
I0521 09:36:45.582993  3675 net.cpp:434] layer_128_1_conv1 <- layer_128_1_bn1_layer_128_1_relu1_0_split_0
I0521 09:36:45.583000  3675 net.cpp:408] layer_128_1_conv1 -> layer_128_1_conv1
I0521 09:36:45.584636  3675 net.cpp:150] Setting up layer_128_1_conv1
I0521 09:36:45.584650  3675 net.cpp:157] Top shape: 128 128 8 32 (4194304)
I0521 09:36:45.584652  3675 net.cpp:165] Memory required for data: 1134587392
I0521 09:36:45.584657  3675 layer_factory.hpp:77] Creating layer layer_128_1_bn2
I0521 09:36:45.584664  3675 net.cpp:100] Creating Layer layer_128_1_bn2
I0521 09:36:45.584667  3675 net.cpp:434] layer_128_1_bn2 <- layer_128_1_conv1
I0521 09:36:45.584671  3675 net.cpp:395] layer_128_1_bn2 -> layer_128_1_conv1 (in-place)
I0521 09:36:45.584844  3675 net.cpp:150] Setting up layer_128_1_bn2
I0521 09:36:45.584853  3675 net.cpp:157] Top shape: 128 128 8 32 (4194304)
I0521 09:36:45.584857  3675 net.cpp:165] Memory required for data: 1151364608
I0521 09:36:45.584866  3675 layer_factory.hpp:77] Creating layer layer_128_1_scale2
I0521 09:36:45.584875  3675 net.cpp:100] Creating Layer layer_128_1_scale2
I0521 09:36:45.584879  3675 net.cpp:434] layer_128_1_scale2 <- layer_128_1_conv1
I0521 09:36:45.584885  3675 net.cpp:395] layer_128_1_scale2 -> layer_128_1_conv1 (in-place)
I0521 09:36:45.584918  3675 layer_factory.hpp:77] Creating layer layer_128_1_scale2
I0521 09:36:45.585012  3675 net.cpp:150] Setting up layer_128_1_scale2
I0521 09:36:45.585021  3675 net.cpp:157] Top shape: 128 128 8 32 (4194304)
I0521 09:36:45.585026  3675 net.cpp:165] Memory required for data: 1168141824
I0521 09:36:45.585031  3675 layer_factory.hpp:77] Creating layer layer_128_1_relu2
I0521 09:36:45.585057  3675 net.cpp:100] Creating Layer layer_128_1_relu2
I0521 09:36:45.585062  3675 net.cpp:434] layer_128_1_relu2 <- layer_128_1_conv1
I0521 09:36:45.585067  3675 net.cpp:395] layer_128_1_relu2 -> layer_128_1_conv1 (in-place)
I0521 09:36:45.585513  3675 net.cpp:150] Setting up layer_128_1_relu2
I0521 09:36:45.585526  3675 net.cpp:157] Top shape: 128 128 8 32 (4194304)
I0521 09:36:45.585528  3675 net.cpp:165] Memory required for data: 1184919040
I0521 09:36:45.585532  3675 layer_factory.hpp:77] Creating layer layer_128_1_conv2
I0521 09:36:45.585546  3675 net.cpp:100] Creating Layer layer_128_1_conv2
I0521 09:36:45.585549  3675 net.cpp:434] layer_128_1_conv2 <- layer_128_1_conv1
I0521 09:36:45.585556  3675 net.cpp:408] layer_128_1_conv2 -> layer_128_1_conv2
I0521 09:36:45.587790  3675 net.cpp:150] Setting up layer_128_1_conv2
I0521 09:36:45.587805  3675 net.cpp:157] Top shape: 128 128 4 16 (1048576)
I0521 09:36:45.587808  3675 net.cpp:165] Memory required for data: 1189113344
I0521 09:36:45.587813  3675 layer_factory.hpp:77] Creating layer layer_128_1_bn3
I0521 09:36:45.587819  3675 net.cpp:100] Creating Layer layer_128_1_bn3
I0521 09:36:45.587822  3675 net.cpp:434] layer_128_1_bn3 <- layer_128_1_conv2
I0521 09:36:45.587827  3675 net.cpp:395] layer_128_1_bn3 -> layer_128_1_conv2 (in-place)
I0521 09:36:45.588014  3675 net.cpp:150] Setting up layer_128_1_bn3
I0521 09:36:45.588027  3675 net.cpp:157] Top shape: 128 128 4 16 (1048576)
I0521 09:36:45.588030  3675 net.cpp:165] Memory required for data: 1193307648
I0521 09:36:45.588039  3675 layer_factory.hpp:77] Creating layer layer_128_1_scale3
I0521 09:36:45.588052  3675 net.cpp:100] Creating Layer layer_128_1_scale3
I0521 09:36:45.588057  3675 net.cpp:434] layer_128_1_scale3 <- layer_128_1_conv2
I0521 09:36:45.588063  3675 net.cpp:395] layer_128_1_scale3 -> layer_128_1_conv2 (in-place)
I0521 09:36:45.588099  3675 layer_factory.hpp:77] Creating layer layer_128_1_scale3
I0521 09:36:45.588212  3675 net.cpp:150] Setting up layer_128_1_scale3
I0521 09:36:45.588222  3675 net.cpp:157] Top shape: 128 128 4 16 (1048576)
I0521 09:36:45.588225  3675 net.cpp:165] Memory required for data: 1197501952
I0521 09:36:45.588232  3675 layer_factory.hpp:77] Creating layer layer_128_1_relu3
I0521 09:36:45.588239  3675 net.cpp:100] Creating Layer layer_128_1_relu3
I0521 09:36:45.588243  3675 net.cpp:434] layer_128_1_relu3 <- layer_128_1_conv2
I0521 09:36:45.588249  3675 net.cpp:395] layer_128_1_relu3 -> layer_128_1_conv2 (in-place)
I0521 09:36:45.588702  3675 net.cpp:150] Setting up layer_128_1_relu3
I0521 09:36:45.588721  3675 net.cpp:157] Top shape: 128 128 4 16 (1048576)
I0521 09:36:45.588723  3675 net.cpp:165] Memory required for data: 1201696256
I0521 09:36:45.588728  3675 layer_factory.hpp:77] Creating layer layer_128_1_conv3
I0521 09:36:45.588745  3675 net.cpp:100] Creating Layer layer_128_1_conv3
I0521 09:36:45.588752  3675 net.cpp:434] layer_128_1_conv3 <- layer_128_1_conv2
I0521 09:36:45.588760  3675 net.cpp:408] layer_128_1_conv3 -> layer_128_1_conv3
I0521 09:36:45.592638  3675 net.cpp:150] Setting up layer_128_1_conv3
I0521 09:36:45.592662  3675 net.cpp:157] Top shape: 128 512 4 16 (4194304)
I0521 09:36:45.592665  3675 net.cpp:165] Memory required for data: 1218473472
I0521 09:36:45.592674  3675 layer_factory.hpp:77] Creating layer layer_128_1_conv_expand
I0521 09:36:45.592692  3675 net.cpp:100] Creating Layer layer_128_1_conv_expand
I0521 09:36:45.592700  3675 net.cpp:434] layer_128_1_conv_expand <- layer_128_1_bn1_layer_128_1_relu1_0_split_1
I0521 09:36:45.592710  3675 net.cpp:408] layer_128_1_conv_expand -> layer_128_1_conv_expand
I0521 09:36:45.594965  3675 net.cpp:150] Setting up layer_128_1_conv_expand
I0521 09:36:45.594988  3675 net.cpp:157] Top shape: 128 512 4 16 (4194304)
I0521 09:36:45.594992  3675 net.cpp:165] Memory required for data: 1235250688
I0521 09:36:45.595000  3675 layer_factory.hpp:77] Creating layer layer_128_1_sum
I0521 09:36:45.595018  3675 net.cpp:100] Creating Layer layer_128_1_sum
I0521 09:36:45.595037  3675 net.cpp:434] layer_128_1_sum <- layer_128_1_conv3
I0521 09:36:45.595043  3675 net.cpp:434] layer_128_1_sum <- layer_128_1_conv_expand
I0521 09:36:45.595049  3675 net.cpp:408] layer_128_1_sum -> layer_128_1_sum
I0521 09:36:45.595072  3675 net.cpp:150] Setting up layer_128_1_sum
I0521 09:36:45.595077  3675 net.cpp:157] Top shape: 128 512 4 16 (4194304)
I0521 09:36:45.595080  3675 net.cpp:165] Memory required for data: 1252027904
I0521 09:36:45.595084  3675 layer_factory.hpp:77] Creating layer layer_128_1_sum_layer_128_1_sum_0_split
I0521 09:36:45.595091  3675 net.cpp:100] Creating Layer layer_128_1_sum_layer_128_1_sum_0_split
I0521 09:36:45.595095  3675 net.cpp:434] layer_128_1_sum_layer_128_1_sum_0_split <- layer_128_1_sum
I0521 09:36:45.595100  3675 net.cpp:408] layer_128_1_sum_layer_128_1_sum_0_split -> layer_128_1_sum_layer_128_1_sum_0_split_0
I0521 09:36:45.595108  3675 net.cpp:408] layer_128_1_sum_layer_128_1_sum_0_split -> layer_128_1_sum_layer_128_1_sum_0_split_1
I0521 09:36:45.595139  3675 net.cpp:150] Setting up layer_128_1_sum_layer_128_1_sum_0_split
I0521 09:36:45.595144  3675 net.cpp:157] Top shape: 128 512 4 16 (4194304)
I0521 09:36:45.595149  3675 net.cpp:157] Top shape: 128 512 4 16 (4194304)
I0521 09:36:45.595151  3675 net.cpp:165] Memory required for data: 1285582336
I0521 09:36:45.595155  3675 layer_factory.hpp:77] Creating layer layer_128_2_bn1
I0521 09:36:45.595161  3675 net.cpp:100] Creating Layer layer_128_2_bn1
I0521 09:36:45.595167  3675 net.cpp:434] layer_128_2_bn1 <- layer_128_1_sum_layer_128_1_sum_0_split_0
I0521 09:36:45.595172  3675 net.cpp:408] layer_128_2_bn1 -> layer_128_2_bn1
I0521 09:36:45.595307  3675 net.cpp:150] Setting up layer_128_2_bn1
I0521 09:36:45.595312  3675 net.cpp:157] Top shape: 128 512 4 16 (4194304)
I0521 09:36:45.595315  3675 net.cpp:165] Memory required for data: 1302359552
I0521 09:36:45.595321  3675 layer_factory.hpp:77] Creating layer layer_128_2_scale1
I0521 09:36:45.595329  3675 net.cpp:100] Creating Layer layer_128_2_scale1
I0521 09:36:45.595331  3675 net.cpp:434] layer_128_2_scale1 <- layer_128_2_bn1
I0521 09:36:45.595336  3675 net.cpp:395] layer_128_2_scale1 -> layer_128_2_bn1 (in-place)
I0521 09:36:45.595363  3675 layer_factory.hpp:77] Creating layer layer_128_2_scale1
I0521 09:36:45.595441  3675 net.cpp:150] Setting up layer_128_2_scale1
I0521 09:36:45.595446  3675 net.cpp:157] Top shape: 128 512 4 16 (4194304)
I0521 09:36:45.595449  3675 net.cpp:165] Memory required for data: 1319136768
I0521 09:36:45.595454  3675 layer_factory.hpp:77] Creating layer layer_128_2_relu1
I0521 09:36:45.595459  3675 net.cpp:100] Creating Layer layer_128_2_relu1
I0521 09:36:45.595463  3675 net.cpp:434] layer_128_2_relu1 <- layer_128_2_bn1
I0521 09:36:45.595468  3675 net.cpp:395] layer_128_2_relu1 -> layer_128_2_bn1 (in-place)
I0521 09:36:45.595727  3675 net.cpp:150] Setting up layer_128_2_relu1
I0521 09:36:45.595736  3675 net.cpp:157] Top shape: 128 512 4 16 (4194304)
I0521 09:36:45.595737  3675 net.cpp:165] Memory required for data: 1335913984
I0521 09:36:45.595741  3675 layer_factory.hpp:77] Creating layer layer_128_2_conv1
I0521 09:36:45.595749  3675 net.cpp:100] Creating Layer layer_128_2_conv1
I0521 09:36:45.595754  3675 net.cpp:434] layer_128_2_conv1 <- layer_128_2_bn1
I0521 09:36:45.595759  3675 net.cpp:408] layer_128_2_conv1 -> layer_128_2_conv1
I0521 09:36:45.597970  3675 net.cpp:150] Setting up layer_128_2_conv1
I0521 09:36:45.597987  3675 net.cpp:157] Top shape: 128 128 4 16 (1048576)
I0521 09:36:45.597990  3675 net.cpp:165] Memory required for data: 1340108288
I0521 09:36:45.597996  3675 layer_factory.hpp:77] Creating layer layer_128_2_bn2
I0521 09:36:45.598006  3675 net.cpp:100] Creating Layer layer_128_2_bn2
I0521 09:36:45.598011  3675 net.cpp:434] layer_128_2_bn2 <- layer_128_2_conv1
I0521 09:36:45.598016  3675 net.cpp:395] layer_128_2_bn2 -> layer_128_2_conv1 (in-place)
I0521 09:36:45.598148  3675 net.cpp:150] Setting up layer_128_2_bn2
I0521 09:36:45.598153  3675 net.cpp:157] Top shape: 128 128 4 16 (1048576)
I0521 09:36:45.598156  3675 net.cpp:165] Memory required for data: 1344302592
I0521 09:36:45.598179  3675 layer_factory.hpp:77] Creating layer layer_128_2_scale2
I0521 09:36:45.598186  3675 net.cpp:100] Creating Layer layer_128_2_scale2
I0521 09:36:45.598191  3675 net.cpp:434] layer_128_2_scale2 <- layer_128_2_conv1
I0521 09:36:45.598196  3675 net.cpp:395] layer_128_2_scale2 -> layer_128_2_conv1 (in-place)
I0521 09:36:45.598222  3675 layer_factory.hpp:77] Creating layer layer_128_2_scale2
I0521 09:36:45.598292  3675 net.cpp:150] Setting up layer_128_2_scale2
I0521 09:36:45.598297  3675 net.cpp:157] Top shape: 128 128 4 16 (1048576)
I0521 09:36:45.598299  3675 net.cpp:165] Memory required for data: 1348496896
I0521 09:36:45.598304  3675 layer_factory.hpp:77] Creating layer layer_128_2_relu2
I0521 09:36:45.598311  3675 net.cpp:100] Creating Layer layer_128_2_relu2
I0521 09:36:45.598316  3675 net.cpp:434] layer_128_2_relu2 <- layer_128_2_conv1
I0521 09:36:45.598320  3675 net.cpp:395] layer_128_2_relu2 -> layer_128_2_conv1 (in-place)
I0521 09:36:45.598687  3675 net.cpp:150] Setting up layer_128_2_relu2
I0521 09:36:45.598697  3675 net.cpp:157] Top shape: 128 128 4 16 (1048576)
I0521 09:36:45.598700  3675 net.cpp:165] Memory required for data: 1352691200
I0521 09:36:45.598703  3675 layer_factory.hpp:77] Creating layer layer_128_2_conv2
I0521 09:36:45.598714  3675 net.cpp:100] Creating Layer layer_128_2_conv2
I0521 09:36:45.598719  3675 net.cpp:434] layer_128_2_conv2 <- layer_128_2_conv1
I0521 09:36:45.598726  3675 net.cpp:408] layer_128_2_conv2 -> layer_128_2_conv2
I0521 09:36:45.601987  3675 net.cpp:150] Setting up layer_128_2_conv2
I0521 09:36:45.602005  3675 net.cpp:157] Top shape: 128 128 4 16 (1048576)
I0521 09:36:45.602006  3675 net.cpp:165] Memory required for data: 1356885504
I0521 09:36:45.602015  3675 layer_factory.hpp:77] Creating layer layer_128_2_bn3
I0521 09:36:45.602023  3675 net.cpp:100] Creating Layer layer_128_2_bn3
I0521 09:36:45.602028  3675 net.cpp:434] layer_128_2_bn3 <- layer_128_2_conv2
I0521 09:36:45.602035  3675 net.cpp:395] layer_128_2_bn3 -> layer_128_2_conv2 (in-place)
I0521 09:36:45.602171  3675 net.cpp:150] Setting up layer_128_2_bn3
I0521 09:36:45.602177  3675 net.cpp:157] Top shape: 128 128 4 16 (1048576)
I0521 09:36:45.602180  3675 net.cpp:165] Memory required for data: 1361079808
I0521 09:36:45.602187  3675 layer_factory.hpp:77] Creating layer layer_128_2_scale3
I0521 09:36:45.602195  3675 net.cpp:100] Creating Layer layer_128_2_scale3
I0521 09:36:45.602200  3675 net.cpp:434] layer_128_2_scale3 <- layer_128_2_conv2
I0521 09:36:45.602203  3675 net.cpp:395] layer_128_2_scale3 -> layer_128_2_conv2 (in-place)
I0521 09:36:45.602231  3675 layer_factory.hpp:77] Creating layer layer_128_2_scale3
I0521 09:36:45.602300  3675 net.cpp:150] Setting up layer_128_2_scale3
I0521 09:36:45.602305  3675 net.cpp:157] Top shape: 128 128 4 16 (1048576)
I0521 09:36:45.602308  3675 net.cpp:165] Memory required for data: 1365274112
I0521 09:36:45.602313  3675 layer_factory.hpp:77] Creating layer layer_128_2_relu3
I0521 09:36:45.602322  3675 net.cpp:100] Creating Layer layer_128_2_relu3
I0521 09:36:45.602325  3675 net.cpp:434] layer_128_2_relu3 <- layer_128_2_conv2
I0521 09:36:45.602330  3675 net.cpp:395] layer_128_2_relu3 -> layer_128_2_conv2 (in-place)
I0521 09:36:45.602670  3675 net.cpp:150] Setting up layer_128_2_relu3
I0521 09:36:45.602687  3675 net.cpp:157] Top shape: 128 128 4 16 (1048576)
I0521 09:36:45.602692  3675 net.cpp:165] Memory required for data: 1369468416
I0521 09:36:45.602697  3675 layer_factory.hpp:77] Creating layer layer_128_2_conv3
I0521 09:36:45.602710  3675 net.cpp:100] Creating Layer layer_128_2_conv3
I0521 09:36:45.602715  3675 net.cpp:434] layer_128_2_conv3 <- layer_128_2_conv2
I0521 09:36:45.602725  3675 net.cpp:408] layer_128_2_conv3 -> layer_128_2_conv3
I0521 09:36:45.604918  3675 net.cpp:150] Setting up layer_128_2_conv3
I0521 09:36:45.604933  3675 net.cpp:157] Top shape: 128 512 4 16 (4194304)
I0521 09:36:45.604934  3675 net.cpp:165] Memory required for data: 1386245632
I0521 09:36:45.604940  3675 layer_factory.hpp:77] Creating layer layer_128_2_sum
I0521 09:36:45.604964  3675 net.cpp:100] Creating Layer layer_128_2_sum
I0521 09:36:45.604967  3675 net.cpp:434] layer_128_2_sum <- layer_128_2_conv3
I0521 09:36:45.604971  3675 net.cpp:434] layer_128_2_sum <- layer_128_1_sum_layer_128_1_sum_0_split_1
I0521 09:36:45.604975  3675 net.cpp:408] layer_128_2_sum -> layer_128_2_sum
I0521 09:36:45.604993  3675 net.cpp:150] Setting up layer_128_2_sum
I0521 09:36:45.604998  3675 net.cpp:157] Top shape: 128 512 4 16 (4194304)
I0521 09:36:45.605000  3675 net.cpp:165] Memory required for data: 1403022848
I0521 09:36:45.605002  3675 layer_factory.hpp:77] Creating layer layer_128_2_sum_layer_128_2_sum_0_split
I0521 09:36:45.605007  3675 net.cpp:100] Creating Layer layer_128_2_sum_layer_128_2_sum_0_split
I0521 09:36:45.605010  3675 net.cpp:434] layer_128_2_sum_layer_128_2_sum_0_split <- layer_128_2_sum
I0521 09:36:45.605015  3675 net.cpp:408] layer_128_2_sum_layer_128_2_sum_0_split -> layer_128_2_sum_layer_128_2_sum_0_split_0
I0521 09:36:45.605020  3675 net.cpp:408] layer_128_2_sum_layer_128_2_sum_0_split -> layer_128_2_sum_layer_128_2_sum_0_split_1
I0521 09:36:45.605041  3675 net.cpp:150] Setting up layer_128_2_sum_layer_128_2_sum_0_split
I0521 09:36:45.605046  3675 net.cpp:157] Top shape: 128 512 4 16 (4194304)
I0521 09:36:45.605048  3675 net.cpp:157] Top shape: 128 512 4 16 (4194304)
I0521 09:36:45.605051  3675 net.cpp:165] Memory required for data: 1436577280
I0521 09:36:45.605053  3675 layer_factory.hpp:77] Creating layer layer_128_3_bn1
I0521 09:36:45.605058  3675 net.cpp:100] Creating Layer layer_128_3_bn1
I0521 09:36:45.605062  3675 net.cpp:434] layer_128_3_bn1 <- layer_128_2_sum_layer_128_2_sum_0_split_0
I0521 09:36:45.605064  3675 net.cpp:408] layer_128_3_bn1 -> layer_128_3_bn1
I0521 09:36:45.605195  3675 net.cpp:150] Setting up layer_128_3_bn1
I0521 09:36:45.605199  3675 net.cpp:157] Top shape: 128 512 4 16 (4194304)
I0521 09:36:45.605201  3675 net.cpp:165] Memory required for data: 1453354496
I0521 09:36:45.605206  3675 layer_factory.hpp:77] Creating layer layer_128_3_scale1
I0521 09:36:45.605211  3675 net.cpp:100] Creating Layer layer_128_3_scale1
I0521 09:36:45.605216  3675 net.cpp:434] layer_128_3_scale1 <- layer_128_3_bn1
I0521 09:36:45.605218  3675 net.cpp:395] layer_128_3_scale1 -> layer_128_3_bn1 (in-place)
I0521 09:36:45.605245  3675 layer_factory.hpp:77] Creating layer layer_128_3_scale1
I0521 09:36:45.605345  3675 net.cpp:150] Setting up layer_128_3_scale1
I0521 09:36:45.605353  3675 net.cpp:157] Top shape: 128 512 4 16 (4194304)
I0521 09:36:45.605356  3675 net.cpp:165] Memory required for data: 1470131712
I0521 09:36:45.605362  3675 layer_factory.hpp:77] Creating layer layer_128_3_relu1
I0521 09:36:45.605370  3675 net.cpp:100] Creating Layer layer_128_3_relu1
I0521 09:36:45.605376  3675 net.cpp:434] layer_128_3_relu1 <- layer_128_3_bn1
I0521 09:36:45.605381  3675 net.cpp:395] layer_128_3_relu1 -> layer_128_3_bn1 (in-place)
I0521 09:36:45.605890  3675 net.cpp:150] Setting up layer_128_3_relu1
I0521 09:36:45.605907  3675 net.cpp:157] Top shape: 128 512 4 16 (4194304)
I0521 09:36:45.605911  3675 net.cpp:165] Memory required for data: 1486908928
I0521 09:36:45.605916  3675 layer_factory.hpp:77] Creating layer layer_128_3_conv1
I0521 09:36:45.605929  3675 net.cpp:100] Creating Layer layer_128_3_conv1
I0521 09:36:45.605935  3675 net.cpp:434] layer_128_3_conv1 <- layer_128_3_bn1
I0521 09:36:45.605944  3675 net.cpp:408] layer_128_3_conv1 -> layer_128_3_conv1
I0521 09:36:45.609207  3675 net.cpp:150] Setting up layer_128_3_conv1
I0521 09:36:45.609225  3675 net.cpp:157] Top shape: 128 128 4 16 (1048576)
I0521 09:36:45.609230  3675 net.cpp:165] Memory required for data: 1491103232
I0521 09:36:45.609237  3675 layer_factory.hpp:77] Creating layer layer_128_3_bn2
I0521 09:36:45.609247  3675 net.cpp:100] Creating Layer layer_128_3_bn2
I0521 09:36:45.609253  3675 net.cpp:434] layer_128_3_bn2 <- layer_128_3_conv1
I0521 09:36:45.609261  3675 net.cpp:395] layer_128_3_bn2 -> layer_128_3_conv1 (in-place)
I0521 09:36:45.609454  3675 net.cpp:150] Setting up layer_128_3_bn2
I0521 09:36:45.609485  3675 net.cpp:157] Top shape: 128 128 4 16 (1048576)
I0521 09:36:45.609489  3675 net.cpp:165] Memory required for data: 1495297536
I0521 09:36:45.609499  3675 layer_factory.hpp:77] Creating layer layer_128_3_scale2
I0521 09:36:45.609509  3675 net.cpp:100] Creating Layer layer_128_3_scale2
I0521 09:36:45.609515  3675 net.cpp:434] layer_128_3_scale2 <- layer_128_3_conv1
I0521 09:36:45.609524  3675 net.cpp:395] layer_128_3_scale2 -> layer_128_3_conv1 (in-place)
I0521 09:36:45.609560  3675 layer_factory.hpp:77] Creating layer layer_128_3_scale2
I0521 09:36:45.609664  3675 net.cpp:150] Setting up layer_128_3_scale2
I0521 09:36:45.609674  3675 net.cpp:157] Top shape: 128 128 4 16 (1048576)
I0521 09:36:45.609678  3675 net.cpp:165] Memory required for data: 1499491840
I0521 09:36:45.609685  3675 layer_factory.hpp:77] Creating layer layer_128_3_relu2
I0521 09:36:45.609694  3675 net.cpp:100] Creating Layer layer_128_3_relu2
I0521 09:36:45.609699  3675 net.cpp:434] layer_128_3_relu2 <- layer_128_3_conv1
I0521 09:36:45.609704  3675 net.cpp:395] layer_128_3_relu2 -> layer_128_3_conv1 (in-place)
I0521 09:36:45.610074  3675 net.cpp:150] Setting up layer_128_3_relu2
I0521 09:36:45.610090  3675 net.cpp:157] Top shape: 128 128 4 16 (1048576)
I0521 09:36:45.610095  3675 net.cpp:165] Memory required for data: 1503686144
I0521 09:36:45.610100  3675 layer_factory.hpp:77] Creating layer layer_128_3_conv2
I0521 09:36:45.610112  3675 net.cpp:100] Creating Layer layer_128_3_conv2
I0521 09:36:45.610119  3675 net.cpp:434] layer_128_3_conv2 <- layer_128_3_conv1
I0521 09:36:45.610127  3675 net.cpp:408] layer_128_3_conv2 -> layer_128_3_conv2
I0521 09:36:45.613731  3675 net.cpp:150] Setting up layer_128_3_conv2
I0521 09:36:45.613754  3675 net.cpp:157] Top shape: 128 128 4 16 (1048576)
I0521 09:36:45.613757  3675 net.cpp:165] Memory required for data: 1507880448
I0521 09:36:45.613767  3675 layer_factory.hpp:77] Creating layer layer_128_3_bn3
I0521 09:36:45.613775  3675 net.cpp:100] Creating Layer layer_128_3_bn3
I0521 09:36:45.613780  3675 net.cpp:434] layer_128_3_bn3 <- layer_128_3_conv2
I0521 09:36:45.613788  3675 net.cpp:395] layer_128_3_bn3 -> layer_128_3_conv2 (in-place)
I0521 09:36:45.613989  3675 net.cpp:150] Setting up layer_128_3_bn3
I0521 09:36:45.614002  3675 net.cpp:157] Top shape: 128 128 4 16 (1048576)
I0521 09:36:45.614006  3675 net.cpp:165] Memory required for data: 1512074752
I0521 09:36:45.614015  3675 layer_factory.hpp:77] Creating layer layer_128_3_scale3
I0521 09:36:45.614023  3675 net.cpp:100] Creating Layer layer_128_3_scale3
I0521 09:36:45.614028  3675 net.cpp:434] layer_128_3_scale3 <- layer_128_3_conv2
I0521 09:36:45.614034  3675 net.cpp:395] layer_128_3_scale3 -> layer_128_3_conv2 (in-place)
I0521 09:36:45.614071  3675 layer_factory.hpp:77] Creating layer layer_128_3_scale3
I0521 09:36:45.614178  3675 net.cpp:150] Setting up layer_128_3_scale3
I0521 09:36:45.614187  3675 net.cpp:157] Top shape: 128 128 4 16 (1048576)
I0521 09:36:45.614192  3675 net.cpp:165] Memory required for data: 1516269056
I0521 09:36:45.614199  3675 layer_factory.hpp:77] Creating layer layer_128_3_relu3
I0521 09:36:45.614207  3675 net.cpp:100] Creating Layer layer_128_3_relu3
I0521 09:36:45.614213  3675 net.cpp:434] layer_128_3_relu3 <- layer_128_3_conv2
I0521 09:36:45.614219  3675 net.cpp:395] layer_128_3_relu3 -> layer_128_3_conv2 (in-place)
I0521 09:36:45.616017  3675 net.cpp:150] Setting up layer_128_3_relu3
I0521 09:36:45.616037  3675 net.cpp:157] Top shape: 128 128 4 16 (1048576)
I0521 09:36:45.616041  3675 net.cpp:165] Memory required for data: 1520463360
I0521 09:36:45.616047  3675 layer_factory.hpp:77] Creating layer layer_128_3_conv3
I0521 09:36:45.616063  3675 net.cpp:100] Creating Layer layer_128_3_conv3
I0521 09:36:45.616071  3675 net.cpp:434] layer_128_3_conv3 <- layer_128_3_conv2
I0521 09:36:45.616080  3675 net.cpp:408] layer_128_3_conv3 -> layer_128_3_conv3
I0521 09:36:45.618449  3675 net.cpp:150] Setting up layer_128_3_conv3
I0521 09:36:45.618470  3675 net.cpp:157] Top shape: 128 512 4 16 (4194304)
I0521 09:36:45.618499  3675 net.cpp:165] Memory required for data: 1537240576
I0521 09:36:45.618508  3675 layer_factory.hpp:77] Creating layer layer_128_3_sum
I0521 09:36:45.618520  3675 net.cpp:100] Creating Layer layer_128_3_sum
I0521 09:36:45.618525  3675 net.cpp:434] layer_128_3_sum <- layer_128_3_conv3
I0521 09:36:45.618532  3675 net.cpp:434] layer_128_3_sum <- layer_128_2_sum_layer_128_2_sum_0_split_1
I0521 09:36:45.618537  3675 net.cpp:408] layer_128_3_sum -> layer_128_3_sum
I0521 09:36:45.618569  3675 net.cpp:150] Setting up layer_128_3_sum
I0521 09:36:45.618578  3675 net.cpp:157] Top shape: 128 512 4 16 (4194304)
I0521 09:36:45.618582  3675 net.cpp:165] Memory required for data: 1554017792
I0521 09:36:45.618585  3675 layer_factory.hpp:77] Creating layer layer_128_3_sum_layer_128_3_sum_0_split
I0521 09:36:45.618592  3675 net.cpp:100] Creating Layer layer_128_3_sum_layer_128_3_sum_0_split
I0521 09:36:45.618597  3675 net.cpp:434] layer_128_3_sum_layer_128_3_sum_0_split <- layer_128_3_sum
I0521 09:36:45.618605  3675 net.cpp:408] layer_128_3_sum_layer_128_3_sum_0_split -> layer_128_3_sum_layer_128_3_sum_0_split_0
I0521 09:36:45.618613  3675 net.cpp:408] layer_128_3_sum_layer_128_3_sum_0_split -> layer_128_3_sum_layer_128_3_sum_0_split_1
I0521 09:36:45.618649  3675 net.cpp:150] Setting up layer_128_3_sum_layer_128_3_sum_0_split
I0521 09:36:45.618656  3675 net.cpp:157] Top shape: 128 512 4 16 (4194304)
I0521 09:36:45.618660  3675 net.cpp:157] Top shape: 128 512 4 16 (4194304)
I0521 09:36:45.618664  3675 net.cpp:165] Memory required for data: 1587572224
I0521 09:36:45.618667  3675 layer_factory.hpp:77] Creating layer layer_128_4_bn1
I0521 09:36:45.618674  3675 net.cpp:100] Creating Layer layer_128_4_bn1
I0521 09:36:45.618679  3675 net.cpp:434] layer_128_4_bn1 <- layer_128_3_sum_layer_128_3_sum_0_split_0
I0521 09:36:45.618685  3675 net.cpp:408] layer_128_4_bn1 -> layer_128_4_bn1
I0521 09:36:45.618872  3675 net.cpp:150] Setting up layer_128_4_bn1
I0521 09:36:45.618885  3675 net.cpp:157] Top shape: 128 512 4 16 (4194304)
I0521 09:36:45.618890  3675 net.cpp:165] Memory required for data: 1604349440
I0521 09:36:45.618898  3675 layer_factory.hpp:77] Creating layer layer_128_4_scale1
I0521 09:36:45.618908  3675 net.cpp:100] Creating Layer layer_128_4_scale1
I0521 09:36:45.618914  3675 net.cpp:434] layer_128_4_scale1 <- layer_128_4_bn1
I0521 09:36:45.618922  3675 net.cpp:395] layer_128_4_scale1 -> layer_128_4_bn1 (in-place)
I0521 09:36:45.618958  3675 layer_factory.hpp:77] Creating layer layer_128_4_scale1
I0521 09:36:45.619061  3675 net.cpp:150] Setting up layer_128_4_scale1
I0521 09:36:45.619071  3675 net.cpp:157] Top shape: 128 512 4 16 (4194304)
I0521 09:36:45.619076  3675 net.cpp:165] Memory required for data: 1621126656
I0521 09:36:45.619082  3675 layer_factory.hpp:77] Creating layer layer_128_4_relu1
I0521 09:36:45.619091  3675 net.cpp:100] Creating Layer layer_128_4_relu1
I0521 09:36:45.619096  3675 net.cpp:434] layer_128_4_relu1 <- layer_128_4_bn1
I0521 09:36:45.619102  3675 net.cpp:395] layer_128_4_relu1 -> layer_128_4_bn1 (in-place)
I0521 09:36:45.619638  3675 net.cpp:150] Setting up layer_128_4_relu1
I0521 09:36:45.619655  3675 net.cpp:157] Top shape: 128 512 4 16 (4194304)
I0521 09:36:45.619659  3675 net.cpp:165] Memory required for data: 1637903872
I0521 09:36:45.619664  3675 layer_factory.hpp:77] Creating layer layer_128_4_conv1
I0521 09:36:45.619678  3675 net.cpp:100] Creating Layer layer_128_4_conv1
I0521 09:36:45.619684  3675 net.cpp:434] layer_128_4_conv1 <- layer_128_4_bn1
I0521 09:36:45.619693  3675 net.cpp:408] layer_128_4_conv1 -> layer_128_4_conv1
I0521 09:36:45.622155  3675 net.cpp:150] Setting up layer_128_4_conv1
I0521 09:36:45.622179  3675 net.cpp:157] Top shape: 128 128 4 16 (1048576)
I0521 09:36:45.622184  3675 net.cpp:165] Memory required for data: 1642098176
I0521 09:36:45.622191  3675 layer_factory.hpp:77] Creating layer layer_128_4_bn2
I0521 09:36:45.622201  3675 net.cpp:100] Creating Layer layer_128_4_bn2
I0521 09:36:45.622206  3675 net.cpp:434] layer_128_4_bn2 <- layer_128_4_conv1
I0521 09:36:45.622236  3675 net.cpp:395] layer_128_4_bn2 -> layer_128_4_conv1 (in-place)
I0521 09:36:45.622433  3675 net.cpp:150] Setting up layer_128_4_bn2
I0521 09:36:45.622448  3675 net.cpp:157] Top shape: 128 128 4 16 (1048576)
I0521 09:36:45.622452  3675 net.cpp:165] Memory required for data: 1646292480
I0521 09:36:45.622462  3675 layer_factory.hpp:77] Creating layer layer_128_4_scale2
I0521 09:36:45.622475  3675 net.cpp:100] Creating Layer layer_128_4_scale2
I0521 09:36:45.622479  3675 net.cpp:434] layer_128_4_scale2 <- layer_128_4_conv1
I0521 09:36:45.622486  3675 net.cpp:395] layer_128_4_scale2 -> layer_128_4_conv1 (in-place)
I0521 09:36:45.622524  3675 layer_factory.hpp:77] Creating layer layer_128_4_scale2
I0521 09:36:45.622632  3675 net.cpp:150] Setting up layer_128_4_scale2
I0521 09:36:45.622642  3675 net.cpp:157] Top shape: 128 128 4 16 (1048576)
I0521 09:36:45.622644  3675 net.cpp:165] Memory required for data: 1650486784
I0521 09:36:45.622650  3675 layer_factory.hpp:77] Creating layer layer_128_4_relu2
I0521 09:36:45.622658  3675 net.cpp:100] Creating Layer layer_128_4_relu2
I0521 09:36:45.622663  3675 net.cpp:434] layer_128_4_relu2 <- layer_128_4_conv1
I0521 09:36:45.622669  3675 net.cpp:395] layer_128_4_relu2 -> layer_128_4_conv1 (in-place)
I0521 09:36:45.623049  3675 net.cpp:150] Setting up layer_128_4_relu2
I0521 09:36:45.623067  3675 net.cpp:157] Top shape: 128 128 4 16 (1048576)
I0521 09:36:45.623071  3675 net.cpp:165] Memory required for data: 1654681088
I0521 09:36:45.623076  3675 layer_factory.hpp:77] Creating layer layer_128_4_conv2
I0521 09:36:45.623096  3675 net.cpp:100] Creating Layer layer_128_4_conv2
I0521 09:36:45.623102  3675 net.cpp:434] layer_128_4_conv2 <- layer_128_4_conv1
I0521 09:36:45.623111  3675 net.cpp:408] layer_128_4_conv2 -> layer_128_4_conv2
I0521 09:36:45.627045  3675 net.cpp:150] Setting up layer_128_4_conv2
I0521 09:36:45.627077  3675 net.cpp:157] Top shape: 128 128 4 16 (1048576)
I0521 09:36:45.627081  3675 net.cpp:165] Memory required for data: 1658875392
I0521 09:36:45.627105  3675 layer_factory.hpp:77] Creating layer layer_128_4_bn3
I0521 09:36:45.627120  3675 net.cpp:100] Creating Layer layer_128_4_bn3
I0521 09:36:45.627126  3675 net.cpp:434] layer_128_4_bn3 <- layer_128_4_conv2
I0521 09:36:45.627138  3675 net.cpp:395] layer_128_4_bn3 -> layer_128_4_conv2 (in-place)
I0521 09:36:45.627344  3675 net.cpp:150] Setting up layer_128_4_bn3
I0521 09:36:45.627358  3675 net.cpp:157] Top shape: 128 128 4 16 (1048576)
I0521 09:36:45.627362  3675 net.cpp:165] Memory required for data: 1663069696
I0521 09:36:45.627372  3675 layer_factory.hpp:77] Creating layer layer_128_4_scale3
I0521 09:36:45.627382  3675 net.cpp:100] Creating Layer layer_128_4_scale3
I0521 09:36:45.627388  3675 net.cpp:434] layer_128_4_scale3 <- layer_128_4_conv2
I0521 09:36:45.627394  3675 net.cpp:395] layer_128_4_scale3 -> layer_128_4_conv2 (in-place)
I0521 09:36:45.627430  3675 layer_factory.hpp:77] Creating layer layer_128_4_scale3
I0521 09:36:45.627537  3675 net.cpp:150] Setting up layer_128_4_scale3
I0521 09:36:45.627549  3675 net.cpp:157] Top shape: 128 128 4 16 (1048576)
I0521 09:36:45.627553  3675 net.cpp:165] Memory required for data: 1667264000
I0521 09:36:45.627558  3675 layer_factory.hpp:77] Creating layer layer_128_4_relu3
I0521 09:36:45.627565  3675 net.cpp:100] Creating Layer layer_128_4_relu3
I0521 09:36:45.627569  3675 net.cpp:434] layer_128_4_relu3 <- layer_128_4_conv2
I0521 09:36:45.627574  3675 net.cpp:395] layer_128_4_relu3 -> layer_128_4_conv2 (in-place)
I0521 09:36:45.628070  3675 net.cpp:150] Setting up layer_128_4_relu3
I0521 09:36:45.628087  3675 net.cpp:157] Top shape: 128 128 4 16 (1048576)
I0521 09:36:45.628091  3675 net.cpp:165] Memory required for data: 1671458304
I0521 09:36:45.628095  3675 layer_factory.hpp:77] Creating layer layer_128_4_conv3
I0521 09:36:45.628108  3675 net.cpp:100] Creating Layer layer_128_4_conv3
I0521 09:36:45.628114  3675 net.cpp:434] layer_128_4_conv3 <- layer_128_4_conv2
I0521 09:36:45.628121  3675 net.cpp:408] layer_128_4_conv3 -> layer_128_4_conv3
I0521 09:36:45.632685  3675 net.cpp:150] Setting up layer_128_4_conv3
I0521 09:36:45.632745  3675 net.cpp:157] Top shape: 128 512 4 16 (4194304)
I0521 09:36:45.632750  3675 net.cpp:165] Memory required for data: 1688235520
I0521 09:36:45.632761  3675 layer_factory.hpp:77] Creating layer layer_128_4_sum
I0521 09:36:45.632772  3675 net.cpp:100] Creating Layer layer_128_4_sum
I0521 09:36:45.632778  3675 net.cpp:434] layer_128_4_sum <- layer_128_4_conv3
I0521 09:36:45.632793  3675 net.cpp:434] layer_128_4_sum <- layer_128_3_sum_layer_128_3_sum_0_split_1
I0521 09:36:45.632800  3675 net.cpp:408] layer_128_4_sum -> layer_128_4_sum
I0521 09:36:45.632843  3675 net.cpp:150] Setting up layer_128_4_sum
I0521 09:36:45.632850  3675 net.cpp:157] Top shape: 128 512 4 16 (4194304)
I0521 09:36:45.632853  3675 net.cpp:165] Memory required for data: 1705012736
I0521 09:36:45.632858  3675 layer_factory.hpp:77] Creating layer last_bn
I0521 09:36:45.632865  3675 net.cpp:100] Creating Layer last_bn
I0521 09:36:45.632869  3675 net.cpp:434] last_bn <- layer_128_4_sum
I0521 09:36:45.632874  3675 net.cpp:395] last_bn -> layer_128_4_sum (in-place)
I0521 09:36:45.633065  3675 net.cpp:150] Setting up last_bn
I0521 09:36:45.633075  3675 net.cpp:157] Top shape: 128 512 4 16 (4194304)
I0521 09:36:45.633080  3675 net.cpp:165] Memory required for data: 1721789952
I0521 09:36:45.633087  3675 layer_factory.hpp:77] Creating layer last_scale
I0521 09:36:45.633095  3675 net.cpp:100] Creating Layer last_scale
I0521 09:36:45.633100  3675 net.cpp:434] last_scale <- layer_128_4_sum
I0521 09:36:45.633108  3675 net.cpp:395] last_scale -> layer_128_4_sum (in-place)
I0521 09:36:45.633142  3675 layer_factory.hpp:77] Creating layer last_scale
I0521 09:36:45.633246  3675 net.cpp:150] Setting up last_scale
I0521 09:36:45.633255  3675 net.cpp:157] Top shape: 128 512 4 16 (4194304)
I0521 09:36:45.633258  3675 net.cpp:165] Memory required for data: 1738567168
I0521 09:36:45.633265  3675 layer_factory.hpp:77] Creating layer last_relu
I0521 09:36:45.633272  3675 net.cpp:100] Creating Layer last_relu
I0521 09:36:45.633275  3675 net.cpp:434] last_relu <- layer_128_4_sum
I0521 09:36:45.633281  3675 net.cpp:395] last_relu -> layer_128_4_sum (in-place)
I0521 09:36:45.633649  3675 net.cpp:150] Setting up last_relu
I0521 09:36:45.633666  3675 net.cpp:157] Top shape: 128 512 4 16 (4194304)
I0521 09:36:45.633671  3675 net.cpp:165] Memory required for data: 1755344384
I0521 09:36:45.633675  3675 layer_factory.hpp:77] Creating layer dropout
I0521 09:36:45.633684  3675 net.cpp:100] Creating Layer dropout
I0521 09:36:45.633689  3675 net.cpp:434] dropout <- layer_128_4_sum
I0521 09:36:45.633695  3675 net.cpp:395] dropout -> layer_128_4_sum (in-place)
I0521 09:36:45.633734  3675 net.cpp:150] Setting up dropout
I0521 09:36:45.633743  3675 net.cpp:157] Top shape: 128 512 4 16 (4194304)
I0521 09:36:45.633745  3675 net.cpp:165] Memory required for data: 1772121600
I0521 09:36:45.633749  3675 layer_factory.hpp:77] Creating layer permuted_data
I0521 09:36:45.633765  3675 net.cpp:100] Creating Layer permuted_data
I0521 09:36:45.633800  3675 net.cpp:434] permuted_data <- layer_128_4_sum
I0521 09:36:45.633817  3675 net.cpp:408] permuted_data -> permuted_data
I0521 09:36:45.633929  3675 net.cpp:150] Setting up permuted_data
I0521 09:36:45.633939  3675 net.cpp:157] Top shape: 16 128 512 4 (4194304)
I0521 09:36:45.633944  3675 net.cpp:165] Memory required for data: 1788898816
I0521 09:36:45.633946  3675 layer_factory.hpp:77] Creating layer permuted_data_permuted_data_0_split
I0521 09:36:45.633954  3675 net.cpp:100] Creating Layer permuted_data_permuted_data_0_split
I0521 09:36:45.633957  3675 net.cpp:434] permuted_data_permuted_data_0_split <- permuted_data
I0521 09:36:45.633963  3675 net.cpp:408] permuted_data_permuted_data_0_split -> permuted_data_permuted_data_0_split_0
I0521 09:36:45.633970  3675 net.cpp:408] permuted_data_permuted_data_0_split -> permuted_data_permuted_data_0_split_1
I0521 09:36:45.634001  3675 net.cpp:150] Setting up permuted_data_permuted_data_0_split
I0521 09:36:45.634009  3675 net.cpp:157] Top shape: 16 128 512 4 (4194304)
I0521 09:36:45.634029  3675 net.cpp:157] Top shape: 16 128 512 4 (4194304)
I0521 09:36:45.634032  3675 net.cpp:165] Memory required for data: 1822453248
I0521 09:36:45.634037  3675 layer_factory.hpp:77] Creating layer lstm-reverse1
I0521 09:36:45.634044  3675 net.cpp:100] Creating Layer lstm-reverse1
I0521 09:36:45.634048  3675 net.cpp:434] lstm-reverse1 <- permuted_data_permuted_data_0_split_0
I0521 09:36:45.634054  3675 net.cpp:408] lstm-reverse1 -> rlstm_input
I0521 09:36:45.634074  3675 net.cpp:150] Setting up lstm-reverse1
I0521 09:36:45.634083  3675 net.cpp:157] Top shape: 16 128 512 4 (4194304)
I0521 09:36:45.634085  3675 net.cpp:165] Memory required for data: 1839230464
I0521 09:36:45.634089  3675 layer_factory.hpp:77] Creating layer lstm2x
I0521 09:36:45.634101  3675 net.cpp:100] Creating Layer lstm2x
I0521 09:36:45.634105  3675 net.cpp:434] lstm2x <- rlstm_input
I0521 09:36:45.634110  3675 net.cpp:434] lstm2x <- indicator_indicator_0_split_0
I0521 09:36:45.634115  3675 net.cpp:408] lstm2x -> lstm2x
I0521 09:36:45.634124  3675 recurrent_layer.cpp:20] Initializing recurrent layer: assuming input batch contains 16 timesteps of 128 independent streams.
I0521 09:36:45.634752  3675 net.cpp:58] Initializing net from parameters: 
layer {
  name: "lstm2x_"
  type: "Input"
  top: "x"
  top: "cont"
  input_param {
    shape {
      dim: 16
      dim: 128
      dim: 512
      dim: 4
    }
    shape {
      dim: 16
      dim: 128
    }
  }
}
layer {
  name: "lstm2x_"
  type: "Input"
  top: "c_0"
  top: "h_0"
  input_param {
    shape {
      dim: 1
      dim: 128
      dim: 100
    }
    shape {
      dim: 1
      dim: 128
      dim: 100
    }
  }
}
layer {
  name: "lstm2x_cont_slice"
  type: "Slice"
  bottom: "cont"
  top: "cont_1"
  top: "cont_2"
  top: "cont_3"
  top: "cont_4"
  top: "cont_5"
  top: "cont_6"
  top: "cont_7"
  top: "cont_8"
  top: "cont_9"
  top: "cont_10"
  top: "cont_11"
  top: "cont_12"
  top: "cont_13"
  top: "cont_14"
  top: "cont_15"
  top: "cont_16"
  slice_param {
    axis: 0
  }
}
layer {
  name: "lstm2x_x_transform"
  type: "InnerProduct"
  bottom: "x"
  top: "W_xc_x"
  param {
    name: "W_xc"
  }
  param {
    name: "b_c"
  }
  propagate_down: true
  inner_product_param {
    num_output: 400
    bias_term: true
    weight_filler {
      type: "xavier"
    }
    bias_filler {
      type: "constant"
      value: 0
    }
    axis: 2
  }
}
layer {
  name: "lstm2x_W_xc_x_slice"
  type: "Slice"
  bottom: "W_xc_x"
  top: "W_xc_x_1"
  top: "W_xc_x_2"
  top: "W_xc_x_3"
  top: "W_xc_x_4"
  top: "W_xc_x_5"
  top: "W_xc_x_6"
  top: "W_xc_x_7"
  top: "W_xc_x_8"
  top: "W_xc_x_9"
  top: "W_xc_x_10"
  top: "W_xc_x_11"
  top: "W_xc_x_12"
  top: "W_xc_x_13"
  top: "W_xc_x_14"
  top: "W_xc_x_15"
  top: "W_xc_x_16"
  slice_param {
    axis: 0
  }
}
layer {
  name: "lstm2x_h_conted_0"
  type: "Scale"
  bottom: "h_0"
  bottom: "cont_1"
  top: "h_conted_0"
  scale_param {
    axis: 0
  }
}
layer {
  name: "lstm2x_transform_1"
  type: "InnerProduct"
  bottom: "h_conted_0"
  top: "W_hc_h_0"
  param {
    name: "W_hc"
  }
  inner_product_param {
    num_output: 400
    bias_term: false
    weight_filler {
      type: "xavier"
    }
    axis: 2
  }
}
layer {
  name: "lstm2x_gate_input_1"
  type: "Eltwise"
  bottom: "W_hc_h_0"
  bottom: "W_xc_x_1"
  top: "gate_input_1"
  eltwise_param {
    operation: SUM
  }
}
layer {
  name: "lstm2x_unit_1"
  type: "LSTMUnit"
  bottom: "c_0"
  bottom: "gate_input_1"
  bottom: "cont_1"
  top: "c_1"
  top: "h_1"
}
layer {
  name: "lstm2x_h_conted_1"
  type: "Scale"
  bottom: "h_1"
  bottom: "cont_2"
  top: "h_conted_1"
  scale_param {
    axis: 0
  }
}
layer {
  name: "lstm2x_transform_2"
  type: "InnerProduct"
  bottom: "h_conted_1"
  top: "W_hc_h_1"
  param {
    name: "W_hc"
  }
  inner_product_param {
    num_output: 400
    bias_term: false
    weight_filler {
      type: "xavier"
    }
    axis: 2
  }
}
layer {
  name: "lstm2x_gate_input_2"
  type: "Eltwise"
  bottom: "W_hc_h_1"
  bottom: "W_xc_x_2"
  top: "gate_input_2"
  eltwise_param {
    operation: SUM
  }
}
layer {
  name: "lstm2x_unit_2"
  type: "LSTMUnit"
  bottom: "c_1"
  bottom: "gate_input_2"
  bottom: "cont_2"
  top: "c_2"
  top: "h_2"
}
layer {
  name: "lstm2x_h_conted_2"
  type: "Scale"
  bottom: "h_2"
  bottom: "cont_3"
  top: "h_conted_2"
  scale_param {
    axis: 0
  }
}
layer {
  name: "lstm2x_transform_3"
  type: "InnerProduct"
  bottom: "h_conted_2"
  top: "W_hc_h_2"
  param {
    name: "W_hc"
  }
  inner_product_param {
    num_output: 400
    bias_term: false
    weight_filler {
      type: "xavier"
    }
    axis: 2
  }
}
layer {
  name: "lstm2x_gate_input_3"
  type: "Eltwise"
  bottom: "W_hc_h_2"
  bottom: "W_xc_x_3"
  top: "gate_input_3"
  eltwise_param {
    operation: SUM
  }
}
layer {
  name: "lstm2x_unit_3"
  type: "LSTMUnit"
  bottom: "c_2"
  bottom: "gate_input_3"
  bottom: "cont_3"
  top: "c_3"
  top: "h_3"
}
layer {
  name: "lstm2x_h_conted_3"
  type: "Scale"
  bottom: "h_3"
  bottom: "cont_4"
  top: "h_conted_3"
  scale_param {
    axis: 0
  }
}
layer {
  name: "lstm2x_transform_4"
  type: "InnerProduct"
  bottom: "h_conted_3"
  top: "W_hc_h_3"
  param {
    name: "W_hc"
  }
  inner_product_param {
    num_output: 400
    bias_term: false
    weight_filler {
      type: "xavier"
    }
    axis: 2
  }
}
layer {
  name: "lstm2x_gate_input_4"
  type: "Eltwise"
  bottom: "W_hc_h_3"
  bottom: "W_xc_x_4"
  top: "gate_input_4"
  eltwise_param {
    operation: SUM
  }
}
layer {
  name: "lstm2x_unit_4"
  type: "LSTMUnit"
  bottom: "c_3"
  bottom: "gate_input_4"
  bottom: "cont_4"
  top: "c_4"
  top: "h_4"
}
layer {
  name: "lstm2x_h_conted_4"
  type: "Scale"
  bottom: "h_4"
  bottom: "cont_5"
  top: "h_conted_4"
  scale_param {
    axis: 0
  }
}
layer {
  name: "lstm2x_transform_5"
  type: "InnerProduct"
  bottom: "h_conted_4"
  top: "W_hc_h_4"
  param {
    name: "W_hc"
  }
  inner_product_param {
    num_output: 400
    bias_term: false
    weight_filler {
      type: "xavier"
    }
    axis: 2
  }
}
layer {
  name: "lstm2x_gate_input_5"
  type: "Eltwise"
  bottom: "W_hc_h_4"
  bottom: "W_xc_x_5"
  top: "gate_input_5"
  eltwise_param {
    operation: SUM
  }
}
layer {
  name: "lstm2x_unit_5"
  type: "LSTMUnit"
  bottom: "c_4"
  bottom: "gate_input_5"
  bottom: "cont_5"
  top: "c_5"
  top: "h_5"
}
layer {
  name: "lstm2x_h_conted_5"
  type: "Scale"
  bottom: "h_5"
  bottom: "cont_6"
  top: "h_conted_5"
  scale_param {
    axis: 0
  }
}
layer {
  name: "lstm2x_transform_6"
  type: "InnerProduct"
  bottom: "h_conted_5"
  top: "W_hc_h_5"
  param {
    name: "W_hc"
  }
  inner_product_param {
    num_output: 400
    bias_term: false
    weight_filler {
      type: "xavier"
    }
    axis: 2
  }
}
layer {
  name: "lstm2x_gate_input_6"
  type: "Eltwise"
  bottom: "W_hc_h_5"
  bottom: "W_xc_x_6"
  top: "gate_input_6"
  eltwise_param {
    operation: SUM
  }
}
layer {
  name: "lstm2x_unit_6"
  type: "LSTMUnit"
  bottom: "c_5"
  bottom: "gate_input_6"
  bottom: "cont_6"
  top: "c_6"
  top: "h_6"
}
layer {
  name: "lstm2x_h_conted_6"
  type: "Scale"
  bottom: "h_6"
  bottom: "cont_7"
  top: "h_conted_6"
  scale_param {
    axis: 0
  }
}
layer {
  name: "lstm2x_transform_7"
  type: "InnerProduct"
  bottom: "h_conted_6"
  top: "W_hc_h_6"
  param {
    name: "W_hc"
  }
  inner_product_param {
    num_output: 400
    bias_term: false
    weight_filler {
      type: "xavier"
    }
    axis: 2
  }
}
layer {
  name: "lstm2x_gate_input_7"
  type: "Eltwise"
  bottom: "W_hc_h_6"
  bottom: "W_xc_x_7"
  top: "gate_input_7"
  eltwise_param {
    operation: SUM
  }
}
layer {
  name: "lstm2x_unit_7"
  type: "LSTMUnit"
  bottom: "c_6"
  bottom: "gate_input_7"
  bottom: "cont_7"
  top: "c_7"
  top: "h_7"
}
layer {
  name: "lstm2x_h_conted_7"
  type: "Scale"
  bottom: "h_7"
  bottom: "cont_8"
  top: "h_conted_7"
  scale_param {
    axis: 0
  }
}
layer {
  name: "lstm2x_transform_8"
  type: "InnerProduct"
  bottom: "h_conted_7"
  top: "W_hc_h_7"
  param {
    name: "W_hc"
  }
  inner_product_param {
    num_output: 400
    bias_term: false
    weight_filler {
      type: "xavier"
    }
    axis: 2
  }
}
layer {
  name: "lstm2x_gate_input_8"
  type: "Eltwise"
  bottom: "W_hc_h_7"
  bottom: "W_xc_x_8"
  top: "gate_input_8"
  eltwise_param {
    operation: SUM
  }
}
layer {
  name: "lstm2x_unit_8"
  type: "LSTMUnit"
  bottom: "c_7"
  bottom: "gate_input_8"
  bottom: "cont_8"
  top: "c_8"
  top: "h_8"
}
layer {
  name: "lstm2x_h_conted_8"
  type: "Scale"
  bottom: "h_8"
  bottom: "cont_9"
  top: "h_conted_8"
  scale_param {
    axis: 0
  }
}
layer {
  name: "lstm2x_transform_9"
  type: "InnerProduct"
  bottom: "h_conted_8"
  top: "W_hc_h_8"
  param {
    name: "W_hc"
  }
  inner_product_param {
    num_output: 400
    bias_term: false
    weight_filler {
      type: "xavier"
    }
    axis: 2
  }
}
layer {
  name: "lstm2x_gate_input_9"
  type: "Eltwise"
  bottom: "W_hc_h_8"
  bottom: "W_xc_x_9"
  top: "gate_input_9"
  eltwise_param {
    operation: SUM
  }
}
layer {
  name: "lstm2x_unit_9"
  type: "LSTMUnit"
  bottom: "c_8"
  bottom: "gate_input_9"
  bottom: "cont_9"
  top: "c_9"
  top: "h_9"
}
layer {
  name: "lstm2x_h_conted_9"
  type: "Scale"
  bottom: "h_9"
  bottom: "cont_10"
  top: "h_conted_9"
  scale_param {
    axis: 0
  }
}
layer {
  name: "lstm2x_transform_10"
  type: "InnerProduct"
  bottom: "h_conted_9"
  top: "W_hc_h_9"
  param {
    name: "W_hc"
  }
  inner_product_param {
    num_output: 400
    bias_term: false
    weight_filler {
      type: "xavier"
    }
    axis: 2
  }
}
layer {
  name: "lstm2x_gate_input_10"
  type: "Eltwise"
  bottom: "W_hc_h_9"
  bottom: "W_xc_x_10"
  top: "gate_input_10"
  eltwise_param {
    operation: SUM
  }
}
layer {
  name: "lstm2x_unit_10"
  type: "LSTMUnit"
  bottom: "c_9"
  bottom: "gate_input_10"
  bottom: "cont_10"
  top: "c_10"
  top: "h_10"
}
layer {
  name: "lstm2x_h_conted_10"
  type: "Scale"
  bottom: "h_10"
  bottom: "cont_11"
  top: "h_conted_10"
  scale_param {
    axis: 0
  }
}
layer {
  name: "lstm2x_transform_11"
  type: "InnerProduct"
  bottom: "h_conted_10"
  top: "W_hc_h_10"
  param {
    name: "W_hc"
  }
  inner_product_param {
    num_output: 400
    bias_term: false
    weight_filler {
      type: "xavier"
    }
    axis: 2
  }
}
layer {
  name: "lstm2x_gate_input_11"
  type: "Eltwise"
  bottom: "W_hc_h_10"
  bottom: "W_xc_x_11"
  top: "gate_input_11"
  eltwise_param {
    operation: SUM
  }
}
layer {
  name: "lstm2x_unit_11"
  type: "LSTMUnit"
  bottom: "c_10"
  bottom: "gate_input_11"
  bottom: "cont_11"
  top: "c_11"
  top: "h_11"
}
layer {
  name: "lstm2x_h_conted_11"
  type: "Scale"
  bottom: "h_11"
  bottom: "cont_12"
  top: "h_conted_11"
  scale_param {
    axis: 0
  }
}
layer {
  name: "lstm2x_transform_12"
  type: "InnerProduct"
  bottom: "h_conted_11"
  top: "W_hc_h_11"
  param {
    name: "W_hc"
  }
  inner_product_param {
    num_output: 400
    bias_term: false
    weight_filler {
      type: "xavier"
    }
    axis: 2
  }
}
layer {
  name: "lstm2x_gate_input_12"
  type: "Eltwise"
  bottom: "W_hc_h_11"
  bottom: "W_xc_x_12"
  top: "gate_input_12"
  eltwise_param {
    operation: SUM
  }
}
layer {
  name: "lstm2x_unit_12"
  type: "LSTMUnit"
  bottom: "c_11"
  bottom: "gate_input_12"
  bottom: "cont_12"
  top: "c_12"
  top: "h_12"
}
layer {
  name: "lstm2x_h_conted_12"
  type: "Scale"
  bottom: "h_12"
  bottom: "cont_13"
  top: "h_conted_12"
  scale_param {
    axis: 0
  }
}
layer {
  name: "lstm2x_transform_13"
  type: "InnerProduct"
  bottom: "h_conted_12"
  top: "W_hc_h_12"
  param {
    name: "W_hc"
  }
  inner_product_param {
    num_output: 400
    bias_term: false
    weight_filler {
      type: "xavier"
    }
    axis: 2
  }
}
layer {
  name: "lstm2x_gate_input_13"
  type: "Eltwise"
  bottom: "W_hc_h_12"
  bottom: "W_xc_x_13"
  top: "gate_input_13"
  eltwise_param {
    operation: SUM
  }
}
layer {
  name: "lstm2x_unit_13"
  type: "LSTMUnit"
  bottom: "c_12"
  bottom: "gate_input_13"
  bottom: "cont_13"
  top: "c_13"
  top: "h_13"
}
layer {
  name: "lstm2x_h_conted_13"
  type: "Scale"
  bottom: "h_13"
  bottom: "cont_14"
  top: "h_conted_13"
  scale_param {
    axis: 0
  }
}
layer {
  name: "lstm2x_transform_14"
  type: "InnerProduct"
  bottom: "h_conted_13"
  top: "W_hc_h_13"
  param {
    name: "W_hc"
  }
  inner_product_param {
    num_output: 400
    bias_term: false
    weight_filler {
      type: "xavier"
    }
    axis: 2
  }
}
layer {
  name: "lstm2x_gate_input_14"
  type: "Eltwise"
  bottom: "W_hc_h_13"
  bottom: "W_xc_x_14"
  top: "gate_input_14"
  eltwise_param {
    operation: SUM
  }
}
layer {
  name: "lstm2x_unit_14"
  type: "LSTMUnit"
  bottom: "c_13"
  bottom: "gate_input_14"
  bottom: "cont_14"
  top: "c_14"
  top: "h_14"
}
layer {
  name: "lstm2x_h_conted_14"
  type: "Scale"
  bottom: "h_14"
  bottom: "cont_15"
  top: "h_conted_14"
  scale_param {
    axis: 0
  }
}
layer {
  name: "lstm2x_transform_15"
  type: "InnerProduct"
  bottom: "h_conted_14"
  top: "W_hc_h_14"
  param {
    name: "W_hc"
  }
  inner_product_param {
    num_output: 400
    bias_term: false
    weight_filler {
      type: "xavier"
    }
    axis: 2
  }
}
layer {
  name: "lstm2x_gate_input_15"
  type: "Eltwise"
  bottom: "W_hc_h_14"
  bottom: "W_xc_x_15"
  top: "gate_input_15"
  eltwise_param {
    operation: SUM
  }
}
layer {
  name: "lstm2x_unit_15"
  type: "LSTMUnit"
  bottom: "c_14"
  bottom: "gate_input_15"
  bottom: "cont_15"
  top: "c_15"
  top: "h_15"
}
layer {
  name: "lstm2x_h_conted_15"
  type: "Scale"
  bottom: "h_15"
  bottom: "cont_16"
  top: "h_conted_15"
  scale_param {
    axis: 0
  }
}
layer {
  name: "lstm2x_transform_16"
  type: "InnerProduct"
  bottom: "h_conted_15"
  top: "W_hc_h_15"
  param {
    name: "W_hc"
  }
  inner_product_param {
    num_output: 400
    bias_term: false
    weight_filler {
      type: "xavier"
    }
    axis: 2
  }
}
layer {
  name: "lstm2x_gate_input_16"
  type: "Eltwise"
  bottom: "W_hc_h_15"
  bottom: "W_xc_x_16"
  top: "gate_input_16"
  eltwise_param {
    operation: SUM
  }
}
layer {
  name: "lstm2x_unit_16"
  type: "LSTMUnit"
  bottom: "c_15"
  bottom: "gate_input_16"
  bottom: "cont_16"
  top: "c_16"
  top: "h_16"
}
layer {
  name: "lstm2x_"
  type: "Split"
  bottom: "c_16"
  top: "c_T"
}
layer {
  name: "lstm2x_h_concat"
  type: "Concat"
  bottom: "h_1"
  bottom: "h_2"
  bottom: "h_3"
  bottom: "h_4"
  bottom: "h_5"
  bottom: "h_6"
  bottom: "h_7"
  bottom: "h_8"
  bottom: "h_9"
  bottom: "h_10"
  bottom: "h_11"
  bottom: "h_12"
  bottom: "h_13"
  bottom: "h_14"
  bottom: "h_15"
  bottom: "h_16"
  top: "h"
  concat_param {
    axis: 0
  }
}
layer {
  name: "h_pseudoloss"
  type: "Reduction"
  bottom: "h"
  top: "h_pseudoloss"
  loss_weight: 1
}
I0521 09:36:45.635274  3675 layer_factory.hpp:77] Creating layer lstm2x_
I0521 09:36:45.635287  3675 net.cpp:100] Creating Layer lstm2x_
I0521 09:36:45.635293  3675 net.cpp:408] lstm2x_ -> x
I0521 09:36:45.635305  3675 net.cpp:408] lstm2x_ -> cont
I0521 09:36:45.635362  3675 net.cpp:150] Setting up lstm2x_
I0521 09:36:45.635370  3675 net.cpp:157] Top shape: 16 128 512 4 (4194304)
I0521 09:36:45.635373  3675 net.cpp:157] Top shape: 16 128 (2048)
I0521 09:36:45.635377  3675 net.cpp:165] Memory required for data: 16785408
I0521 09:36:45.635381  3675 layer_factory.hpp:77] Creating layer lstm2x_
I0521 09:36:45.635386  3675 net.cpp:100] Creating Layer lstm2x_
I0521 09:36:45.635391  3675 net.cpp:408] lstm2x_ -> c_0
I0521 09:36:45.635398  3675 net.cpp:408] lstm2x_ -> h_0
I0521 09:36:45.635443  3675 net.cpp:150] Setting up lstm2x_
I0521 09:36:45.635449  3675 net.cpp:157] Top shape: 1 128 100 (12800)
I0521 09:36:45.635453  3675 net.cpp:157] Top shape: 1 128 100 (12800)
I0521 09:36:45.635457  3675 net.cpp:165] Memory required for data: 16887808
I0521 09:36:45.635460  3675 layer_factory.hpp:77] Creating layer lstm2x_cont_slice
I0521 09:36:45.635474  3675 net.cpp:100] Creating Layer lstm2x_cont_slice
I0521 09:36:45.635478  3675 net.cpp:434] lstm2x_cont_slice <- cont
I0521 09:36:45.635484  3675 net.cpp:408] lstm2x_cont_slice -> cont_1
I0521 09:36:45.635493  3675 net.cpp:408] lstm2x_cont_slice -> cont_2
…
I0521 09:36:45.635553  3675 net.cpp:408] lstm2x_cont_slice -> cont_10
I0521 09:36:45.635560  3675 net.cpp:408] lstm2x_cont_slice -> cont_11
I0521 09:36:45.635565  3675 net.cpp:408] lstm2x_cont_slice -> cont_12
I0521 09:36:45.635571  3675 net.cpp:408] lstm2x_cont_slice -> cont_13
I0521 09:36:45.635579  3675 net.cpp:408] lstm2x_cont_slice -> cont_14
I0521 09:36:45.635584  3675 net.cpp:408] lstm2x_cont_slice -> cont_15
I0521 09:36:45.635591  3675 net.cpp:408] lstm2x_cont_slice -> cont_16
I0521 09:36:45.635794  3675 net.cpp:150] Setting up lstm2x_cont_slice
I0521 09:36:45.635802  3675 net.cpp:157] Top shape: 1 128 (128)
I0521 09:36:45.635805  3675 net.cpp:157] Top shape: 1 128 (128)
I0521 09:36:45.635809  3675 net.cpp:157] Top shape: 1 128 (128)
I0521 09:36:45.635813  3675 net.cpp:157] Top shape: 1 128 (128)
I0521 09:36:45.635818  3675 net.cpp:157] Top shape: 1 128 (128)
I0521 09:36:45.635821  3675 net.cpp:157] Top shape: 1 128 (128)
I0521 09:36:45.635825  3675 net.cpp:157] Top shape: 1 128 (128)
I0521 09:36:45.635829  3675 net.cpp:157] Top shape: 1 128 (128)
I0521 09:36:45.635833  3675 net.cpp:157] Top shape: 1 128 (128)
I0521 09:36:45.635836  3675 net.cpp:157] Top shape: 1 128 (128)
I0521 09:36:45.635840  3675 net.cpp:157] Top shape: 1 128 (128)
I0521 09:36:45.635844  3675 net.cpp:157] Top shape: 1 128 (128)
I0521 09:36:45.635848  3675 net.cpp:157] Top shape: 1 128 (128)
I0521 09:36:45.635852  3675 net.cpp:157] Top shape: 1 128 (128)
I0521 09:36:45.635856  3675 net.cpp:157] Top shape: 1 128 (128)
I0521 09:36:45.635860  3675 net.cpp:157] Top shape: 1 128 (128)
I0521 09:36:45.635864  3675 net.cpp:165] Memory required for data: 16896000
I0521 09:36:45.635867  3675 layer_factory.hpp:77] Creating layer cont_1_lstm2x_cont_slice_0_split
I0521 09:36:45.635876  3675 net.cpp:100] Creating Layer cont_1_lstm2x_cont_slice_0_split
I0521 09:36:45.635880  3675 net.cpp:434] cont_1_lstm2x_cont_slice_0_split <- cont_1
I0521 09:36:45.635886  3675 net.cpp:408] cont_1_lstm2x_cont_slice_0_split -> cont_1_lstm2x_cont_slice_0_split_0
I0521 09:36:45.635892  3675 net.cpp:408] cont_1_lstm2x_cont_slice_0_split -> cont_1_lstm2x_cont_slice_0_split_1
I0521 09:36:45.635928  3675 net.cpp:150] Setting up cont_1_lstm2x_cont_slice_0_split
I0521 09:36:45.635933  3675 net.cpp:157] Top shape: 1 128 (128)
I0521 09:36:45.635936  3675 net.cpp:157] Top shape: 1 128 (128)
I0521 09:36:45.635941  3675 net.cpp:165] Memory required for data: 16897024
I0521 09:36:45.635943  3675 layer_factory.hpp:77] Creating layer cont_2_lstm2x_cont_slice_1_split
I0521 09:36:45.635951  3675 net.cpp:100] Creating Layer cont_2_lstm2x_cont_slice_1_split
I0521 09:36:45.635954  3675 net.cpp:434] cont_2_lstm2x_cont_slice_1_split <- cont_2
I0521 09:36:45.635959  3675 net.cpp:408] cont_2_lstm2x_cont_slice_1_split -> cont_2_lstm2x_cont_slice_1_split_0
I0521 09:36:45.635965  3675 net.cpp:408] cont_2_lstm2x_cont_slice_1_split -> cont_2_lstm2x_cont_slice_1_split_1
I0521 09:36:45.635995  3675 net.cpp:150] Setting up cont_2_lstm2x_cont_slice_1_split
I0521 09:36:45.636000  3675 net.cpp:157] Top shape: 1 128 (128)
I0521 09:36:45.636004  3675 net.cpp:157] Top shape: 1 128 (128)
I0521 09:36:45.636008  3675 net.cpp:165] Memory required for data: 16898048
I0521 09:36:45.636011  3675 layer_factory.hpp:77] Creating layer cont_3_lstm2x_cont_slice_2_split
I0521 09:36:45.636018  3675 net.cpp:100] Creating Layer cont_3_lstm2x_cont_slice_2_split
I0521 09:36:45.636021  3675 net.cpp:434] cont_3_lstm2x_cont_slice_2_split <- cont_3
I0521 09:36:45.636027  3675 net.cpp:408] cont_3_lstm2x_cont_slice_2_split -> cont_3_lstm2x_cont_slice_2_split_0
I0521 09:36:45.636032  3675 net.cpp:408] cont_3_lstm2x_cont_slice_2_split -> cont_3_lstm2x_cont_slice_2_split_1
I0521 09:36:45.636061  3675 net.cpp:150] Setting up cont_3_lstm2x_cont_slice_2_split
I0521 09:36:45.636076  3675 net.cpp:157] Top shape: 1 128 (128)
I0521 09:36:45.636080  3675 net.cpp:157] Top shape: 1 128 (128)
I0521 09:36:45.636085  3675 net.cpp:165] Memory required for data: 16899072
I0521 09:36:45.636087  3675 layer_factory.hpp:77] Creating layer cont_4_lstm2x_cont_slice_3_split
I0521 09:36:45.636095  3675 net.cpp:100] Creating Layer cont_4_lstm2x_cont_slice_3_split
I0521 09:36:45.636097  3675 net.cpp:434] cont_4_lstm2x_cont_slice_3_split <- cont_4
I0521 09:36:45.636102  3675 net.cpp:408] cont_4_lstm2x_cont_slice_3_split -> cont_4_lstm2x_cont_slice_3_split_0
I0521 09:36:45.636108  3675 net.cpp:408] cont_4_lstm2x_cont_slice_3_split -> cont_4_lstm2x_cont_slice_3_split_1
I0521 09:36:45.636138  3675 net.cpp:150] Setting up cont_4_lstm2x_cont_slice_3_split
I0521 09:36:45.636142  3675 net.cpp:157] Top shape: 1 128 (128)
I0521 09:36:45.636147  3675 net.cpp:157] Top shape: 1 128 (128)
I0521 09:36:45.636149  3675 net.cpp:165] Memory required for data: 16900096
I0521 09:36:45.636152  3675 layer_factory.hpp:77] Creating layer cont_5_lstm2x_cont_slice_4_split
I0521 09:36:45.636158  3675 net.cpp:100] Creating Layer cont_5_lstm2x_cont_slice_4_split
I0521 09:36:45.636162  3675 net.cpp:434] cont_5_lstm2x_cont_slice_4_split <- cont_5
I0521 09:36:45.636166  3675 net.cpp:408] cont_5_lstm2x_cont_slice_4_split -> cont_5_lstm2x_cont_slice_4_split_0
I0521 09:36:45.636173  3675 net.cpp:408] cont_5_lstm2x_cont_slice_4_split -> cont_5_lstm2x_cont_slice_4_split_1
I0521 09:36:45.636201  3675 net.cpp:150] Setting up cont_5_lstm2x_cont_slice_4_split
I0521 09:36:45.636206  3675 net.cpp:157] Top shape: 1 128 (128)
I0521 09:36:45.636210  3675 net.cpp:157] Top shape: 1 128 (128)
I0521 09:36:45.636214  3675 net.cpp:165] Memory required for data: 16901120
I0521 09:36:45.636217  3675 layer_factory.hpp:77] Creating layer cont_6_lstm2x_cont_slice_5_split
I0521 09:36:45.636224  3675 net.cpp:100] Creating Layer cont_6_lstm2x_cont_slice_5_split
I0521 09:36:45.636226  3675 net.cpp:434] cont_6_lstm2x_cont_slice_5_split <- cont_6
I0521 09:36:45.636231  3675 net.cpp:408] cont_6_lstm2x_cont_slice_5_split -> cont_6_lstm2x_cont_slice_5_split_0
I0521 09:36:45.636237  3675 net.cpp:408] cont_6_lstm2x_cont_slice_5_split -> cont_6_lstm2x_cont_slice_5_split_1
I0521 09:36:45.636267  3675 net.cpp:150] Setting up cont_6_lstm2x_cont_slice_5_split
I0521 09:36:45.636274  3675 net.cpp:157] Top shape: 1 128 (128)
I0521 09:36:45.636278  3675 net.cpp:157] Top shape: 1 128 (128)
I0521 09:36:45.636281  3675 net.cpp:165] Memory required for data: 16902144
I0521 09:36:45.636286  3675 layer_factory.hpp:77] Creating layer cont_7_lstm2x_cont_slice_6_split
I0521 09:36:45.636291  3675 net.cpp:100] Creating Layer cont_7_lstm2x_cont_slice_6_split
I0521 09:36:45.636293  3675 net.cpp:434] cont_7_lstm2x_cont_slice_6_split <- cont_7
I0521 09:36:45.636301  3675 net.cpp:408] cont_7_lstm2x_cont_slice_6_split -> cont_7_lstm2x_cont_slice_6_split_0
I0521 09:36:45.636310  3675 net.cpp:408] cont_7_lstm2x_cont_slice_6_split -> cont_7_lstm2x_cont_slice_6_split_1
I0521 09:36:45.636338  3675 net.cpp:150] Setting up cont_7_lstm2x_cont_slice_6_split
I0521 09:36:45.636345  3675 net.cpp:157] Top shape: 1 128 (128)
I0521 09:36:45.636349  3675 net.cpp:157] Top shape: 1 128 (128)
I0521 09:36:45.636353  3675 net.cpp:165] Memory required for data: 16903168
I0521 09:36:45.636356  3675 layer_factory.hpp:77] Creating layer cont_8_lstm2x_cont_slice_7_split
I0521 09:36:45.636363  3675 net.cpp:100] Creating Layer cont_8_lstm2x_cont_slice_7_split
I0521 09:36:45.636366  3675 net.cpp:434] cont_8_lstm2x_cont_slice_7_split <- cont_8
I0521 09:36:45.636371  3675 net.cpp:408] cont_8_lstm2x_cont_slice_7_split -> cont_8_lstm2x_cont_slice_7_split_0
I0521 09:36:45.636376  3675 net.cpp:408] cont_8_lstm2x_cont_slice_7_split -> cont_8_lstm2x_cont_slice_7_split_1
I0521 09:36:45.636405  3675 net.cpp:150] Setting up cont_8_lstm2x_cont_slice_7_split
I0521 09:36:45.636409  3675 net.cpp:157] Top shape: 1 128 (128)
I0521 09:36:45.636413  3675 net.cpp:157] Top shape: 1 128 (128)
I0521 09:36:45.636416  3675 net.cpp:165] Memory required for data: 16904192
I0521 09:36:45.636430  3675 layer_factory.hpp:77] Creating layer cont_9_lstm2x_cont_slice_8_split
I0521 09:36:45.636435  3675 net.cpp:100] Creating Layer cont_9_lstm2x_cont_slice_8_split
I0521 09:36:45.636438  3675 net.cpp:434] cont_9_lstm2x_cont_slice_8_split <- cont_9
I0521 09:36:45.636443  3675 net.cpp:408] cont_9_lstm2x_cont_slice_8_split -> cont_9_lstm2x_cont_slice_8_split_0
I0521 09:36:45.636449  3675 net.cpp:408] cont_9_lstm2x_cont_slice_8_split -> cont_9_lstm2x_cont_slice_8_split_1
I0521 09:36:45.636477  3675 net.cpp:150] Setting up cont_9_lstm2x_cont_slice_8_split
I0521 09:36:45.636482  3675 net.cpp:157] Top shape: 1 128 (128)
I0521 09:36:45.636487  3675 net.cpp:157] Top shape: 1 128 (128)
I0521 09:36:45.636489  3675 net.cpp:165] Memory required for data: 16905216
I0521 09:36:45.636492  3675 layer_factory.hpp:77] Creating layer cont_10_lstm2x_cont_slice_9_split
I0521 09:36:45.636498  3675 net.cpp:100] Creating Layer cont_10_lstm2x_cont_slice_9_split
I0521 09:36:45.636502  3675 net.cpp:434] cont_10_lstm2x_cont_slice_9_split <- cont_10
I0521 09:36:45.636507  3675 net.cpp:408] cont_10_lstm2x_cont_slice_9_split -> cont_10_lstm2x_cont_slice_9_split_0
I0521 09:36:45.636512  3675 net.cpp:408] cont_10_lstm2x_cont_slice_9_split -> cont_10_lstm2x_cont_slice_9_split_1
I0521 09:36:45.636541  3675 net.cpp:150] Setting up cont_10_lstm2x_cont_slice_9_split
I0521 09:36:45.636545  3675 net.cpp:157] Top shape: 1 128 (128)
I0521 09:36:45.636549  3675 net.cpp:157] Top shape: 1 128 (128)
I0521 09:36:45.636552  3675 net.cpp:165] Memory required for data: 16906240
I0521 09:36:45.636556  3675 layer_factory.hpp:77] Creating layer cont_11_lstm2x_cont_slice_10_split
I0521 09:36:45.636561  3675 net.cpp:100] Creating Layer cont_11_lstm2x_cont_slice_10_split
I0521 09:36:45.636565  3675 net.cpp:434] cont_11_lstm2x_cont_slice_10_split <- cont_11
I0521 09:36:45.636570  3675 net.cpp:408] cont_11_lstm2x_cont_slice_10_split -> cont_11_lstm2x_cont_slice_10_split_0
I0521 09:36:45.636575  3675 net.cpp:408] cont_11_lstm2x_cont_slice_10_split -> cont_11_lstm2x_cont_slice_10_split_1
I0521 09:36:45.636605  3675 net.cpp:150] Setting up cont_11_lstm2x_cont_slice_10_split
I0521 09:36:45.636610  3675 net.cpp:157] Top shape: 1 128 (128)
I0521 09:36:45.636612  3675 net.cpp:157] Top shape: 1 128 (128)
I0521 09:36:45.636615  3675 net.cpp:165] Memory required for data: 16907264
I0521 09:36:45.636620  3675 layer_factory.hpp:77] Creating layer cont_12_lstm2x_cont_slice_11_split
I0521 09:36:45.636626  3675 net.cpp:100] Creating Layer cont_12_lstm2x_cont_slice_11_split
I0521 09:36:45.636628  3675 net.cpp:434] cont_12_lstm2x_cont_slice_11_split <- cont_12
I0521 09:36:45.636633  3675 net.cpp:408] cont_12_lstm2x_cont_slice_11_split -> cont_12_lstm2x_cont_slice_11_split_0
I0521 09:36:45.636639  3675 net.cpp:408] cont_12_lstm2x_cont_slice_11_split -> cont_12_lstm2x_cont_slice_11_split_1
I0521 09:36:45.636667  3675 net.cpp:150] Setting up cont_12_lstm2x_cont_slice_11_split
I0521 09:36:45.636672  3675 net.cpp:157] Top shape: 1 128 (128)
I0521 09:36:45.636675  3675 net.cpp:157] Top shape: 1 128 (128)
I0521 09:36:45.636678  3675 net.cpp:165] Memory required for data: 16908288
I0521 09:36:45.636682  3675 layer_factory.hpp:77] Creating layer cont_13_lstm2x_cont_slice_12_split
I0521 09:36:45.636687  3675 net.cpp:100] Creating Layer cont_13_lstm2x_cont_slice_12_split
I0521 09:36:45.636689  3675 net.cpp:434] cont_13_lstm2x_cont_slice_12_split <- cont_13
I0521 09:36:45.636694  3675 net.cpp:408] cont_13_lstm2x_cont_slice_12_split -> cont_13_lstm2x_cont_slice_12_split_0
I0521 09:36:45.636699  3675 net.cpp:408] cont_13_lstm2x_cont_slice_12_split -> cont_13_lstm2x_cont_slice_12_split_1
I0521 09:36:45.636728  3675 net.cpp:150] Setting up cont_13_lstm2x_cont_slice_12_split
I0521 09:36:45.636732  3675 net.cpp:157] Top shape: 1 128 (128)
I0521 09:36:45.636736  3675 net.cpp:157] Top shape: 1 128 (128)
I0521 09:36:45.636739  3675 net.cpp:165] Memory required for data: 16909312
I0521 09:36:45.636742  3675 layer_factory.hpp:77] Creating layer cont_14_lstm2x_cont_slice_13_split
I0521 09:36:45.636757  3675 net.cpp:100] Creating Layer cont_14_lstm2x_cont_slice_13_split
I0521 09:36:45.636761  3675 net.cpp:434] cont_14_lstm2x_cont_slice_13_split <- cont_14
I0521 09:36:45.636767  3675 net.cpp:408] cont_14_lstm2x_cont_slice_13_split -> cont_14_lstm2x_cont_slice_13_split_0
I0521 09:36:45.636773  3675 net.cpp:408] cont_14_lstm2x_cont_slice_13_split -> cont_14_lstm2x_cont_slice_13_split_1
I0521 09:36:45.636813  3675 net.cpp:150] Setting up cont_14_lstm2x_cont_slice_13_split
I0521 09:36:45.636819  3675 net.cpp:157] Top shape: 1 128 (128)
I0521 09:36:45.636822  3675 net.cpp:157] Top shape: 1 128 (128)
I0521 09:36:45.636826  3675 net.cpp:165] Memory required for data: 16910336
I0521 09:36:45.636828  3675 layer_factory.hpp:77] Creating layer cont_15_lstm2x_cont_slice_14_split
I0521 09:36:45.636834  3675 net.cpp:100] Creating Layer cont_15_lstm2x_cont_slice_14_split
I0521 09:36:45.636837  3675 net.cpp:434] cont_15_lstm2x_cont_slice_14_split <- cont_15
I0521 09:36:45.636842  3675 net.cpp:408] cont_15_lstm2x_cont_slice_14_split -> cont_15_lstm2x_cont_slice_14_split_0
I0521 09:36:45.636847  3675 net.cpp:408] cont_15_lstm2x_cont_slice_14_split -> cont_15_lstm2x_cont_slice_14_split_1
I0521 09:36:45.636878  3675 net.cpp:150] Setting up cont_15_lstm2x_cont_slice_14_split
I0521 09:36:45.636881  3675 net.cpp:157] Top shape: 1 128 (128)
I0521 09:36:45.636885  3675 net.cpp:157] Top shape: 1 128 (128)
I0521 09:36:45.636888  3675 net.cpp:165] Memory required for data: 16911360
I0521 09:36:45.636893  3675 layer_factory.hpp:77] Creating layer cont_16_lstm2x_cont_slice_15_split
I0521 09:36:45.636896  3675 net.cpp:100] Creating Layer cont_16_lstm2x_cont_slice_15_split
I0521 09:36:45.636900  3675 net.cpp:434] cont_16_lstm2x_cont_slice_15_split <- cont_16
I0521 09:36:45.636905  3675 net.cpp:408] cont_16_lstm2x_cont_slice_15_split -> cont_16_lstm2x_cont_slice_15_split_0
I0521 09:36:45.636911  3675 net.cpp:408] cont_16_lstm2x_cont_slice_15_split -> cont_16_lstm2x_cont_slice_15_split_1
I0521 09:36:45.636940  3675 net.cpp:150] Setting up cont_16_lstm2x_cont_slice_15_split
I0521 09:36:45.636945  3675 net.cpp:157] Top shape: 1 128 (128)
I0521 09:36:45.636947  3675 net.cpp:157] Top shape: 1 128 (128)
I0521 09:36:45.636950  3675 net.cpp:165] Memory required for data: 16912384
I0521 09:36:45.636955  3675 layer_factory.hpp:77] Creating layer lstm2x_x_transform
I0521 09:36:45.636961  3675 net.cpp:100] Creating Layer lstm2x_x_transform
I0521 09:36:45.636965  3675 net.cpp:434] lstm2x_x_transform <- x
I0521 09:36:45.636970  3675 net.cpp:408] lstm2x_x_transform -> W_xc_x
I0521 09:36:45.644474  3675 net.cpp:150] Setting up lstm2x_x_transform
I0521 09:36:45.644506  3675 net.cpp:157] Top shape: 16 128 400 (819200)
I0521 09:36:45.644510  3675 net.cpp:165] Memory required for data: 20189184
I0521 09:36:45.644526  3675 layer_factory.hpp:77] Creating layer lstm2x_W_xc_x_slice
I0521 09:36:45.644539  3675 net.cpp:100] Creating Layer lstm2x_W_xc_x_slice
I0521 09:36:45.644544  3675 net.cpp:434] lstm2x_W_xc_x_slice <- W_xc_x
I0521 09:36:45.644552  3675 net.cpp:408] lstm2x_W_xc_x_slice -> W_xc_x_1
I0521 09:36:45.644562  3675 net.cpp:408] lstm2x_W_xc_x_slice -> W_xc_x_2
…
I0521 09:36:45.644613  3675 net.cpp:408] lstm2x_W_xc_x_slice -> W_xc_x_10
I0521 09:36:45.644618  3675 net.cpp:408] lstm2x_W_xc_x_slice -> W_xc_x_11
I0521 09:36:45.644624  3675 net.cpp:408] lstm2x_W_xc_x_slice -> W_xc_x_12
I0521 09:36:45.644634  3675 net.cpp:408] lstm2x_W_xc_x_slice -> W_xc_x_13
I0521 09:36:45.644639  3675 net.cpp:408] lstm2x_W_xc_x_slice -> W_xc_x_14
I0521 09:36:45.644645  3675 net.cpp:408] lstm2x_W_xc_x_slice -> W_xc_x_15
I0521 09:36:45.644675  3675 net.cpp:408] lstm2x_W_xc_x_slice -> W_xc_x_16
I0521 09:36:45.644906  3675 net.cpp:150] Setting up lstm2x_W_xc_x_slice
I0521 09:36:45.644917  3675 net.cpp:157] Top shape: 1 128 400 (51200)
I0521 09:36:45.644920  3675 net.cpp:157] Top shape: 1 128 400 (51200)
I0521 09:36:45.644924  3675 net.cpp:157] Top shape: 1 128 400 (51200)
I0521 09:36:45.644929  3675 net.cpp:157] Top shape: 1 128 400 (51200)
I0521 09:36:45.644933  3675 net.cpp:157] Top shape: 1 128 400 (51200)
I0521 09:36:45.644937  3675 net.cpp:157] Top shape: 1 128 400 (51200)
I0521 09:36:45.644942  3675 net.cpp:157] Top shape: 1 128 400 (51200)
I0521 09:36:45.644945  3675 net.cpp:157] Top shape: 1 128 400 (51200)
I0521 09:36:45.644949  3675 net.cpp:157] Top shape: 1 128 400 (51200)
I0521 09:36:45.644953  3675 net.cpp:157] Top shape: 1 128 400 (51200)
I0521 09:36:45.644958  3675 net.cpp:157] Top shape: 1 128 400 (51200)
I0521 09:36:45.644963  3675 net.cpp:157] Top shape: 1 128 400 (51200)
I0521 09:36:45.644966  3675 net.cpp:157] Top shape: 1 128 400 (51200)
I0521 09:36:45.644970  3675 net.cpp:157] Top shape: 1 128 400 (51200)
I0521 09:36:45.644975  3675 net.cpp:157] Top shape: 1 128 400 (51200)
I0521 09:36:45.644979  3675 net.cpp:157] Top shape: 1 128 400 (51200)
I0521 09:36:45.644982  3675 net.cpp:165] Memory required for data: 23465984
I0521 09:36:45.644986  3675 layer_factory.hpp:77] Creating layer lstm2x_h_conted_0
I0521 09:36:45.644994  3675 net.cpp:100] Creating Layer lstm2x_h_conted_0
I0521 09:36:45.644999  3675 net.cpp:434] lstm2x_h_conted_0 <- h_0
I0521 09:36:45.645005  3675 net.cpp:434] lstm2x_h_conted_0 <- cont_1_lstm2x_cont_slice_0_split_0
I0521 09:36:45.645011  3675 net.cpp:408] lstm2x_h_conted_0 -> h_conted_0
I0521 09:36:45.645087  3675 net.cpp:150] Setting up lstm2x_h_conted_0
I0521 09:36:45.645092  3675 net.cpp:157] Top shape: 1 128 100 (12800)
I0521 09:36:45.645095  3675 net.cpp:165] Memory required for data: 23517184
I0521 09:36:45.645099  3675 layer_factory.hpp:77] Creating layer lstm2x_transform_1
I0521 09:36:45.645107  3675 net.cpp:100] Creating Layer lstm2x_transform_1
I0521 09:36:45.645110  3675 net.cpp:434] lstm2x_transform_1 <- h_conted_0
I0521 09:36:45.645117  3675 net.cpp:408] lstm2x_transform_1 -> W_hc_h_0
I0521 09:36:45.645527  3675 net.cpp:150] Setting up lstm2x_transform_1
I0521 09:36:45.645537  3675 net.cpp:157] Top shape: 1 128 400 (51200)
I0521 09:36:45.645541  3675 net.cpp:165] Memory required for data: 23721984
I0521 09:36:45.645548  3675 layer_factory.hpp:77] Creating layer lstm2x_gate_input_1
I0521 09:36:45.645555  3675 net.cpp:100] Creating Layer lstm2x_gate_input_1
I0521 09:36:45.645560  3675 net.cpp:434] lstm2x_gate_input_1 <- W_hc_h_0
I0521 09:36:45.645565  3675 net.cpp:434] lstm2x_gate_input_1 <- W_xc_x_1
I0521 09:36:45.645570  3675 net.cpp:408] lstm2x_gate_input_1 -> gate_input_1
I0521 09:36:45.645596  3675 net.cpp:150] Setting up lstm2x_gate_input_1
I0521 09:36:45.645601  3675 net.cpp:157] Top shape: 1 128 400 (51200)
I0521 09:36:45.645604  3675 net.cpp:165] Memory required for data: 23926784
I0521 09:36:45.645607  3675 layer_factory.hpp:77] Creating layer lstm2x_unit_1
I0521 09:36:45.645613  3675 net.cpp:100] Creating Layer lstm2x_unit_1
I0521 09:36:45.645617  3675 net.cpp:434] lstm2x_unit_1 <- c_0
I0521 09:36:45.645622  3675 net.cpp:434] lstm2x_unit_1 <- gate_input_1
I0521 09:36:45.645627  3675 net.cpp:434] lstm2x_unit_1 <- cont_1_lstm2x_cont_slice_0_split_1
I0521 09:36:45.645632  3675 net.cpp:408] lstm2x_unit_1 -> c_1
I0521 09:36:45.645637  3675 net.cpp:408] lstm2x_unit_1 -> h_1
I0521 09:36:45.645682  3675 net.cpp:150] Setting up lstm2x_unit_1
I0521 09:36:45.645687  3675 net.cpp:157] Top shape: 1 128 100 (12800)
I0521 09:36:45.645691  3675 net.cpp:157] Top shape: 1 128 100 (12800)
I0521 09:36:45.645694  3675 net.cpp:165] Memory required for data: 24029184
I0521 09:36:45.645699  3675 layer_factory.hpp:77] Creating layer h_1_lstm2x_unit_1_1_split
I0521 09:36:45.645704  3675 net.cpp:100] Creating Layer h_1_lstm2x_unit_1_1_split
I0521 09:36:45.645725  3675 net.cpp:434] h_1_lstm2x_unit_1_1_split <- h_1
I0521 09:36:45.645731  3675 net.cpp:408] h_1_lstm2x_unit_1_1_split -> h_1_lstm2x_unit_1_1_split_0
I0521 09:36:45.645738  3675 net.cpp:408] h_1_lstm2x_unit_1_1_split -> h_1_lstm2x_unit_1_1_split_1
I0521 09:36:45.645767  3675 net.cpp:150] Setting up h_1_lstm2x_unit_1_1_split
I0521 09:36:45.645772  3675 net.cpp:157] Top shape: 1 128 100 (12800)
I0521 09:36:45.645776  3675 net.cpp:157] Top shape: 1 128 100 (12800)
I0521 09:36:45.645779  3675 net.cpp:165] Memory required for data: 24131584
I0521 09:36:45.645784  3675 layer_factory.hpp:77] Creating layer lstm2x_h_conted_1
I0521 09:36:45.645792  3675 net.cpp:100] Creating Layer lstm2x_h_conted_1
I0521 09:36:45.645795  3675 net.cpp:434] lstm2x_h_conted_1 <- h_1_lstm2x_unit_1_1_split_0
I0521 09:36:45.645800  3675 net.cpp:434] lstm2x_h_conted_1 <- cont_2_lstm2x_cont_slice_1_split_0
I0521 09:36:45.645807  3675 net.cpp:408] lstm2x_h_conted_1 -> h_conted_1
I0521 09:36:45.645867  3675 net.cpp:150] Setting up lstm2x_h_conted_1
I0521 09:36:45.645872  3675 net.cpp:157] Top shape: 1 128 100 (12800)
I0521 09:36:45.645875  3675 net.cpp:165] Memory required for data: 24182784
I0521 09:36:45.645879  3675 layer_factory.hpp:77] Creating layer lstm2x_transform_2
I0521 09:36:45.645886  3675 net.cpp:100] Creating Layer lstm2x_transform_2
I0521 09:36:45.645889  3675 net.cpp:434] lstm2x_transform_2 <- h_conted_1
I0521 09:36:45.645895  3675 net.cpp:408] lstm2x_transform_2 -> W_hc_h_1
I0521 09:36:45.646265  3675 net.cpp:150] Setting up lstm2x_transform_2
I0521 09:36:45.646281  3675 net.cpp:157] Top shape: 1 128 400 (51200)
I0521 09:36:45.646283  3675 net.cpp:165] Memory required for data: 24387584
I0521 09:36:45.646289  3675 net.cpp:493] Sharing parameters 'W_hc' owned by layer 'lstm2x_transform_1', param index 0
I0521 09:36:45.646293  3675 layer_factory.hpp:77] Creating layer lstm2x_gate_input_2
I0521 09:36:45.646301  3675 net.cpp:100] Creating Layer lstm2x_gate_input_2
I0521 09:36:45.646306  3675 net.cpp:434] lstm2x_gate_input_2 <- W_hc_h_1
I0521 09:36:45.646311  3675 net.cpp:434] lstm2x_gate_input_2 <- W_xc_x_2
I0521 09:36:45.646317  3675 net.cpp:408] lstm2x_gate_input_2 -> gate_input_2
I0521 09:36:45.646342  3675 net.cpp:150] Setting up lstm2x_gate_input_2
I0521 09:36:45.646347  3675 net.cpp:157] Top shape: 1 128 400 (51200)
I0521 09:36:45.646349  3675 net.cpp:165] Memory required for data: 24592384
I0521 09:36:45.646353  3675 layer_factory.hpp:77] Creating layer lstm2x_unit_2
I0521 09:36:45.646360  3675 net.cpp:100] Creating Layer lstm2x_unit_2
I0521 09:36:45.646364  3675 net.cpp:434] lstm2x_unit_2 <- c_1
I0521 09:36:45.646368  3675 net.cpp:434] lstm2x_unit_2 <- gate_input_2
I0521 09:36:45.646373  3675 net.cpp:434] lstm2x_unit_2 <- cont_2_lstm2x_cont_slice_1_split_1
I0521 09:36:45.646378  3675 net.cpp:408] lstm2x_unit_2 -> c_2
I0521 09:36:45.646384  3675 net.cpp:408] lstm2x_unit_2 -> h_2
I0521 09:36:45.646426  3675 net.cpp:150] Setting up lstm2x_unit_2
I0521 09:36:45.646431  3675 net.cpp:157] Top shape: 1 128 100 (12800)
I0521 09:36:45.646435  3675 net.cpp:157] Top shape: 1 128 100 (12800)
I0521 09:36:45.646438  3675 net.cpp:165] Memory required for data: 24694784
I0521 09:36:45.646442  3675 layer_factory.hpp:77] Creating layer h_2_lstm2x_unit_2_1_split
I0521 09:36:45.646448  3675 net.cpp:100] Creating Layer h_2_lstm2x_unit_2_1_split
I0521 09:36:45.646451  3675 net.cpp:434] h_2_lstm2x_unit_2_1_split <- h_2
I0521 09:36:45.646457  3675 net.cpp:408] h_2_lstm2x_unit_2_1_split -> h_2_lstm2x_unit_2_1_split_0
I0521 09:36:45.646464  3675 net.cpp:408] h_2_lstm2x_unit_2_1_split -> h_2_lstm2x_unit_2_1_split_1
I0521 09:36:45.646494  3675 net.cpp:150] Setting up h_2_lstm2x_unit_2_1_split
I0521 09:36:45.646499  3675 net.cpp:157] Top shape: 1 128 100 (12800)
I0521 09:36:45.646503  3675 net.cpp:157] Top shape: 1 128 100 (12800)
I0521 09:36:45.646507  3675 net.cpp:165] Memory required for data: 24797184
I0521 09:36:45.646509  3675 layer_factory.hpp:77] Creating layer lstm2x_h_conted_2
I0521 09:36:45.646517  3675 net.cpp:100] Creating Layer lstm2x_h_conted_2
I0521 09:36:45.646533  3675 net.cpp:434] lstm2x_h_conted_2 <- h_2_lstm2x_unit_2_1_split_0
I0521 09:36:45.646538  3675 net.cpp:434] lstm2x_h_conted_2 <- cont_3_lstm2x_cont_slice_2_split_0
I0521 09:36:45.646543  3675 net.cpp:408] lstm2x_h_conted_2 -> h_conted_2
I0521 09:36:45.646601  3675 net.cpp:150] Setting up lstm2x_h_conted_2
I0521 09:36:45.646607  3675 net.cpp:157] Top shape: 1 128 100 (12800)
I0521 09:36:45.646610  3675 net.cpp:165] Memory required for data: 24848384
I0521 09:36:45.646615  3675 layer_factory.hpp:77] Creating layer lstm2x_transform_3
I0521 09:36:45.646625  3675 net.cpp:100] Creating Layer lstm2x_transform_3
I0521 09:36:45.646628  3675 net.cpp:434] lstm2x_transform_3 <- h_conted_2
I0521 09:36:45.646633  3675 net.cpp:408] lstm2x_transform_3 -> W_hc_h_2
I0521 09:36:45.647034  3675 net.cpp:150] Setting up lstm2x_transform_3
I0521 09:36:45.647043  3675 net.cpp:157] Top shape: 1 128 400 (51200)
I0521 09:36:45.647047  3675 net.cpp:165] Memory required for data: 25053184
I0521 09:36:45.647051  3675 net.cpp:493] Sharing parameters 'W_hc' owned by layer 'lstm2x_transform_1', param index 0
I0521 09:36:45.647056  3675 layer_factory.hpp:77] Creating layer lstm2x_gate_input_3
I0521 09:36:45.647063  3675 net.cpp:100] Creating Layer lstm2x_gate_input_3
I0521 09:36:45.647066  3675 net.cpp:434] lstm2x_gate_input_3 <- W_hc_h_2
I0521 09:36:45.647070  3675 net.cpp:434] lstm2x_gate_input_3 <- W_xc_x_3
I0521 09:36:45.647076  3675 net.cpp:408] lstm2x_gate_input_3 -> gate_input_3
I0521 09:36:45.647101  3675 net.cpp:150] Setting up lstm2x_gate_input_3
I0521 09:36:45.647106  3675 net.cpp:157] Top shape: 1 128 400 (51200)
I0521 09:36:45.647109  3675 net.cpp:165] Memory required for data: 25257984
I0521 09:36:45.647112  3675 layer_factory.hpp:77] Creating layer lstm2x_unit_3
I0521 09:36:45.647119  3675 net.cpp:100] Creating Layer lstm2x_unit_3
I0521 09:36:45.647122  3675 net.cpp:434] lstm2x_unit_3 <- c_2
I0521 09:36:45.647126  3675 net.cpp:434] lstm2x_unit_3 <- gate_input_3
I0521 09:36:45.647130  3675 net.cpp:434] lstm2x_unit_3 <- cont_3_lstm2x_cont_slice_2_split_1
I0521 09:36:45.647135  3675 net.cpp:408] lstm2x_unit_3 -> c_3
I0521 09:36:45.647145  3675 net.cpp:408] lstm2x_unit_3 -> h_3
I0521 09:36:45.647186  3675 net.cpp:150] Setting up lstm2x_unit_3
I0521 09:36:45.647192  3675 net.cpp:157] Top shape: 1 128 100 (12800)
I0521 09:36:45.647195  3675 net.cpp:157] Top shape: 1 128 100 (12800)
I0521 09:36:45.647198  3675 net.cpp:165] Memory required for data: 25360384
I0521 09:36:45.647202  3675 layer_factory.hpp:77] Creating layer h_3_lstm2x_unit_3_1_split
I0521 09:36:45.647207  3675 net.cpp:100] Creating Layer h_3_lstm2x_unit_3_1_split
I0521 09:36:45.647210  3675 net.cpp:434] h_3_lstm2x_unit_3_1_split <- h_3
I0521 09:36:45.647215  3675 net.cpp:408] h_3_lstm2x_unit_3_1_split -> h_3_lstm2x_unit_3_1_split_0
I0521 09:36:45.647222  3675 net.cpp:408] h_3_lstm2x_unit_3_1_split -> h_3_lstm2x_unit_3_1_split_1
I0521 09:36:45.647253  3675 net.cpp:150] Setting up h_3_lstm2x_unit_3_1_split
I0521 09:36:45.647258  3675 net.cpp:157] Top shape: 1 128 100 (12800)
I0521 09:36:45.647262  3675 net.cpp:157] Top shape: 1 128 100 (12800)
I0521 09:36:45.647265  3675 net.cpp:165] Memory required for data: 25462784
I0521 09:36:45.647269  3675 layer_factory.hpp:77] Creating layer lstm2x_h_conted_3
I0521 09:36:45.647276  3675 net.cpp:100] Creating Layer lstm2x_h_conted_3
I0521 09:36:45.647279  3675 net.cpp:434] lstm2x_h_conted_3 <- h_3_lstm2x_unit_3_1_split_0
I0521 09:36:45.647284  3675 net.cpp:434] lstm2x_h_conted_3 <- cont_4_lstm2x_cont_slice_3_split_0
I0521 09:36:45.647289  3675 net.cpp:408] lstm2x_h_conted_3 -> h_conted_3
I0521 09:36:45.647344  3675 net.cpp:150] Setting up lstm2x_h_conted_3
I0521 09:36:45.647349  3675 net.cpp:157] Top shape: 1 128 100 (12800)
I0521 09:36:45.647352  3675 net.cpp:165] Memory required for data: 25513984
I0521 09:36:45.647356  3675 layer_factory.hpp:77] Creating layer lstm2x_transform_4
I0521 09:36:45.647364  3675 net.cpp:100] Creating Layer lstm2x_transform_4
I0521 09:36:45.647367  3675 net.cpp:434] lstm2x_transform_4 <- h_conted_3
I0521 09:36:45.647384  3675 net.cpp:408] lstm2x_transform_4 -> W_hc_h_3
I0521 09:36:45.647748  3675 net.cpp:150] Setting up lstm2x_transform_4
I0521 09:36:45.647763  3675 net.cpp:157] Top shape: 1 128 400 (51200)
I0521 09:36:45.647766  3675 net.cpp:165] Memory required for data: 25718784
I0521 09:36:45.647771  3675 net.cpp:493] Sharing parameters 'W_hc' owned by layer 'lstm2x_transform_1', param index 0
I0521 09:36:45.647775  3675 layer_factory.hpp:77] Creating layer lstm2x_gate_input_4
I0521 09:36:45.647783  3675 net.cpp:100] Creating Layer lstm2x_gate_input_4
I0521 09:36:45.647788  3675 net.cpp:434] lstm2x_gate_input_4 <- W_hc_h_3
I0521 09:36:45.647792  3675 net.cpp:434] lstm2x_gate_input_4 <- W_xc_x_4
I0521 09:36:45.647797  3675 net.cpp:408] lstm2x_gate_input_4 -> gate_input_4
I0521 09:36:45.647823  3675 net.cpp:150] Setting up lstm2x_gate_input_4
I0521 09:36:45.647828  3675 net.cpp:157] Top shape: 1 128 400 (51200)
I0521 09:36:45.647831  3675 net.cpp:165] Memory required for data: 25923584
I0521 09:36:45.647835  3675 layer_factory.hpp:77] Creating layer lstm2x_unit_4
I0521 09:36:45.647840  3675 net.cpp:100] Creating Layer lstm2x_unit_4
I0521 09:36:45.647843  3675 net.cpp:434] lstm2x_unit_4 <- c_3
I0521 09:36:45.647847  3675 net.cpp:434] lstm2x_unit_4 <- gate_input_4
I0521 09:36:45.647852  3675 net.cpp:434] lstm2x_unit_4 <- cont_4_lstm2x_cont_slice_3_split_1
I0521 09:36:45.647858  3675 net.cpp:408] lstm2x_unit_4 -> c_4
I0521 09:36:45.647864  3675 net.cpp:408] lstm2x_unit_4 -> h_4
I0521 09:36:45.647907  3675 net.cpp:150] Setting up lstm2x_unit_4
I0521 09:36:45.647910  3675 net.cpp:157] Top shape: 1 128 100 (12800)
I0521 09:36:45.647915  3675 net.cpp:157] Top shape: 1 128 100 (12800)
I0521 09:36:45.647918  3675 net.cpp:165] Memory required for data: 26025984
I0521 09:36:45.647922  3675 layer_factory.hpp:77] Creating layer h_4_lstm2x_unit_4_1_split
I0521 09:36:45.647927  3675 net.cpp:100] Creating Layer h_4_lstm2x_unit_4_1_split
I0521 09:36:45.647930  3675 net.cpp:434] h_4_lstm2x_unit_4_1_split <- h_4
I0521 09:36:45.647935  3675 net.cpp:408] h_4_lstm2x_unit_4_1_split -> h_4_lstm2x_unit_4_1_split_0
I0521 09:36:45.647943  3675 net.cpp:408] h_4_lstm2x_unit_4_1_split -> h_4_lstm2x_unit_4_1_split_1
I0521 09:36:45.647971  3675 net.cpp:150] Setting up h_4_lstm2x_unit_4_1_split
I0521 09:36:45.647976  3675 net.cpp:157] Top shape: 1 128 100 (12800)
I0521 09:36:45.647980  3675 net.cpp:157] Top shape: 1 128 100 (12800)
I0521 09:36:45.647984  3675 net.cpp:165] Memory required for data: 26128384
I0521 09:36:45.647987  3675 layer_factory.hpp:77] Creating layer lstm2x_h_conted_4
I0521 09:36:45.648000  3675 net.cpp:100] Creating Layer lstm2x_h_conted_4
I0521 09:36:45.648005  3675 net.cpp:434] lstm2x_h_conted_4 <- h_4_lstm2x_unit_4_1_split_0
I0521 09:36:45.648010  3675 net.cpp:434] lstm2x_h_conted_4 <- cont_5_lstm2x_cont_slice_4_split_0
I0521 09:36:45.648015  3675 net.cpp:408] lstm2x_h_conted_4 -> h_conted_4
I0521 09:36:45.648072  3675 net.cpp:150] Setting up lstm2x_h_conted_4
I0521 09:36:45.648077  3675 net.cpp:157] Top shape: 1 128 100 (12800)
I0521 09:36:45.648082  3675 net.cpp:165] Memory required for data: 26179584
I0521 09:36:45.648084  3675 layer_factory.hpp:77] Creating layer lstm2x_transform_5
I0521 09:36:45.648092  3675 net.cpp:100] Creating Layer lstm2x_transform_5
I0521 09:36:45.648095  3675 net.cpp:434] lstm2x_transform_5 <- h_conted_4
I0521 09:36:45.648102  3675 net.cpp:408] lstm2x_transform_5 -> W_hc_h_4
I0521 09:36:45.648499  3675 net.cpp:150] Setting up lstm2x_transform_5
I0521 09:36:45.648509  3675 net.cpp:157] Top shape: 1 128 400 (51200)
I0521 09:36:45.648514  3675 net.cpp:165] Memory required for data: 26384384
I0521 09:36:45.648517  3675 net.cpp:493] Sharing parameters 'W_hc' owned by layer 'lstm2x_transform_1', param index 0
I0521 09:36:45.648521  3675 layer_factory.hpp:77] Creating layer lstm2x_gate_input_5
I0521 09:36:45.648530  3675 net.cpp:100] Creating Layer lstm2x_gate_input_5
I0521 09:36:45.648533  3675 net.cpp:434] lstm2x_gate_input_5 <- W_hc_h_4
I0521 09:36:45.648538  3675 net.cpp:434] lstm2x_gate_input_5 <- W_xc_x_5
I0521 09:36:45.648557  3675 net.cpp:408] lstm2x_gate_input_5 -> gate_input_5
I0521 09:36:45.648584  3675 net.cpp:150] Setting up lstm2x_gate_input_5
I0521 09:36:45.648589  3675 net.cpp:157] Top shape: 1 128 400 (51200)
I0521 09:36:45.648592  3675 net.cpp:165] Memory required for data: 26589184
I0521 09:36:45.648596  3675 layer_factory.hpp:77] Creating layer lstm2x_unit_5
I0521 09:36:45.648602  3675 net.cpp:100] Creating Layer lstm2x_unit_5
I0521 09:36:45.648607  3675 net.cpp:434] lstm2x_unit_5 <- c_4
I0521 09:36:45.648610  3675 net.cpp:434] lstm2x_unit_5 <- gate_input_5
I0521 09:36:45.648614  3675 net.cpp:434] lstm2x_unit_5 <- cont_5_lstm2x_cont_slice_4_split_1
I0521 09:36:45.648619  3675 net.cpp:408] lstm2x_unit_5 -> c_5
I0521 09:36:45.648625  3675 net.cpp:408] lstm2x_unit_5 -> h_5
I0521 09:36:45.648667  3675 net.cpp:150] Setting up lstm2x_unit_5
I0521 09:36:45.648672  3675 net.cpp:157] Top shape: 1 128 100 (12800)
I0521 09:36:45.648676  3675 net.cpp:157] Top shape: 1 128 100 (12800)
I0521 09:36:45.648679  3675 net.cpp:165] Memory required for data: 26691584
I0521 09:36:45.648684  3675 layer_factory.hpp:77] Creating layer h_5_lstm2x_unit_5_1_split
I0521 09:36:45.648689  3675 net.cpp:100] Creating Layer h_5_lstm2x_unit_5_1_split
I0521 09:36:45.648691  3675 net.cpp:434] h_5_lstm2x_unit_5_1_split <- h_5
I0521 09:36:45.648699  3675 net.cpp:408] h_5_lstm2x_unit_5_1_split -> h_5_lstm2x_unit_5_1_split_0
I0521 09:36:45.648705  3675 net.cpp:408] h_5_lstm2x_unit_5_1_split -> h_5_lstm2x_unit_5_1_split_1
I0521 09:36:45.648733  3675 net.cpp:150] Setting up h_5_lstm2x_unit_5_1_split
I0521 09:36:45.648738  3675 net.cpp:157] Top shape: 1 128 100 (12800)
I0521 09:36:45.648742  3675 net.cpp:157] Top shape: 1 128 100 (12800)
I0521 09:36:45.648746  3675 net.cpp:165] Memory required for data: 26793984
I0521 09:36:45.648749  3675 layer_factory.hpp:77] Creating layer lstm2x_h_conted_5
I0521 09:36:45.648756  3675 net.cpp:100] Creating Layer lstm2x_h_conted_5
I0521 09:36:45.648759  3675 net.cpp:434] lstm2x_h_conted_5 <- h_5_lstm2x_unit_5_1_split_0
I0521 09:36:45.648763  3675 net.cpp:434] lstm2x_h_conted_5 <- cont_6_lstm2x_cont_slice_5_split_0
I0521 09:36:45.648768  3675 net.cpp:408] lstm2x_h_conted_5 -> h_conted_5
I0521 09:36:45.648833  3675 net.cpp:150] Setting up lstm2x_h_conted_5
I0521 09:36:45.648839  3675 net.cpp:157] Top shape: 1 128 100 (12800)
I0521 09:36:45.648842  3675 net.cpp:165] Memory required for data: 26845184
I0521 09:36:45.648846  3675 layer_factory.hpp:77] Creating layer lstm2x_transform_6
I0521 09:36:45.648852  3675 net.cpp:100] Creating Layer lstm2x_transform_6
I0521 09:36:45.648856  3675 net.cpp:434] lstm2x_transform_6 <- h_conted_5
I0521 09:36:45.648861  3675 net.cpp:408] lstm2x_transform_6 -> W_hc_h_5
I0521 09:36:45.649226  3675 net.cpp:150] Setting up lstm2x_transform_6
I0521 09:36:45.649240  3675 net.cpp:157] Top shape: 1 128 400 (51200)
I0521 09:36:45.649243  3675 net.cpp:165] Memory required for data: 27049984
I0521 09:36:45.649247  3675 net.cpp:493] Sharing parameters 'W_hc' owned by layer 'lstm2x_transform_1', param index 0
I0521 09:36:45.649252  3675 layer_factory.hpp:77] Creating layer lstm2x_gate_input_6
I0521 09:36:45.649258  3675 net.cpp:100] Creating Layer lstm2x_gate_input_6
I0521 09:36:45.649263  3675 net.cpp:434] lstm2x_gate_input_6 <- W_hc_h_5
I0521 09:36:45.649268  3675 net.cpp:434] lstm2x_gate_input_6 <- W_xc_x_6
I0521 09:36:45.649274  3675 net.cpp:408] lstm2x_gate_input_6 -> gate_input_6
I0521 09:36:45.649298  3675 net.cpp:150] Setting up lstm2x_gate_input_6
I0521 09:36:45.649303  3675 net.cpp:157] Top shape: 1 128 400 (51200)
I0521 09:36:45.649307  3675 net.cpp:165] Memory required for data: 27254784
I0521 09:36:45.649309  3675 layer_factory.hpp:77] Creating layer lstm2x_unit_6
I0521 09:36:45.649317  3675 net.cpp:100] Creating Layer lstm2x_unit_6
I0521 09:36:45.649320  3675 net.cpp:434] lstm2x_unit_6 <- c_5
I0521 09:36:45.649325  3675 net.cpp:434] lstm2x_unit_6 <- gate_input_6
I0521 09:36:45.649329  3675 net.cpp:434] lstm2x_unit_6 <- cont_6_lstm2x_cont_slice_5_split_1
I0521 09:36:45.649346  3675 net.cpp:408] lstm2x_unit_6 -> c_6
I0521 09:36:45.649353  3675 net.cpp:408] lstm2x_unit_6 -> h_6
I0521 09:36:45.649396  3675 net.cpp:150] Setting up lstm2x_unit_6
I0521 09:36:45.649401  3675 net.cpp:157] Top shape: 1 128 100 (12800)
I0521 09:36:45.649406  3675 net.cpp:157] Top shape: 1 128 100 (12800)
I0521 09:36:45.649410  3675 net.cpp:165] Memory required for data: 27357184
I0521 09:36:45.649412  3675 layer_factory.hpp:77] Creating layer h_6_lstm2x_unit_6_1_split
I0521 09:36:45.649420  3675 net.cpp:100] Creating Layer h_6_lstm2x_unit_6_1_split
I0521 09:36:45.649422  3675 net.cpp:434] h_6_lstm2x_unit_6_1_split <- h_6
I0521 09:36:45.649428  3675 net.cpp:408] h_6_lstm2x_unit_6_1_split -> h_6_lstm2x_unit_6_1_split_0
I0521 09:36:45.649433  3675 net.cpp:408] h_6_lstm2x_unit_6_1_split -> h_6_lstm2x_unit_6_1_split_1
I0521 09:36:45.649463  3675 net.cpp:150] Setting up h_6_lstm2x_unit_6_1_split
I0521 09:36:45.649468  3675 net.cpp:157] Top shape: 1 128 100 (12800)
I0521 09:36:45.649472  3675 net.cpp:157] Top shape: 1 128 100 (12800)
I0521 09:36:45.649475  3675 net.cpp:165] Memory required for data: 27459584
I0521 09:36:45.649479  3675 layer_factory.hpp:77] Creating layer lstm2x_h_conted_6
I0521 09:36:45.649490  3675 net.cpp:100] Creating Layer lstm2x_h_conted_6
I0521 09:36:45.649494  3675 net.cpp:434] lstm2x_h_conted_6 <- h_6_lstm2x_unit_6_1_split_0
I0521 09:36:45.649498  3675 net.cpp:434] lstm2x_h_conted_6 <- cont_7_lstm2x_cont_slice_6_split_0
I0521 09:36:45.649504  3675 net.cpp:408] lstm2x_h_conted_6 -> h_conted_6
I0521 09:36:45.649560  3675 net.cpp:150] Setting up lstm2x_h_conted_6
I0521 09:36:45.649566  3675 net.cpp:157] Top shape: 1 128 100 (12800)
I0521 09:36:45.649569  3675 net.cpp:165] Memory required for data: 27510784
I0521 09:36:45.649574  3675 layer_factory.hpp:77] Creating layer lstm2x_transform_7
I0521 09:36:45.649580  3675 net.cpp:100] Creating Layer lstm2x_transform_7
I0521 09:36:45.649585  3675 net.cpp:434] lstm2x_transform_7 <- h_conted_6
I0521 09:36:45.649590  3675 net.cpp:408] lstm2x_transform_7 -> W_hc_h_6
I0521 09:36:45.649986  3675 net.cpp:150] Setting up lstm2x_transform_7
I0521 09:36:45.649996  3675 net.cpp:157] Top shape: 1 128 400 (51200)
I0521 09:36:45.649998  3675 net.cpp:165] Memory required for data: 27715584
I0521 09:36:45.650004  3675 net.cpp:493] Sharing parameters 'W_hc' owned by layer 'lstm2x_transform_1', param index 0
I0521 09:36:45.650008  3675 layer_factory.hpp:77] Creating layer lstm2x_gate_input_7
I0521 09:36:45.650014  3675 net.cpp:100] Creating Layer lstm2x_gate_input_7
I0521 09:36:45.650019  3675 net.cpp:434] lstm2x_gate_input_7 <- W_hc_h_6
I0521 09:36:45.650024  3675 net.cpp:434] lstm2x_gate_input_7 <- W_xc_x_7
I0521 09:36:45.650029  3675 net.cpp:408] lstm2x_gate_input_7 -> gate_input_7
I0521 09:36:45.650055  3675 net.cpp:150] Setting up lstm2x_gate_input_7
I0521 09:36:45.650060  3675 net.cpp:157] Top shape: 1 128 400 (51200)
I0521 09:36:45.650064  3675 net.cpp:165] Memory required for data: 27920384
I0521 09:36:45.650068  3675 layer_factory.hpp:77] Creating layer lstm2x_unit_7
I0521 09:36:45.650072  3675 net.cpp:100] Creating Layer lstm2x_unit_7
I0521 09:36:45.650076  3675 net.cpp:434] lstm2x_unit_7 <- c_6
I0521 09:36:45.650080  3675 net.cpp:434] lstm2x_unit_7 <- gate_input_7
I0521 09:36:45.650084  3675 net.cpp:434] lstm2x_unit_7 <- cont_7_lstm2x_cont_slice_6_split_1
I0521 09:36:45.650089  3675 net.cpp:408] lstm2x_unit_7 -> c_7
I0521 09:36:45.650095  3675 net.cpp:408] lstm2x_unit_7 -> h_7
I0521 09:36:45.650140  3675 net.cpp:150] Setting up lstm2x_unit_7
I0521 09:36:45.650144  3675 net.cpp:157] Top shape: 1 128 100 (12800)
I0521 09:36:45.650148  3675 net.cpp:157] Top shape: 1 128 100 (12800)
I0521 09:36:45.650151  3675 net.cpp:165] Memory required for data: 28022784
I0521 09:36:45.650156  3675 layer_factory.hpp:77] Creating layer h_7_lstm2x_unit_7_1_split
I0521 09:36:45.650161  3675 net.cpp:100] Creating Layer h_7_lstm2x_unit_7_1_split
I0521 09:36:45.650166  3675 net.cpp:434] h_7_lstm2x_unit_7_1_split <- h_7
I0521 09:36:45.650169  3675 net.cpp:408] h_7_lstm2x_unit_7_1_split -> h_7_lstm2x_unit_7_1_split_0
I0521 09:36:45.650187  3675 net.cpp:408] h_7_lstm2x_unit_7_1_split -> h_7_lstm2x_unit_7_1_split_1
I0521 09:36:45.650216  3675 net.cpp:150] Setting up h_7_lstm2x_unit_7_1_split
I0521 09:36:45.650221  3675 net.cpp:157] Top shape: 1 128 100 (12800)
I0521 09:36:45.650225  3675 net.cpp:157] Top shape: 1 128 100 (12800)
I0521 09:36:45.650228  3675 net.cpp:165] Memory required for data: 28125184
I0521 09:36:45.650233  3675 layer_factory.hpp:77] Creating layer lstm2x_h_conted_7
I0521 09:36:45.650239  3675 net.cpp:100] Creating Layer lstm2x_h_conted_7
I0521 09:36:45.650243  3675 net.cpp:434] lstm2x_h_conted_7 <- h_7_lstm2x_unit_7_1_split_0
I0521 09:36:45.650249  3675 net.cpp:434] lstm2x_h_conted_7 <- cont_8_lstm2x_cont_slice_7_split_0
I0521 09:36:45.650254  3675 net.cpp:408] lstm2x_h_conted_7 -> h_conted_7
I0521 09:36:45.650310  3675 net.cpp:150] Setting up lstm2x_h_conted_7
I0521 09:36:45.650315  3675 net.cpp:157] Top shape: 1 128 100 (12800)
I0521 09:36:45.650318  3675 net.cpp:165] Memory required for data: 28176384
I0521 09:36:45.650322  3675 layer_factory.hpp:77] Creating layer lstm2x_transform_8
I0521 09:36:45.650328  3675 net.cpp:100] Creating Layer lstm2x_transform_8
I0521 09:36:45.650332  3675 net.cpp:434] lstm2x_transform_8 <- h_conted_7
I0521 09:36:45.650338  3675 net.cpp:408] lstm2x_transform_8 -> W_hc_h_7
I0521 09:36:45.650660  3675 net.cpp:150] Setting up lstm2x_transform_8
I0521 09:36:45.650668  3675 net.cpp:157] Top shape: 1 128 400 (51200)
I0521 09:36:45.650671  3675 net.cpp:165] Memory required for data: 28381184
I0521 09:36:45.650674  3675 net.cpp:493] Sharing parameters 'W_hc' owned by layer 'lstm2x_transform_1', param index 0
I0521 09:36:45.650677  3675 layer_factory.hpp:77] Creating layer lstm2x_gate_input_8
I0521 09:36:45.650681  3675 net.cpp:100] Creating Layer lstm2x_gate_input_8
I0521 09:36:45.650686  3675 net.cpp:434] lstm2x_gate_input_8 <- W_hc_h_7
I0521 09:36:45.650691  3675 net.cpp:434] lstm2x_gate_input_8 <- W_xc_x_8
I0521 09:36:45.650696  3675 net.cpp:408] lstm2x_gate_input_8 -> gate_input_8
I0521 09:36:45.650717  3675 net.cpp:150] Setting up lstm2x_gate_input_8
I0521 09:36:45.650720  3675 net.cpp:157] Top shape: 1 128 400 (51200)
I0521 09:36:45.650723  3675 net.cpp:165] Memory required for data: 28585984
I0521 09:36:45.650727  3675 layer_factory.hpp:77] Creating layer lstm2x_unit_8
I0521 09:36:45.650732  3675 net.cpp:100] Creating Layer lstm2x_unit_8
I0521 09:36:45.650734  3675 net.cpp:434] lstm2x_unit_8 <- c_7
I0521 09:36:45.650738  3675 net.cpp:434] lstm2x_unit_8 <- gate_input_8
I0521 09:36:45.650743  3675 net.cpp:434] lstm2x_unit_8 <- cont_8_lstm2x_cont_slice_7_split_1
I0521 09:36:45.650748  3675 net.cpp:408] lstm2x_unit_8 -> c_8
I0521 09:36:45.650753  3675 net.cpp:408] lstm2x_unit_8 -> h_8
I0521 09:36:45.650789  3675 net.cpp:150] Setting up lstm2x_unit_8
I0521 09:36:45.650792  3675 net.cpp:157] Top shape: 1 128 100 (12800)
I0521 09:36:45.650795  3675 net.cpp:157] Top shape: 1 128 100 (12800)
I0521 09:36:45.650797  3675 net.cpp:165] Memory required for data: 28688384
I0521 09:36:45.650800  3675 layer_factory.hpp:77] Creating layer h_8_lstm2x_unit_8_1_split
I0521 09:36:45.650805  3675 net.cpp:100] Creating Layer h_8_lstm2x_unit_8_1_split
I0521 09:36:45.650807  3675 net.cpp:434] h_8_lstm2x_unit_8_1_split <- h_8
I0521 09:36:45.650811  3675 net.cpp:408] h_8_lstm2x_unit_8_1_split -> h_8_lstm2x_unit_8_1_split_0
I0521 09:36:45.650815  3675 net.cpp:408] h_8_lstm2x_unit_8_1_split -> h_8_lstm2x_unit_8_1_split_1
I0521 09:36:45.650838  3675 net.cpp:150] Setting up h_8_lstm2x_unit_8_1_split
I0521 09:36:45.650841  3675 net.cpp:157] Top shape: 1 128 100 (12800)
I0521 09:36:45.650844  3675 net.cpp:157] Top shape: 1 128 100 (12800)
I0521 09:36:45.650846  3675 net.cpp:165] Memory required for data: 28790784
I0521 09:36:45.650848  3675 layer_factory.hpp:77] Creating layer lstm2x_h_conted_8
I0521 09:36:45.650852  3675 net.cpp:100] Creating Layer lstm2x_h_conted_8
I0521 09:36:45.650856  3675 net.cpp:434] lstm2x_h_conted_8 <- h_8_lstm2x_unit_8_1_split_0
I0521 09:36:45.650858  3675 net.cpp:434] lstm2x_h_conted_8 <- cont_9_lstm2x_cont_slice_8_split_0
I0521 09:36:45.650877  3675 net.cpp:408] lstm2x_h_conted_8 -> h_conted_8
I0521 09:36:45.650919  3675 net.cpp:150] Setting up lstm2x_h_conted_8
I0521 09:36:45.650923  3675 net.cpp:157] Top shape: 1 128 100 (12800)
I0521 09:36:45.650924  3675 net.cpp:165] Memory required for data: 28841984
I0521 09:36:45.650926  3675 layer_factory.hpp:77] Creating layer lstm2x_transform_9
…
I0521 09:36:45.771124  3675 layer_factory.hpp:77] Creating layer layer_128_1_conv3
I0521 09:36:45.771136  3675 net.cpp:100] Creating Layer layer_128_1_conv3
I0521 09:36:45.771139  3675 net.cpp:434] layer_128_1_conv3 <- layer_128_1_conv2
I0521 09:36:45.771147  3675 net.cpp:408] layer_128_1_conv3 -> layer_128_1_conv3
I0521 09:36:45.773790  3675 net.cpp:150] Setting up layer_128_1_conv3
I0521 09:36:45.773811  3675 net.cpp:157] Top shape: 128 512 4 16 (4194304)
I0521 09:36:45.773815  3675 net.cpp:165] Memory required for data: 1218480640
I0521 09:36:45.773823  3675 layer_factory.hpp:77] Creating layer layer_128_1_conv_expand
I0521 09:36:45.773840  3675 net.cpp:100] Creating Layer layer_128_1_conv_expand
I0521 09:36:45.773847  3675 net.cpp:434] layer_128_1_conv_expand <- layer_128_1_bn1_layer_128_1_relu1_0_split_1
I0521 09:36:45.773854  3675 net.cpp:408] layer_128_1_conv_expand -> layer_128_1_conv_expand
I0521 09:36:45.777132  3675 net.cpp:150] Setting up layer_128_1_conv_expand
I0521 09:36:45.777149  3675 net.cpp:157] Top shape: 128 512 4 16 (4194304)
I0521 09:36:45.777153  3675 net.cpp:165] Memory required for data: 1235257856
I0521 09:36:45.777160  3675 layer_factory.hpp:77] Creating layer layer_128_1_sum
I0521 09:36:45.777168  3675 net.cpp:100] Creating Layer layer_128_1_sum
I0521 09:36:45.777173  3675 net.cpp:434] layer_128_1_sum <- layer_128_1_conv3
I0521 09:36:45.777179  3675 net.cpp:434] layer_128_1_sum <- layer_128_1_conv_expand
I0521 09:36:45.777186  3675 net.cpp:408] layer_128_1_sum -> layer_128_1_sum
I0521 09:36:45.777209  3675 net.cpp:150] Setting up layer_128_1_sum
I0521 09:36:45.777215  3675 net.cpp:157] Top shape: 128 512 4 16 (4194304)
I0521 09:36:45.777218  3675 net.cpp:165] Memory required for data: 1252035072
I0521 09:36:45.777222  3675 layer_factory.hpp:77] Creating layer layer_128_1_sum_layer_128_1_sum_0_split
I0521 09:36:45.777228  3675 net.cpp:100] Creating Layer layer_128_1_sum_layer_128_1_sum_0_split
I0521 09:36:45.777231  3675 net.cpp:434] layer_128_1_sum_layer_128_1_sum_0_split <- layer_128_1_sum
I0521 09:36:45.777237  3675 net.cpp:408] layer_128_1_sum_layer_128_1_sum_0_split -> layer_128_1_sum_layer_128_1_sum_0_split_0
I0521 09:36:45.777243  3675 net.cpp:408] layer_128_1_sum_layer_128_1_sum_0_split -> layer_128_1_sum_layer_128_1_sum_0_split_1
I0521 09:36:45.777276  3675 net.cpp:150] Setting up layer_128_1_sum_layer_128_1_sum_0_split
I0521 09:36:45.777281  3675 net.cpp:157] Top shape: 128 512 4 16 (4194304)
I0521 09:36:45.777285  3675 net.cpp:157] Top shape: 128 512 4 16 (4194304)
I0521 09:36:45.777288  3675 net.cpp:165] Memory required for data: 1285589504
I0521 09:36:45.777292  3675 layer_factory.hpp:77] Creating layer layer_128_2_bn1
I0521 09:36:45.777298  3675 net.cpp:100] Creating Layer layer_128_2_bn1
I0521 09:36:45.777304  3675 net.cpp:434] layer_128_2_bn1 <- layer_128_1_sum_layer_128_1_sum_0_split_0
I0521 09:36:45.777308  3675 net.cpp:408] layer_128_2_bn1 -> layer_128_2_bn1
I0521 09:36:45.777493  3675 net.cpp:150] Setting up layer_128_2_bn1
I0521 09:36:45.777498  3675 net.cpp:157] Top shape: 128 512 4 16 (4194304)
I0521 09:36:45.777501  3675 net.cpp:165] Memory required for data: 1302366720
I0521 09:36:45.777508  3675 layer_factory.hpp:77] Creating layer layer_128_2_scale1
I0521 09:36:45.777515  3675 net.cpp:100] Creating Layer layer_128_2_scale1
I0521 09:36:45.777520  3675 net.cpp:434] layer_128_2_scale1 <- layer_128_2_bn1
I0521 09:36:45.777525  3675 net.cpp:395] layer_128_2_scale1 -> layer_128_2_bn1 (in-place)
I0521 09:36:45.777555  3675 layer_factory.hpp:77] Creating layer layer_128_2_scale1
I0521 09:36:45.777650  3675 net.cpp:150] Setting up layer_128_2_scale1
I0521 09:36:45.777657  3675 net.cpp:157] Top shape: 128 512 4 16 (4194304)
I0521 09:36:45.777660  3675 net.cpp:165] Memory required for data: 1319143936
I0521 09:36:45.777665  3675 layer_factory.hpp:77] Creating layer layer_128_2_relu1
I0521 09:36:45.777673  3675 net.cpp:100] Creating Layer layer_128_2_relu1
I0521 09:36:45.777676  3675 net.cpp:434] layer_128_2_relu1 <- layer_128_2_bn1
I0521 09:36:45.777680  3675 net.cpp:395] layer_128_2_relu1 -> layer_128_2_bn1 (in-place)
I0521 09:36:45.778189  3675 net.cpp:150] Setting up layer_128_2_relu1
I0521 09:36:45.778205  3675 net.cpp:157] Top shape: 128 512 4 16 (4194304)
I0521 09:36:45.778209  3675 net.cpp:165] Memory required for data: 1335921152
I0521 09:36:45.778213  3675 layer_factory.hpp:77] Creating layer layer_128_2_conv1
I0521 09:36:45.778245  3675 net.cpp:100] Creating Layer layer_128_2_conv1
I0521 09:36:45.778251  3675 net.cpp:434] layer_128_2_conv1 <- layer_128_2_bn1
I0521 09:36:45.778259  3675 net.cpp:408] layer_128_2_conv1 -> layer_128_2_conv1
I0521 09:36:45.780599  3675 net.cpp:150] Setting up layer_128_2_conv1
I0521 09:36:45.780616  3675 net.cpp:157] Top shape: 128 128 4 16 (1048576)
I0521 09:36:45.780619  3675 net.cpp:165] Memory required for data: 1340115456
I0521 09:36:45.780627  3675 layer_factory.hpp:77] Creating layer layer_128_2_bn2
I0521 09:36:45.780634  3675 net.cpp:100] Creating Layer layer_128_2_bn2
I0521 09:36:45.780640  3675 net.cpp:434] layer_128_2_bn2 <- layer_128_2_conv1
I0521 09:36:45.780645  3675 net.cpp:395] layer_128_2_bn2 -> layer_128_2_conv1 (in-place)
I0521 09:36:45.780836  3675 net.cpp:150] Setting up layer_128_2_bn2
I0521 09:36:45.780846  3675 net.cpp:157] Top shape: 128 128 4 16 (1048576)
I0521 09:36:45.780849  3675 net.cpp:165] Memory required for data: 1344309760
I0521 09:36:45.780858  3675 layer_factory.hpp:77] Creating layer layer_128_2_scale2
I0521 09:36:45.780866  3675 net.cpp:100] Creating Layer layer_128_2_scale2
I0521 09:36:45.780871  3675 net.cpp:434] layer_128_2_scale2 <- layer_128_2_conv1
I0521 09:36:45.780877  3675 net.cpp:395] layer_128_2_scale2 -> layer_128_2_conv1 (in-place)
I0521 09:36:45.780911  3675 layer_factory.hpp:77] Creating layer layer_128_2_scale2
I0521 09:36:45.781010  3675 net.cpp:150] Setting up layer_128_2_scale2
I0521 09:36:45.781018  3675 net.cpp:157] Top shape: 128 128 4 16 (1048576)
I0521 09:36:45.781021  3675 net.cpp:165] Memory required for data: 1348504064
I0521 09:36:45.781028  3675 layer_factory.hpp:77] Creating layer layer_128_2_relu2
I0521 09:36:45.781034  3675 net.cpp:100] Creating Layer layer_128_2_relu2
I0521 09:36:45.781039  3675 net.cpp:434] layer_128_2_relu2 <- layer_128_2_conv1
I0521 09:36:45.781046  3675 net.cpp:395] layer_128_2_relu2 -> layer_128_2_conv1 (in-place)
I0521 09:36:45.781407  3675 net.cpp:150] Setting up layer_128_2_relu2
I0521 09:36:45.781424  3675 net.cpp:157] Top shape: 128 128 4 16 (1048576)
I0521 09:36:45.781427  3675 net.cpp:165] Memory required for data: 1352698368
I0521 09:36:45.781431  3675 layer_factory.hpp:77] Creating layer layer_128_2_conv2
I0521 09:36:45.781445  3675 net.cpp:100] Creating Layer layer_128_2_conv2
I0521 09:36:45.781450  3675 net.cpp:434] layer_128_2_conv2 <- layer_128_2_conv1
I0521 09:36:45.781457  3675 net.cpp:408] layer_128_2_conv2 -> layer_128_2_conv2
I0521 09:36:45.787278  3675 net.cpp:150] Setting up layer_128_2_conv2
I0521 09:36:45.787310  3675 net.cpp:157] Top shape: 128 128 4 16 (1048576)
I0521 09:36:45.787313  3675 net.cpp:165] Memory required for data: 1356892672
I0521 09:36:45.787323  3675 layer_factory.hpp:77] Creating layer layer_128_2_bn3
I0521 09:36:45.787335  3675 net.cpp:100] Creating Layer layer_128_2_bn3
I0521 09:36:45.787341  3675 net.cpp:434] layer_128_2_bn3 <- layer_128_2_conv2
I0521 09:36:45.787348  3675 net.cpp:395] layer_128_2_bn3 -> layer_128_2_conv2 (in-place)
I0521 09:36:45.787549  3675 net.cpp:150] Setting up layer_128_2_bn3
I0521 09:36:45.787557  3675 net.cpp:157] Top shape: 128 128 4 16 (1048576)
I0521 09:36:45.787560  3675 net.cpp:165] Memory required for data: 1361086976
I0521 09:36:45.787567  3675 layer_factory.hpp:77] Creating layer layer_128_2_scale3
I0521 09:36:45.787576  3675 net.cpp:100] Creating Layer layer_128_2_scale3
I0521 09:36:45.787581  3675 net.cpp:434] layer_128_2_scale3 <- layer_128_2_conv2
I0521 09:36:45.787587  3675 net.cpp:395] layer_128_2_scale3 -> layer_128_2_conv2 (in-place)
I0521 09:36:45.787618  3675 layer_factory.hpp:77] Creating layer layer_128_2_scale3
I0521 09:36:45.787714  3675 net.cpp:150] Setting up layer_128_2_scale3
I0521 09:36:45.787719  3675 net.cpp:157] Top shape: 128 128 4 16 (1048576)
I0521 09:36:45.787724  3675 net.cpp:165] Memory required for data: 1365281280
I0521 09:36:45.787729  3675 layer_factory.hpp:77] Creating layer layer_128_2_relu3
I0521 09:36:45.787734  3675 net.cpp:100] Creating Layer layer_128_2_relu3
I0521 09:36:45.787760  3675 net.cpp:434] layer_128_2_relu3 <- layer_128_2_conv2
I0521 09:36:45.787766  3675 net.cpp:395] layer_128_2_relu3 -> layer_128_2_conv2 (in-place)
I0521 09:36:45.788239  3675 net.cpp:150] Setting up layer_128_2_relu3
I0521 09:36:45.788254  3675 net.cpp:157] Top shape: 128 128 4 16 (1048576)
I0521 09:36:45.788265  3675 net.cpp:165] Memory required for data: 1369475584
I0521 09:36:45.788270  3675 layer_factory.hpp:77] Creating layer layer_128_2_conv3
I0521 09:36:45.788282  3675 net.cpp:100] Creating Layer layer_128_2_conv3
I0521 09:36:45.788286  3675 net.cpp:434] layer_128_2_conv3 <- layer_128_2_conv2
I0521 09:36:45.788293  3675 net.cpp:408] layer_128_2_conv3 -> layer_128_2_conv3
I0521 09:36:45.790591  3675 net.cpp:150] Setting up layer_128_2_conv3
I0521 09:36:45.790611  3675 net.cpp:157] Top shape: 128 512 4 16 (4194304)
I0521 09:36:45.790614  3675 net.cpp:165] Memory required for data: 1386252800
I0521 09:36:45.790622  3675 layer_factory.hpp:77] Creating layer layer_128_2_sum
I0521 09:36:45.790632  3675 net.cpp:100] Creating Layer layer_128_2_sum
I0521 09:36:45.790637  3675 net.cpp:434] layer_128_2_sum <- layer_128_2_conv3
I0521 09:36:45.790642  3675 net.cpp:434] layer_128_2_sum <- layer_128_1_sum_layer_128_1_sum_0_split_1
I0521 09:36:45.790647  3675 net.cpp:408] layer_128_2_sum -> layer_128_2_sum
I0521 09:36:45.790671  3675 net.cpp:150] Setting up layer_128_2_sum
I0521 09:36:45.790679  3675 net.cpp:157] Top shape: 128 512 4 16 (4194304)
I0521 09:36:45.790683  3675 net.cpp:165] Memory required for data: 1403030016
I0521 09:36:45.790686  3675 layer_factory.hpp:77] Creating layer layer_128_2_sum_layer_128_2_sum_0_split
I0521 09:36:45.790691  3675 net.cpp:100] Creating Layer layer_128_2_sum_layer_128_2_sum_0_split
I0521 09:36:45.790695  3675 net.cpp:434] layer_128_2_sum_layer_128_2_sum_0_split <- layer_128_2_sum
I0521 09:36:45.790701  3675 net.cpp:408] layer_128_2_sum_layer_128_2_sum_0_split -> layer_128_2_sum_layer_128_2_sum_0_split_0
I0521 09:36:45.790707  3675 net.cpp:408] layer_128_2_sum_layer_128_2_sum_0_split -> layer_128_2_sum_layer_128_2_sum_0_split_1
I0521 09:36:45.790740  3675 net.cpp:150] Setting up layer_128_2_sum_layer_128_2_sum_0_split
I0521 09:36:45.790750  3675 net.cpp:157] Top shape: 128 512 4 16 (4194304)
I0521 09:36:45.790755  3675 net.cpp:157] Top shape: 128 512 4 16 (4194304)
I0521 09:36:45.790757  3675 net.cpp:165] Memory required for data: 1436584448
I0521 09:36:45.790761  3675 layer_factory.hpp:77] Creating layer layer_128_3_bn1
I0521 09:36:45.790767  3675 net.cpp:100] Creating Layer layer_128_3_bn1
I0521 09:36:45.790771  3675 net.cpp:434] layer_128_3_bn1 <- layer_128_2_sum_layer_128_2_sum_0_split_0
I0521 09:36:45.790776  3675 net.cpp:408] layer_128_3_bn1 -> layer_128_3_bn1
I0521 09:36:45.790957  3675 net.cpp:150] Setting up layer_128_3_bn1
I0521 09:36:45.790964  3675 net.cpp:157] Top shape: 128 512 4 16 (4194304)
I0521 09:36:45.790967  3675 net.cpp:165] Memory required for data: 1453361664
I0521 09:36:45.790976  3675 layer_factory.hpp:77] Creating layer layer_128_3_scale1
I0521 09:36:45.790982  3675 net.cpp:100] Creating Layer layer_128_3_scale1
I0521 09:36:45.790985  3675 net.cpp:434] layer_128_3_scale1 <- layer_128_3_bn1
I0521 09:36:45.790989  3675 net.cpp:395] layer_128_3_scale1 -> layer_128_3_bn1 (in-place)
I0521 09:36:45.791023  3675 layer_factory.hpp:77] Creating layer layer_128_3_scale1
I0521 09:36:45.791121  3675 net.cpp:150] Setting up layer_128_3_scale1
I0521 09:36:45.791127  3675 net.cpp:157] Top shape: 128 512 4 16 (4194304)
I0521 09:36:45.791131  3675 net.cpp:165] Memory required for data: 1470138880
I0521 09:36:45.791136  3675 layer_factory.hpp:77] Creating layer layer_128_3_relu1
I0521 09:36:45.791142  3675 net.cpp:100] Creating Layer layer_128_3_relu1
I0521 09:36:45.791146  3675 net.cpp:434] layer_128_3_relu1 <- layer_128_3_bn1
I0521 09:36:45.791151  3675 net.cpp:395] layer_128_3_relu1 -> layer_128_3_bn1 (in-place)
I0521 09:36:45.791636  3675 net.cpp:150] Setting up layer_128_3_relu1
I0521 09:36:45.791651  3675 net.cpp:157] Top shape: 128 512 4 16 (4194304)
I0521 09:36:45.791676  3675 net.cpp:165] Memory required for data: 1486916096
I0521 09:36:45.791682  3675 layer_factory.hpp:77] Creating layer layer_128_3_conv1
I0521 09:36:45.791693  3675 net.cpp:100] Creating Layer layer_128_3_conv1
I0521 09:36:45.791697  3675 net.cpp:434] layer_128_3_conv1 <- layer_128_3_bn1
I0521 09:36:45.791707  3675 net.cpp:408] layer_128_3_conv1 -> layer_128_3_conv1
I0521 09:36:45.794064  3675 net.cpp:150] Setting up layer_128_3_conv1
I0521 09:36:45.794080  3675 net.cpp:157] Top shape: 128 128 4 16 (1048576)
I0521 09:36:45.794085  3675 net.cpp:165] Memory required for data: 1491110400
I0521 09:36:45.794091  3675 layer_factory.hpp:77] Creating layer layer_128_3_bn2
I0521 09:36:45.794100  3675 net.cpp:100] Creating Layer layer_128_3_bn2
I0521 09:36:45.794103  3675 net.cpp:434] layer_128_3_bn2 <- layer_128_3_conv1
I0521 09:36:45.794109  3675 net.cpp:395] layer_128_3_bn2 -> layer_128_3_conv1 (in-place)
I0521 09:36:45.794283  3675 net.cpp:150] Setting up layer_128_3_bn2
I0521 09:36:45.794291  3675 net.cpp:157] Top shape: 128 128 4 16 (1048576)
I0521 09:36:45.794294  3675 net.cpp:165] Memory required for data: 1495304704
I0521 09:36:45.794301  3675 layer_factory.hpp:77] Creating layer layer_128_3_scale2
I0521 09:36:45.794309  3675 net.cpp:100] Creating Layer layer_128_3_scale2
I0521 09:36:45.794312  3675 net.cpp:434] layer_128_3_scale2 <- layer_128_3_conv1
I0521 09:36:45.794317  3675 net.cpp:395] layer_128_3_scale2 -> layer_128_3_conv1 (in-place)
I0521 09:36:45.794347  3675 layer_factory.hpp:77] Creating layer layer_128_3_scale2
I0521 09:36:45.794445  3675 net.cpp:150] Setting up layer_128_3_scale2
I0521 09:36:45.794450  3675 net.cpp:157] Top shape: 128 128 4 16 (1048576)
I0521 09:36:45.794453  3675 net.cpp:165] Memory required for data: 1499499008
I0521 09:36:45.794459  3675 layer_factory.hpp:77] Creating layer layer_128_3_relu2
I0521 09:36:45.794466  3675 net.cpp:100] Creating Layer layer_128_3_relu2
I0521 09:36:45.794468  3675 net.cpp:434] layer_128_3_relu2 <- layer_128_3_conv1
I0521 09:36:45.794473  3675 net.cpp:395] layer_128_3_relu2 -> layer_128_3_conv1 (in-place)
I0521 09:36:45.794797  3675 net.cpp:150] Setting up layer_128_3_relu2
I0521 09:36:45.794806  3675 net.cpp:157] Top shape: 128 128 4 16 (1048576)
I0521 09:36:45.794811  3675 net.cpp:165] Memory required for data: 1503693312
I0521 09:36:45.794813  3675 layer_factory.hpp:77] Creating layer layer_128_3_conv2
I0521 09:36:45.794823  3675 net.cpp:100] Creating Layer layer_128_3_conv2
I0521 09:36:45.794828  3675 net.cpp:434] layer_128_3_conv2 <- layer_128_3_conv1
I0521 09:36:45.794834  3675 net.cpp:408] layer_128_3_conv2 -> layer_128_3_conv2
I0521 09:36:45.799105  3675 net.cpp:150] Setting up layer_128_3_conv2
I0521 09:36:45.799119  3675 net.cpp:157] Top shape: 128 128 4 16 (1048576)
I0521 09:36:45.799122  3675 net.cpp:165] Memory required for data: 1507887616
I0521 09:36:45.799127  3675 layer_factory.hpp:77] Creating layer layer_128_3_bn3
I0521 09:36:45.799136  3675 net.cpp:100] Creating Layer layer_128_3_bn3
I0521 09:36:45.799140  3675 net.cpp:434] layer_128_3_bn3 <- layer_128_3_conv2
I0521 09:36:45.799146  3675 net.cpp:395] layer_128_3_bn3 -> layer_128_3_conv2 (in-place)
I0521 09:36:45.799291  3675 net.cpp:150] Setting up layer_128_3_bn3
I0521 09:36:45.799298  3675 net.cpp:157] Top shape: 128 128 4 16 (1048576)
I0521 09:36:45.799299  3675 net.cpp:165] Memory required for data: 1512081920
I0521 09:36:45.799304  3675 layer_factory.hpp:77] Creating layer layer_128_3_scale3
I0521 09:36:45.799312  3675 net.cpp:100] Creating Layer layer_128_3_scale3
I0521 09:36:45.799315  3675 net.cpp:434] layer_128_3_scale3 <- layer_128_3_conv2
I0521 09:36:45.799319  3675 net.cpp:395] layer_128_3_scale3 -> layer_128_3_conv2 (in-place)
I0521 09:36:45.799345  3675 layer_factory.hpp:77] Creating layer layer_128_3_scale3
I0521 09:36:45.799425  3675 net.cpp:150] Setting up layer_128_3_scale3
I0521 09:36:45.799432  3675 net.cpp:157] Top shape: 128 128 4 16 (1048576)
I0521 09:36:45.799434  3675 net.cpp:165] Memory required for data: 1516276224
I0521 09:36:45.799440  3675 layer_factory.hpp:77] Creating layer layer_128_3_relu3
I0521 09:36:45.799464  3675 net.cpp:100] Creating Layer layer_128_3_relu3
I0521 09:36:45.799469  3675 net.cpp:434] layer_128_3_relu3 <- layer_128_3_conv2
I0521 09:36:45.799474  3675 net.cpp:395] layer_128_3_relu3 -> layer_128_3_conv2 (in-place)
I0521 09:36:45.799845  3675 net.cpp:150] Setting up layer_128_3_relu3
I0521 09:36:45.799856  3675 net.cpp:157] Top shape: 128 128 4 16 (1048576)
I0521 09:36:45.799860  3675 net.cpp:165] Memory required for data: 1520470528
I0521 09:36:45.799865  3675 layer_factory.hpp:77] Creating layer layer_128_3_conv3
I0521 09:36:45.799876  3675 net.cpp:100] Creating Layer layer_128_3_conv3
I0521 09:36:45.799881  3675 net.cpp:434] layer_128_3_conv3 <- layer_128_3_conv2
I0521 09:36:45.799890  3675 net.cpp:408] layer_128_3_conv3 -> layer_128_3_conv3
I0521 09:36:45.801512  3675 net.cpp:150] Setting up layer_128_3_conv3
I0521 09:36:45.801525  3675 net.cpp:157] Top shape: 128 512 4 16 (4194304)
I0521 09:36:45.801528  3675 net.cpp:165] Memory required for data: 1537247744
I0521 09:36:45.801534  3675 layer_factory.hpp:77] Creating layer layer_128_3_sum
I0521 09:36:45.801544  3675 net.cpp:100] Creating Layer layer_128_3_sum
I0521 09:36:45.801548  3675 net.cpp:434] layer_128_3_sum <- layer_128_3_conv3
I0521 09:36:45.801553  3675 net.cpp:434] layer_128_3_sum <- layer_128_2_sum_layer_128_2_sum_0_split_1
I0521 09:36:45.801558  3675 net.cpp:408] layer_128_3_sum -> layer_128_3_sum
I0521 09:36:45.801580  3675 net.cpp:150] Setting up layer_128_3_sum
I0521 09:36:45.801586  3675 net.cpp:157] Top shape: 128 512 4 16 (4194304)
I0521 09:36:45.801589  3675 net.cpp:165] Memory required for data: 1554024960
I0521 09:36:45.801594  3675 layer_factory.hpp:77] Creating layer layer_128_3_sum_layer_128_3_sum_0_split
I0521 09:36:45.801599  3675 net.cpp:100] Creating Layer layer_128_3_sum_layer_128_3_sum_0_split
I0521 09:36:45.801602  3675 net.cpp:434] layer_128_3_sum_layer_128_3_sum_0_split <- layer_128_3_sum
I0521 09:36:45.801609  3675 net.cpp:408] layer_128_3_sum_layer_128_3_sum_0_split -> layer_128_3_sum_layer_128_3_sum_0_split_0
I0521 09:36:45.801615  3675 net.cpp:408] layer_128_3_sum_layer_128_3_sum_0_split -> layer_128_3_sum_layer_128_3_sum_0_split_1
I0521 09:36:45.801643  3675 net.cpp:150] Setting up layer_128_3_sum_layer_128_3_sum_0_split
I0521 09:36:45.801650  3675 net.cpp:157] Top shape: 128 512 4 16 (4194304)
I0521 09:36:45.801653  3675 net.cpp:157] Top shape: 128 512 4 16 (4194304)
I0521 09:36:45.801656  3675 net.cpp:165] Memory required for data: 1587579392
I0521 09:36:45.801661  3675 layer_factory.hpp:77] Creating layer layer_128_4_bn1
I0521 09:36:45.801668  3675 net.cpp:100] Creating Layer layer_128_4_bn1
I0521 09:36:45.801674  3675 net.cpp:434] layer_128_4_bn1 <- layer_128_3_sum_layer_128_3_sum_0_split_0
I0521 09:36:45.801679  3675 net.cpp:408] layer_128_4_bn1 -> layer_128_4_bn1
I0521 09:36:45.801813  3675 net.cpp:150] Setting up layer_128_4_bn1
I0521 09:36:45.801820  3675 net.cpp:157] Top shape: 128 512 4 16 (4194304)
I0521 09:36:45.801822  3675 net.cpp:165] Memory required for data: 1604356608
I0521 09:36:45.801829  3675 layer_factory.hpp:77] Creating layer layer_128_4_scale1
I0521 09:36:45.801837  3675 net.cpp:100] Creating Layer layer_128_4_scale1
I0521 09:36:45.801842  3675 net.cpp:434] layer_128_4_scale1 <- layer_128_4_bn1
I0521 09:36:45.801851  3675 net.cpp:395] layer_128_4_scale1 -> layer_128_4_bn1 (in-place)
I0521 09:36:45.801875  3675 layer_factory.hpp:77] Creating layer layer_128_4_scale1
I0521 09:36:45.801947  3675 net.cpp:150] Setting up layer_128_4_scale1
I0521 09:36:45.801954  3675 net.cpp:157] Top shape: 128 512 4 16 (4194304)
I0521 09:36:45.801956  3675 net.cpp:165] Memory required for data: 1621133824
I0521 09:36:45.801962  3675 layer_factory.hpp:77] Creating layer layer_128_4_relu1
I0521 09:36:45.801970  3675 net.cpp:100] Creating Layer layer_128_4_relu1
I0521 09:36:45.801975  3675 net.cpp:434] layer_128_4_relu1 <- layer_128_4_bn1
I0521 09:36:45.801980  3675 net.cpp:395] layer_128_4_relu1 -> layer_128_4_bn1 (in-place)
I0521 09:36:45.802244  3675 net.cpp:150] Setting up layer_128_4_relu1
I0521 09:36:45.802263  3675 net.cpp:157] Top shape: 128 512 4 16 (4194304)
I0521 09:36:45.802268  3675 net.cpp:165] Memory required for data: 1637911040
I0521 09:36:45.802271  3675 layer_factory.hpp:77] Creating layer layer_128_4_conv1
I0521 09:36:45.802281  3675 net.cpp:100] Creating Layer layer_128_4_conv1
I0521 09:36:45.802286  3675 net.cpp:434] layer_128_4_conv1 <- layer_128_4_bn1
I0521 09:36:45.802294  3675 net.cpp:408] layer_128_4_conv1 -> layer_128_4_conv1
I0521 09:36:45.803903  3675 net.cpp:150] Setting up layer_128_4_conv1
I0521 09:36:45.803916  3675 net.cpp:157] Top shape: 128 128 4 16 (1048576)
I0521 09:36:45.803920  3675 net.cpp:165] Memory required for data: 1642105344
I0521 09:36:45.803926  3675 layer_factory.hpp:77] Creating layer layer_128_4_bn2
I0521 09:36:45.803934  3675 net.cpp:100] Creating Layer layer_128_4_bn2
I0521 09:36:45.803942  3675 net.cpp:434] layer_128_4_bn2 <- layer_128_4_conv1
I0521 09:36:45.803948  3675 net.cpp:395] layer_128_4_bn2 -> layer_128_4_conv1 (in-place)
I0521 09:36:45.804081  3675 net.cpp:150] Setting up layer_128_4_bn2
I0521 09:36:45.804087  3675 net.cpp:157] Top shape: 128 128 4 16 (1048576)
I0521 09:36:45.804090  3675 net.cpp:165] Memory required for data: 1646299648
I0521 09:36:45.804097  3675 layer_factory.hpp:77] Creating layer layer_128_4_scale2
I0521 09:36:45.804105  3675 net.cpp:100] Creating Layer layer_128_4_scale2
I0521 09:36:45.804109  3675 net.cpp:434] layer_128_4_scale2 <- layer_128_4_conv1
I0521 09:36:45.804117  3675 net.cpp:395] layer_128_4_scale2 -> layer_128_4_conv1 (in-place)
I0521 09:36:45.804143  3675 layer_factory.hpp:77] Creating layer layer_128_4_scale2
I0521 09:36:45.804231  3675 net.cpp:150] Setting up layer_128_4_scale2
I0521 09:36:45.804239  3675 net.cpp:157] Top shape: 128 128 4 16 (1048576)
I0521 09:36:45.804244  3675 net.cpp:165] Memory required for data: 1650493952
I0521 09:36:45.804250  3675 layer_factory.hpp:77] Creating layer layer_128_4_relu2
I0521 09:36:45.804256  3675 net.cpp:100] Creating Layer layer_128_4_relu2
I0521 09:36:45.804260  3675 net.cpp:434] layer_128_4_relu2 <- layer_128_4_conv1
I0521 09:36:45.804265  3675 net.cpp:395] layer_128_4_relu2 -> layer_128_4_conv1 (in-place)
I0521 09:36:45.804652  3675 net.cpp:150] Setting up layer_128_4_relu2
I0521 09:36:45.804663  3675 net.cpp:157] Top shape: 128 128 4 16 (1048576)
I0521 09:36:45.804667  3675 net.cpp:165] Memory required for data: 1654688256
I0521 09:36:45.804672  3675 layer_factory.hpp:77] Creating layer layer_128_4_conv2
I0521 09:36:45.804683  3675 net.cpp:100] Creating Layer layer_128_4_conv2
I0521 09:36:45.804688  3675 net.cpp:434] layer_128_4_conv2 <- layer_128_4_conv1
I0521 09:36:45.804695  3675 net.cpp:408] layer_128_4_conv2 -> layer_128_4_conv2
I0521 09:36:45.809938  3675 net.cpp:150] Setting up layer_128_4_conv2
I0521 09:36:45.809962  3675 net.cpp:157] Top shape: 128 128 4 16 (1048576)
I0521 09:36:45.809964  3675 net.cpp:165] Memory required for data: 1658882560
I0521 09:36:45.809984  3675 layer_factory.hpp:77] Creating layer layer_128_4_bn3
I0521 09:36:45.809995  3675 net.cpp:100] Creating Layer layer_128_4_bn3
I0521 09:36:45.810001  3675 net.cpp:434] layer_128_4_bn3 <- layer_128_4_conv2
I0521 09:36:45.810009  3675 net.cpp:395] layer_128_4_bn3 -> layer_128_4_conv2 (in-place)
I0521 09:36:45.810161  3675 net.cpp:150] Setting up layer_128_4_bn3
I0521 09:36:45.810168  3675 net.cpp:157] Top shape: 128 128 4 16 (1048576)
I0521 09:36:45.810170  3675 net.cpp:165] Memory required for data: 1663076864
I0521 09:36:45.810178  3675 layer_factory.hpp:77] Creating layer layer_128_4_scale3
I0521 09:36:45.810189  3675 net.cpp:100] Creating Layer layer_128_4_scale3
I0521 09:36:45.810192  3675 net.cpp:434] layer_128_4_scale3 <- layer_128_4_conv2
I0521 09:36:45.810199  3675 net.cpp:395] layer_128_4_scale3 -> layer_128_4_conv2 (in-place)
I0521 09:36:45.810225  3675 layer_factory.hpp:77] Creating layer layer_128_4_scale3
I0521 09:36:45.810297  3675 net.cpp:150] Setting up layer_128_4_scale3
I0521 09:36:45.810303  3675 net.cpp:157] Top shape: 128 128 4 16 (1048576)
I0521 09:36:45.810319  3675 net.cpp:165] Memory required for data: 1667271168
I0521 09:36:45.810325  3675 layer_factory.hpp:77] Creating layer layer_128_4_relu3
I0521 09:36:45.810333  3675 net.cpp:100] Creating Layer layer_128_4_relu3
I0521 09:36:45.810338  3675 net.cpp:434] layer_128_4_relu3 <- layer_128_4_conv2
I0521 09:36:45.810343  3675 net.cpp:395] layer_128_4_relu3 -> layer_128_4_conv2 (in-place)
I0521 09:36:45.810618  3675 net.cpp:150] Setting up layer_128_4_relu3
I0521 09:36:45.810629  3675 net.cpp:157] Top shape: 128 128 4 16 (1048576)
I0521 09:36:45.810633  3675 net.cpp:165] Memory required for data: 1671465472
I0521 09:36:45.810636  3675 layer_factory.hpp:77] Creating layer layer_128_4_conv3
I0521 09:36:45.810650  3675 net.cpp:100] Creating Layer layer_128_4_conv3
I0521 09:36:45.810655  3675 net.cpp:434] layer_128_4_conv3 <- layer_128_4_conv2
I0521 09:36:45.810662  3675 net.cpp:408] layer_128_4_conv3 -> layer_128_4_conv3
I0521 09:36:45.812314  3675 net.cpp:150] Setting up layer_128_4_conv3
I0521 09:36:45.812330  3675 net.cpp:157] Top shape: 128 512 4 16 (4194304)
I0521 09:36:45.812333  3675 net.cpp:165] Memory required for data: 1688242688
I0521 09:36:45.812340  3675 layer_factory.hpp:77] Creating layer layer_128_4_sum
I0521 09:36:45.812348  3675 net.cpp:100] Creating Layer layer_128_4_sum
I0521 09:36:45.812353  3675 net.cpp:434] layer_128_4_sum <- layer_128_4_conv3
I0521 09:36:45.812361  3675 net.cpp:434] layer_128_4_sum <- layer_128_3_sum_layer_128_3_sum_0_split_1
I0521 09:36:45.812369  3675 net.cpp:408] layer_128_4_sum -> layer_128_4_sum
I0521 09:36:45.812391  3675 net.cpp:150] Setting up layer_128_4_sum
I0521 09:36:45.812397  3675 net.cpp:157] Top shape: 128 512 4 16 (4194304)
I0521 09:36:45.812399  3675 net.cpp:165] Memory required for data: 1705019904
I0521 09:36:45.812403  3675 layer_factory.hpp:77] Creating layer last_bn
I0521 09:36:45.812412  3675 net.cpp:100] Creating Layer last_bn
I0521 09:36:45.812415  3675 net.cpp:434] last_bn <- layer_128_4_sum
I0521 09:36:45.812420  3675 net.cpp:395] last_bn -> layer_128_4_sum (in-place)
I0521 09:36:45.812551  3675 net.cpp:150] Setting up last_bn
I0521 09:36:45.812556  3675 net.cpp:157] Top shape: 128 512 4 16 (4194304)
I0521 09:36:45.812559  3675 net.cpp:165] Memory required for data: 1721797120
I0521 09:36:45.812567  3675 layer_factory.hpp:77] Creating layer last_scale
I0521 09:36:45.812573  3675 net.cpp:100] Creating Layer last_scale
I0521 09:36:45.812577  3675 net.cpp:434] last_scale <- layer_128_4_sum
I0521 09:36:45.812582  3675 net.cpp:395] last_scale -> layer_128_4_sum (in-place)
I0521 09:36:45.812608  3675 layer_factory.hpp:77] Creating layer last_scale
I0521 09:36:45.812680  3675 net.cpp:150] Setting up last_scale
I0521 09:36:45.812685  3675 net.cpp:157] Top shape: 128 512 4 16 (4194304)
I0521 09:36:45.812690  3675 net.cpp:165] Memory required for data: 1738574336
I0521 09:36:45.812695  3675 layer_factory.hpp:77] Creating layer last_relu
I0521 09:36:45.812700  3675 net.cpp:100] Creating Layer last_relu
I0521 09:36:45.812703  3675 net.cpp:434] last_relu <- layer_128_4_sum
I0521 09:36:45.812710  3675 net.cpp:395] last_relu -> layer_128_4_sum (in-place)
I0521 09:36:45.813102  3675 net.cpp:150] Setting up last_relu
I0521 09:36:45.813115  3675 net.cpp:157] Top shape: 128 512 4 16 (4194304)
I0521 09:36:45.813118  3675 net.cpp:165] Memory required for data: 1755351552
I0521 09:36:45.813123  3675 layer_factory.hpp:77] Creating layer dropout
I0521 09:36:45.813130  3675 net.cpp:100] Creating Layer dropout
I0521 09:36:45.813134  3675 net.cpp:434] dropout <- layer_128_4_sum
I0521 09:36:45.813140  3675 net.cpp:395] dropout -> layer_128_4_sum (in-place)
I0521 09:36:45.813164  3675 net.cpp:150] Setting up dropout
I0521 09:36:45.813169  3675 net.cpp:157] Top shape: 128 512 4 16 (4194304)
I0521 09:36:45.813172  3675 net.cpp:165] Memory required for data: 1772128768
I0521 09:36:45.813176  3675 layer_factory.hpp:77] Creating layer permuted_data
I0521 09:36:45.813184  3675 net.cpp:100] Creating Layer permuted_data
I0521 09:36:45.813189  3675 net.cpp:434] permuted_data <- layer_128_4_sum
I0521 09:36:45.813205  3675 net.cpp:408] permuted_data -> permuted_data
I0521 09:36:45.813275  3675 net.cpp:150] Setting up permuted_data
I0521 09:36:45.813280  3675 net.cpp:157] Top shape: 16 128 512 4 (4194304)
I0521 09:36:45.813284  3675 net.cpp:165] Memory required for data: 1788905984
I0521 09:36:45.813287  3675 layer_factory.hpp:77] Creating layer permuted_data_permuted_data_0_split
I0521 09:36:45.813294  3675 net.cpp:100] Creating Layer permuted_data_permuted_data_0_split
I0521 09:36:45.813298  3675 net.cpp:434] permuted_data_permuted_data_0_split <- permuted_data
I0521 09:36:45.813303  3675 net.cpp:408] permuted_data_permuted_data_0_split -> permuted_data_permuted_data_0_split_0
I0521 09:36:45.813310  3675 net.cpp:408] permuted_data_permuted_data_0_split -> permuted_data_permuted_data_0_split_1
I0521 09:36:45.813335  3675 net.cpp:150] Setting up permuted_data_permuted_data_0_split
I0521 09:36:45.813340  3675 net.cpp:157] Top shape: 16 128 512 4 (4194304)
I0521 09:36:45.813345  3675 net.cpp:157] Top shape: 16 128 512 4 (4194304)
I0521 09:36:45.813349  3675 net.cpp:165] Memory required for data: 1822460416
I0521 09:36:45.813351  3675 layer_factory.hpp:77] Creating layer lstm-reverse1
I0521 09:36:45.813360  3675 net.cpp:100] Creating Layer lstm-reverse1
I0521 09:36:45.813364  3675 net.cpp:434] lstm-reverse1 <- permuted_data_permuted_data_0_split_0
I0521 09:36:45.813370  3675 net.cpp:408] lstm-reverse1 -> rlstm_input
I0521 09:36:45.813386  3675 net.cpp:150] Setting up lstm-reverse1
I0521 09:36:45.813391  3675 net.cpp:157] Top shape: 16 128 512 4 (4194304)
I0521 09:36:45.813395  3675 net.cpp:165] Memory required for data: 1839237632
I0521 09:36:45.813398  3675 layer_factory.hpp:77] Creating layer lstm2x
I0521 09:36:45.813405  3675 net.cpp:100] Creating Layer lstm2x
I0521 09:36:45.813410  3675 net.cpp:434] lstm2x <- rlstm_input
I0521 09:36:45.813414  3675 net.cpp:434] lstm2x <- indicator_indicator_0_split_0
I0521 09:36:45.813419  3675 net.cpp:408] lstm2x -> lstm2x
I0521 09:36:45.813431  3675 recurrent_layer.cpp:20] Initializing recurrent layer: assuming input batch contains 16 timesteps of 128 independent streams.
I0521 09:36:45.813812  3675 net.cpp:58] Initializing net from parameters: 
layer {
  name: "lstm2x_"
  type: "Input"
  top: "x"
  top: "cont"
  input_param {
    shape {
      dim: 16
      dim: 128
      dim: 512
      dim: 4
    }
    shape {
      dim: 16
      dim: 128
    }
  }
}
layer {
  name: "lstm2x_"
  type: "Input"
  top: "c_0"
  top: "h_0"
  input_param {
    shape {
      dim: 1
      dim: 128
      dim: 100
    }
    shape {
      dim: 1
      dim: 128
      dim: 100
    }
  }
}
layer {
  name: "lstm2x_cont_slice"
  type: "Slice"
  bottom: "cont"
  top: "cont_1"
  top: "cont_2"
  top: "cont_3"
  top: "cont_4"
  top: "cont_5"
  top: "cont_6"
  top: "cont_7"
  top: "cont_8"
  top: "cont_9"
  top: "cont_10"
  top: "cont_11"
  top: "cont_12"
  top: "cont_13"
  top: "cont_14"
  top: "cont_15"
  top: "cont_16"
  slice_param {
    axis: 0
  }
}
layer {
  name: "lstm2x_x_transform"
  type: "InnerProduct"
  bottom: "x"
  top: "W_xc_x"
  param {
    name: "W_xc"
  }
  param {
    name: "b_c"
  }
  propagate_down: true
  inner_product_param {
    num_output: 400
    bias_term: true
    weight_filler {
      type: "xavier"
    }
    bias_filler {
      type: "constant"
      value: 0
    }
    axis: 2
  }
}
layer {
  name: "lstm2x_W_xc_x_slice"
  type: "Slice"
  bottom: "W_xc_x"
  top: "W_xc_x_1"
  top: "W_xc_x_2"
  top: "W_xc_x_3"
  top: "W_xc_x_4"
  top: "W_xc_x_5"
  top: "W_xc_x_6"
  top: "W_xc_x_7"
  top: "W_xc_x_8"
  top: "W_xc_x_9"
  top: "W_xc_x_10"
  top: "W_xc_x_11"
  top: "W_xc_x_12"
  top: "W_xc_x_13"
  top: "W_xc_x_14"
  top: "W_xc_x_15"
  top: "W_xc_x_16"
  slice_param {
    axis: 0
  }
}
layer {
  name: "lstm2x_h_conted_0"
  type: "Scale"
  bottom: "h_0"
  bottom: "cont_1"
  top: "h_conted_0"
  scale_param {
    axis: 0
  }
}
layer {
  name: "lstm2x_transform_1"
  type: "InnerProduct"
  bottom: "h_conted_0"
  top: "W_hc_h_0"
  param {
    name: "W_hc"
  }
  inner_product_param {
    num_output: 400
    bias_term: false
    weight_filler {
      type: "xavier"
    }
    axis: 2
  }
}
layer {
  name: "lstm2x_gate_input_1"
  type: "Eltwise"
  bottom: "W_hc_h_0"
  bottom: "W_xc_x_1"
  top: "gate_input_1"
  eltwise_param {
    operation: SUM
  }
}
layer {
  name: "lstm2x_unit_1"
  type: "LSTMUnit"
  bottom: "c_0"
  bottom: "gate_input_1"
  bottom: "cont_1"
  top: "c_1"
  top: "h_1"
}
layer {
  name: "lstm2x_h_conted_1"
  type: "Scale"
  bottom: "h_1"
  bottom: "cont_2"
  top: "h_conted_1"
  scale_param {
    axis: 0
  }
}
layer {
  name: "lstm2x_transform_2"
  type: "InnerProduct"
  bottom: "h_conted_1"
  top: "W_hc_h_1"
  param {
    name: "W_hc"
  }
  inner_product_param {
    num_output: 400
    bias_term: false
    weight_filler {
      type: "xavier"
    }
    axis: 2
  }
}
layer {
  name: "lstm2x_gate_input_2"
  type: "Eltwise"
  bottom: "W_hc_h_1"
  bottom: "W_xc_x_2"
  top: "gate_input_2"
  eltwise_param {
    operation: SUM
  }
}
layer {
  name: "lstm2x_unit_2"
  type: "LSTMUnit"
  bottom: "c_1"
  bottom: "gate_input_2"
  bottom: "cont_2"
  top: "c_2"
  top: "h_2"
}
layer {
  name: "lstm2x_h_conted_2"
  type: "Scale"
  bottom: "h_2"
  bottom: "cont_3"
  top: "h_conted_2"
  scale_param {
    axis: 0
  }
}
layer {
  name: "lstm2x_transform_3"
  type: "InnerProduct"
  bottom: "h_conted_2"
  top: "W_hc_h_2"
  param {
    name: "W_hc"
  }
  inner_product_param {
    num_output: 400
    bias_term: false
    weight_filler {
      type: "xavier"
    }
    axis: 2
  }
}
layer {
  name: "lstm2x_gate_input_3"
  type: "Eltwise"
  bottom: "W_hc_h_2"
  bottom: "W_xc_x_3"
  top: "gate_input_3"
  eltwise_param {
    operation: SUM
  }
}
layer {
  name: "lstm2x_unit_3"
  type: "LSTMUnit"
  bottom: "c_2"
  bottom: "gate_input_3"
  bottom: "cont_3"
  top: "c_3"
  top: "h_3"
}
layer {
  name: "lstm2x_h_conted_3"
  type: "Scale"
  bottom: "h_3"
  bottom: "cont_4"
  top: "h_conted_3"
  scale_param {
    axis: 0
  }
}
layer {
  name: "lstm2x_transform_4"
  type: "InnerProduct"
  bottom: "h_conted_3"
  top: "W_hc_h_3"
  param {
    name: "W_hc"
  }
  inner_product_param {
    num_output: 400
    bias_term: false
    weight_filler {
      type: "xavier"
    }
    axis: 2
  }
}
layer {
  name: "lstm2x_gate_input_4"
  type: "Eltwise"
  bottom: "W_hc_h_3"
  bottom: "W_xc_x_4"
  top: "gate_input_4"
  eltwise_param {
    operation: SUM
  }
}
layer {
  name: "lstm2x_unit_4"
  type: "LSTMUnit"
  bottom: "c_3"
  bottom: "gate_input_4"
  bottom: "cont_4"
  top: "c_4"
  top: "h_4"
}
layer {
  name: "lstm2x_h_conted_4"
  type: "Scale"
  bottom: "h_4"
  bottom: "cont_5"
  top: "h_conted_4"
  scale_param {
    axis: 0
  }
}
layer {
  name: "lstm2x_transform_5"
  type: "InnerProduct"
  bottom: "h_conted_4"
  top: "W_hc_h_4"
  param {
    name: "W_hc"
  }
  inner_product_param {
    num_output: 400
    bias_term: false
    weight_filler {
      type: "xavier"
    }
    axis: 2
  }
}
layer {
  name: "lstm2x_gate_input_5"
  type: "Eltwise"
  bottom: "W_hc_h_4"
  bottom: "W_xc_x_5"
  top: "gate_input_5"
  eltwise_param {
    operation: SUM
  }
}
layer {
  name: "lstm2x_unit_5"
  type: "LSTMUnit"
  bottom: "c_4"
  bottom: "gate_input_5"
  bottom: "cont_5"
  top: "c_5"
  top: "h_5"
}
layer {
  name: "lstm2x_h_conted_5"
  type: "Scale"
  bottom: "h_5"
  bottom: "cont_6"
  top: "h_conted_5"
  scale_param {
    axis: 0
  }
}
layer {
  name: "lstm2x_transform_6"
  type: "InnerProduct"
  bottom: "h_conted_5"
  top: "W_hc_h_5"
  param {
    name: "W_hc"
  }
  inner_product_param {
    num_output: 400
    bias_term: false
    weight_filler {
      type: "xavier"
    }
    axis: 2
  }
}
layer {
  name: "lstm2x_gate_input_6"
  type: "Eltwise"
  bottom: "W_hc_h_5"
  bottom: "W_xc_x_6"
  top: "gate_input_6"
  eltwise_param {
    operation: SUM
  }
}
layer {
  name: "lstm2x_unit_6"
  type: "LSTMUnit"
  bottom: "c_5"
  bottom: "gate_input_6"
  bottom: "cont_6"
  top: "c_6"
  top: "h_6"
}
layer {
  name: "lstm2x_h_conted_6"
  type: "Scale"
  bottom: "h_6"
  bottom: "cont_7"
  top: "h_conted_6"
  scale_param {
    axis: 0
  }
}
layer {
  name: "lstm2x_transform_7"
  type: "InnerProduct"
  bottom: "h_conted_6"
  top: "W_hc_h_6"
  param {
    name: "W_hc"
  }
  inner_product_param {
    num_output: 400
    bias_term: false
    weight_filler {
      type: "xavier"
    }
    axis: 2
  }
}
layer {
  name: "lstm2x_gate_input_7"
  type: "Eltwise"
  bottom: "W_hc_h_6"
  bottom: "W_xc_x_7"
  top: "gate_input_7"
  eltwise_param {
    operation: SUM
  }
}
layer {
  name: "lstm2x_unit_7"
  type: "LSTMUnit"
  bottom: "c_6"
  bottom: "gate_input_7"
  bottom: "cont_7"
  top: "c_7"
  top: "h_7"
}
layer {
  name: "lstm2x_h_conted_7"
  type: "Scale"
  bottom: "h_7"
  bottom: "cont_8"
  top: "h_conted_7"
  scale_param {
    axis: 0
  }
}
layer {
  name: "lstm2x_transform_8"
  type: "InnerProduct"
  bottom: "h_conted_7"
  top: "W_hc_h_7"
  param {
    name: "W_hc"
  }
  inner_product_param {
    num_output: 400
    bias_term: false
    weight_filler {
      type: "xavier"
    }
    axis: 2
  }
}
layer {
  name: "lstm2x_gate_input_8"
  type: "Eltwise"
  bottom: "W_hc_h_7"
  bottom: "W_xc_x_8"
  top: "gate_input_8"
  eltwise_param {
    operation: SUM
  }
}
layer {
  name: "lstm2x_unit_8"
  type: "LSTMUnit"
  bottom: "c_7"
  bottom: "gate_input_8"
  bottom: "cont_8"
  top: "c_8"
  top: "h_8"
}
layer {
  name: "lstm2x_h_conted_8"
  type: "Scale"
  bottom: "h_8"
  bottom: "cont_9"
  top: "h_conted_8"
  scale_param {
    axis: 0
  }
}
layer {
  name: "lstm2x_transform_9"
  type: "InnerProduct"
  bottom: "h_conted_8"
  top: "W_hc_h_8"
  param {
    name: "W_hc"
  }
  inner_product_param {
    num_output: 400
    bias_term: false
    weight_filler {
      type: "xavier"
    }
    axis: 2
  }
}
layer {
  name: "lstm2x_gate_input_9"
  type: "Eltwise"
  bottom: "W_hc_h_8"
  bottom: "W_xc_x_9"
  top: "gate_input_9"
  eltwise_param {
    operation: SUM
  }
}
layer {
  name: "lstm2x_unit_9"
  type: "LSTMUnit"
  bottom: "c_8"
  bottom: "gate_input_9"
  bottom: "cont_9"
  top: "c_9"
  top: "h_9"
}
layer {
  name: "lstm2x_h_conted_9"
  type: "Scale"
  bottom: "h_9"
  bottom: "cont_10"
  top: "h_conted_9"
  scale_param {
    axis: 0
  }
}
layer {
  name: "lstm2x_transform_10"
  type: "InnerProduct"
  bottom: "h_conted_9"
  top: "W_hc_h_9"
  param {
    name: "W_hc"
  }
  inner_product_param {
    num_output: 400
    bias_term: false
    weight_filler {
      type: "xavier"
    }
    axis: 2
  }
}
layer {
  name: "lstm2x_gate_input_10"
  type: "Eltwise"
  bottom: "W_hc_h_9"
  bottom: "W_xc_x_10"
  top: "gate_input_10"
  eltwise_param {
    operation: SUM
  }
}
layer {
  name: "lstm2x_unit_10"
  type: "LSTMUnit"
  bottom: "c_9"
  bottom: "gate_input_10"
  bottom: "cont_10"
  top: "c_10"
  top: "h_10"
}
layer {
  name: "lstm2x_h_conted_10"
  type: "Scale"
  bottom: "h_10"
  bottom: "cont_11"
  top: "h_conted_10"
  scale_param {
    axis: 0
  }
}
layer {
  name: "lstm2x_transform_11"
  type: "InnerProduct"
  bottom: "h_conted_10"
  top: "W_hc_h_10"
  param {
    name: "W_hc"
  }
  inner_product_param {
    num_output: 400
    bias_term: false
    weight_filler {
      type: "xavier"
    }
    axis: 2
  }
}
layer {
  name: "lstm2x_gate_input_11"
  type: "Eltwise"
  bottom: "W_hc_h_10"
  bottom: "W_xc_x_11"
  top: "gate_input_11"
  eltwise_param {
    operation: SUM
  }
}
layer {
  name: "lstm2x_unit_11"
  type: "LSTMUnit"
  bottom: "c_10"
  bottom: "gate_input_11"
  bottom: "cont_11"
  top: "c_11"
  top: "h_11"
}
layer {
  name: "lstm2x_h_conted_11"
  type: "Scale"
  bottom: "h_11"
  bottom: "cont_12"
  top: "h_conted_11"
  scale_param {
    axis: 0
  }
}
layer {
  name: "lstm2x_transform_12"
  type: "InnerProduct"
  bottom: "h_conted_11"
  top: "W_hc_h_11"
  param {
    name: "W_hc"
  }
  inner_product_param {
    num_output: 400
    bias_term: false
    weight_filler {
      type: "xavier"
    }
    axis: 2
  }
}
layer {
  name: "lstm2x_gate_input_12"
  type: "Eltwise"
  bottom: "W_hc_h_11"
  bottom: "W_xc_x_12"
  top: "gate_input_12"
  eltwise_param {
    operation: SUM
  }
}
layer {
  name: "lstm2x_unit_12"
  type: "LSTMUnit"
  bottom: "c_11"
  bottom: "gate_input_12"
  bottom: "cont_12"
  top: "c_12"
  top: "h_12"
}
layer {
  name: "lstm2x_h_conted_12"
  type: "Scale"
  bottom: "h_12"
  bottom: "cont_13"
  top: "h_conted_12"
  scale_param {
    axis: 0
  }
}
layer {
  name: "lstm2x_transform_13"
  type: "InnerProduct"
  bottom: "h_conted_12"
  top: "W_hc_h_12"
  param {
    name: "W_hc"
  }
  inner_product_param {
    num_output: 400
    bias_term: false
    weight_filler {
      type: "xavier"
    }
    axis: 2
  }
}
layer {
  name: "lstm2x_gate_input_13"
  type: "Eltwise"
  bottom: "W_hc_h_12"
  bottom: "W_xc_x_13"
  top: "gate_input_13"
  eltwise_param {
    operation: SUM
  }
}
layer {
  name: "lstm2x_unit_13"
  type: "LSTMUnit"
  bottom: "c_12"
  bottom: "gate_input_13"
  bottom: "cont_13"
  top: "c_13"
  top: "h_13"
}
layer {
  name: "lstm2x_h_conted_13"
  type: "Scale"
  bottom: "h_13"
  bottom: "cont_14"
  top: "h_conted_13"
  scale_param {
    axis: 0
  }
}
layer {
  name: "lstm2x_transform_14"
  type: "InnerProduct"
  bottom: "h_conted_13"
  top: "W_hc_h_13"
  param {
    name: "W_hc"
  }
  inner_product_param {
    num_output: 400
    bias_term: false
    weight_filler {
      type: "xavier"
    }
    axis: 2
  }
}
layer {
  name: "lstm2x_gate_input_14"
  type: "Eltwise"
  bottom: "W_hc_h_13"
  bottom: "W_xc_x_14"
  top: "gate_input_14"
  eltwise_param {
    operation: SUM
  }
}
layer {
  name: "lstm2x_unit_14"
  type: "LSTMUnit"
  bottom: "c_13"
  bottom: "gate_input_14"
  bottom: "cont_14"
  top: "c_14"
  top: "h_14"
}
layer {
  name: "lstm2x_h_conted_14"
  type: "Scale"
  bottom: "h_14"
  bottom: "cont_15"
  top: "h_conted_14"
  scale_param {
    axis: 0
  }
}
layer {
  name: "lstm2x_transform_15"
  type: "InnerProduct"
  bottom: "h_conted_14"
  top: "W_hc_h_14"
  param {
    name: "W_hc"
  }
  inner_product_param {
    num_output: 400
    bias_term: false
    weight_filler {
      type: "xavier"
    }
    axis: 2
  }
}
layer {
  name: "lstm2x_gate_input_15"
  type: "Eltwise"
  bottom: "W_hc_h_14"
  bottom: "W_xc_x_15"
  top: "gate_input_15"
  eltwise_param {
    operation: SUM
  }
}
layer {
  name: "lstm2x_unit_15"
  type: "LSTMUnit"
  bottom: "c_14"
  bottom: "gate_input_15"
  bottom: "cont_15"
  top: "c_15"
  top: "h_15"
}
layer {
  name: "lstm2x_h_conted_15"
  type: "Scale"
  bottom: "h_15"
  bottom: "cont_16"
  top: "h_conted_15"
  scale_param {
    axis: 0
  }
}
layer {
  name: "lstm2x_transform_16"
  type: "InnerProduct"
  bottom: "h_conted_15"
  top: "W_hc_h_15"
  param {
    name: "W_hc"
  }
  inner_product_param {
    num_output: 400
    bias_term: false
    weight_filler {
      type: "xavier"
    }
    axis: 2
  }
}
layer {
  name: "lstm2x_gate_input_16"
  type: "Eltwise"
  bottom: "W_hc_h_15"
  bottom: "W_xc_x_16"
  top: "gate_input_16"
  eltwise_param {
    operation: SUM
  }
}
layer {
  name: "lstm2x_unit_16"
  type: "LSTMUnit"
  bottom: "c_15"
  bottom: "gate_input_16"
  bottom: "cont_16"
  top: "c_16"
  top: "h_16"
}
layer {
  name: "lstm2x_"
  type: "Split"
  bottom: "c_16"
  top: "c_T"
}
layer {
  name: "lstm2x_h_concat"
  type: "Concat"
  bottom: "h_1"
  bottom: "h_2"
  bottom: "h_3"
  bottom: "h_4"
  bottom: "h_5"
  bottom: "h_6"
  bottom: "h_7"
  bottom: "h_8"
  bottom: "h_9"
  bottom: "h_10"
  bottom: "h_11"
  bottom: "h_12"
  bottom: "h_13"
  bottom: "h_14"
  bottom: "h_15"
  bottom: "h_16"
  top: "h"
  concat_param {
    axis: 0
  }
}
layer {
  name: "h_pseudoloss"
  type: "Reduction"
  bottom: "h"
  top: "h_pseudoloss"
  loss_weight: 1
}
I0521 09:36:45.814288  3675 layer_factory.hpp:77] Creating layer lstm2x_
I0521 09:36:45.814296  3675 net.cpp:100] Creating Layer lstm2x_
I0521 09:36:45.814301  3675 net.cpp:408] lstm2x_ -> x
I0521 09:36:45.814309  3675 net.cpp:408] lstm2x_ -> cont
I0521 09:36:45.814354  3675 net.cpp:150] Setting up lstm2x_
I0521 09:36:45.814360  3675 net.cpp:157] Top shape: 16 128 512 4 (4194304)
I0521 09:36:45.814364  3675 net.cpp:157] Top shape: 16 128 (2048)
I0521 09:36:45.814368  3675 net.cpp:165] Memory required for data: 16785408
I0521 09:36:45.814370  3675 layer_factory.hpp:77] Creating layer lstm2x_
I0521 09:36:45.814375  3675 net.cpp:100] Creating Layer lstm2x_
I0521 09:36:45.814386  3675 net.cpp:408] lstm2x_ -> c_0
I0521 09:36:45.814393  3675 net.cpp:408] lstm2x_ -> h_0
I0521 09:36:45.814429  3675 net.cpp:150] Setting up lstm2x_
I0521 09:36:45.814435  3675 net.cpp:157] Top shape: 1 128 100 (12800)
I0521 09:36:45.814438  3675 net.cpp:157] Top shape: 1 128 100 (12800)
I0521 09:36:45.814442  3675 net.cpp:165] Memory required for data: 16887808
I0521 09:36:45.814445  3675 layer_factory.hpp:77] Creating layer lstm2x_cont_slice
I0521 09:36:45.814452  3675 net.cpp:100] Creating Layer lstm2x_cont_slice
I0521 09:36:45.814460  3675 net.cpp:434] lstm2x_cont_slice <- cont
I0521 09:36:45.814465  3675 net.cpp:408] lstm2x_cont_slice -> cont_1
I0521 09:36:45.814472  3675 net.cpp:408] lstm2x_cont_slice -> cont_2
…
I0521 09:36:45.855964  3675 net.cpp:228] lstm1x_ does not need backward computation.
I0521 09:36:45.855967  3675 net.cpp:270] This network produces output c_T
I0521 09:36:45.855973  3675 net.cpp:270] This network produces output h_pseudoloss
I0521 09:36:45.856253  3675 net.cpp:283] Network initialization done.
I0521 09:36:45.856464  3675 recurrent_layer.cpp:150] Adding parameter 0: W_xc
I0521 09:36:45.856469  3675 recurrent_layer.cpp:150] Adding parameter 1: b_c
I0521 09:36:45.856472  3675 recurrent_layer.cpp:150] Adding parameter 2: W_hc
I0521 09:36:45.856920  3675 net.cpp:150] Setting up lstm1x
I0521 09:36:45.856935  3675 net.cpp:157] Top shape: 16 128 100 (204800)
I0521 09:36:45.856937  3675 net.cpp:165] Memory required for data: 1841695232
I0521 09:36:45.856946  3675 layer_factory.hpp:77] Creating layer merge_lstm_rlstmx
I0521 09:36:45.856956  3675 net.cpp:100] Creating Layer merge_lstm_rlstmx
I0521 09:36:45.856961  3675 net.cpp:434] merge_lstm_rlstmx <- lstm1x
I0521 09:36:45.856966  3675 net.cpp:434] merge_lstm_rlstmx <- rlstmx
I0521 09:36:45.856971  3675 net.cpp:408] merge_lstm_rlstmx -> merge_lstm_rlstmx
I0521 09:36:45.857000  3675 net.cpp:150] Setting up merge_lstm_rlstmx
I0521 09:36:45.857003  3675 net.cpp:157] Top shape: 16 128 200 (409600)
I0521 09:36:45.857005  3675 net.cpp:165] Memory required for data: 1843333632
I0521 09:36:45.857008  3675 layer_factory.hpp:77] Creating layer fc1x
I0521 09:36:45.857014  3675 net.cpp:100] Creating Layer fc1x
I0521 09:36:45.857017  3675 net.cpp:434] fc1x <- merge_lstm_rlstmx
I0521 09:36:45.857023  3675 net.cpp:408] fc1x -> fc1x
I0521 09:36:45.857194  3675 net.cpp:150] Setting up fc1x
I0521 09:36:45.857199  3675 net.cpp:157] Top shape: 16 128 66 (135168)
I0521 09:36:45.857203  3675 net.cpp:165] Memory required for data: 1843874304
I0521 09:36:45.857208  3675 layer_factory.hpp:77] Creating layer fc1x_fc1x_0_split
I0521 09:36:45.857214  3675 net.cpp:100] Creating Layer fc1x_fc1x_0_split
I0521 09:36:45.857220  3675 net.cpp:434] fc1x_fc1x_0_split <- fc1x
I0521 09:36:45.857228  3675 net.cpp:408] fc1x_fc1x_0_split -> fc1x_fc1x_0_split_0
I0521 09:36:45.857237  3675 net.cpp:408] fc1x_fc1x_0_split -> fc1x_fc1x_0_split_1
I0521 09:36:45.857283  3675 net.cpp:150] Setting up fc1x_fc1x_0_split
I0521 09:36:45.857290  3675 net.cpp:157] Top shape: 16 128 66 (135168)
I0521 09:36:45.857297  3675 net.cpp:157] Top shape: 16 128 66 (135168)
I0521 09:36:45.857302  3675 net.cpp:165] Memory required for data: 1844955648
I0521 09:36:45.857307  3675 layer_factory.hpp:77] Creating layer ctcloss
I0521 09:36:45.857317  3675 net.cpp:100] Creating Layer ctcloss
I0521 09:36:45.857322  3675 net.cpp:434] ctcloss <- fc1x_fc1x_0_split_0
I0521 09:36:45.857329  3675 net.cpp:434] ctcloss <- label_data_1_split_0
I0521 09:36:45.857337  3675 net.cpp:408] ctcloss -> ctcloss
I0521 09:36:45.857395  3675 net.cpp:150] Setting up ctcloss
I0521 09:36:45.857403  3675 net.cpp:157] Top shape: (1)
I0521 09:36:45.857435  3675 net.cpp:160]     with loss weight 1
I0521 09:36:45.857453  3675 net.cpp:165] Memory required for data: 1844955652
I0521 09:36:45.857460  3675 layer_factory.hpp:77] Creating layer acc
I0521 09:36:45.857477  3675 net.cpp:100] Creating Layer acc
I0521 09:36:45.857483  3675 net.cpp:434] acc <- fc1x_fc1x_0_split_1
I0521 09:36:45.857491  3675 net.cpp:434] acc <- label_data_1_split_1
I0521 09:36:45.857499  3675 net.cpp:408] acc -> acc
I0521 09:36:45.857559  3675 net.cpp:150] Setting up acc
I0521 09:36:45.857566  3675 net.cpp:157] Top shape: 1 2 1 1 (2)
I0521 09:36:45.857571  3675 net.cpp:165] Memory required for data: 1844955660
I0521 09:36:45.857576  3675 net.cpp:228] acc does not need backward computation.
I0521 09:36:45.857583  3675 net.cpp:226] ctcloss needs backward computation.
I0521 09:36:45.857591  3675 net.cpp:226] fc1x_fc1x_0_split needs backward computation.
I0521 09:36:45.857597  3675 net.cpp:226] fc1x needs backward computation.
…
