…
      sampler {
        min_scale: 0.3
        max_scale: 1
        min_aspect_ratio: 0.5
        max_aspect_ratio: 2
      }
      sample_constraint {
        min_jaccard_overlap: 0.9
      }
      max_sample: 1
      max_trials: 50
    }
    batch_sampler {
      sampler {
        min_scale: 0.3
        max_scale: 1
        min_aspect_ratio: 0.5
        max_aspect_ratio: 2
      }
      sample_constraint {
        max_jaccard_overlap: 1
      }
      max_sample: 1
      max_trials: 50
    }
    label_map_file: "data/VOC0712/labelmap_voc.prototxt"
  }
}
layer {
  name: "conv1_1"
  type: "Convolution"
  bottom: "data"
  top: "conv1_1"
  param {
    lr_mult: 1
    decay_mult: 1
  }
  param {
    lr_mult: 2
    decay_mult: 0
  }
  convolution_param {
    num_output: 64
    pad: 1
    kernel_size: 3
    weight_filler {
      type: "xavier"
    }
    bias_filler {
      type: "constant"
      value: 0
    }
  }
}
layer {
  name: "relu1_1"
  type: "ReLU"
  bottom: "conv1_1"
  top: "conv1_1"
}
layer {
  name: "conv1_2"
  type: "Convolution"
  bottom: "conv1_1"
  top: "conv1_2"
  param {
    lr_mult: 1
    decay_mult: 1
  }
  param {
    lr_mult: 2
    decay_mult: 0
  }
  convolution_param {
    num_output: 64
    pad: 1
    kernel_size: 3
    weight_filler {
      type: "xavier"
    }
    bias_filler {
      type: "constant"
      value: 0
    }
  }
}
layer {
  name: "relu1_2"
  type: "ReLU"
  bottom: "conv1_2"
  top: "conv1_2"
}
layer {
  name: "pool1"
  type: "Pooling"
  bottom: "conv1_2"
  top: "pool1"
  pooling_param {
    pool: MAX
    kernel_size: 2
    stride: 2
  }
}
layer {
  name: "conv2_1"
  type: "Convolution"
  bottom: "pool1"
  top: "conv2_1"
  param {
    lr_mult: 1
    decay_mult: 1
  }
  param {
    lr_mult: 2
    decay_mult: 0
  }
  convolution_param {
    num_output: 128
    pad: 1
    kernel_size: 3
    weight_filler {
      type: "xavier"
    }
    bias_filler {
      type: "constant"
      value: 0
    }
  }
}
layer {
  name: "relu2_1"
  type: "ReLU"
  bottom: "conv2_1"
  top: "conv2_1"
}
layer {
  name: "conv2_2"
  type: "Convolution"
  bottom: "conv2_1"
  top: "conv2_2"
  param {
    lr_mult: 1
    decay_mult: 1
  }
  param {
    lr_mult: 2
    decay_mult: 0
  }
  convolution_param {
    num_output: 128
    pad: 1
    kernel_size: 3
    weight_filler {
      type: "xavier"
    }
    bias_filler {
      type: "constant"
      value: 0
    }
  }
}
layer {
  name: "relu2_2"
  type: "ReLU"
  bottom: "conv2_2"
  top: "conv2_2"
}
layer {
  name: "pool2"
  type: "Pooling"
  bottom: "conv2_2"
  top: "pool2"
  pooling_param {
    pool: MAX
    kernel_size: 2
    stride: 2
  }
}
layer {
  name: "conv3_1"
  type: "Convolution"
  bottom: "pool2"
  top: "conv3_1"
  param {
    lr_mult: 1
    decay_mult: 1
  }
  param {
    lr_mult: 2
    decay_mult: 0
  }
  convolution_param {
    num_output: 256
    pad: 1
    kernel_size: 3
    weight_filler {
      type: "xavier"
    }
    bias_filler {
      type: "constant"
      value: 0
    }
  }
}
layer {
  name: "relu3_1"
  type: "ReLU"
  bottom: "conv3_1"
  top: "conv3_1"
}
layer {
  name: "conv3_2"
  type: "Convolution"
  bottom: "conv3_1"
  top: "conv3_2"
  param {
    lr_mult: 1
    decay_mult: 1
  }
  param {
    lr_mult: 2
    decay_mult: 0
  }
  convolution_param {
    num_output: 256
    pad: 1
    kernel_size: 3
    weight_filler {
      type: "xavier"
    }
    bias_filler {
      type: "constant"
      value: 0
    }
  }
}
layer {
  name: "relu3_2"
  type: "ReLU"
  bottom: "conv3_2"
  top: "conv3_2"
}
layer {
  name: "conv3_3"
  type: "Convolution"
  bottom: "conv3_2"
  top: "conv3_3"
  param {
    lr_mult: 1
    decay_mult: 1
  }
  param {
    lr_mult: 2
    decay_mult: 0
  }
  convolution_param {
    num_output: 256
    pad: 1
    kernel_size: 3
    weight_filler {
      type: "xavier"
    }
    bias_filler {
      type: "constant"
      value: 0
    }
  }
}
layer {
  name: "relu3_3"
  type: "ReLU"
  bottom: "conv3_3"
  top: "conv3_3"
}
layer {
  name: "pool3"
  type: "Pooling"
  bottom: "conv3_3"
  top: "pool3"
  pooling_param {
    pool: MAX
    kernel_size: 2
    stride: 2
  }
}
layer {
  name: "conv4_1"
  type: "Convolution"
  bottom: "pool3"
  top: "conv4_1"
  param {
    lr_mult: 1
    decay_mult: 1
  }
  param {
    lr_mult: 2
    decay_mult: 0
  }
  convolution_param {
    num_output: 512
    pad: 1
    kernel_size: 3
    weight_filler {
      type: "xavier"
    }
    bias_filler {
      type: "constant"
      value: 0
    }
  }
}
layer {
  name: "relu4_1"
  type: "ReLU"
  bottom: "conv4_1"
  top: "conv4_1"
}
layer {
  name: "conv4_2"
  type: "Convolution"
  bottom: "conv4_1"
  top: "conv4_2"
  param {
    lr_mult: 1
    decay_mult: 1
  }
  param {
    lr_mult: 2
    decay_mult: 0
  }
  convolution_param {
    num_output: 512
    pad: 1
    kernel_size: 3
    weight_filler {
      type: "xavier"
    }
    bias_filler {
      type: "constant"
      value: 0
    }
  }
}
layer {
  name: "relu4_2"
  type: "ReLU"
  bottom: "conv4_2"
  top: "conv4_2"
}
layer {
  name: "conv4_3"
  type: "Convolution"
  bottom: "conv4_2"
  top: "conv4_3"
  param {
    lr_mult: 1
    decay_mult: 1
  }
  param {
    lr_mult: 2
    decay_mult: 0
  }
  convolution_param {
    num_output: 512
    pad: 1
    kernel_size: 3
    weight_filler {
      type: "xavier"
    }
    bias_filler {
      type: "constant"
      value: 0
    }
  }
}
layer {
  name: "relu4_3"
  type: "ReLU"
  bottom: "conv4_3"
  top: "conv4_3"
}
layer {
  name: "pool4"
  type: "Pooling"
  bottom: "conv4_3"
  top: "pool4"
  pooling_param {
    pool: MAX
    kernel_size: 2
    stride: 2
  }
}
layer {
  name: "conv5_1"
  type: "Convolution"
  bottom: "pool4"
  top: "conv5_1"
  param {
    lr_mult: 1
    decay_mult: 1
  }
  param {
    lr_mult: 2
    decay_mult: 0
  }
  convolution_param {
    num_output: 512
    pad: 1
    kernel_size: 3
    weight_filler {
      type: "xavier"
    }
    bias_filler {
      type: "constant"
      value: 0
    }
    dilation: 1
  }
}
layer {
  name: "relu5_1"
  type: "ReLU"
  bottom: "conv5_1"
  top: "conv5_1"
}
layer {
  name: "conv5_2"
  type: "Convolution"
  bottom: "conv5_1"
  top: "conv5_2"
  param {
    lr_mult: 1
    decay_mult: 1
  }
  param {
    lr_mult: 2
    decay_mult: 0
  }
  convolution_param {
    num_output: 512
    pad: 1
    kernel_size: 3
    weight_filler {
      type: "xavier"
    }
    bias_filler {
      type: "constant"
      value: 0
    }
    dilation: 1
  }
}
layer {
  name: "relu5_2"
  type: "ReLU"
  bottom: "conv5_2"
  top: "conv5_2"
}
layer {
  name: "conv5_3"
  type: "Convolution"
  bottom: "conv5_2"
  top: "conv5_3"
  param {
    lr_mult: 1
    decay_mult: 1
  }
  param {
    lr_mult: 2
    decay_mult: 0
  }
  convolution_param {
    num_output: 512
    pad: 1
    kernel_size: 3
    weight_filler {
      type: "xavier"
    }
    bias_filler {
      type: "constant"
      value: 0
    }
    dilation: 1
  }
}
layer {
  name: "relu5_3"
  type: "ReLU"
  bottom: "conv5_3"
  top: "conv5_3"
}
layer {
  name: "pool5"
  type: "Pooling"
  bottom: "conv5_3"
  top: "pool5"
  pooling_param {
    pool: MAX
    kernel_size: 3
    stride: 1
    pad: 1
  }
}
layer {
  name: "fc6"
  type: "Convolution"
  bottom: "pool5"
  top: "fc6"
  param {
    lr_mult: 1
    decay_mult: 1
  }
  param {
    lr_mult: 2
    decay_mult: 0
  }
  convolution_param {
    num_output: 1024
    pad: 6
    kernel_size: 3
    weight_filler {
      type: "xavier"
    }
    bias_filler {
      type: "constant"
      value: 0
    }
    dilation: 6
  }
}
layer {
  name: "relu6"
  type: "ReLU"
  bottom: "fc6"
  top: "fc6"
}
layer {
  name: "fc7"
  type: "Convolution"
  bottom: "fc6"
  top: "fc7"
  param {
    lr_mult: 1
    decay_mult: 1
  }
  param {
    lr_mult: 2
    decay_mult: 0
  }
  convolution_param {
    num_output: 1024
    kernel_size: 1
    weight_filler {
      type: "xavier"
    }
    bias_filler {
      type: "constant"
      value: 0
    }
  }
}
layer {
  name: "relu7"
  type: "ReLU"
  bottom: "fc7"
  top: "fc7"
}
layer {
  name: "conv6_1"
  type: "Convolution"
  bottom: "fc7"
  top: "conv6_1"
  param {
    lr_mult: 1
    decay_mult: 1
  }
  param {
    lr_mult: 2
    decay_mult: 0
  }
  convolution_param {
    num_output: 256
    pad: 0
    kernel_size: 1
    stride: 1
    weight_filler {
      type: "xavier"
    }
    bias_filler {
      type: "constant"
      value: 0
    }
  }
}
layer {
  name: "conv6_1_relu"
  type: "ReLU"
  bottom: "conv6_1"
  top: "conv6_1"
}
layer {
  name: "conv6_2"
  type: "Convolution"
  bottom: "conv6_1"
  top: "conv6_2"
  param {
    lr_mult: 1
    decay_mult: 1
  }
  param {
    lr_mult: 2
    decay_mult: 0
  }
  convolution_param {
    num_output: 512
    pad: 1
    kernel_size: 3
    stride: 2
    weight_filler {
      type: "xavier"
    }
    bias_filler {
      type: "constant"
      value: 0
    }
  }
}
layer {
  name: "conv6_2_relu"
  type: "ReLU"
  bottom: "conv6_2"
  top: "conv6_2"
}
layer {
  name: "conv7_1"
  type: "Convolution"
  bottom: "conv6_2"
  top: "conv7_1"
  param {
    lr_mult: 1
    decay_mult: 1
  }
  param {
    lr_mult: 2
    decay_mult: 0
  }
  convolution_param {
    num_output: 128
    pad: 0
    kernel_size: 1
    stride: 1
    weight_filler {
      type: "xavier"
    }
    bias_filler {
      type: "constant"
      value: 0
    }
  }
}
layer {
  name: "conv7_1_relu"
  type: "ReLU"
  bottom: "conv7_1"
  top: "conv7_1"
}
layer {
  name: "conv7_2"
  type: "Convolution"
  bottom: "conv7_1"
  top: "conv7_2"
  param {
    lr_mult: 1
    decay_mult: 1
  }
  param {
    lr_mult: 2
    decay_mult: 0
  }
  convolution_param {
    num_output: 256
    pad: 1
    kernel_size: 3
    stride: 2
    weight_filler {
      type: "xavier"
    }
    bias_filler {
      type: "constant"
      value: 0
    }
  }
}
layer {
  name: "conv7_2_relu"
  type: "ReLU"
  bottom: "conv7_2"
  top: "conv7_2"
}
layer {
  name: "conv8_1"
  type: "Convolution"
  bottom: "conv7_2"
  top: "conv8_1"
  param {
    lr_mult: 1
    decay_mult: 1
  }
  param {
    lr_mult: 2
    decay_mult: 0
  }
  convolution_param {
    num_output: 128
    pad: 0
    kernel_size: 1
    stride: 1
    weight_filler {
      type: "xavier"
    }
    bias_filler {
      type: "constant"
      value: 0
    }
  }
}
layer {
  name: "conv8_1_relu"
  type: "ReLU"
  bottom: "conv8_1"
  top: "conv8_1"
}
layer {
  name: "conv8_2"
  type: "Convolution"
  bottom: "conv8_1"
  top: "conv8_2"
  param {
    lr_mult: 1
    decay_mult: 1
  }
  param {
    lr_mult: 2
    decay_mult: 0
  }
  convolution_param {
    num_output: 256
    pad: 0
    kernel_size: 3
    stride: 1
    weight_filler {
      type: "xavier"
    }
    bias_filler {
      type: "constant"
      value: 0
    }
  }
}
layer {
  name: "conv8_2_relu"
  type: "ReLU"
  bottom: "conv8_2"
  top: "conv8_2"
}
layer {
  name: "conv9_1"
  type: "Convolution"
  bottom: "conv8_2"
  top: "conv9_1"
  param {
    lr_mult: 1
    decay_mult: 1
  }
  param {
    lr_mult: 2
    decay_mult: 0
  }
  convolution_param {
    num_output: 128
    pad: 0
    kernel_size: 1
    stride: 1
    weight_filler {
      type: "xavier"
    }
    bias_filler {
      type: "constant"
      value: 0
    }
  }
}
layer {
  name: "conv9_1_relu"
  type: "ReLU"
  bottom: "conv9_1"
  top: "conv9_1"
}
layer {
  name: "conv9_2"
  type: "Convolution"
  bottom: "conv9_1"
  top: "conv9_2"
  param {
    lr_mult: 1
    decay_mult: 1
  }
  param {
    lr_mult: 2
    decay_mult: 0
  }
  convolution_param {
    num_output: 256
    pad: 0
    kernel_size: 3
    stride: 1
    weight_filler {
      type: "xavier"
    }
    bias_filler {
      type: "constant"
      value: 0
    }
  }
}
layer {
  name: "conv9_2_relu"
  type: "ReLU"
  bottom: "conv9_2"
  top: "conv9_2"
}
layer {
  name: "conv4_3_norm"
  type: "Normalize"
  bottom: "conv4_3"
  top: "conv4_3_norm"
  norm_param {
    across_spatial: false
    scale_filler {
      type: "constant"
      value: 20
    }
    channel_shared: false
  }
}
layer {
  name: "conv4_3_norm_mbox_loc"
  type: "Convolution"
  bottom: "conv4_3_norm"
  top: "conv4_3_norm_mbox_loc"
  param {
    lr_mult: 1
    decay_mult: 1
  }
  param {
    lr_mult: 2
    decay_mult: 0
  }
  convolution_param {
    num_output: 16
    pad: 1
    kernel_size: 3
    stride: 1
    weight_filler {
      type: "xavier"
    }
    bias_filler {
      type: "constant"
      value: 0
    }
  }
}
layer {
  name: "conv4_3_norm_mbox_loc_perm"
  type: "Permute"
  bottom: "conv4_3_norm_mbox_loc"
  top: "conv4_3_norm_mbox_loc_perm"
  permute_param {
    order: 0
    order: 2
    order: 3
    order: 1
  }
}
layer {
  name: "conv4_3_norm_mbox_loc_flat"
  type: "Flatten"
  bottom: "conv4_3_norm_mbox_loc_perm"
  top: "conv4_3_norm_mbox_loc_flat"
  flatten_param {
    axis: 1
  }
}
layer {
  name: "conv4_3_norm_mbox_conf"
  type: "Convolution"
  bottom: "conv4_3_norm"
  top: "conv4_3_norm_mbox_conf"
  param {
    lr_mult: 1
    decay_mult: 1
  }
  param {
    lr_mult: 2
    decay_mult: 0
  }
  convolution_param {
    num_output: 84
    pad: 1
    kernel_size: 3
    stride: 1
    weight_filler {
      type: "xavier"
    }
    bias_filler {
      type: "constant"
      value: 0
    }
  }
}
layer {
  name: "conv4_3_norm_mbox_conf_perm"
  type: "Permute"
  bottom: "conv4_3_norm_mbox_conf"
  top: "conv4_3_norm_mbox_conf_perm"
  permute_param {
    order: 0
    order: 2
    order: 3
    order: 1
  }
}
layer {
  name: "conv4_3_norm_mbox_conf_flat"
  type: "Flatten"
  bottom: "conv4_3_norm_mbox_conf_perm"
  top: "conv4_3_norm_mbox_conf_flat"
  flatten_param {
    axis: 1
  }
}
layer {
  name: "conv4_3_norm_mbox_priorbox"
  type: "PriorBox"
  bottom: "conv4_3_norm"
  bottom: "data"
  top: "conv4_3_norm_mbox_priorbox"
  prior_box_param {
    min_size: 30
    max_size: 60
    aspect_ratio: 2
    flip: true
    clip: false
    variance: 0.1
    variance: 0.1
    variance: 0.2
    variance: 0.2
    step: 8
    offset: 0.5
  }
}
layer {
  name: "fc7_mbox_loc"
  type: "Convolution"
  bottom: "fc7"
  top: "fc7_mbox_loc"
  param {
    lr_mult: 1
    decay_mult: 1
  }
  param {
    lr_mult: 2
    decay_mult: 0
  }
  convolution_param {
    num_output: 24
    pad: 1
    kernel_size: 3
    stride: 1
    weight_filler {
      type: "xavier"
    }
    bias_filler {
      type: "constant"
      value: 0
    }
  }
}
layer {
  name: "fc7_mbox_loc_perm"
  type: "Permute"
  bottom: "fc7_mbox_loc"
  top: "fc7_mbox_loc_perm"
  permute_param {
    order: 0
    order: 2
    order: 3
    order: 1
  }
}
layer {
  name: "fc7_mbox_loc_flat"
  type: "Flatten"
  bottom: "fc7_mbox_loc_perm"
  top: "fc7_mbox_loc_flat"
  flatten_param {
    axis: 1
  }
}
layer {
  name: "fc7_mbox_conf"
  type: "Convolution"
  bottom: "fc7"
  top: "fc7_mbox_conf"
  param {
    lr_mult: 1
    decay_mult: 1
  }
  param {
    lr_mult: 2
    decay_mult: 0
  }
  convolution_param {
    num_output: 126
    pad: 1
    kernel_size: 3
    stride: 1
    weight_filler {
      type: "xavier"
    }
    bias_filler {
      type: "constant"
      value: 0
    }
  }
}
layer {
  name: "fc7_mbox_conf_perm"
  type: "Permute"
  bottom: "fc7_mbox_conf"
  top: "fc7_mbox_conf_perm"
  permute_param {
    order: 0
    order: 2
    order: 3
    order: 1
  }
}
layer {
  name: "fc7_mbox_conf_flat"
  type: "Flatten"
  bottom: "fc7_mbox_conf_perm"
  top: "fc7_mbox_conf_flat"
  flatten_param {
    axis: 1
  }
}
layer {
  name: "fc7_mbox_priorbox"
  type: "PriorBox"
  bottom: "fc7"
  bottom: "data"
  top: "fc7_mbox_priorbox"
  prior_box_param {
    min_size: 60
    max_size: 111
    aspect_ratio: 2
    aspect_ratio: 3
    flip: true
    clip: false
    variance: 0.1
    variance: 0.1
    variance: 0.2
    variance: 0.2
    step: 16
    offset: 0.5
  }
}
layer {
  name: "conv6_2_mbox_loc"
  type: "Convolution"
  bottom: "conv6_2"
  top: "conv6_2_mbox_loc"
  param {
    lr_mult: 1
    decay_mult: 1
  }
  param {
    lr_mult: 2
    decay_mult: 0
  }
  convolution_param {
    num_output: 24
    pad: 1
    kernel_size: 3
    stride: 1
    weight_filler {
      type: "xavier"
    }
    bias_filler {
      type: "constant"
      value: 0
    }
  }
}
layer {
  name: "conv6_2_mbox_loc_perm"
  type: "Permute"
  bottom: "conv6_2_mbox_loc"
  top: "conv6_2_mbox_loc_perm"
  permute_param {
    order: 0
    order: 2
    order: 3
    order: 1
  }
}
layer {
  name: "conv6_2_mbox_loc_flat"
  type: "Flatten"
  bottom: "conv6_2_mbox_loc_perm"
  top: "conv6_2_mbox_loc_flat"
  flatten_param {
    axis: 1
  }
}
layer {
  name: "conv6_2_mbox_conf"
  type: "Convolution"
  bottom: "conv6_2"
  top: "conv6_2_mbox_conf"
  param {
    lr_mult: 1
    decay_mult: 1
  }
  param {
    lr_mult: 2
    decay_mult: 0
  }
  convolution_param {
    num_output: 126
    pad: 1
    kernel_size: 3
    stride: 1
    weight_filler {
      type: "xavier"
    }
    bias_filler {
      type: "constant"
      value: 0
    }
  }
}
layer {
  name: "conv6_2_mbox_conf_perm"
  type: "Permute"
  bottom: "conv6_2_mbox_conf"
  top: "conv6_2_mbox_conf_perm"
  permute_param {
    order: 0
    order: 2
    order: 3
    order: 1
  }
}
layer {
  name: "conv6_2_mbox_conf_flat"
  type: "Flatten"
  bottom: "conv6_2_mbox_conf_perm"
  top: "conv6_2_mbox_conf_flat"
  flatten_param {
    axis: 1
  }
}
layer {
  name: "conv6_2_mbox_priorbox"
  type: "PriorBox"
  bottom: "conv6_2"
  bottom: "data"
  top: "conv6_2_mbox_priorbox"
  prior_box_param {
    min_size: 111
    max_size: 162
    aspect_ratio: 2
    aspect_ratio: 3
    flip: true
    clip: false
    variance: 0.1
    variance: 0.1
    variance: 0.2
    variance: 0.2
    step: 32
    offset: 0.5
  }
}
layer {
  name: "conv7_2_mbox_loc"
  type: "Convolution"
  bottom: "conv7_2"
  top: "conv7_2_mbox_loc"
  param {
    lr_mult: 1
    decay_mult: 1
  }
  param {
    lr_mult: 2
    decay_mult: 0
  }
  convolution_param {
    num_output: 24
    pad: 1
    kernel_size: 3
    stride: 1
    weight_filler {
      type: "xavier"
    }
    bias_filler {
      type: "constant"
      value: 0
    }
  }
}
layer {
  name: "conv7_2_mbox_loc_perm"
  type: "Permute"
  bottom: "conv7_2_mbox_loc"
  top: "conv7_2_mbox_loc_perm"
  permute_param {
    order: 0
    order: 2
    order: 3
    order: 1
  }
}
layer {
  name: "conv7_2_mbox_loc_flat"
  type: "Flatten"
  bottom: "conv7_2_mbox_loc_perm"
  top: "conv7_2_mbox_loc_flat"
  flatten_param {
    axis: 1
  }
}
layer {
  name: "conv7_2_mbox_conf"
  type: "Convolution"
  bottom: "conv7_2"
  top: "conv7_2_mbox_conf"
  param {
    lr_mult: 1
    decay_mult: 1
  }
  param {
    lr_mult: 2
    decay_mult: 0
  }
  convolution_param {
    num_output: 126
    pad: 1
    kernel_size: 3
    stride: 1
    weight_filler {
      type: "xavier"
    }
    bias_filler {
      type: "constant"
      value: 0
    }
  }
}
layer {
  name: "conv7_2_mbox_conf_perm"
  type: "Permute"
  bottom: "conv7_2_mbox_conf"
  top: "conv7_2_mbox_conf_perm"
  permute_param {
    order: 0
    order: 2
    order: 3
    order: 1
  }
}
layer {
  name: "conv7_2_mbox_conf_flat"
  type: "Flatten"
  bottom: "conv7_2_mbox_conf_perm"
  top: "conv7_2_mbox_conf_flat"
  flatten_param {
    axis: 1
  }
}
layer {
  name: "conv7_2_mbox_priorbox"
  type: "PriorBox"
  bottom: "conv7_2"
  bottom: "data"
  top: "conv7_2_mbox_priorbox"
  prior_box_param {
    min_size: 162
    max_size: 213
    aspect_ratio: 2
    aspect_ratio: 3
    flip: true
    clip: false
    variance: 0.1
    variance: 0.1
    variance: 0.2
    variance: 0.2
    step: 64
    offset: 0.5
  }
}
layer {
  name: "conv8_2_mbox_loc"
  type: "Convolution"
  bottom: "conv8_2"
  top: "conv8_2_mbox_loc"
  param {
    lr_mult: 1
    decay_mult: 1
  }
  param {
    lr_mult: 2
    decay_mult: 0
  }
  convolution_param {
    num_output: 16
    pad: 1
    kernel_size: 3
    stride: 1
    weight_filler {
      type: "xavier"
    }
    bias_filler {
      type: "constant"
      value: 0
    }
  }
}
layer {
  name: "conv8_2_mbox_loc_perm"
  type: "Permute"
  bottom: "conv8_2_mbox_loc"
  top: "conv8_2_mbox_loc_perm"
  permute_param {
    order: 0
    order: 2
    order: 3
    order: 1
  }
}
layer {
  name: "conv8_2_mbox_loc_flat"
  type: "Flatten"
  bottom: "conv8_2_mbox_loc_perm"
  top: "conv8_2_mbox_loc_flat"
  flatten_param {
    axis: 1
  }
}
layer {
  name: "conv8_2_mbox_conf"
  type: "Convolution"
  bottom: "conv8_2"
  top: "conv8_2_mbox_conf"
  param {
    lr_mult: 1
    decay_mult: 1
  }
  param {
    lr_mult: 2
    decay_mult: 0
  }
  convolution_param {
    num_output: 84
    pad: 1
    kernel_size: 3
    stride: 1
    weight_filler {
      type: "xavier"
    }
    bias_filler {
      type: "constant"
      value: 0
    }
  }
}
layer {
  name: "conv8_2_mbox_conf_perm"
  type: "Permute"
  bottom: "conv8_2_mbox_conf"
  top: "conv8_2_mbox_conf_perm"
  permute_param {
    order: 0
    order: 2
    order: 3
    order: 1
  }
}
layer {
  name: "conv8_2_mbox_conf_flat"
  type: "Flatten"
  bottom: "conv8_2_mbox_conf_perm"
  top: "conv8_2_mbox_conf_flat"
  flatten_param {
    axis: 1
  }
}
layer {
  name: "conv8_2_mbox_priorbox"
  type: "PriorBox"
  bottom: "conv8_2"
  bottom: "data"
  top: "conv8_2_mbox_priorbox"
  prior_box_param {
    min_size: 213
    max_size: 264
    aspect_ratio: 2
    flip: true
    clip: false
    variance: 0.1
    variance: 0.1
    variance: 0.2
    variance: 0.2
    step: 100
    offset: 0.5
  }
}
layer {
  name: "conv9_2_mbox_loc"
  type: "Convolution"
  bottom: "conv9_2"
  top: "conv9_2_mbox_loc"
  param {
    lr_mult: 1
    decay_mult: 1
  }
  param {
    lr_mult: 2
    decay_mult: 0
  }
  convolution_param {
    num_output: 16
    pad: 1
    kernel_size: 3
    stride: 1
    weight_filler {
      type: "xavier"
    }
    bias_filler {
      type: "constant"
      value: 0
    }
  }
}
layer {
  name: "conv9_2_mbox_loc_perm"
  type: "Permute"
  bottom: "conv9_2_mbox_loc"
  top: "conv9_2_mbox_loc_perm"
  permute_param {
    order: 0
    order: 2
    order: 3
    order: 1
  }
}
layer {
  name: "conv9_2_mbox_loc_flat"
  type: "Flatten"
  bottom: "conv9_2_mbox_loc_perm"
  top: "conv9_2_mbox_loc_flat"
  flatten_param {
    axis: 1
  }
}
layer {
  name: "conv9_2_mbox_conf"
  type: "Convolution"
  bottom: "conv9_2"
  top: "conv9_2_mbox_conf"
  param {
    lr_mult: 1
    decay_mult: 1
  }
  param {
    lr_mult: 2
    decay_mult: 0
  }
  convolution_param {
    num_output: 84
    pad: 1
    kernel_size: 3
    stride: 1
    weight_filler {
      type: "xavier"
    }
    bias_filler {
      type: "constant"
      value: 0
    }
  }
}
layer {
  name: "conv9_2_mbox_conf_perm"
  type: "Permute"
  bottom: "conv9_2_mbox_conf"
  top: "conv9_2_mbox_conf_perm"
  permute_param {
    order: 0
    order: 2
    order: 3
    order: 1
  }
}
layer {
  name: "conv9_2_mbox_conf_flat"
  type: "Flatten"
  bottom: "conv9_2_mbox_conf_perm"
  top: "conv9_2_mbox_conf_flat"
  flatten_param {
    axis: 1
  }
}
layer {
  name: "conv9_2_mbox_priorbox"
  type: "PriorBox"
  bottom: "conv9_2"
  bottom: "data"
  top: "conv9_2_mbox_priorbox"
  prior_box_param {
    min_size: 264
    max_size: 315
    aspect_ratio: 2
    flip: true
    clip: false
    variance: 0.1
    variance: 0.1
    variance: 0.2
    variance: 0.2
    step: 300
    offset: 0.5
  }
}
layer {
  name: "mbox_loc"
  type: "Concat"
  bottom: "conv4_3_norm_mbox_loc_flat"
  bottom: "fc7_mbox_loc_flat"
  bottom: "conv6_2_mbox_loc_flat"
  bottom: "conv7_2_mbox_loc_flat"
  bottom: "conv8_2_mbox_loc_flat"
  bottom: "conv9_2_mbox_loc_flat"
  top: "mbox_loc"
  concat_param {
    axis: 1
  }
}
layer {
  name: "mbox_conf"
  type: "Concat"
  bottom: "conv4_3_norm_mbox_conf_flat"
  bottom: "fc7_mbox_conf_flat"
  bottom: "conv6_2_mbox_conf_flat"
  bottom: "conv7_2_mbox_conf_flat"
  bottom: "conv8_2_mbox_conf_flat"
  bottom: "conv9_2_mbox_conf_flat"
  top: "mbox_conf"
  concat_param {
    axis: 1
  }
}
layer {
  name: "mbox_priorbox"
  type: "Concat"
  bottom: "conv4_3_norm_mbox_priorbox"
  bottom: "fc7_mbox_priorbox"
  bottom: "conv6_2_mbox_priorbox"
  bottom: "conv7_2_mbox_priorbox"
  bottom: "conv8_2_mbox_priorbox"
  bottom: "conv9_2_mbox_priorbox"
  top: "mbox_priorbox"
  concat_param {
    axis: 2
  }
}
layer {
  name: "mbox_loss"
  type: "MultiBoxLoss"
  bottom: "mbox_loc"
  bottom: "mbox_conf"
  bottom: "mbox_priorbox"
  bottom: "label"
  top: "mbox_loss"
  include {
    phase: TRAIN
  }
  propagate_down: true
  propagate_down: true
  propagate_down: false
  propagate_down: false
  loss_param {
    normalization: VALID
  }
  multibox_loss_param {
    loc_loss_type: SMOOTH_L1
    conf_loss_type: SOFTMAX
    loc_weight: 1
    num_classes: 21
    share_location: true
    match_type: PER_PREDICTION
    overlap_threshold: 0.5
    use_prior_for_matching: true
    background_label_id: 0
    use_difficult_gt: true
    neg_pos_ratio: 3
    neg_overlap: 0.5
    code_type: CENTER_SIZE
    ignore_cross_boundary_bbox: false
    mining_type: MAX_NEGATIVE
  }
}
I0429 15:54:10.922750 14351 layer_factory.hpp:77] Creating layer data
I0429 15:54:10.922932 14351 net.cpp:100] Creating Layer data
I0429 15:54:10.922946 14351 net.cpp:408] data -> data
I0429 15:54:10.922984 14351 net.cpp:408] data -> label
I0429 15:54:10.924513 14365 db_lmdb.cpp:35] Opened lmdb examples/VOC0712/VOC0712_trainval_lmdb
I0429 15:54:10.942157 14351 annotated_data_layer.cpp:62] output data size: 8,3,300,300
I0429 15:54:10.953924 14351 net.cpp:150] Setting up data
I0429 15:54:10.953951 14351 net.cpp:157] Top shape: 8 3 300 300 (2160000)
I0429 15:54:10.953955 14351 net.cpp:157] Top shape: 1 1 2 8 (16)
I0429 15:54:10.953958 14351 net.cpp:165] Memory required for data: 8640064
I0429 15:54:10.953992 14351 layer_factory.hpp:77] Creating layer data_data_0_split
I0429 15:54:10.954005 14351 net.cpp:100] Creating Layer data_data_0_split
I0429 15:54:10.954010 14351 net.cpp:434] data_data_0_split <- data
I0429 15:54:10.954021 14351 net.cpp:408] data_data_0_split -> data_data_0_split_0
I0429 15:54:10.954030 14351 net.cpp:408] data_data_0_split -> data_data_0_split_1
I0429 15:54:10.954035 14351 net.cpp:408] data_data_0_split -> data_data_0_split_2
I0429 15:54:10.954041 14351 net.cpp:408] data_data_0_split -> data_data_0_split_3
I0429 15:54:10.954043 14351 net.cpp:408] data_data_0_split -> data_data_0_split_4
I0429 15:54:10.954047 14351 net.cpp:408] data_data_0_split -> data_data_0_split_5
I0429 15:54:10.954052 14351 net.cpp:408] data_data_0_split -> data_data_0_split_6
I0429 15:54:10.954147 14351 net.cpp:150] Setting up data_data_0_split
I0429 15:54:10.954154 14351 net.cpp:157] Top shape: 8 3 300 300 (2160000)
I0429 15:54:10.954156 14351 net.cpp:157] Top shape: 8 3 300 300 (2160000)
I0429 15:54:10.954159 14351 net.cpp:157] Top shape: 8 3 300 300 (2160000)
I0429 15:54:10.954161 14351 net.cpp:157] Top shape: 8 3 300 300 (2160000)
I0429 15:54:10.954164 14351 net.cpp:157] Top shape: 8 3 300 300 (2160000)
I0429 15:54:10.954167 14351 net.cpp:157] Top shape: 8 3 300 300 (2160000)
I0429 15:54:10.954170 14351 net.cpp:157] Top shape: 8 3 300 300 (2160000)
I0429 15:54:10.954172 14351 net.cpp:165] Memory required for data: 69120064
I0429 15:54:10.954174 14351 layer_factory.hpp:77] Creating layer conv1_1
I0429 15:54:10.954188 14351 net.cpp:100] Creating Layer conv1_1
I0429 15:54:10.954190 14351 net.cpp:434] conv1_1 <- data_data_0_split_0
I0429 15:54:10.954195 14351 net.cpp:408] conv1_1 -> conv1_1
I0429 15:54:11.748131 14351 net.cpp:150] Setting up conv1_1
I0429 15:54:11.748160 14351 net.cpp:157] Top shape: 8 64 300 300 (46080000)
I0429 15:54:11.748164 14351 net.cpp:165] Memory required for data: 253440064
I0429 15:54:11.748180 14351 layer_factory.hpp:77] Creating layer relu1_1
I0429 15:54:11.748188 14351 net.cpp:100] Creating Layer relu1_1
I0429 15:54:11.748191 14351 net.cpp:434] relu1_1 <- conv1_1
I0429 15:54:11.748196 14351 net.cpp:395] relu1_1 -> conv1_1 (in-place)
I0429 15:54:11.748445 14351 net.cpp:150] Setting up relu1_1
I0429 15:54:11.748456 14351 net.cpp:157] Top shape: 8 64 300 300 (46080000)
I0429 15:54:11.748459 14351 net.cpp:165] Memory required for data: 437760064
I0429 15:54:11.748462 14351 layer_factory.hpp:77] Creating layer conv1_2
I0429 15:54:11.748474 14351 net.cpp:100] Creating Layer conv1_2
I0429 15:54:11.748477 14351 net.cpp:434] conv1_2 <- conv1_1
I0429 15:54:11.748482 14351 net.cpp:408] conv1_2 -> conv1_2
I0429 15:54:11.749850 14351 net.cpp:150] Setting up conv1_2
I0429 15:54:11.749864 14351 net.cpp:157] Top shape: 8 64 300 300 (46080000)
I0429 15:54:11.749867 14351 net.cpp:165] Memory required for data: 622080064
I0429 15:54:11.749876 14351 layer_factory.hpp:77] Creating layer relu1_2
I0429 15:54:11.749882 14351 net.cpp:100] Creating Layer relu1_2
I0429 15:54:11.749886 14351 net.cpp:434] relu1_2 <- conv1_2
I0429 15:54:11.749889 14351 net.cpp:395] relu1_2 -> conv1_2 (in-place)
I0429 15:54:11.750208 14351 net.cpp:150] Setting up relu1_2
I0429 15:54:11.750218 14351 net.cpp:157] Top shape: 8 64 300 300 (46080000)
I0429 15:54:11.750221 14351 net.cpp:165] Memory required for data: 806400064
I0429 15:54:11.750224 14351 layer_factory.hpp:77] Creating layer pool1
I0429 15:54:11.750231 14351 net.cpp:100] Creating Layer pool1
I0429 15:54:11.750233 14351 net.cpp:434] pool1 <- conv1_2
I0429 15:54:11.750238 14351 net.cpp:408] pool1 -> pool1
I0429 15:54:11.750280 14351 net.cpp:150] Setting up pool1
I0429 15:54:11.750285 14351 net.cpp:157] Top shape: 8 64 150 150 (11520000)
I0429 15:54:11.750288 14351 net.cpp:165] Memory required for data: 852480064
I0429 15:54:11.750291 14351 layer_factory.hpp:77] Creating layer conv2_1
I0429 15:54:11.750298 14351 net.cpp:100] Creating Layer conv2_1
I0429 15:54:11.750300 14351 net.cpp:434] conv2_1 <- pool1
I0429 15:54:11.750304 14351 net.cpp:408] conv2_1 -> conv2_1
I0429 15:54:11.751760 14351 net.cpp:150] Setting up conv2_1
I0429 15:54:11.751773 14351 net.cpp:157] Top shape: 8 128 150 150 (23040000)
I0429 15:54:11.751776 14351 net.cpp:165] Memory required for data: 944640064
I0429 15:54:11.751785 14351 layer_factory.hpp:77] Creating layer relu2_1
I0429 15:54:11.751791 14351 net.cpp:100] Creating Layer relu2_1
I0429 15:54:11.751793 14351 net.cpp:434] relu2_1 <- conv2_1
I0429 15:54:11.751797 14351 net.cpp:395] relu2_1 -> conv2_1 (in-place)
I0429 15:54:11.752014 14351 net.cpp:150] Setting up relu2_1
I0429 15:54:11.752022 14351 net.cpp:157] Top shape: 8 128 150 150 (23040000)
I0429 15:54:11.752024 14351 net.cpp:165] Memory required for data: 1036800064
I0429 15:54:11.752027 14351 layer_factory.hpp:77] Creating layer conv2_2
I0429 15:54:11.752034 14351 net.cpp:100] Creating Layer conv2_2
I0429 15:54:11.752038 14351 net.cpp:434] conv2_2 <- conv2_1
I0429 15:54:11.752041 14351 net.cpp:408] conv2_2 -> conv2_2
I0429 15:54:11.754635 14351 net.cpp:150] Setting up conv2_2
I0429 15:54:11.754649 14351 net.cpp:157] Top shape: 8 128 150 150 (23040000)
I0429 15:54:11.754652 14351 net.cpp:165] Memory required for data: 1128960064
I0429 15:54:11.754658 14351 layer_factory.hpp:77] Creating layer relu2_2
I0429 15:54:11.754664 14351 net.cpp:100] Creating Layer relu2_2
I0429 15:54:11.754667 14351 net.cpp:434] relu2_2 <- conv2_2
I0429 15:54:11.754671 14351 net.cpp:395] relu2_2 -> conv2_2 (in-place)
I0429 15:54:11.754987 14351 net.cpp:150] Setting up relu2_2
I0429 15:54:11.754997 14351 net.cpp:157] Top shape: 8 128 150 150 (23040000)
I0429 15:54:11.754999 14351 net.cpp:165] Memory required for data: 1221120064
I0429 15:54:11.755002 14351 layer_factory.hpp:77] Creating layer pool2
I0429 15:54:11.755009 14351 net.cpp:100] Creating Layer pool2
I0429 15:54:11.755012 14351 net.cpp:434] pool2 <- conv2_2
I0429 15:54:11.755018 14351 net.cpp:408] pool2 -> pool2
I0429 15:54:11.755050 14351 net.cpp:150] Setting up pool2
I0429 15:54:11.755055 14351 net.cpp:157] Top shape: 8 128 75 75 (5760000)
I0429 15:54:11.755059 14351 net.cpp:165] Memory required for data: 1244160064
I0429 15:54:11.755060 14351 layer_factory.hpp:77] Creating layer conv3_1
I0429 15:54:11.755066 14351 net.cpp:100] Creating Layer conv3_1
I0429 15:54:11.755069 14351 net.cpp:434] conv3_1 <- pool2
I0429 15:54:11.755074 14351 net.cpp:408] conv3_1 -> conv3_1
I0429 15:54:11.758019 14351 net.cpp:150] Setting up conv3_1
I0429 15:54:11.758033 14351 net.cpp:157] Top shape: 8 256 75 75 (11520000)
I0429 15:54:11.758036 14351 net.cpp:165] Memory required for data: 1290240064
I0429 15:54:11.758044 14351 layer_factory.hpp:77] Creating layer relu3_1
I0429 15:54:11.758049 14351 net.cpp:100] Creating Layer relu3_1
I0429 15:54:11.758051 14351 net.cpp:434] relu3_1 <- conv3_1
I0429 15:54:11.758055 14351 net.cpp:395] relu3_1 -> conv3_1 (in-place)
I0429 15:54:11.758260 14351 net.cpp:150] Setting up relu3_1
I0429 15:54:11.758266 14351 net.cpp:157] Top shape: 8 256 75 75 (11520000)
I0429 15:54:11.758268 14351 net.cpp:165] Memory required for data: 1336320064
I0429 15:54:11.758271 14351 layer_factory.hpp:77] Creating layer conv3_2
I0429 15:54:11.758280 14351 net.cpp:100] Creating Layer conv3_2
I0429 15:54:11.758282 14351 net.cpp:434] conv3_2 <- conv3_1
I0429 15:54:11.758287 14351 net.cpp:408] conv3_2 -> conv3_2
I0429 15:54:11.762441 14351 net.cpp:150] Setting up conv3_2
I0429 15:54:11.762455 14351 net.cpp:157] Top shape: 8 256 75 75 (11520000)
I0429 15:54:11.762459 14351 net.cpp:165] Memory required for data: 1382400064
I0429 15:54:11.762465 14351 layer_factory.hpp:77] Creating layer relu3_2
I0429 15:54:11.762470 14351 net.cpp:100] Creating Layer relu3_2
I0429 15:54:11.762473 14351 net.cpp:434] relu3_2 <- conv3_2
I0429 15:54:11.762476 14351 net.cpp:395] relu3_2 -> conv3_2 (in-place)
I0429 15:54:11.762842 14351 net.cpp:150] Setting up relu3_2
I0429 15:54:11.762854 14351 net.cpp:157] Top shape: 8 256 75 75 (11520000)
I0429 15:54:11.762856 14351 net.cpp:165] Memory required for data: 1428480064
I0429 15:54:11.762859 14351 layer_factory.hpp:77] Creating layer conv3_3
I0429 15:54:11.762895 14351 net.cpp:100] Creating Layer conv3_3
I0429 15:54:11.762898 14351 net.cpp:434] conv3_3 <- conv3_2
I0429 15:54:11.762902 14351 net.cpp:408] conv3_3 -> conv3_3
I0429 15:54:11.768291 14351 net.cpp:150] Setting up conv3_3
I0429 15:54:11.768309 14351 net.cpp:157] Top shape: 8 256 75 75 (11520000)
I0429 15:54:11.768311 14351 net.cpp:165] Memory required for data: 1474560064
I0429 15:54:11.768318 14351 layer_factory.hpp:77] Creating layer relu3_3
I0429 15:54:11.768326 14351 net.cpp:100] Creating Layer relu3_3
I0429 15:54:11.768329 14351 net.cpp:434] relu3_3 <- conv3_3
I0429 15:54:11.768334 14351 net.cpp:395] relu3_3 -> conv3_3 (in-place)
I0429 15:54:11.768702 14351 net.cpp:150] Setting up relu3_3
I0429 15:54:11.768713 14351 net.cpp:157] Top shape: 8 256 75 75 (11520000)
I0429 15:54:11.768715 14351 net.cpp:165] Memory required for data: 1520640064
I0429 15:54:11.768719 14351 layer_factory.hpp:77] Creating layer pool3
I0429 15:54:11.768728 14351 net.cpp:100] Creating Layer pool3
I0429 15:54:11.768731 14351 net.cpp:434] pool3 <- conv3_3
I0429 15:54:11.768738 14351 net.cpp:408] pool3 -> pool3
I0429 15:54:11.768769 14351 net.cpp:150] Setting up pool3
I0429 15:54:11.768774 14351 net.cpp:157] Top shape: 8 256 38 38 (2957312)
I0429 15:54:11.768776 14351 net.cpp:165] Memory required for data: 1532469312
I0429 15:54:11.768779 14351 layer_factory.hpp:77] Creating layer conv4_1
I0429 15:54:11.768786 14351 net.cpp:100] Creating Layer conv4_1
I0429 15:54:11.768790 14351 net.cpp:434] conv4_1 <- pool3
I0429 15:54:11.768793 14351 net.cpp:408] conv4_1 -> conv4_1
I0429 15:54:11.775879 14351 net.cpp:150] Setting up conv4_1
I0429 15:54:11.775898 14351 net.cpp:157] Top shape: 8 512 38 38 (5914624)
I0429 15:54:11.775902 14351 net.cpp:165] Memory required for data: 1556127808
I0429 15:54:11.775909 14351 layer_factory.hpp:77] Creating layer relu4_1
I0429 15:54:11.775915 14351 net.cpp:100] Creating Layer relu4_1
I0429 15:54:11.775919 14351 net.cpp:434] relu4_1 <- conv4_1
I0429 15:54:11.775923 14351 net.cpp:395] relu4_1 -> conv4_1 (in-place)
I0429 15:54:11.776190 14351 net.cpp:150] Setting up relu4_1
I0429 15:54:11.776198 14351 net.cpp:157] Top shape: 8 512 38 38 (5914624)
I0429 15:54:11.776201 14351 net.cpp:165] Memory required for data: 1579786304
I0429 15:54:11.776204 14351 layer_factory.hpp:77] Creating layer conv4_2
I0429 15:54:11.776222 14351 net.cpp:100] Creating Layer conv4_2
I0429 15:54:11.776226 14351 net.cpp:434] conv4_2 <- conv4_1
I0429 15:54:11.776230 14351 net.cpp:408] conv4_2 -> conv4_2
I0429 15:54:11.789153 14351 net.cpp:150] Setting up conv4_2
I0429 15:54:11.789185 14351 net.cpp:157] Top shape: 8 512 38 38 (5914624)
I0429 15:54:11.789187 14351 net.cpp:165] Memory required for data: 1603444800
I0429 15:54:11.789201 14351 layer_factory.hpp:77] Creating layer relu4_2
I0429 15:54:11.789211 14351 net.cpp:100] Creating Layer relu4_2
I0429 15:54:11.789214 14351 net.cpp:434] relu4_2 <- conv4_2
I0429 15:54:11.789222 14351 net.cpp:395] relu4_2 -> conv4_2 (in-place)
I0429 15:54:11.789746 14351 net.cpp:150] Setting up relu4_2
I0429 15:54:11.789764 14351 net.cpp:157] Top shape: 8 512 38 38 (5914624)
I0429 15:54:11.789767 14351 net.cpp:165] Memory required for data: 1627103296
I0429 15:54:11.789770 14351 layer_factory.hpp:77] Creating layer conv4_3
I0429 15:54:11.789783 14351 net.cpp:100] Creating Layer conv4_3
I0429 15:54:11.789788 14351 net.cpp:434] conv4_3 <- conv4_2
I0429 15:54:11.789798 14351 net.cpp:408] conv4_3 -> conv4_3
I0429 15:54:11.806593 14351 net.cpp:150] Setting up conv4_3
I0429 15:54:11.806620 14351 net.cpp:157] Top shape: 8 512 38 38 (5914624)
I0429 15:54:11.806623 14351 net.cpp:165] Memory required for data: 1650761792
I0429 15:54:11.806632 14351 layer_factory.hpp:77] Creating layer relu4_3
I0429 15:54:11.806641 14351 net.cpp:100] Creating Layer relu4_3
I0429 15:54:11.806645 14351 net.cpp:434] relu4_3 <- conv4_3
I0429 15:54:11.806650 14351 net.cpp:395] relu4_3 -> conv4_3 (in-place)
I0429 15:54:11.806927 14351 net.cpp:150] Setting up relu4_3
I0429 15:54:11.806934 14351 net.cpp:157] Top shape: 8 512 38 38 (5914624)
I0429 15:54:11.806958 14351 net.cpp:165] Memory required for data: 1674420288
I0429 15:54:11.806962 14351 layer_factory.hpp:77] Creating layer conv4_3_relu4_3_0_split
I0429 15:54:11.806969 14351 net.cpp:100] Creating Layer conv4_3_relu4_3_0_split
I0429 15:54:11.806972 14351 net.cpp:434] conv4_3_relu4_3_0_split <- conv4_3
I0429 15:54:11.806977 14351 net.cpp:408] conv4_3_relu4_3_0_split -> conv4_3_relu4_3_0_split_0
I0429 15:54:11.806983 14351 net.cpp:408] conv4_3_relu4_3_0_split -> conv4_3_relu4_3_0_split_1
I0429 15:54:11.807015 14351 net.cpp:150] Setting up conv4_3_relu4_3_0_split
I0429 15:54:11.807023 14351 net.cpp:157] Top shape: 8 512 38 38 (5914624)
I0429 15:54:11.807026 14351 net.cpp:157] Top shape: 8 512 38 38 (5914624)
I0429 15:54:11.807029 14351 net.cpp:165] Memory required for data: 1721737280
I0429 15:54:11.807030 14351 layer_factory.hpp:77] Creating layer pool4
I0429 15:54:11.807036 14351 net.cpp:100] Creating Layer pool4
I0429 15:54:11.807039 14351 net.cpp:434] pool4 <- conv4_3_relu4_3_0_split_0
I0429 15:54:11.807044 14351 net.cpp:408] pool4 -> pool4
I0429 15:54:11.807066 14351 net.cpp:150] Setting up pool4
I0429 15:54:11.807070 14351 net.cpp:157] Top shape: 8 512 19 19 (1478656)
I0429 15:54:11.807073 14351 net.cpp:165] Memory required for data: 1727651904
I0429 15:54:11.807075 14351 layer_factory.hpp:77] Creating layer conv5_1
I0429 15:54:11.807085 14351 net.cpp:100] Creating Layer conv5_1
I0429 15:54:11.807086 14351 net.cpp:434] conv5_1 <- pool4
I0429 15:54:11.807090 14351 net.cpp:408] conv5_1 -> conv5_1
I0429 15:54:11.822441 14351 net.cpp:150] Setting up conv5_1
I0429 15:54:11.822468 14351 net.cpp:157] Top shape: 8 512 19 19 (1478656)
I0429 15:54:11.822472 14351 net.cpp:165] Memory required for data: 1733566528
I0429 15:54:11.822484 14351 layer_factory.hpp:77] Creating layer relu5_1
I0429 15:54:11.822494 14351 net.cpp:100] Creating Layer relu5_1
I0429 15:54:11.822499 14351 net.cpp:434] relu5_1 <- conv5_1
I0429 15:54:11.822507 14351 net.cpp:395] relu5_1 -> conv5_1 (in-place)
I0429 15:54:11.822913 14351 net.cpp:150] Setting up relu5_1
I0429 15:54:11.822924 14351 net.cpp:157] Top shape: 8 512 19 19 (1478656)
I0429 15:54:11.822928 14351 net.cpp:165] Memory required for data: 1739481152
I0429 15:54:11.822932 14351 layer_factory.hpp:77] Creating layer conv5_2
I0429 15:54:11.822944 14351 net.cpp:100] Creating Layer conv5_2
I0429 15:54:11.822949 14351 net.cpp:434] conv5_2 <- conv5_1
I0429 15:54:11.822957 14351 net.cpp:408] conv5_2 -> conv5_2
I0429 15:54:11.836912 14351 net.cpp:150] Setting up conv5_2
I0429 15:54:11.836941 14351 net.cpp:157] Top shape: 8 512 19 19 (1478656)
I0429 15:54:11.836946 14351 net.cpp:165] Memory required for data: 1745395776
I0429 15:54:11.836956 14351 layer_factory.hpp:77] Creating layer relu5_2
I0429 15:54:11.836966 14351 net.cpp:100] Creating Layer relu5_2
I0429 15:54:11.836971 14351 net.cpp:434] relu5_2 <- conv5_2
I0429 15:54:11.836978 14351 net.cpp:395] relu5_2 -> conv5_2 (in-place)
I0429 15:54:11.837257 14351 net.cpp:150] Setting up relu5_2
I0429 15:54:11.837265 14351 net.cpp:157] Top shape: 8 512 19 19 (1478656)
I0429 15:54:11.837268 14351 net.cpp:165] Memory required for data: 1751310400
I0429 15:54:11.837272 14351 layer_factory.hpp:77] Creating layer conv5_3
I0429 15:54:11.837285 14351 net.cpp:100] Creating Layer conv5_3
I0429 15:54:11.837290 14351 net.cpp:434] conv5_3 <- conv5_2
I0429 15:54:11.837296 14351 net.cpp:408] conv5_3 -> conv5_3
I0429 15:54:11.851212 14351 net.cpp:150] Setting up conv5_3
I0429 15:54:11.851280 14351 net.cpp:157] Top shape: 8 512 19 19 (1478656)
I0429 15:54:11.851294 14351 net.cpp:165] Memory required for data: 1757225024
I0429 15:54:11.851312 14351 layer_factory.hpp:77] Creating layer relu5_3
I0429 15:54:11.851339 14351 net.cpp:100] Creating Layer relu5_3
I0429 15:54:11.851352 14351 net.cpp:434] relu5_3 <- conv5_3
I0429 15:54:11.851368 14351 net.cpp:395] relu5_3 -> conv5_3 (in-place)
I0429 15:54:11.853091 14351 net.cpp:150] Setting up relu5_3
I0429 15:54:11.853117 14351 net.cpp:157] Top shape: 8 512 19 19 (1478656)
I0429 15:54:11.853121 14351 net.cpp:165] Memory required for data: 1763139648
I0429 15:54:11.853152 14351 layer_factory.hpp:77] Creating layer pool5
I0429 15:54:11.853164 14351 net.cpp:100] Creating Layer pool5
I0429 15:54:11.853173 14351 net.cpp:434] pool5 <- conv5_3
I0429 15:54:11.853183 14351 net.cpp:408] pool5 -> pool5
I0429 15:54:11.853241 14351 net.cpp:150] Setting up pool5
I0429 15:54:11.853250 14351 net.cpp:157] Top shape: 8 512 19 19 (1478656)
I0429 15:54:11.853252 14351 net.cpp:165] Memory required for data: 1769054272
I0429 15:54:11.853256 14351 layer_factory.hpp:77] Creating layer fc6
I0429 15:54:11.853271 14351 net.cpp:100] Creating Layer fc6
I0429 15:54:11.853276 14351 net.cpp:434] fc6 <- pool5
I0429 15:54:11.853283 14351 net.cpp:408] fc6 -> fc6
I0429 15:54:11.879711 14351 net.cpp:150] Setting up fc6
I0429 15:54:11.879739 14351 net.cpp:157] Top shape: 8 1024 19 19 (2957312)
I0429 15:54:11.879741 14351 net.cpp:165] Memory required for data: 1780883520
I0429 15:54:11.879750 14351 layer_factory.hpp:77] Creating layer relu6
I0429 15:54:11.879760 14351 net.cpp:100] Creating Layer relu6
I0429 15:54:11.879763 14351 net.cpp:434] relu6 <- fc6
I0429 15:54:11.879768 14351 net.cpp:395] relu6 -> fc6 (in-place)
I0429 15:54:11.880105 14351 net.cpp:150] Setting up relu6
I0429 15:54:11.880112 14351 net.cpp:157] Top shape: 8 1024 19 19 (2957312)
I0429 15:54:11.880115 14351 net.cpp:165] Memory required for data: 1792712768
I0429 15:54:11.880118 14351 layer_factory.hpp:77] Creating layer fc7
I0429 15:54:11.880127 14351 net.cpp:100] Creating Layer fc7
I0429 15:54:11.880131 14351 net.cpp:434] fc7 <- fc6
I0429 15:54:11.880134 14351 net.cpp:408] fc7 -> fc7
I0429 15:54:11.888442 14351 net.cpp:150] Setting up fc7
I0429 15:54:11.888486 14351 net.cpp:157] Top shape: 8 1024 19 19 (2957312)
I0429 15:54:11.888492 14351 net.cpp:165] Memory required for data: 1804542016
I0429 15:54:11.888514 14351 layer_factory.hpp:77] Creating layer relu7
I0429 15:54:11.888530 14351 net.cpp:100] Creating Layer relu7
I0429 15:54:11.888542 14351 net.cpp:434] relu7 <- fc7
I0429 15:54:11.888566 14351 net.cpp:395] relu7 -> fc7 (in-place)
I0429 15:54:11.889338 14351 net.cpp:150] Setting up relu7
I0429 15:54:11.889358 14351 net.cpp:157] Top shape: 8 1024 19 19 (2957312)
I0429 15:54:11.889359 14351 net.cpp:165] Memory required for data: 1816371264
I0429 15:54:11.889364 14351 layer_factory.hpp:77] Creating layer fc7_relu7_0_split
I0429 15:54:11.889374 14351 net.cpp:100] Creating Layer fc7_relu7_0_split
I0429 15:54:11.889380 14351 net.cpp:434] fc7_relu7_0_split <- fc7
I0429 15:54:11.889387 14351 net.cpp:408] fc7_relu7_0_split -> fc7_relu7_0_split_0
I0429 15:54:11.889396 14351 net.cpp:408] fc7_relu7_0_split -> fc7_relu7_0_split_1
I0429 15:54:11.889411 14351 net.cpp:408] fc7_relu7_0_split -> fc7_relu7_0_split_2
I0429 15:54:11.889456 14351 net.cpp:408] fc7_relu7_0_split -> fc7_relu7_0_split_3
I0429 15:54:11.889559 14351 net.cpp:150] Setting up fc7_relu7_0_split
I0429 15:54:11.889586 14351 net.cpp:157] Top shape: 8 1024 19 19 (2957312)
I0429 15:54:11.889605 14351 net.cpp:157] Top shape: 8 1024 19 19 (2957312)
I0429 15:54:11.889622 14351 net.cpp:157] Top shape: 8 1024 19 19 (2957312)
I0429 15:54:11.889637 14351 net.cpp:157] Top shape: 8 1024 19 19 (2957312)
I0429 15:54:11.889652 14351 net.cpp:165] Memory required for data: 1863688256
I0429 15:54:11.889667 14351 layer_factory.hpp:77] Creating layer conv6_1
I0429 15:54:11.889694 14351 net.cpp:100] Creating Layer conv6_1
I0429 15:54:11.889711 14351 net.cpp:434] conv6_1 <- fc7_relu7_0_split_0
I0429 15:54:11.889731 14351 net.cpp:408] conv6_1 -> conv6_1
I0429 15:54:11.893838 14351 net.cpp:150] Setting up conv6_1
I0429 15:54:11.893862 14351 net.cpp:157] Top shape: 8 256 19 19 (739328)
I0429 15:54:11.893863 14351 net.cpp:165] Memory required for data: 1866645568
I0429 15:54:11.893872 14351 layer_factory.hpp:77] Creating layer conv6_1_relu
I0429 15:54:11.893880 14351 net.cpp:100] Creating Layer conv6_1_relu
I0429 15:54:11.893884 14351 net.cpp:434] conv6_1_relu <- conv6_1
I0429 15:54:11.893891 14351 net.cpp:395] conv6_1_relu -> conv6_1 (in-place)
I0429 15:54:11.894265 14351 net.cpp:150] Setting up conv6_1_relu
I0429 15:54:11.894299 14351 net.cpp:157] Top shape: 8 256 19 19 (739328)
I0429 15:54:11.894301 14351 net.cpp:165] Memory required for data: 1869602880
I0429 15:54:11.894305 14351 layer_factory.hpp:77] Creating layer conv6_2
I0429 15:54:11.894320 14351 net.cpp:100] Creating Layer conv6_2
I0429 15:54:11.894325 14351 net.cpp:434] conv6_2 <- conv6_1
I0429 15:54:11.894332 14351 net.cpp:408] conv6_2 -> conv6_2
I0429 15:54:11.902776 14351 net.cpp:150] Setting up conv6_2
I0429 15:54:11.902798 14351 net.cpp:157] Top shape: 8 512 10 10 (409600)
I0429 15:54:11.902801 14351 net.cpp:165] Memory required for data: 1871241280
I0429 15:54:11.902814 14351 layer_factory.hpp:77] Creating layer conv6_2_relu
I0429 15:54:11.902822 14351 net.cpp:100] Creating Layer conv6_2_relu
I0429 15:54:11.902827 14351 net.cpp:434] conv6_2_relu <- conv6_2
I0429 15:54:11.902832 14351 net.cpp:395] conv6_2_relu -> conv6_2 (in-place)
I0429 15:54:11.904179 14351 net.cpp:150] Setting up conv6_2_relu
I0429 15:54:11.904197 14351 net.cpp:157] Top shape: 8 512 10 10 (409600)
I0429 15:54:11.904201 14351 net.cpp:165] Memory required for data: 1872879680
I0429 15:54:11.904204 14351 layer_factory.hpp:77] Creating layer conv6_2_conv6_2_relu_0_split
I0429 15:54:11.904220 14351 net.cpp:100] Creating Layer conv6_2_conv6_2_relu_0_split
I0429 15:54:11.904227 14351 net.cpp:434] conv6_2_conv6_2_relu_0_split <- conv6_2
I0429 15:54:11.904233 14351 net.cpp:408] conv6_2_conv6_2_relu_0_split -> conv6_2_conv6_2_relu_0_split_0
I0429 15:54:11.904239 14351 net.cpp:408] conv6_2_conv6_2_relu_0_split -> conv6_2_conv6_2_relu_0_split_1
I0429 15:54:11.904245 14351 net.cpp:408] conv6_2_conv6_2_relu_0_split -> conv6_2_conv6_2_relu_0_split_2
I0429 15:54:11.904249 14351 net.cpp:408] conv6_2_conv6_2_relu_0_split -> conv6_2_conv6_2_relu_0_split_3
I0429 15:54:11.904305 14351 net.cpp:150] Setting up conv6_2_conv6_2_relu_0_split
I0429 15:54:11.904310 14351 net.cpp:157] Top shape: 8 512 10 10 (409600)
I0429 15:54:11.904314 14351 net.cpp:157] Top shape: 8 512 10 10 (409600)
I0429 15:54:11.904316 14351 net.cpp:157] Top shape: 8 512 10 10 (409600)
I0429 15:54:11.904320 14351 net.cpp:157] Top shape: 8 512 10 10 (409600)
I0429 15:54:11.904323 14351 net.cpp:165] Memory required for data: 1879433280
I0429 15:54:11.904327 14351 layer_factory.hpp:77] Creating layer conv7_1
I0429 15:54:11.904338 14351 net.cpp:100] Creating Layer conv7_1
I0429 15:54:11.904342 14351 net.cpp:434] conv7_1 <- conv6_2_conv6_2_relu_0_split_0
I0429 15:54:11.904346 14351 net.cpp:408] conv7_1 -> conv7_1
I0429 15:54:11.907080 14351 net.cpp:150] Setting up conv7_1
I0429 15:54:11.907137 14351 net.cpp:157] Top shape: 8 128 10 10 (102400)
I0429 15:54:11.907152 14351 net.cpp:165] Memory required for data: 1879842880
I0429 15:54:11.907173 14351 layer_factory.hpp:77] Creating layer conv7_1_relu
I0429 15:54:11.907184 14351 net.cpp:100] Creating Layer conv7_1_relu
I0429 15:54:11.907191 14351 net.cpp:434] conv7_1_relu <- conv7_1
I0429 15:54:11.907196 14351 net.cpp:395] conv7_1_relu -> conv7_1 (in-place)
I0429 15:54:11.907757 14351 net.cpp:150] Setting up conv7_1_relu
I0429 15:54:11.907774 14351 net.cpp:157] Top shape: 8 128 10 10 (102400)
I0429 15:54:11.907778 14351 net.cpp:165] Memory required for data: 1880252480
I0429 15:54:11.907784 14351 layer_factory.hpp:77] Creating layer conv7_2
I0429 15:54:11.907799 14351 net.cpp:100] Creating Layer conv7_2
I0429 15:54:11.907805 14351 net.cpp:434] conv7_2 <- conv7_1
I0429 15:54:11.907814 14351 net.cpp:408] conv7_2 -> conv7_2
I0429 15:54:11.912714 14351 net.cpp:150] Setting up conv7_2
I0429 15:54:11.912744 14351 net.cpp:157] Top shape: 8 256 5 5 (51200)
I0429 15:54:11.912748 14351 net.cpp:165] Memory required for data: 1880457280
I0429 15:54:11.912761 14351 layer_factory.hpp:77] Creating layer conv7_2_relu
I0429 15:54:11.912775 14351 net.cpp:100] Creating Layer conv7_2_relu
I0429 15:54:11.912781 14351 net.cpp:434] conv7_2_relu <- conv7_2
I0429 15:54:11.912789 14351 net.cpp:395] conv7_2_relu -> conv7_2 (in-place)
I0429 15:54:11.913195 14351 net.cpp:150] Setting up conv7_2_relu
I0429 15:54:11.913249 14351 net.cpp:157] Top shape: 8 256 5 5 (51200)
I0429 15:54:11.913252 14351 net.cpp:165] Memory required for data: 1880662080
I0429 15:54:11.913259 14351 layer_factory.hpp:77] Creating layer conv7_2_conv7_2_relu_0_split
I0429 15:54:11.913267 14351 net.cpp:100] Creating Layer conv7_2_conv7_2_relu_0_split
I0429 15:54:11.913272 14351 net.cpp:434] conv7_2_conv7_2_relu_0_split <- conv7_2
I0429 15:54:11.913282 14351 net.cpp:408] conv7_2_conv7_2_relu_0_split -> conv7_2_conv7_2_relu_0_split_0
I0429 15:54:11.913291 14351 net.cpp:408] conv7_2_conv7_2_relu_0_split -> conv7_2_conv7_2_relu_0_split_1
I0429 15:54:11.913297 14351 net.cpp:408] conv7_2_conv7_2_relu_0_split -> conv7_2_conv7_2_relu_0_split_2
I0429 15:54:11.913303 14351 net.cpp:408] conv7_2_conv7_2_relu_0_split -> conv7_2_conv7_2_relu_0_split_3
I0429 15:54:11.913378 14351 net.cpp:150] Setting up conv7_2_conv7_2_relu_0_split
I0429 15:54:11.913427 14351 net.cpp:157] Top shape: 8 256 5 5 (51200)
I0429 15:54:11.913444 14351 net.cpp:157] Top shape: 8 256 5 5 (51200)
I0429 15:54:11.913460 14351 net.cpp:157] Top shape: 8 256 5 5 (51200)
I0429 15:54:11.913472 14351 net.cpp:157] Top shape: 8 256 5 5 (51200)
I0429 15:54:11.913487 14351 net.cpp:165] Memory required for data: 1881481280
I0429 15:54:11.913502 14351 layer_factory.hpp:77] Creating layer conv8_1
I0429 15:54:11.913528 14351 net.cpp:100] Creating Layer conv8_1
I0429 15:54:11.913542 14351 net.cpp:434] conv8_1 <- conv7_2_conv7_2_relu_0_split_0
I0429 15:54:11.913561 14351 net.cpp:408] conv8_1 -> conv8_1
I0429 15:54:11.915720 14351 net.cpp:150] Setting up conv8_1
I0429 15:54:11.915751 14351 net.cpp:157] Top shape: 8 128 5 5 (25600)
I0429 15:54:11.915755 14351 net.cpp:165] Memory required for data: 1881583680
I0429 15:54:11.915767 14351 layer_factory.hpp:77] Creating layer conv8_1_relu
I0429 15:54:11.915777 14351 net.cpp:100] Creating Layer conv8_1_relu
I0429 15:54:11.915782 14351 net.cpp:434] conv8_1_relu <- conv8_1
I0429 15:54:11.915789 14351 net.cpp:395] conv8_1_relu -> conv8_1 (in-place)
I0429 15:54:11.916349 14351 net.cpp:150] Setting up conv8_1_relu
I0429 15:54:11.916396 14351 net.cpp:157] Top shape: 8 128 5 5 (25600)
I0429 15:54:11.916411 14351 net.cpp:165] Memory required for data: 1881686080
I0429 15:54:11.916424 14351 layer_factory.hpp:77] Creating layer conv8_2
I0429 15:54:11.916443 14351 net.cpp:100] Creating Layer conv8_2
I0429 15:54:11.916457 14351 net.cpp:434] conv8_2 <- conv8_1
I0429 15:54:11.916473 14351 net.cpp:408] conv8_2 -> conv8_2
I0429 15:54:11.922662 14351 net.cpp:150] Setting up conv8_2
I0429 15:54:11.922694 14351 net.cpp:157] Top shape: 8 256 3 3 (18432)
I0429 15:54:11.922699 14351 net.cpp:165] Memory required for data: 1881759808
I0429 15:54:11.922713 14351 layer_factory.hpp:77] Creating layer conv8_2_relu
I0429 15:54:11.922725 14351 net.cpp:100] Creating Layer conv8_2_relu
I0429 15:54:11.922732 14351 net.cpp:434] conv8_2_relu <- conv8_2
I0429 15:54:11.922740 14351 net.cpp:395] conv8_2_relu -> conv8_2 (in-place)
I0429 15:54:11.923130 14351 net.cpp:150] Setting up conv8_2_relu
I0429 15:54:11.923147 14351 net.cpp:157] Top shape: 8 256 3 3 (18432)
I0429 15:54:11.923151 14351 net.cpp:165] Memory required for data: 1881833536
I0429 15:54:11.923157 14351 layer_factory.hpp:77] Creating layer conv8_2_conv8_2_relu_0_split
I0429 15:54:11.923166 14351 net.cpp:100] Creating Layer conv8_2_conv8_2_relu_0_split
I0429 15:54:11.923171 14351 net.cpp:434] conv8_2_conv8_2_relu_0_split <- conv8_2
I0429 15:54:11.923179 14351 net.cpp:408] conv8_2_conv8_2_relu_0_split -> conv8_2_conv8_2_relu_0_split_0
I0429 15:54:11.923188 14351 net.cpp:408] conv8_2_conv8_2_relu_0_split -> conv8_2_conv8_2_relu_0_split_1
I0429 15:54:11.923195 14351 net.cpp:408] conv8_2_conv8_2_relu_0_split -> conv8_2_conv8_2_relu_0_split_2
I0429 15:54:11.923202 14351 net.cpp:408] conv8_2_conv8_2_relu_0_split -> conv8_2_conv8_2_relu_0_split_3
I0429 15:54:11.923274 14351 net.cpp:150] Setting up conv8_2_conv8_2_relu_0_split
I0429 15:54:11.923283 14351 net.cpp:157] Top shape: 8 256 3 3 (18432)
I0429 15:54:11.923288 14351 net.cpp:157] Top shape: 8 256 3 3 (18432)
I0429 15:54:11.923316 14351 net.cpp:157] Top shape: 8 256 3 3 (18432)
I0429 15:54:11.923321 14351 net.cpp:157] Top shape: 8 256 3 3 (18432)
I0429 15:54:11.923323 14351 net.cpp:165] Memory required for data: 1882128448
I0429 15:54:11.923327 14351 layer_factory.hpp:77] Creating layer conv9_1
I0429 15:54:11.923341 14351 net.cpp:100] Creating Layer conv9_1
I0429 15:54:11.923346 14351 net.cpp:434] conv9_1 <- conv8_2_conv8_2_relu_0_split_0
I0429 15:54:11.923353 14351 net.cpp:408] conv9_1 -> conv9_1
I0429 15:54:11.925516 14351 net.cpp:150] Setting up conv9_1
I0429 15:54:11.925539 14351 net.cpp:157] Top shape: 8 128 3 3 (9216)
I0429 15:54:11.925544 14351 net.cpp:165] Memory required for data: 1882165312
I0429 15:54:11.925554 14351 layer_factory.hpp:77] Creating layer conv9_1_relu
I0429 15:54:11.925563 14351 net.cpp:100] Creating Layer conv9_1_relu
I0429 15:54:11.925568 14351 net.cpp:434] conv9_1_relu <- conv9_1
I0429 15:54:11.925575 14351 net.cpp:395] conv9_1_relu -> conv9_1 (in-place)
I0429 15:54:11.926106 14351 net.cpp:150] Setting up conv9_1_relu
I0429 15:54:11.926126 14351 net.cpp:157] Top shape: 8 128 3 3 (9216)
I0429 15:54:11.926129 14351 net.cpp:165] Memory required for data: 1882202176
I0429 15:54:11.926134 14351 layer_factory.hpp:77] Creating layer conv9_2
I0429 15:54:11.926151 14351 net.cpp:100] Creating Layer conv9_2
I0429 15:54:11.926160 14351 net.cpp:434] conv9_2 <- conv9_1
I0429 15:54:11.926167 14351 net.cpp:408] conv9_2 -> conv9_2
I0429 15:54:11.931063 14351 net.cpp:150] Setting up conv9_2
I0429 15:54:11.931098 14351 net.cpp:157] Top shape: 8 256 1 1 (2048)
I0429 15:54:11.931102 14351 net.cpp:165] Memory required for data: 1882210368
I0429 15:54:11.931113 14351 layer_factory.hpp:77] Creating layer conv9_2_relu
I0429 15:54:11.931123 14351 net.cpp:100] Creating Layer conv9_2_relu
I0429 15:54:11.931129 14351 net.cpp:434] conv9_2_relu <- conv9_2
I0429 15:54:11.931136 14351 net.cpp:395] conv9_2_relu -> conv9_2 (in-place)
I0429 15:54:11.931512 14351 net.cpp:150] Setting up conv9_2_relu
I0429 15:54:11.931529 14351 net.cpp:157] Top shape: 8 256 1 1 (2048)
I0429 15:54:11.931533 14351 net.cpp:165] Memory required for data: 1882218560
I0429 15:54:11.931538 14351 layer_factory.hpp:77] Creating layer conv9_2_conv9_2_relu_0_split
I0429 15:54:11.931546 14351 net.cpp:100] Creating Layer conv9_2_conv9_2_relu_0_split
I0429 15:54:11.931551 14351 net.cpp:434] conv9_2_conv9_2_relu_0_split <- conv9_2
I0429 15:54:11.931558 14351 net.cpp:408] conv9_2_conv9_2_relu_0_split -> conv9_2_conv9_2_relu_0_split_0
I0429 15:54:11.931568 14351 net.cpp:408] conv9_2_conv9_2_relu_0_split -> conv9_2_conv9_2_relu_0_split_1
I0429 15:54:11.931607 14351 net.cpp:408] conv9_2_conv9_2_relu_0_split -> conv9_2_conv9_2_relu_0_split_2
I0429 15:54:11.931672 14351 net.cpp:150] Setting up conv9_2_conv9_2_relu_0_split
I0429 15:54:11.931681 14351 net.cpp:157] Top shape: 8 256 1 1 (2048)
I0429 15:54:11.931686 14351 net.cpp:157] Top shape: 8 256 1 1 (2048)
I0429 15:54:11.931690 14351 net.cpp:157] Top shape: 8 256 1 1 (2048)
I0429 15:54:11.931694 14351 net.cpp:165] Memory required for data: 1882243136
I0429 15:54:11.931699 14351 layer_factory.hpp:77] Creating layer conv4_3_norm
I0429 15:54:11.931707 14351 net.cpp:100] Creating Layer conv4_3_norm
I0429 15:54:11.931715 14351 net.cpp:434] conv4_3_norm <- conv4_3_relu4_3_0_split_1
I0429 15:54:11.931722 14351 net.cpp:408] conv4_3_norm -> conv4_3_norm
I0429 15:54:11.931864 14351 net.cpp:150] Setting up conv4_3_norm
I0429 15:54:11.931874 14351 net.cpp:157] Top shape: 8 512 38 38 (5914624)
I0429 15:54:11.931877 14351 net.cpp:165] Memory required for data: 1905901632
I0429 15:54:11.931883 14351 layer_factory.hpp:77] Creating layer conv4_3_norm_conv4_3_norm_0_split
I0429 15:54:11.931892 14351 net.cpp:100] Creating Layer conv4_3_norm_conv4_3_norm_0_split
I0429 15:54:11.931896 14351 net.cpp:434] conv4_3_norm_conv4_3_norm_0_split <- conv4_3_norm
I0429 15:54:11.931902 14351 net.cpp:408] conv4_3_norm_conv4_3_norm_0_split -> conv4_3_norm_conv4_3_norm_0_split_0
I0429 15:54:11.931910 14351 net.cpp:408] conv4_3_norm_conv4_3_norm_0_split -> conv4_3_norm_conv4_3_norm_0_split_1
I0429 15:54:11.931936 14351 net.cpp:408] conv4_3_norm_conv4_3_norm_0_split -> conv4_3_norm_conv4_3_norm_0_split_2
I0429 15:54:11.931978 14351 net.cpp:150] Setting up conv4_3_norm_conv4_3_norm_0_split
I0429 15:54:11.931988 14351 net.cpp:157] Top shape: 8 512 38 38 (5914624)
I0429 15:54:11.931993 14351 net.cpp:157] Top shape: 8 512 38 38 (5914624)
I0429 15:54:11.931996 14351 net.cpp:157] Top shape: 8 512 38 38 (5914624)
I0429 15:54:11.932000 14351 net.cpp:165] Memory required for data: 1976877120
I0429 15:54:11.932004 14351 layer_factory.hpp:77] Creating layer conv4_3_norm_mbox_loc
I0429 15:54:11.932016 14351 net.cpp:100] Creating Layer conv4_3_norm_mbox_loc
I0429 15:54:11.932023 14351 net.cpp:434] conv4_3_norm_mbox_loc <- conv4_3_norm_conv4_3_norm_0_split_0
I0429 15:54:11.932029 14351 net.cpp:408] conv4_3_norm_mbox_loc -> conv4_3_norm_mbox_loc
I0429 15:54:11.935832 14351 net.cpp:150] Setting up conv4_3_norm_mbox_loc
I0429 15:54:11.935899 14351 net.cpp:157] Top shape: 8 16 38 38 (184832)
I0429 15:54:11.935915 14351 net.cpp:165] Memory required for data: 1977616448
I0429 15:54:11.935935 14351 layer_factory.hpp:77] Creating layer conv4_3_norm_mbox_loc_perm
I0429 15:54:11.935957 14351 net.cpp:100] Creating Layer conv4_3_norm_mbox_loc_perm
I0429 15:54:11.935971 14351 net.cpp:434] conv4_3_norm_mbox_loc_perm <- conv4_3_norm_mbox_loc
I0429 15:54:11.935987 14351 net.cpp:408] conv4_3_norm_mbox_loc_perm -> conv4_3_norm_mbox_loc_perm
I0429 15:54:11.936120 14351 net.cpp:150] Setting up conv4_3_norm_mbox_loc_perm
I0429 15:54:11.936146 14351 net.cpp:157] Top shape: 8 38 38 16 (184832)
I0429 15:54:11.936161 14351 net.cpp:165] Memory required for data: 1978355776
I0429 15:54:11.936172 14351 layer_factory.hpp:77] Creating layer conv4_3_norm_mbox_loc_flat
I0429 15:54:11.936187 14351 net.cpp:100] Creating Layer conv4_3_norm_mbox_loc_flat
I0429 15:54:11.936201 14351 net.cpp:434] conv4_3_norm_mbox_loc_flat <- conv4_3_norm_mbox_loc_perm
I0429 15:54:11.936224 14351 net.cpp:408] conv4_3_norm_mbox_loc_flat -> conv4_3_norm_mbox_loc_flat
I0429 15:54:11.936280 14351 net.cpp:150] Setting up conv4_3_norm_mbox_loc_flat
I0429 15:54:11.936300 14351 net.cpp:157] Top shape: 8 23104 (184832)
I0429 15:54:11.936311 14351 net.cpp:165] Memory required for data: 1979095104
I0429 15:54:11.936322 14351 layer_factory.hpp:77] Creating layer conv4_3_norm_mbox_conf
I0429 15:54:11.936349 14351 net.cpp:100] Creating Layer conv4_3_norm_mbox_conf
I0429 15:54:11.936363 14351 net.cpp:434] conv4_3_norm_mbox_conf <- conv4_3_norm_conv4_3_norm_0_split_1
I0429 15:54:11.936378 14351 net.cpp:408] conv4_3_norm_mbox_conf -> conv4_3_norm_mbox_conf
I0429 15:54:11.942466 14351 net.cpp:150] Setting up conv4_3_norm_mbox_conf
I0429 15:54:11.942502 14351 net.cpp:157] Top shape: 8 84 38 38 (970368)
I0429 15:54:11.942505 14351 net.cpp:165] Memory required for data: 1982976576
I0429 15:54:11.942517 14351 layer_factory.hpp:77] Creating layer conv4_3_norm_mbox_conf_perm
I0429 15:54:11.942530 14351 net.cpp:100] Creating Layer conv4_3_norm_mbox_conf_perm
I0429 15:54:11.942538 14351 net.cpp:434] conv4_3_norm_mbox_conf_perm <- conv4_3_norm_mbox_conf
I0429 15:54:11.942544 14351 net.cpp:408] conv4_3_norm_mbox_conf_perm -> conv4_3_norm_mbox_conf_perm
I0429 15:54:11.942654 14351 net.cpp:150] Setting up conv4_3_norm_mbox_conf_perm
I0429 15:54:11.942662 14351 net.cpp:157] Top shape: 8 38 38 84 (970368)
I0429 15:54:11.942665 14351 net.cpp:165] Memory required for data: 1986858048
I0429 15:54:11.942668 14351 layer_factory.hpp:77] Creating layer conv4_3_norm_mbox_conf_flat
I0429 15:54:11.942675 14351 net.cpp:100] Creating Layer conv4_3_norm_mbox_conf_flat
I0429 15:54:11.942679 14351 net.cpp:434] conv4_3_norm_mbox_conf_flat <- conv4_3_norm_mbox_conf_perm
I0429 15:54:11.942684 14351 net.cpp:408] conv4_3_norm_mbox_conf_flat -> conv4_3_norm_mbox_conf_flat
I0429 15:54:11.942705 14351 net.cpp:150] Setting up conv4_3_norm_mbox_conf_flat
I0429 15:54:11.942711 14351 net.cpp:157] Top shape: 8 121296 (970368)
I0429 15:54:11.942714 14351 net.cpp:165] Memory required for data: 1990739520
I0429 15:54:11.942762 14351 layer_factory.hpp:77] Creating layer conv4_3_norm_mbox_priorbox
I0429 15:54:11.942780 14351 net.cpp:100] Creating Layer conv4_3_norm_mbox_priorbox
I0429 15:54:11.942790 14351 net.cpp:434] conv4_3_norm_mbox_priorbox <- conv4_3_norm_conv4_3_norm_0_split_2
I0429 15:54:11.942804 14351 net.cpp:434] conv4_3_norm_mbox_priorbox <- data_data_0_split_1
I0429 15:54:11.942818 14351 net.cpp:408] conv4_3_norm_mbox_priorbox -> conv4_3_norm_mbox_priorbox
I0429 15:54:11.942859 14351 net.cpp:150] Setting up conv4_3_norm_mbox_priorbox
I0429 15:54:11.942873 14351 net.cpp:157] Top shape: 1 2 23104 (46208)
I0429 15:54:11.942883 14351 net.cpp:165] Memory required for data: 1990924352
I0429 15:54:11.942895 14351 layer_factory.hpp:77] Creating layer fc7_mbox_loc
I0429 15:54:11.942917 14351 net.cpp:100] Creating Layer fc7_mbox_loc
I0429 15:54:11.942929 14351 net.cpp:434] fc7_mbox_loc <- fc7_relu7_0_split_1
I0429 15:54:11.942945 14351 net.cpp:408] fc7_mbox_loc -> fc7_mbox_loc
I0429 15:54:11.946705 14351 net.cpp:150] Setting up fc7_mbox_loc
I0429 15:54:11.946779 14351 net.cpp:157] Top shape: 8 24 19 19 (69312)
I0429 15:54:11.946796 14351 net.cpp:165] Memory required for data: 1991201600
I0429 15:54:11.946817 14351 layer_factory.hpp:77] Creating layer fc7_mbox_loc_perm
I0429 15:54:11.946841 14351 net.cpp:100] Creating Layer fc7_mbox_loc_perm
I0429 15:54:11.946856 14351 net.cpp:434] fc7_mbox_loc_perm <- fc7_mbox_loc
I0429 15:54:11.946871 14351 net.cpp:408] fc7_mbox_loc_perm -> fc7_mbox_loc_perm
I0429 15:54:11.946995 14351 net.cpp:150] Setting up fc7_mbox_loc_perm
I0429 15:54:11.947021 14351 net.cpp:157] Top shape: 8 19 19 24 (69312)
I0429 15:54:11.947032 14351 net.cpp:165] Memory required for data: 1991478848
I0429 15:54:11.947044 14351 layer_factory.hpp:77] Creating layer fc7_mbox_loc_flat
I0429 15:54:11.947060 14351 net.cpp:100] Creating Layer fc7_mbox_loc_flat
I0429 15:54:11.947072 14351 net.cpp:434] fc7_mbox_loc_flat <- fc7_mbox_loc_perm
I0429 15:54:11.947085 14351 net.cpp:408] fc7_mbox_loc_flat -> fc7_mbox_loc_flat
I0429 15:54:11.947118 14351 net.cpp:150] Setting up fc7_mbox_loc_flat
I0429 15:54:11.947131 14351 net.cpp:157] Top shape: 8 8664 (69312)
I0429 15:54:11.947142 14351 net.cpp:165] Memory required for data: 1991756096
I0429 15:54:11.947154 14351 layer_factory.hpp:77] Creating layer fc7_mbox_conf
I0429 15:54:11.947175 14351 net.cpp:100] Creating Layer fc7_mbox_conf
I0429 15:54:11.947186 14351 net.cpp:434] fc7_mbox_conf <- fc7_relu7_0_split_2
I0429 15:54:11.947201 14351 net.cpp:408] fc7_mbox_conf -> fc7_mbox_conf
I0429 15:54:11.959861 14351 net.cpp:150] Setting up fc7_mbox_conf
I0429 15:54:11.959899 14351 net.cpp:157] Top shape: 8 126 19 19 (363888)
I0429 15:54:11.959903 14351 net.cpp:165] Memory required for data: 1993211648
I0429 15:54:11.959916 14351 layer_factory.hpp:77] Creating layer fc7_mbox_conf_perm
I0429 15:54:11.959930 14351 net.cpp:100] Creating Layer fc7_mbox_conf_perm
I0429 15:54:11.959937 14351 net.cpp:434] fc7_mbox_conf_perm <- fc7_mbox_conf
I0429 15:54:11.959946 14351 net.cpp:408] fc7_mbox_conf_perm -> fc7_mbox_conf_perm
I0429 15:54:11.960059 14351 net.cpp:150] Setting up fc7_mbox_conf_perm
I0429 15:54:11.960099 14351 net.cpp:157] Top shape: 8 19 19 126 (363888)
I0429 15:54:11.960113 14351 net.cpp:165] Memory required for data: 1994667200
I0429 15:54:11.960125 14351 layer_factory.hpp:77] Creating layer fc7_mbox_conf_flat
I0429 15:54:11.960141 14351 net.cpp:100] Creating Layer fc7_mbox_conf_flat
I0429 15:54:11.960155 14351 net.cpp:434] fc7_mbox_conf_flat <- fc7_mbox_conf_perm
I0429 15:54:11.960170 14351 net.cpp:408] fc7_mbox_conf_flat -> fc7_mbox_conf_flat
I0429 15:54:11.960207 14351 net.cpp:150] Setting up fc7_mbox_conf_flat
I0429 15:54:11.960232 14351 net.cpp:157] Top shape: 8 45486 (363888)
I0429 15:54:11.960244 14351 net.cpp:165] Memory required for data: 1996122752
I0429 15:54:11.960255 14351 layer_factory.hpp:77] Creating layer fc7_mbox_priorbox
I0429 15:54:11.960273 14351 net.cpp:100] Creating Layer fc7_mbox_priorbox
I0429 15:54:11.960294 14351 net.cpp:434] fc7_mbox_priorbox <- fc7_relu7_0_split_3
I0429 15:54:11.960321 14351 net.cpp:434] fc7_mbox_priorbox <- data_data_0_split_2
I0429 15:54:11.960335 14351 net.cpp:408] fc7_mbox_priorbox -> fc7_mbox_priorbox
I0429 15:54:11.960379 14351 net.cpp:150] Setting up fc7_mbox_priorbox
I0429 15:54:11.960397 14351 net.cpp:157] Top shape: 1 2 8664 (17328)
I0429 15:54:11.960408 14351 net.cpp:165] Memory required for data: 1996192064
I0429 15:54:11.960419 14351 layer_factory.hpp:77] Creating layer conv6_2_mbox_loc
I0429 15:54:11.960445 14351 net.cpp:100] Creating Layer conv6_2_mbox_loc
I0429 15:54:11.960461 14351 net.cpp:434] conv6_2_mbox_loc <- conv6_2_conv6_2_relu_0_split_1
I0429 15:54:11.960477 14351 net.cpp:408] conv6_2_mbox_loc -> conv6_2_mbox_loc
I0429 15:54:11.964709 14351 net.cpp:150] Setting up conv6_2_mbox_loc
I0429 15:54:11.964807 14351 net.cpp:157] Top shape: 8 24 10 10 (19200)
I0429 15:54:11.964821 14351 net.cpp:165] Memory required for data: 1996268864
I0429 15:54:11.964846 14351 layer_factory.hpp:77] Creating layer conv6_2_mbox_loc_perm
I0429 15:54:11.964869 14351 net.cpp:100] Creating Layer conv6_2_mbox_loc_perm
I0429 15:54:11.964882 14351 net.cpp:434] conv6_2_mbox_loc_perm <- conv6_2_mbox_loc
I0429 15:54:11.964900 14351 net.cpp:408] conv6_2_mbox_loc_perm -> conv6_2_mbox_loc_perm
I0429 15:54:11.965014 14351 net.cpp:150] Setting up conv6_2_mbox_loc_perm
I0429 15:54:11.965023 14351 net.cpp:157] Top shape: 8 10 10 24 (19200)
I0429 15:54:11.965026 14351 net.cpp:165] Memory required for data: 1996345664
I0429 15:54:11.965029 14351 layer_factory.hpp:77] Creating layer conv6_2_mbox_loc_flat
I0429 15:54:11.965039 14351 net.cpp:100] Creating Layer conv6_2_mbox_loc_flat
I0429 15:54:11.965055 14351 net.cpp:434] conv6_2_mbox_loc_flat <- conv6_2_mbox_loc_perm
I0429 15:54:11.965068 14351 net.cpp:408] conv6_2_mbox_loc_flat -> conv6_2_mbox_loc_flat
I0429 15:54:11.965098 14351 net.cpp:150] Setting up conv6_2_mbox_loc_flat
I0429 15:54:11.965111 14351 net.cpp:157] Top shape: 8 2400 (19200)
I0429 15:54:11.965121 14351 net.cpp:165] Memory required for data: 1996422464
I0429 15:54:11.965131 14351 layer_factory.hpp:77] Creating layer conv6_2_mbox_conf
I0429 15:54:11.965150 14351 net.cpp:100] Creating Layer conv6_2_mbox_conf
I0429 15:54:11.965157 14351 net.cpp:434] conv6_2_mbox_conf <- conv6_2_conv6_2_relu_0_split_2
I0429 15:54:11.965164 14351 net.cpp:408] conv6_2_mbox_conf -> conv6_2_mbox_conf
I0429 15:54:11.972131 14351 net.cpp:150] Setting up conv6_2_mbox_conf
I0429 15:54:11.972203 14351 net.cpp:157] Top shape: 8 126 10 10 (100800)
I0429 15:54:11.972224 14351 net.cpp:165] Memory required for data: 1996825664
I0429 15:54:11.972244 14351 layer_factory.hpp:77] Creating layer conv6_2_mbox_conf_perm
I0429 15:54:11.972265 14351 net.cpp:100] Creating Layer conv6_2_mbox_conf_perm
I0429 15:54:11.972278 14351 net.cpp:434] conv6_2_mbox_conf_perm <- conv6_2_mbox_conf
I0429 15:54:11.972293 14351 net.cpp:408] conv6_2_mbox_conf_perm -> conv6_2_mbox_conf_perm
I0429 15:54:11.972415 14351 net.cpp:150] Setting up conv6_2_mbox_conf_perm
I0429 15:54:11.972431 14351 net.cpp:157] Top shape: 8 10 10 126 (100800)
I0429 15:54:11.972441 14351 net.cpp:165] Memory required for data: 1997228864
I0429 15:54:11.972451 14351 layer_factory.hpp:77] Creating layer conv6_2_mbox_conf_flat
I0429 15:54:11.972466 14351 net.cpp:100] Creating Layer conv6_2_mbox_conf_flat
I0429 15:54:11.972476 14351 net.cpp:434] conv6_2_mbox_conf_flat <- conv6_2_mbox_conf_perm
I0429 15:54:11.972491 14351 net.cpp:408] conv6_2_mbox_conf_flat -> conv6_2_mbox_conf_flat
I0429 15:54:11.972519 14351 net.cpp:150] Setting up conv6_2_mbox_conf_flat
I0429 15:54:11.972533 14351 net.cpp:157] Top shape: 8 12600 (100800)
I0429 15:54:11.972543 14351 net.cpp:165] Memory required for data: 1997632064
I0429 15:54:11.972551 14351 layer_factory.hpp:77] Creating layer conv6_2_mbox_priorbox
I0429 15:54:11.972565 14351 net.cpp:100] Creating Layer conv6_2_mbox_priorbox
I0429 15:54:11.972576 14351 net.cpp:434] conv6_2_mbox_priorbox <- conv6_2_conv6_2_relu_0_split_3
I0429 15:54:11.972599 14351 net.cpp:434] conv6_2_mbox_priorbox <- data_data_0_split_3
I0429 15:54:11.972623 14351 net.cpp:408] conv6_2_mbox_priorbox -> conv6_2_mbox_priorbox
I0429 15:54:11.972661 14351 net.cpp:150] Setting up conv6_2_mbox_priorbox
I0429 15:54:11.972676 14351 net.cpp:157] Top shape: 1 2 2400 (4800)
I0429 15:54:11.972687 14351 net.cpp:165] Memory required for data: 1997651264
I0429 15:54:11.972698 14351 layer_factory.hpp:77] Creating layer conv7_2_mbox_loc
I0429 15:54:11.972719 14351 net.cpp:100] Creating Layer conv7_2_mbox_loc
I0429 15:54:11.972730 14351 net.cpp:434] conv7_2_mbox_loc <- conv7_2_conv7_2_relu_0_split_1
I0429 15:54:11.972744 14351 net.cpp:408] conv7_2_mbox_loc -> conv7_2_mbox_loc
I0429 15:54:11.974984 14351 net.cpp:150] Setting up conv7_2_mbox_loc
I0429 15:54:11.975041 14351 net.cpp:157] Top shape: 8 24 5 5 (4800)
I0429 15:54:11.975055 14351 net.cpp:165] Memory required for data: 1997670464
I0429 15:54:11.975075 14351 layer_factory.hpp:77] Creating layer conv7_2_mbox_loc_perm
I0429 15:54:11.975096 14351 net.cpp:100] Creating Layer conv7_2_mbox_loc_perm
I0429 15:54:11.975108 14351 net.cpp:434] conv7_2_mbox_loc_perm <- conv7_2_mbox_loc
I0429 15:54:11.975122 14351 net.cpp:408] conv7_2_mbox_loc_perm -> conv7_2_mbox_loc_perm
I0429 15:54:11.975239 14351 net.cpp:150] Setting up conv7_2_mbox_loc_perm
I0429 15:54:11.975255 14351 net.cpp:157] Top shape: 8 5 5 24 (4800)
I0429 15:54:11.975265 14351 net.cpp:165] Memory required for data: 1997689664
I0429 15:54:11.975275 14351 layer_factory.hpp:77] Creating layer conv7_2_mbox_loc_flat
I0429 15:54:11.975289 14351 net.cpp:100] Creating Layer conv7_2_mbox_loc_flat
I0429 15:54:11.975299 14351 net.cpp:434] conv7_2_mbox_loc_flat <- conv7_2_mbox_loc_perm
I0429 15:54:11.975312 14351 net.cpp:408] conv7_2_mbox_loc_flat -> conv7_2_mbox_loc_flat
I0429 15:54:11.975344 14351 net.cpp:150] Setting up conv7_2_mbox_loc_flat
I0429 15:54:11.975356 14351 net.cpp:157] Top shape: 8 600 (4800)
I0429 15:54:11.975368 14351 net.cpp:165] Memory required for data: 1997708864
I0429 15:54:11.975378 14351 layer_factory.hpp:77] Creating layer conv7_2_mbox_conf
I0429 15:54:11.975396 14351 net.cpp:100] Creating Layer conv7_2_mbox_conf
I0429 15:54:11.975407 14351 net.cpp:434] conv7_2_mbox_conf <- conv7_2_conv7_2_relu_0_split_2
I0429 15:54:11.975421 14351 net.cpp:408] conv7_2_mbox_conf -> conv7_2_mbox_conf
I0429 15:54:11.980332 14351 net.cpp:150] Setting up conv7_2_mbox_conf
I0429 15:54:11.980365 14351 net.cpp:157] Top shape: 8 126 5 5 (25200)
I0429 15:54:11.980368 14351 net.cpp:165] Memory required for data: 1997809664
I0429 15:54:11.980379 14351 layer_factory.hpp:77] Creating layer conv7_2_mbox_conf_perm
I0429 15:54:11.980392 14351 net.cpp:100] Creating Layer conv7_2_mbox_conf_perm
I0429 15:54:11.980399 14351 net.cpp:434] conv7_2_mbox_conf_perm <- conv7_2_mbox_conf
I0429 15:54:11.980406 14351 net.cpp:408] conv7_2_mbox_conf_perm -> conv7_2_mbox_conf_perm
I0429 15:54:11.980509 14351 net.cpp:150] Setting up conv7_2_mbox_conf_perm
I0429 15:54:11.980542 14351 net.cpp:157] Top shape: 8 5 5 126 (25200)
I0429 15:54:11.980554 14351 net.cpp:165] Memory required for data: 1997910464
I0429 15:54:11.980566 14351 layer_factory.hpp:77] Creating layer conv7_2_mbox_conf_flat
I0429 15:54:11.980581 14351 net.cpp:100] Creating Layer conv7_2_mbox_conf_flat
I0429 15:54:11.980592 14351 net.cpp:434] conv7_2_mbox_conf_flat <- conv7_2_mbox_conf_perm
I0429 15:54:11.980605 14351 net.cpp:408] conv7_2_mbox_conf_flat -> conv7_2_mbox_conf_flat
I0429 15:54:11.980635 14351 net.cpp:150] Setting up conv7_2_mbox_conf_flat
I0429 15:54:11.980648 14351 net.cpp:157] Top shape: 8 3150 (25200)
I0429 15:54:11.980659 14351 net.cpp:165] Memory required for data: 1998011264
I0429 15:54:11.980669 14351 layer_factory.hpp:77] Creating layer conv7_2_mbox_priorbox
I0429 15:54:11.980684 14351 net.cpp:100] Creating Layer conv7_2_mbox_priorbox
I0429 15:54:11.980693 14351 net.cpp:434] conv7_2_mbox_priorbox <- conv7_2_conv7_2_relu_0_split_3
I0429 15:54:11.980705 14351 net.cpp:434] conv7_2_mbox_priorbox <- data_data_0_split_4
I0429 15:54:11.980720 14351 net.cpp:408] conv7_2_mbox_priorbox -> conv7_2_mbox_priorbox
I0429 15:54:11.980774 14351 net.cpp:150] Setting up conv7_2_mbox_priorbox
I0429 15:54:11.980788 14351 net.cpp:157] Top shape: 1 2 600 (1200)
I0429 15:54:11.980798 14351 net.cpp:165] Memory required for data: 1998016064
I0429 15:54:11.980808 14351 layer_factory.hpp:77] Creating layer conv8_2_mbox_loc
I0429 15:54:11.980828 14351 net.cpp:100] Creating Layer conv8_2_mbox_loc
I0429 15:54:11.980839 14351 net.cpp:434] conv8_2_mbox_loc <- conv8_2_conv8_2_relu_0_split_1
I0429 15:54:11.980854 14351 net.cpp:408] conv8_2_mbox_loc -> conv8_2_mbox_loc
I0429 15:54:11.982982 14351 net.cpp:150] Setting up conv8_2_mbox_loc
I0429 15:54:11.983008 14351 net.cpp:157] Top shape: 8 16 3 3 (1152)
I0429 15:54:11.983012 14351 net.cpp:165] Memory required for data: 1998020672
I0429 15:54:11.983036 14351 layer_factory.hpp:77] Creating layer conv8_2_mbox_loc_perm
I0429 15:54:11.983047 14351 net.cpp:100] Creating Layer conv8_2_mbox_loc_perm
I0429 15:54:11.983054 14351 net.cpp:434] conv8_2_mbox_loc_perm <- conv8_2_mbox_loc
I0429 15:54:11.983067 14351 net.cpp:408] conv8_2_mbox_loc_perm -> conv8_2_mbox_loc_perm
I0429 15:54:11.983167 14351 net.cpp:150] Setting up conv8_2_mbox_loc_perm
I0429 15:54:11.983175 14351 net.cpp:157] Top shape: 8 3 3 16 (1152)
I0429 15:54:11.983177 14351 net.cpp:165] Memory required for data: 1998025280
I0429 15:54:11.983181 14351 layer_factory.hpp:77] Creating layer conv8_2_mbox_loc_flat
I0429 15:54:11.983188 14351 net.cpp:100] Creating Layer conv8_2_mbox_loc_flat
I0429 15:54:11.983192 14351 net.cpp:434] conv8_2_mbox_loc_flat <- conv8_2_mbox_loc_perm
I0429 15:54:11.983197 14351 net.cpp:408] conv8_2_mbox_loc_flat -> conv8_2_mbox_loc_flat
I0429 15:54:11.983220 14351 net.cpp:150] Setting up conv8_2_mbox_loc_flat
I0429 15:54:11.983252 14351 net.cpp:157] Top shape: 8 144 (1152)
I0429 15:54:11.983263 14351 net.cpp:165] Memory required for data: 1998029888
I0429 15:54:11.983274 14351 layer_factory.hpp:77] Creating layer conv8_2_mbox_conf
I0429 15:54:11.983294 14351 net.cpp:100] Creating Layer conv8_2_mbox_conf
I0429 15:54:11.983305 14351 net.cpp:434] conv8_2_mbox_conf <- conv8_2_conv8_2_relu_0_split_2
I0429 15:54:11.983323 14351 net.cpp:408] conv8_2_mbox_conf -> conv8_2_mbox_conf
I0429 15:54:11.988814 14351 net.cpp:150] Setting up conv8_2_mbox_conf
I0429 15:54:11.988880 14351 net.cpp:157] Top shape: 8 84 3 3 (6048)
I0429 15:54:11.988894 14351 net.cpp:165] Memory required for data: 1998054080
I0429 15:54:11.988915 14351 layer_factory.hpp:77] Creating layer conv8_2_mbox_conf_perm
I0429 15:54:11.988935 14351 net.cpp:100] Creating Layer conv8_2_mbox_conf_perm
I0429 15:54:11.988951 14351 net.cpp:434] conv8_2_mbox_conf_perm <- conv8_2_mbox_conf
I0429 15:54:11.988968 14351 net.cpp:408] conv8_2_mbox_conf_perm -> conv8_2_mbox_conf_perm
I0429 15:54:11.989089 14351 net.cpp:150] Setting up conv8_2_mbox_conf_perm
I0429 15:54:11.989106 14351 net.cpp:157] Top shape: 8 3 3 84 (6048)
I0429 15:54:11.989117 14351 net.cpp:165] Memory required for data: 1998078272
I0429 15:54:11.989130 14351 layer_factory.hpp:77] Creating layer conv8_2_mbox_conf_flat
I0429 15:54:11.989148 14351 net.cpp:100] Creating Layer conv8_2_mbox_conf_flat
I0429 15:54:11.989161 14351 net.cpp:434] conv8_2_mbox_conf_flat <- conv8_2_mbox_conf_perm
I0429 15:54:11.989174 14351 net.cpp:408] conv8_2_mbox_conf_flat -> conv8_2_mbox_conf_flat
I0429 15:54:11.989209 14351 net.cpp:150] Setting up conv8_2_mbox_conf_flat
I0429 15:54:11.989223 14351 net.cpp:157] Top shape: 8 756 (6048)
I0429 15:54:11.989233 14351 net.cpp:165] Memory required for data: 1998102464
I0429 15:54:11.989245 14351 layer_factory.hpp:77] Creating layer conv8_2_mbox_priorbox
I0429 15:54:11.989262 14351 net.cpp:100] Creating Layer conv8_2_mbox_priorbox
I0429 15:54:11.989274 14351 net.cpp:434] conv8_2_mbox_priorbox <- conv8_2_conv8_2_relu_0_split_3
I0429 15:54:11.989289 14351 net.cpp:434] conv8_2_mbox_priorbox <- data_data_0_split_5
I0429 15:54:11.989302 14351 net.cpp:408] conv8_2_mbox_priorbox -> conv8_2_mbox_priorbox
I0429 15:54:11.989344 14351 net.cpp:150] Setting up conv8_2_mbox_priorbox
I0429 15:54:11.989367 14351 net.cpp:157] Top shape: 1 2 144 (288)
I0429 15:54:11.989390 14351 net.cpp:165] Memory required for data: 1998103616
I0429 15:54:11.989401 14351 layer_factory.hpp:77] Creating layer conv9_2_mbox_loc
I0429 15:54:11.989423 14351 net.cpp:100] Creating Layer conv9_2_mbox_loc
I0429 15:54:11.989435 14351 net.cpp:434] conv9_2_mbox_loc <- conv9_2_conv9_2_relu_0_split_0
I0429 15:54:11.989451 14351 net.cpp:408] conv9_2_mbox_loc -> conv9_2_mbox_loc
I0429 15:54:11.991463 14351 net.cpp:150] Setting up conv9_2_mbox_loc
I0429 15:54:11.991514 14351 net.cpp:157] Top shape: 8 16 1 1 (128)
I0429 15:54:11.991520 14351 net.cpp:165] Memory required for data: 1998104128
I0429 15:54:11.991531 14351 layer_factory.hpp:77] Creating layer conv9_2_mbox_loc_perm
I0429 15:54:11.991544 14351 net.cpp:100] Creating Layer conv9_2_mbox_loc_perm
I0429 15:54:11.991551 14351 net.cpp:434] conv9_2_mbox_loc_perm <- conv9_2_mbox_loc
I0429 15:54:11.991559 14351 net.cpp:408] conv9_2_mbox_loc_perm -> conv9_2_mbox_loc_perm
I0429 15:54:11.991659 14351 net.cpp:150] Setting up conv9_2_mbox_loc_perm
I0429 15:54:11.991667 14351 net.cpp:157] Top shape: 8 1 1 16 (128)
I0429 15:54:11.991672 14351 net.cpp:165] Memory required for data: 1998104640
I0429 15:54:11.991675 14351 layer_factory.hpp:77] Creating layer conv9_2_mbox_loc_flat
I0429 15:54:11.991701 14351 net.cpp:100] Creating Layer conv9_2_mbox_loc_flat
I0429 15:54:11.991706 14351 net.cpp:434] conv9_2_mbox_loc_flat <- conv9_2_mbox_loc_perm
I0429 15:54:11.991714 14351 net.cpp:408] conv9_2_mbox_loc_flat -> conv9_2_mbox_loc_flat
I0429 15:54:11.991751 14351 net.cpp:150] Setting up conv9_2_mbox_loc_flat
I0429 15:54:11.991757 14351 net.cpp:157] Top shape: 8 16 (128)
I0429 15:54:11.991760 14351 net.cpp:165] Memory required for data: 1998105152
I0429 15:54:11.991765 14351 layer_factory.hpp:77] Creating layer conv9_2_mbox_conf
I0429 15:54:11.991780 14351 net.cpp:100] Creating Layer conv9_2_mbox_conf
I0429 15:54:11.991784 14351 net.cpp:434] conv9_2_mbox_conf <- conv9_2_conv9_2_relu_0_split_1
I0429 15:54:11.991791 14351 net.cpp:408] conv9_2_mbox_conf -> conv9_2_mbox_conf
I0429 15:54:11.995236 14351 net.cpp:150] Setting up conv9_2_mbox_conf
I0429 15:54:11.995301 14351 net.cpp:157] Top shape: 8 84 1 1 (672)
I0429 15:54:11.995313 14351 net.cpp:165] Memory required for data: 1998107840
I0429 15:54:11.995332 14351 layer_factory.hpp:77] Creating layer conv9_2_mbox_conf_perm
I0429 15:54:11.995350 14351 net.cpp:100] Creating Layer conv9_2_mbox_conf_perm
I0429 15:54:11.995365 14351 net.cpp:434] conv9_2_mbox_conf_perm <- conv9_2_mbox_conf
I0429 15:54:11.995380 14351 net.cpp:408] conv9_2_mbox_conf_perm -> conv9_2_mbox_conf_perm
I0429 15:54:11.995501 14351 net.cpp:150] Setting up conv9_2_mbox_conf_perm
I0429 15:54:11.995517 14351 net.cpp:157] Top shape: 8 1 1 84 (672)
I0429 15:54:11.995527 14351 net.cpp:165] Memory required for data: 1998110528
I0429 15:54:11.995538 14351 layer_factory.hpp:77] Creating layer conv9_2_mbox_conf_flat
I0429 15:54:11.995555 14351 net.cpp:100] Creating Layer conv9_2_mbox_conf_flat
I0429 15:54:11.995568 14351 net.cpp:434] conv9_2_mbox_conf_flat <- conv9_2_mbox_conf_perm
I0429 15:54:11.995580 14351 net.cpp:408] conv9_2_mbox_conf_flat -> conv9_2_mbox_conf_flat
I0429 15:54:11.995610 14351 net.cpp:150] Setting up conv9_2_mbox_conf_flat
I0429 15:54:11.995623 14351 net.cpp:157] Top shape: 8 84 (672)
I0429 15:54:11.995635 14351 net.cpp:165] Memory required for data: 1998113216
I0429 15:54:11.995646 14351 layer_factory.hpp:77] Creating layer conv9_2_mbox_priorbox
I0429 15:54:11.995663 14351 net.cpp:100] Creating Layer conv9_2_mbox_priorbox
I0429 15:54:11.995674 14351 net.cpp:434] conv9_2_mbox_priorbox <- conv9_2_conv9_2_relu_0_split_2
I0429 15:54:11.995687 14351 net.cpp:434] conv9_2_mbox_priorbox <- data_data_0_split_6
I0429 15:54:11.995700 14351 net.cpp:408] conv9_2_mbox_priorbox -> conv9_2_mbox_priorbox
I0429 15:54:11.995738 14351 net.cpp:150] Setting up conv9_2_mbox_priorbox
I0429 15:54:11.995750 14351 net.cpp:157] Top shape: 1 2 16 (32)
I0429 15:54:11.995761 14351 net.cpp:165] Memory required for data: 1998113344
I0429 15:54:11.995791 14351 layer_factory.hpp:77] Creating layer mbox_loc
I0429 15:54:11.995807 14351 net.cpp:100] Creating Layer mbox_loc
I0429 15:54:11.995820 14351 net.cpp:434] mbox_loc <- conv4_3_norm_mbox_loc_flat
I0429 15:54:11.995833 14351 net.cpp:434] mbox_loc <- fc7_mbox_loc_flat
I0429 15:54:11.995846 14351 net.cpp:434] mbox_loc <- conv6_2_mbox_loc_flat
I0429 15:54:11.995859 14351 net.cpp:434] mbox_loc <- conv7_2_mbox_loc_flat
I0429 15:54:11.995872 14351 net.cpp:434] mbox_loc <- conv8_2_mbox_loc_flat
I0429 15:54:11.995883 14351 net.cpp:434] mbox_loc <- conv9_2_mbox_loc_flat
I0429 15:54:11.995898 14351 net.cpp:408] mbox_loc -> mbox_loc
I0429 15:54:11.995936 14351 net.cpp:150] Setting up mbox_loc
I0429 15:54:11.995954 14351 net.cpp:157] Top shape: 8 34928 (279424)
I0429 15:54:11.995965 14351 net.cpp:165] Memory required for data: 1999231040
I0429 15:54:11.995975 14351 layer_factory.hpp:77] Creating layer mbox_conf
I0429 15:54:11.995990 14351 net.cpp:100] Creating Layer mbox_conf
I0429 15:54:11.996002 14351 net.cpp:434] mbox_conf <- conv4_3_norm_mbox_conf_flat
I0429 15:54:11.996017 14351 net.cpp:434] mbox_conf <- fc7_mbox_conf_flat
I0429 15:54:11.996029 14351 net.cpp:434] mbox_conf <- conv6_2_mbox_conf_flat
I0429 15:54:11.996042 14351 net.cpp:434] mbox_conf <- conv7_2_mbox_conf_flat
I0429 15:54:11.996053 14351 net.cpp:434] mbox_conf <- conv8_2_mbox_conf_flat
I0429 15:54:11.996065 14351 net.cpp:434] mbox_conf <- conv9_2_mbox_conf_flat
I0429 15:54:11.996079 14351 net.cpp:408] mbox_conf -> mbox_conf
I0429 15:54:11.996114 14351 net.cpp:150] Setting up mbox_conf
I0429 15:54:11.996129 14351 net.cpp:157] Top shape: 8 183372 (1466976)
I0429 15:54:11.996140 14351 net.cpp:165] Memory required for data: 2005098944
I0429 15:54:11.996150 14351 layer_factory.hpp:77] Creating layer mbox_priorbox
I0429 15:54:11.996165 14351 net.cpp:100] Creating Layer mbox_priorbox
I0429 15:54:11.996176 14351 net.cpp:434] mbox_priorbox <- conv4_3_norm_mbox_priorbox
I0429 15:54:11.996191 14351 net.cpp:434] mbox_priorbox <- fc7_mbox_priorbox
I0429 15:54:11.996202 14351 net.cpp:434] mbox_priorbox <- conv6_2_mbox_priorbox
I0429 15:54:11.996225 14351 net.cpp:434] mbox_priorbox <- conv7_2_mbox_priorbox
I0429 15:54:11.996237 14351 net.cpp:434] mbox_priorbox <- conv8_2_mbox_priorbox
I0429 15:54:11.996248 14351 net.cpp:434] mbox_priorbox <- conv9_2_mbox_priorbox
I0429 15:54:11.996259 14351 net.cpp:408] mbox_priorbox -> mbox_priorbox
I0429 15:54:11.996299 14351 net.cpp:150] Setting up mbox_priorbox
I0429 15:54:11.996312 14351 net.cpp:157] Top shape: 1 2 34928 (69856)
I0429 15:54:11.996325 14351 net.cpp:165] Memory required for data: 2005378368
I0429 15:54:11.996336 14351 layer_factory.hpp:77] Creating layer mbox_loss
I0429 15:54:11.996358 14351 net.cpp:100] Creating Layer mbox_loss
I0429 15:54:11.996371 14351 net.cpp:434] mbox_loss <- mbox_loc
I0429 15:54:11.996383 14351 net.cpp:434] mbox_loss <- mbox_conf
I0429 15:54:11.996395 14351 net.cpp:434] mbox_loss <- mbox_priorbox
…
state {
  phase: TEST
}
layer {
  name: "data"
  type: "AnnotatedData"
  top: "data"
  top: "label"
  include {
    phase: TEST
  }
  transform_param {
    mean_value: 104
    mean_value: 117
    mean_value: 123
    resize_param {
      prob: 1
      resize_mode: WARP
      height: 300
      width: 300
      interp_mode: LINEAR
    }
  }
  data_param {
    source: "examples/VOC0712/VOC0712_test_lmdb"
    batch_size: 8
    backend: LMDB
  }
  annotated_data_param {
    batch_sampler {
    }
    label_map_file: "data/VOC0712/labelmap_voc.prototxt"
  }
}
layer {
  name: "conv1_1"
  type: "Convolution"
  bottom: "data"
  top: "conv1_1"
  param {
    lr_mult: 1
    decay_mult: 1
  }
  param {
    lr_mult: 2
    decay_mult: 0
  }
  convolution_param {
    num_output: 64
    pad: 1
    kernel_size: 3
    weight_filler {
      type: "xavier"
    }
    bias_filler {
      type: "constant"
      value: 0
    }
  }
}
layer {
  name: "relu1_1"
  type: "ReLU"
  bottom: "conv1_1"
  top: "conv1_1"
}
layer {
  name: "conv1_2"
  type: "Convolution"
  bottom: "conv1_1"
  top: "conv1_2"
  param {
    lr_mult: 1
    decay_mult: 1
  }
  param {
    lr_mult: 2
    decay_mult: 0
  }
  convolution_param {
    num_output: 64
    pad: 1
    kernel_size: 3
    weight_filler {
      type: "xavier"
    }
    bias_filler {
      type: "constant"
      value: 0
    }
  }
}
layer {
  name: "relu1_2"
  type: "ReLU"
  bottom: "conv1_2"
  top: "conv1_2"
}
layer {
  name: "pool1"
  type: "Pooling"
  bottom: "conv1_2"
  top: "pool1"
  pooling_param {
    pool: MAX
    kernel_size: 2
    stride: 2
  }
}
layer {
  name: "conv2_1"
  type: "Convolution"
  bottom: "pool1"
  top: "conv2_1"
  param {
    lr_mult: 1
    decay_mult: 1
  }
  param {
    lr_mult: 2
    decay_mult: 0
  }
  convolution_param {
    num_output: 128
    pad: 1
    kernel_size: 3
    weight_filler {
      type: "xavier"
    }
    bias_filler {
      type: "constant"
      value: 0
    }
  }
}
layer {
  name: "relu2_1"
  type: "ReLU"
  bottom: "conv2_1"
  top: "conv2_1"
}
layer {
  name: "conv2_2"
  type: "Convolution"
  bottom: "conv2_1"
  top: "conv2_2"
  param {
    lr_mult: 1
    decay_mult: 1
  }
  param {
    lr_mult: 2
    decay_mult: 0
  }
  convolution_param {
    num_output: 128
    pad: 1
    kernel_size: 3
    weight_filler {
      type: "xavier"
    }
    bias_filler {
      type: "constant"
      value: 0
    }
  }
}
layer {
  name: "relu2_2"
  type: "ReLU"
  bottom: "conv2_2"
  top: "conv2_2"
}
layer {
  name: "pool2"
  type: "Pooling"
  bottom: "conv2_2"
  top: "pool2"
  pooling_param {
    pool: MAX
    kernel_size: 2
    stride: 2
  }
}
layer {
  name: "conv3_1"
  type: "Convolution"
  bottom: "pool2"
  top: "conv3_1"
  param {
    lr_mult: 1
    decay_mult: 1
  }
  param {
    lr_mult: 2
    decay_mult: 0
  }
  convolution_param {
    num_output: 256
    pad: 1
    kernel_size: 3
    weight_filler {
      type: "xavier"
    }
    bias_filler {
      type: "constant"
      value: 0
    }
  }
}
layer {
  name: "relu3_1"
  type: "ReLU"
  bottom: "conv3_1"
  top: "conv3_1"
}
layer {
  name: "conv3_2"
  type: "Convolution"
  bottom: "conv3_1"
  top: "conv3_2"
  param {
    lr_mult: 1
    decay_mult: 1
  }
  param {
    lr_mult: 2
    decay_mult: 0
  }
  convolution_param {
    num_output: 256
    pad: 1
    kernel_size: 3
    weight_filler {
      type: "xavier"
    }
    bias_filler {
      type: "constant"
      value: 0
    }
  }
}
layer {
  name: "relu3_2"
  type: "ReLU"
  bottom: "conv3_2"
  top: "conv3_2"
}
layer {
  name: "conv3_3"
  type: "Convolution"
  bottom: "conv3_2"
  top: "conv3_3"
  param {
    lr_mult: 1
    decay_mult: 1
  }
  param {
    lr_mult: 2
    decay_mult: 0
  }
  convolution_param {
    num_output: 256
    pad: 1
    kernel_size: 3
    weight_filler {
      type: "xavier"
    }
    bias_filler {
      type: "constant"
      value: 0
    }
  }
}
layer {
  name: "relu3_3"
  type: "ReLU"
  bottom: "conv3_3"
  top: "conv3_3"
}
layer {
  name: "pool3"
  type: "Pooling"
  bottom: "conv3_3"
  top: "pool3"
  pooling_param {
    pool: MAX
    kernel_size: 2
    stride: 2
  }
}
layer {
  name: "conv4_1"
  type: "Convolution"
  bottom: "pool3"
  top: "conv4_1"
  param {
    lr_mult: 1
    decay_mult: 1
  }
  param {
    lr_mult: 2
    decay_mult: 0
  }
  convolution_param {
    num_output: 512
    pad: 1
    kernel_size: 3
    weight_filler {
      type: "xavier"
    }
    bias_filler {
      type: "constant"
      value: 0
    }
  }
}
layer {
  name: "relu4_1"
  type: "ReLU"
  bottom: "conv4_1"
  top: "conv4_1"
}
layer {
  name: "conv4_2"
  type: "Convolution"
  bottom: "conv4_1"
  top: "conv4_2"
  param {
    lr_mult: 1
    decay_mult: 1
  }
  param {
    lr_mult: 2
    decay_mult: 0
  }
  convolution_param {
    num_output: 512
    pad: 1
    kernel_size: 3
    weight_filler {
      type: "xavier"
    }
    bias_filler {
      type: "constant"
      value: 0
    }
  }
}
layer {
  name: "relu4_2"
  type: "ReLU"
  bottom: "conv4_2"
  top: "conv4_2"
}
layer {
  name: "conv4_3"
  type: "Convolution"
  bottom: "conv4_2"
  top: "conv4_3"
  param {
    lr_mult: 1
    decay_mult: 1
  }
  param {
    lr_mult: 2
    decay_mult: 0
  }
  convolution_param {
    num_output: 512
    pad: 1
    kernel_size: 3
    weight_filler {
      type: "xavier"
    }
    bias_filler {
      type: "constant"
      value: 0
    }
  }
}
layer {
  name: "relu4_3"
  type: "ReLU"
  bottom: "conv4_3"
  top: "conv4_3"
}
layer {
  name: "pool4"
  type: "Pooling"
  bottom: "conv4_3"
  top: "pool4"
  pooling_param {
    pool: MAX
    kernel_size: 2
    stride: 2
  }
}
layer {
  name: "conv5_1"
  type: "Convolution"
  bottom: "pool4"
  top: "conv5_1"
  param {
    lr_mult: 1
    decay_mult: 1
  }
  param {
    lr_mult: 2
    decay_mult: 0
  }
  convolution_param {
    num_output: 512
    pad: 1
    kernel_size: 3
    weight_filler {
      type: "xavier"
    }
    bias_filler {
      type: "constant"
      value: 0
    }
    dilation: 1
  }
}
layer {
  name: "relu5_1"
  type: "ReLU"
  bottom: "conv5_1"
  top: "conv5_1"
}
layer {
  name: "conv5_2"
  type: "Convolution"
  bottom: "conv5_1"
  top: "conv5_2"
  param {
    lr_mult: 1
    decay_mult: 1
  }
  param {
    lr_mult: 2
    decay_mult: 0
  }
  convolution_param {
    num_output: 512
    pad: 1
    kernel_size: 3
    weight_filler {
      type: "xavier"
    }
    bias_filler {
      type: "constant"
      value: 0
    }
    dilation: 1
  }
}
layer {
  name: "relu5_2"
  type: "ReLU"
  bottom: "conv5_2"
  top: "conv5_2"
}
layer {
  name: "conv5_3"
  type: "Convolution"
  bottom: "conv5_2"
  top: "conv5_3"
  param {
    lr_mult: 1
    decay_mult: 1
  }
  param {
    lr_mult: 2
    decay_mult: 0
  }
  convolution_param {
    num_output: 512
    pad: 1
    kernel_size: 3
    weight_filler {
      type: "xavier"
    }
    bias_filler {
      type: "constant"
      value: 0
    }
    dilation: 1
  }
}
layer {
  name: "relu5_3"
  type: "ReLU"
  bottom: "conv5_3"
  top: "conv5_3"
}
layer {
  name: "pool5"
  type: "Pooling"
  bottom: "conv5_3"
  top: "pool5"
  pooling_param {
    pool: MAX
    kernel_size: 3
    stride: 1
    pad: 1
  }
}
layer {
  name: "fc6"
  type: "Convolution"
  bottom: "pool5"
  top: "fc6"
  param {
    lr_mult: 1
    decay_mult: 1
  }
  param {
    lr_mult: 2
    decay_mult: 0
  }
  convolution_param {
    num_output: 1024
    pad: 6
    kernel_size: 3
    weight_filler {
      type: "xavier"
    }
    bias_filler {
      type: "constant"
      value: 0
    }
    dilation: 6
  }
}
layer {
  name: "relu6"
  type: "ReLU"
  bottom: "fc6"
  top: "fc6"
}
layer {
  name: "fc7"
  type: "Convolution"
  bottom: "fc6"
  top: "fc7"
  param {
    lr_mult: 1
    decay_mult: 1
  }
  param {
    lr_mult: 2
    decay_mult: 0
  }
  convolution_param {
    num_output: 1024
    kernel_size: 1
    weight_filler {
      type: "xavier"
    }
    bias_filler {
      type: "constant"
      value: 0
    }
  }
}
layer {
  name: "relu7"
  type: "ReLU"
  bottom: "fc7"
  top: "fc7"
}
layer {
  name: "conv6_1"
  type: "Convolution"
  bottom: "fc7"
  top: "conv6_1"
  param {
    lr_mult: 1
    decay_mult: 1
  }
  param {
    lr_mult: 2
    decay_mult: 0
  }
  convolution_param {
    num_output: 256
    pad: 0
    kernel_size: 1
    stride: 1
    weight_filler {
      type: "xavier"
    }
    bias_filler {
      type: "constant"
      value: 0
    }
  }
}
layer {
  name: "conv6_1_relu"
  type: "ReLU"
  bottom: "conv6_1"
  top: "conv6_1"
}
layer {
  name: "conv6_2"
  type: "Convolution"
  bottom: "conv6_1"
  top: "conv6_2"
  param {
    lr_mult: 1
    decay_mult: 1
  }
  param {
    lr_mult: 2
    decay_mult: 0
  }
  convolution_param {
    num_output: 512
    pad: 1
    kernel_size: 3
    stride: 2
    weight_filler {
      type: "xavier"
    }
    bias_filler {
      type: "constant"
      value: 0
    }
  }
}
layer {
  name: "conv6_2_relu"
  type: "ReLU"
  bottom: "conv6_2"
  top: "conv6_2"
}
layer {
  name: "conv7_1"
  type: "Convolution"
  bottom: "conv6_2"
  top: "conv7_1"
  param {
    lr_mult: 1
    decay_mult: 1
  }
  param {
    lr_mult: 2
    decay_mult: 0
  }
  convolution_param {
    num_output: 128
    pad: 0
    kernel_size: 1
    stride: 1
    weight_filler {
      type: "xavier"
    }
    bias_filler {
      type: "constant"
      value: 0
    }
  }
}
layer {
  name: "conv7_1_relu"
  type: "ReLU"
  bottom: "conv7_1"
  top: "conv7_1"
}
layer {
  name: "conv7_2"
  type: "Convolution"
  bottom: "conv7_1"
  top: "conv7_2"
  param {
    lr_mult: 1
    decay_mult: 1
  }
  param {
    lr_mult: 2
    decay_mult: 0
  }
  convolution_param {
    num_output: 256
    pad: 1
    kernel_size: 3
    stride: 2
    weight_filler {
      type: "xavier"
    }
    bias_filler {
      type: "constant"
      value: 0
    }
  }
}
layer {
  name: "conv7_2_relu"
  type: "ReLU"
  bottom: "conv7_2"
  top: "conv7_2"
}
layer {
  name: "conv8_1"
  type: "Convolution"
  bottom: "conv7_2"
  top: "conv8_1"
  param {
    lr_mult: 1
    decay_mult: 1
  }
  param {
    lr_mult: 2
    decay_mult: 0
  }
  convolution_param {
    num_output: 128
    pad: 0
    kernel_size: 1
    stride: 1
    weight_filler {
      type: "xavier"
    }
    bias_filler {
      type: "constant"
      value: 0
    }
  }
}
layer {
  name: "conv8_1_relu"
  type: "ReLU"
  bottom: "conv8_1"
  top: "conv8_1"
}
layer {
  name: "conv8_2"
  type: "Convolution"
  bottom: "conv8_1"
  top: "conv8_2"
  param {
    lr_mult: 1
    decay_mult: 1
  }
  param {
    lr_mult: 2
    decay_mult: 0
  }
  convolution_param {
    num_output: 256
    pad: 0
    kernel_size: 3
    stride: 1
    weight_filler {
      type: "xavier"
    }
    bias_filler {
      type: "constant"
      value: 0
    }
  }
}
layer {
  name: "conv8_2_relu"
  type: "ReLU"
  bottom: "conv8_2"
  top: "conv8_2"
}
layer {
  name: "conv9_1"
  type: "Convolution"
  bottom: "conv8_2"
  top: "conv9_1"
  param {
    lr_mult: 1
    decay_mult: 1
  }
  param {
    lr_mult: 2
    decay_mult: 0
  }
  convolution_param {
    num_output: 128
    pad: 0
    kernel_size: 1
    stride: 1
    weight_filler {
      type: "xavier"
    }
    bias_filler {
      type: "constant"
      value: 0
    }
  }
}
layer {
  name: "conv9_1_relu"
  type: "ReLU"
  bottom: "conv9_1"
  top: "conv9_1"
}
layer {
  name: "conv9_2"
  type: "Convolution"
  bottom: "conv9_1"
  top: "conv9_2"
  param {
    lr_mult: 1
    decay_mult: 1
  }
  param {
    lr_mult: 2
    decay_mult: 0
  }
  convolution_param {
    num_output: 256
    pad: 0
    kernel_size: 3
    stride: 1
    weight_filler {
      type: "xavier"
    }
    bias_filler {
      type: "constant"
      value: 0
    }
  }
}
layer {
  name: "conv9_2_relu"
  type: "ReLU"
  bottom: "conv9_2"
  top: "conv9_2"
}
layer {
  name: "conv4_3_norm"
  type: "Normalize"
  bottom: "conv4_3"
  top: "conv4_3_norm"
  norm_param {
    across_spatial: false
    scale_filler {
      type: "constant"
      value: 20
    }
    channel_shared: false
  }
}
layer {
  name: "conv4_3_norm_mbox_loc"
  type: "Convolution"
  bottom: "conv4_3_norm"
  top: "conv4_3_norm_mbox_loc"
  param {
    lr_mult: 1
    decay_mult: 1
  }
  param {
    lr_mult: 2
    decay_mult: 0
  }
  convolution_param {
    num_output: 16
    pad: 1
    kernel_size: 3
    stride: 1
    weight_filler {
      type: "xavier"
    }
    bias_filler {
      type: "constant"
      value: 0
    }
  }
}
layer {
  name: "conv4_3_norm_mbox_loc_perm"
  type: "Permute"
  bottom: "conv4_3_norm_mbox_loc"
  top: "conv4_3_norm_mbox_loc_perm"
  permute_param {
    order: 0
    order: 2
    order: 3
    order: 1
  }
}
layer {
  name: "conv4_3_norm_mbox_loc_flat"
  type: "Flatten"
  bottom: "conv4_3_norm_mbox_loc_perm"
  top: "conv4_3_norm_mbox_loc_flat"
  flatten_param {
    axis: 1
  }
}
layer {
  name: "conv4_3_norm_mbox_conf"
  type: "Convolution"
  bottom: "conv4_3_norm"
  top: "conv4_3_norm_mbox_conf"
  param {
    lr_mult: 1
    decay_mult: 1
  }
  param {
    lr_mult: 2
    decay_mult: 0
  }
  convolution_param {
    num_output: 84
    pad: 1
    kernel_size: 3
    stride: 1
    weight_filler {
      type: "xavier"
    }
    bias_filler {
      type: "constant"
      value: 0
    }
  }
}
layer {
  name: "conv4_3_norm_mbox_conf_perm"
  type: "Permute"
  bottom: "conv4_3_norm_mbox_conf"
  top: "conv4_3_norm_mbox_conf_perm"
  permute_param {
    order: 0
    order: 2
    order: 3
    order: 1
  }
}
layer {
  name: "conv4_3_norm_mbox_conf_flat"
  type: "Flatten"
  bottom: "conv4_3_norm_mbox_conf_perm"
  top: "conv4_3_norm_mbox_conf_flat"
  flatten_param {
    axis: 1
  }
}
layer {
  name: "conv4_3_norm_mbox_priorbox"
  type: "PriorBox"
  bottom: "conv4_3_norm"
  bottom: "data"
  top: "conv4_3_norm_mbox_priorbox"
  prior_box_param {
    min_size: 30
    max_size: 60
    aspect_ratio: 2
    flip: true
    clip: false
    variance: 0.1
    variance: 0.1
    variance: 0.2
    variance: 0.2
    step: 8
    offset: 0.5
  }
}
layer {
  name: "fc7_mbox_loc"
  type: "Convolution"
  bottom: "fc7"
  top: "fc7_mbox_loc"
  param {
    lr_mult: 1
    decay_mult: 1
  }
  param {
    lr_mult: 2
    decay_mult: 0
  }
  convolution_param {
    num_output: 24
    pad: 1
    kernel_size: 3
    stride: 1
    weight_filler {
      type: "xavier"
    }
    bias_filler {
      type: "constant"
      value: 0
    }
  }
}
layer {
  name: "fc7_mbox_loc_perm"
  type: "Permute"
  bottom: "fc7_mbox_loc"
  top: "fc7_mbox_loc_perm"
  permute_param {
    order: 0
    order: 2
    order: 3
    order: 1
  }
}
layer {
  name: "fc7_mbox_loc_flat"
  type: "Flatten"
  bottom: "fc7_mbox_loc_perm"
  top: "fc7_mbox_loc_flat"
  flatten_param {
    axis: 1
  }
}
layer {
  name: "fc7_mbox_conf"
  type: "Convolution"
  bottom: "fc7"
  top: "fc7_mbox_conf"
  param {
    lr_mult: 1
    decay_mult: 1
  }
  param {
    lr_mult: 2
    decay_mult: 0
  }
  convolution_param {
    num_output: 126
    pad: 1
    kernel_size: 3
    stride: 1
    weight_filler {
      type: "xavier"
    }
    bias_filler {
      type: "constant"
      value: 0
    }
  }
}
layer {
  name: "fc7_mbox_conf_perm"
  type: "Permute"
  bottom: "fc7_mbox_conf"
  top: "fc7_mbox_conf_perm"
  permute_param {
    order: 0
    order: 2
    order: 3
    order: 1
  }
}
layer {
  name: "fc7_mbox_conf_flat"
  type: "Flatten"
  bottom: "fc7_mbox_conf_perm"
  top: "fc7_mbox_conf_flat"
  flatten_param {
    axis: 1
  }
}
layer {
  name: "fc7_mbox_priorbox"
  type: "PriorBox"
  bottom: "fc7"
  bottom: "data"
  top: "fc7_mbox_priorbox"
  prior_box_param {
    min_size: 60
    max_size: 111
    aspect_ratio: 2
    aspect_ratio: 3
    flip: true
    clip: false
    variance: 0.1
    variance: 0.1
    variance: 0.2
    variance: 0.2
    step: 16
    offset: 0.5
  }
}
layer {
  name: "conv6_2_mbox_loc"
  type: "Convolution"
  bottom: "conv6_2"
  top: "conv6_2_mbox_loc"
  param {
    lr_mult: 1
    decay_mult: 1
  }
  param {
    lr_mult: 2
    decay_mult: 0
  }
  convolution_param {
    num_output: 24
    pad: 1
    kernel_size: 3
    stride: 1
    weight_filler {
      type: "xavier"
    }
    bias_filler {
      type: "constant"
      value: 0
    }
  }
}
layer {
  name: "conv6_2_mbox_loc_perm"
  type: "Permute"
  bottom: "conv6_2_mbox_loc"
  top: "conv6_2_mbox_loc_perm"
  permute_param {
    order: 0
    order: 2
    order: 3
    order: 1
  }
}
layer {
  name: "conv6_2_mbox_loc_flat"
  type: "Flatten"
  bottom: "conv6_2_mbox_loc_perm"
  top: "conv6_2_mbox_loc_flat"
  flatten_param {
    axis: 1
  }
}
layer {
  name: "conv6_2_mbox_conf"
  type: "Convolution"
  bottom: "conv6_2"
  top: "conv6_2_mbox_conf"
  param {
    lr_mult: 1
    decay_mult: 1
  }
  param {
    lr_mult: 2
    decay_mult: 0
  }
  convolution_param {
    num_output: 126
    pad: 1
    kernel_size: 3
    stride: 1
    weight_filler {
      type: "xavier"
    }
    bias_filler {
      type: "constant"
      value: 0
    }
  }
}
layer {
  name: "conv6_2_mbox_conf_perm"
  type: "Permute"
  bottom: "conv6_2_mbox_conf"
  top: "conv6_2_mbox_conf_perm"
  permute_param {
    order: 0
    order: 2
    order: 3
    order: 1
  }
}
layer {
  name: "conv6_2_mbox_conf_flat"
  type: "Flatten"
  bottom: "conv6_2_mbox_conf_perm"
  top: "conv6_2_mbox_conf_flat"
  flatten_param {
    axis: 1
  }
}
layer {
  name: "conv6_2_mbox_priorbox"
  type: "PriorBox"
  bottom: "conv6_2"
  bottom: "data"
  top: "conv6_2_mbox_priorbox"
  prior_box_param {
    min_size: 111
    max_size: 162
    aspect_ratio: 2
    aspect_ratio: 3
    flip: true
    clip: false
    variance: 0.1
    variance: 0.1
    variance: 0.2
    variance: 0.2
    step: 32
    offset: 0.5
  }
}
layer {
  name: "conv7_2_mbox_loc"
  type: "Convolution"
  bottom: "conv7_2"
  top: "conv7_2_mbox_loc"
  param {
    lr_mult: 1
    decay_mult: 1
  }
  param {
    lr_mult: 2
    decay_mult: 0
  }
  convolution_param {
    num_output: 24
    pad: 1
    kernel_size: 3
    stride: 1
    weight_filler {
      type: "xavier"
    }
    bias_filler {
      type: "constant"
      value: 0
    }
  }
}
layer {
  name: "conv7_2_mbox_loc_perm"
  type: "Permute"
  bottom: "conv7_2_mbox_loc"
  top: "conv7_2_mbox_loc_perm"
  permute_param {
    order: 0
    order: 2
    order: 3
    order: 1
  }
}
layer {
  name: "conv7_2_mbox_loc_flat"
  type: "Flatten"
  bottom: "conv7_2_mbox_loc_perm"
  top: "conv7_2_mbox_loc_flat"
  flatten_param {
    axis: 1
  }
}
layer {
  name: "conv7_2_mbox_conf"
  type: "Convolution"
  bottom: "conv7_2"
  top: "conv7_2_mbox_conf"
  param {
    lr_mult: 1
    decay_mult: 1
  }
  param {
    lr_mult: 2
    decay_mult: 0
  }
  convolution_param {
    num_output: 126
    pad: 1
    kernel_size: 3
    stride: 1
    weight_filler {
      type: "xavier"
    }
    bias_filler {
      type: "constant"
      value: 0
    }
  }
}
layer {
  name: "conv7_2_mbox_conf_perm"
  type: "Permute"
  bottom: "conv7_2_mbox_conf"
  top: "conv7_2_mbox_conf_perm"
  permute_param {
    order: 0
    order: 2
    order: 3
    order: 1
  }
}
layer {
  name: "conv7_2_mbox_conf_flat"
  type: "Flatten"
  bottom: "conv7_2_mbox_conf_perm"
  top: "conv7_2_mbox_conf_flat"
  flatten_param {
    axis: 1
  }
}
layer {
  name: "conv7_2_mbox_priorbox"
  type: "PriorBox"
  bottom: "conv7_2"
  bottom: "data"
  top: "conv7_2_mbox_priorbox"
  prior_box_param {
    min_size: 162
    max_size: 213
    aspect_ratio: 2
    aspect_ratio: 3
    flip: true
    clip: false
    variance: 0.1
    variance: 0.1
    variance: 0.2
    variance: 0.2
    step: 64
    offset: 0.5
  }
}
layer {
  name: "conv8_2_mbox_loc"
  type: "Convolution"
  bottom: "conv8_2"
  top: "conv8_2_mbox_loc"
  param {
    lr_mult: 1
    decay_mult: 1
  }
  param {
    lr_mult: 2
    decay_mult: 0
  }
  convolution_param {
    num_output: 16
    pad: 1
    kernel_size: 3
    stride: 1
    weight_filler {
      type: "xavier"
    }
    bias_filler {
      type: "constant"
      value: 0
    }
  }
}
layer {
  name: "conv8_2_mbox_loc_perm"
  type: "Permute"
  bottom: "conv8_2_mbox_loc"
  top: "conv8_2_mbox_loc_perm"
  permute_param {
    order: 0
    order: 2
    order: 3
    order: 1
  }
}
layer {
  name: "conv8_2_mbox_loc_flat"
  type: "Flatten"
  bottom: "conv8_2_mbox_loc_perm"
  top: "conv8_2_mbox_loc_flat"
  flatten_param {
    axis: 1
  }
}
layer {
  name: "conv8_2_mbox_conf"
  type: "Convolution"
  bottom: "conv8_2"
  top: "conv8_2_mbox_conf"
  param {
    lr_mult: 1
    decay_mult: 1
  }
  param {
    lr_mult: 2
    decay_mult: 0
  }
  convolution_param {
    num_output: 84
    pad: 1
    kernel_size: 3
    stride: 1
    weight_filler {
      type: "xavier"
    }
    bias_filler {
      type: "constant"
      value: 0
    }
  }
}
layer {
  name: "conv8_2_mbox_conf_perm"
  type: "Permute"
  bottom: "conv8_2_mbox_conf"
  top: "conv8_2_mbox_conf_perm"
  permute_param {
    order: 0
    order: 2
    order: 3
    order: 1
  }
}
layer {
  name: "conv8_2_mbox_conf_flat"
  type: "Flatten"
  bottom: "conv8_2_mbox_conf_perm"
  top: "conv8_2_mbox_conf_flat"
  flatten_param {
    axis: 1
  }
}
layer {
  name: "conv8_2_mbox_priorbox"
  type: "PriorBox"
  bottom: "conv8_2"
  bottom: "data"
  top: "conv8_2_mbox_priorbox"
  prior_box_param {
    min_size: 213
    max_size: 264
    aspect_ratio: 2
    flip: true
    clip: false
    variance: 0.1
    variance: 0.1
    variance: 0.2
    variance: 0.2
    step: 100
    offset: 0.5
  }
}
layer {
  name: "conv9_2_mbox_loc"
  type: "Convolution"
  bottom: "conv9_2"
  top: "conv9_2_mbox_loc"
  param {
    lr_mult: 1
    decay_mult: 1
  }
  param {
    lr_mult: 2
    decay_mult: 0
  }
  convolution_param {
    num_output: 16
    pad: 1
    kernel_size: 3
    stride: 1
    weight_filler {
      type: "xavier"
    }
    bias_filler {
      type: "constant"
      value: 0
    }
  }
}
layer {
  name: "conv9_2_mbox_loc_perm"
  type: "Permute"
  bottom: "conv9_2_mbox_loc"
  top: "conv9_2_mbox_loc_perm"
  permute_param {
    order: 0
    order: 2
    order: 3
    order: 1
  }
}
layer {
  name: "conv9_2_mbox_loc_flat"
  type: "Flatten"
  bottom: "conv9_2_mbox_loc_perm"
  top: "conv9_2_mbox_loc_flat"
  flatten_param {
    axis: 1
  }
}
layer {
  name: "conv9_2_mbox_conf"
  type: "Convolution"
  bottom: "conv9_2"
  top: "conv9_2_mbox_conf"
  param {
    lr_mult: 1
    decay_mult: 1
  }
  param {
    lr_mult: 2
    decay_mult: 0
  }
  convolution_param {
    num_output: 84
    pad: 1
    kernel_size: 3
    stride: 1
    weight_filler {
      type: "xavier"
    }
    bias_filler {
      type: "constant"
      value: 0
    }
  }
}
layer {
  name: "conv9_2_mbox_conf_perm"
  type: "Permute"
  bottom: "conv9_2_mbox_conf"
  top: "conv9_2_mbox_conf_perm"
  permute_param {
    order: 0
    order: 2
    order: 3
    order: 1
  }
}
layer {
  name: "conv9_2_mbox_conf_flat"
  type: "Flatten"
  bottom: "conv9_2_mbox_conf_perm"
  top: "conv9_2_mbox_conf_flat"
  flatten_param {
    axis: 1
  }
}
layer {
  name: "conv9_2_mbox_priorbox"
  type: "PriorBox"
  bottom: "conv9_2"
  bottom: "data"
  top: "conv9_2_mbox_priorbox"
  prior_box_param {
    min_size: 264
    max_size: 315
    aspect_ratio: 2
    flip: true
    clip: false
    variance: 0.1
    variance: 0.1
    variance: 0.2
    variance: 0.2
    step: 300
    offset: 0.5
  }
}
layer {
  name: "mbox_loc"
  type: "Concat"
  bottom: "conv4_3_norm_mbox_loc_flat"
  bottom: "fc7_mbox_loc_flat"
  bottom: "conv6_2_mbox_loc_flat"
  bottom: "conv7_2_mbox_loc_flat"
  bottom: "conv8_2_mbox_loc_flat"
  bottom: "conv9_2_mbox_loc_flat"
  top: "mbox_loc"
  concat_param {
    axis: 1
  }
}
layer {
  name: "mbox_conf"
  type: "Concat"
  bottom: "conv4_3_norm_mbox_conf_flat"
  bottom: "fc7_mbox_conf_flat"
  bottom: "conv6_2_mbox_conf_flat"
  bottom: "conv7_2_mbox_conf_flat"
  bottom: "conv8_2_mbox_conf_flat"
  bottom: "conv9_2_mbox_conf_flat"
  top: "mbox_conf"
  concat_param {
    axis: 1
  }
}
layer {
  name: "mbox_priorbox"
  type: "Concat"
  bottom: "conv4_3_norm_mbox_priorbox"
  bottom: "fc7_mbox_priorbox"
  bottom: "conv6_2_mbox_priorbox"
  bottom: "conv7_2_mbox_priorbox"
  bottom: "conv8_2_mbox_priorbox"
  bottom: "conv9_2_mbox_priorbox"
  top: "mbox_priorbox"
  concat_param {
    axis: 2
  }
}
layer {
  name: "mbox_conf_reshape"
  type: "Reshape"
  bottom: "mbox_conf"
  top: "mbox_conf_reshape"
  reshape_param {
    shape {
      dim: 0
      dim: -1
      dim: 21
    }
  }
}
layer {
  name: "mbox_conf_softmax"
  type: "Softmax"
  bottom: "mbox_conf_reshape"
  top: "mbox_conf_softmax"
  softmax_param {
    axis: 2
  }
}
layer {
  name: "mbox_conf_flatten"
  type: "Flatten"
  bottom: "mbox_conf_softmax"
  top: "mbox_conf_flatten"
  flatten_param {
    axis: 1
  }
}
layer {
  name: "detection_out"
  type: "DetectionOutput"
  bottom: "mbox_loc"
  bottom: "mbox_conf_flatten"
  bottom: "mbox_priorbox"
  top: "detection_out"
  include {
    phase: TEST
  }
  detection_output_param {
    num_classes: 21
    share_location: true
    background_label_id: 0
    nms_param {
      nms_threshold: 0.45
      top_k: 400
    }
    save_output_param {
      output_directory: "/home/zhuyipin/data/VOCdevkit/results/VOC2007/SSD_300x300/Main"
      output_name_prefix: "comp4_det_test_"
      output_format: "VOC"
      label_map_file: "data/VOC0712/labelmap_voc.prototxt"
      name_size_file: "data/VOC0712/test_name_size.txt"
      num_test_image: 4952
    }
    code_type: CENTER_SIZE
    keep_top_k: 200
    confidence_threshold: 0.01
  }
}
layer {
  name: "detection_eval"
  type: "DetectionEvaluate"
  bottom: "detection_out"
  bottom: "label"
  top: "detection_eval"
  include {
    phase: TEST
  }
  detection_evaluate_param {
    num_classes: 21
    background_label_id: 0
    overlap_threshold: 0.5
    evaluate_difficult_gt: false
    name_size_file: "data/VOC0712/test_name_size.txt"
  }
}
I0429 15:54:12.000200 14351 layer_factory.hpp:77] Creating layer data
I0429 15:54:12.000286 14351 net.cpp:100] Creating Layer data
I0429 15:54:12.000296 14351 net.cpp:408] data -> data
I0429 15:54:12.000319 14351 net.cpp:408] data -> label
I0429 15:54:12.001081 14378 db_lmdb.cpp:35] Opened lmdb examples/VOC0712/VOC0712_test_lmdb
I0429 15:54:12.003731 14351 annotated_data_layer.cpp:62] output data size: 8,3,300,300
I0429 15:54:12.016170 14351 net.cpp:150] Setting up data
I0429 15:54:12.016254 14351 net.cpp:157] Top shape: 8 3 300 300 (2160000)
I0429 15:54:12.016271 14351 net.cpp:157] Top shape: 1 1 2 8 (16)
I0429 15:54:12.016283 14351 net.cpp:165] Memory required for data: 8640064
I0429 15:54:12.016300 14351 layer_factory.hpp:77] Creating layer data_data_0_split
I0429 15:54:12.016324 14351 net.cpp:100] Creating Layer data_data_0_split
I0429 15:54:12.016337 14351 net.cpp:434] data_data_0_split <- data
I0429 15:54:12.016355 14351 net.cpp:408] data_data_0_split -> data_data_0_split_0
I0429 15:54:12.016376 14351 net.cpp:408] data_data_0_split -> data_data_0_split_1
I0429 15:54:12.016391 14351 net.cpp:408] data_data_0_split -> data_data_0_split_2
I0429 15:54:12.016407 14351 net.cpp:408] data_data_0_split -> data_data_0_split_3
I0429 15:54:12.016422 14351 net.cpp:408] data_data_0_split -> data_data_0_split_4
I0429 15:54:12.016436 14351 net.cpp:408] data_data_0_split -> data_data_0_split_5
I0429 15:54:12.016451 14351 net.cpp:408] data_data_0_split -> data_data_0_split_6
I0429 15:54:12.016562 14351 net.cpp:150] Setting up data_data_0_split
I0429 15:54:12.016578 14351 net.cpp:157] Top shape: 8 3 300 300 (2160000)
I0429 15:54:12.016590 14351 net.cpp:157] Top shape: 8 3 300 300 (2160000)
I0429 15:54:12.016602 14351 net.cpp:157] Top shape: 8 3 300 300 (2160000)
I0429 15:54:12.016614 14351 net.cpp:157] Top shape: 8 3 300 300 (2160000)
I0429 15:54:12.016626 14351 net.cpp:157] Top shape: 8 3 300 300 (2160000)
I0429 15:54:12.016638 14351 net.cpp:157] Top shape: 8 3 300 300 (2160000)
I0429 15:54:12.016649 14351 net.cpp:157] Top shape: 8 3 300 300 (2160000)
I0429 15:54:12.016660 14351 net.cpp:165] Memory required for data: 69120064
I0429 15:54:12.016671 14351 layer_factory.hpp:77] Creating layer conv1_1
I0429 15:54:12.016710 14351 net.cpp:100] Creating Layer conv1_1
I0429 15:54:12.016722 14351 net.cpp:434] conv1_1 <- data_data_0_split_0
I0429 15:54:12.016736 14351 net.cpp:408] conv1_1 -> conv1_1
I0429 15:54:12.018452 14351 net.cpp:150] Setting up conv1_1
I0429 15:54:12.018491 14351 net.cpp:157] Top shape: 8 64 300 300 (46080000)
I0429 15:54:12.018503 14351 net.cpp:165] Memory required for data: 253440064
I0429 15:54:12.018524 14351 layer_factory.hpp:77] Creating layer relu1_1
I0429 15:54:12.018541 14351 net.cpp:100] Creating Layer relu1_1
I0429 15:54:12.018553 14351 net.cpp:434] relu1_1 <- conv1_1
I0429 15:54:12.018568 14351 net.cpp:395] relu1_1 -> conv1_1 (in-place)
I0429 15:54:12.020407 14351 net.cpp:150] Setting up relu1_1
I0429 15:54:12.020423 14351 net.cpp:157] Top shape: 8 64 300 300 (46080000)
I0429 15:54:12.020426 14351 net.cpp:165] Memory required for data: 437760064
I0429 15:54:12.020431 14351 layer_factory.hpp:77] Creating layer conv1_2
I0429 15:54:12.020447 14351 net.cpp:100] Creating Layer conv1_2
I0429 15:54:12.020452 14351 net.cpp:434] conv1_2 <- conv1_1
I0429 15:54:12.020459 14351 net.cpp:408] conv1_2 -> conv1_2
I0429 15:54:12.022732 14351 net.cpp:150] Setting up conv1_2
I0429 15:54:12.022753 14351 net.cpp:157] Top shape: 8 64 300 300 (46080000)
I0429 15:54:12.022758 14351 net.cpp:165] Memory required for data: 622080064
I0429 15:54:12.022769 14351 layer_factory.hpp:77] Creating layer relu1_2
I0429 15:54:12.022778 14351 net.cpp:100] Creating Layer relu1_2
I0429 15:54:12.022784 14351 net.cpp:434] relu1_2 <- conv1_2
I0429 15:54:12.022790 14351 net.cpp:395] relu1_2 -> conv1_2 (in-place)
I0429 15:54:12.024112 14351 net.cpp:150] Setting up relu1_2
I0429 15:54:12.024127 14351 net.cpp:157] Top shape: 8 64 300 300 (46080000)
I0429 15:54:12.024132 14351 net.cpp:165] Memory required for data: 806400064
I0429 15:54:12.024135 14351 layer_factory.hpp:77] Creating layer pool1
I0429 15:54:12.024145 14351 net.cpp:100] Creating Layer pool1
I0429 15:54:12.024149 14351 net.cpp:434] pool1 <- conv1_2
I0429 15:54:12.024158 14351 net.cpp:408] pool1 -> pool1
I0429 15:54:12.024205 14351 net.cpp:150] Setting up pool1
I0429 15:54:12.024222 14351 net.cpp:157] Top shape: 8 64 150 150 (11520000)
I0429 15:54:12.024226 14351 net.cpp:165] Memory required for data: 852480064
I0429 15:54:12.024230 14351 layer_factory.hpp:77] Creating layer conv2_1
I0429 15:54:12.024241 14351 net.cpp:100] Creating Layer conv2_1
I0429 15:54:12.024245 14351 net.cpp:434] conv2_1 <- pool1
I0429 15:54:12.024253 14351 net.cpp:408] conv2_1 -> conv2_1
I0429 15:54:12.026652 14351 net.cpp:150] Setting up conv2_1
I0429 15:54:12.026669 14351 net.cpp:157] Top shape: 8 128 150 150 (23040000)
I0429 15:54:12.026674 14351 net.cpp:165] Memory required for data: 944640064
I0429 15:54:12.026684 14351 layer_factory.hpp:77] Creating layer relu2_1
I0429 15:54:12.026693 14351 net.cpp:100] Creating Layer relu2_1
I0429 15:54:12.026698 14351 net.cpp:434] relu2_1 <- conv2_1
I0429 15:54:12.026710 14351 net.cpp:395] relu2_1 -> conv2_1 (in-place)
I0429 15:54:12.027202 14351 net.cpp:150] Setting up relu2_1
I0429 15:54:12.027216 14351 net.cpp:157] Top shape: 8 128 150 150 (23040000)
I0429 15:54:12.027220 14351 net.cpp:165] Memory required for data: 1036800064
I0429 15:54:12.027225 14351 layer_factory.hpp:77] Creating layer conv2_2
I0429 15:54:12.027237 14351 net.cpp:100] Creating Layer conv2_2
I0429 15:54:12.027242 14351 net.cpp:434] conv2_2 <- conv2_1
I0429 15:54:12.027249 14351 net.cpp:408] conv2_2 -> conv2_2
I0429 15:54:12.030270 14351 net.cpp:150] Setting up conv2_2
I0429 15:54:12.030299 14351 net.cpp:157] Top shape: 8 128 150 150 (23040000)
I0429 15:54:12.030302 14351 net.cpp:165] Memory required for data: 1128960064
I0429 15:54:12.030311 14351 layer_factory.hpp:77] Creating layer relu2_2
I0429 15:54:12.030323 14351 net.cpp:100] Creating Layer relu2_2
I0429 15:54:12.030328 14351 net.cpp:434] relu2_2 <- conv2_2
I0429 15:54:12.030334 14351 net.cpp:395] relu2_2 -> conv2_2 (in-place)
I0429 15:54:12.030714 14351 net.cpp:150] Setting up relu2_2
I0429 15:54:12.030725 14351 net.cpp:157] Top shape: 8 128 150 150 (23040000)
I0429 15:54:12.030747 14351 net.cpp:165] Memory required for data: 1221120064
I0429 15:54:12.030750 14351 layer_factory.hpp:77] Creating layer pool2
I0429 15:54:12.030761 14351 net.cpp:100] Creating Layer pool2
I0429 15:54:12.030766 14351 net.cpp:434] pool2 <- conv2_2
I0429 15:54:12.030771 14351 net.cpp:408] pool2 -> pool2
I0429 15:54:12.030810 14351 net.cpp:150] Setting up pool2
I0429 15:54:12.030814 14351 net.cpp:157] Top shape: 8 128 75 75 (5760000)
I0429 15:54:12.030817 14351 net.cpp:165] Memory required for data: 1244160064
I0429 15:54:12.030820 14351 layer_factory.hpp:77] Creating layer conv3_1
I0429 15:54:12.030831 14351 net.cpp:100] Creating Layer conv3_1
I0429 15:54:12.030835 14351 net.cpp:434] conv3_1 <- pool2
I0429 15:54:12.030839 14351 net.cpp:408] conv3_1 -> conv3_1
I0429 15:54:12.035606 14351 net.cpp:150] Setting up conv3_1
I0429 15:54:12.035625 14351 net.cpp:157] Top shape: 8 256 75 75 (11520000)
I0429 15:54:12.035629 14351 net.cpp:165] Memory required for data: 1290240064
I0429 15:54:12.035639 14351 layer_factory.hpp:77] Creating layer relu3_1
I0429 15:54:12.035645 14351 net.cpp:100] Creating Layer relu3_1
I0429 15:54:12.035647 14351 net.cpp:434] relu3_1 <- conv3_1
I0429 15:54:12.035652 14351 net.cpp:395] relu3_1 -> conv3_1 (in-place)
I0429 15:54:12.035917 14351 net.cpp:150] Setting up relu3_1
I0429 15:54:12.035925 14351 net.cpp:157] Top shape: 8 256 75 75 (11520000)
I0429 15:54:12.035928 14351 net.cpp:165] Memory required for data: 1336320064
I0429 15:54:12.035930 14351 layer_factory.hpp:77] Creating layer conv3_2
I0429 15:54:12.035939 14351 net.cpp:100] Creating Layer conv3_2
I0429 15:54:12.035943 14351 net.cpp:434] conv3_2 <- conv3_1
I0429 15:54:12.035948 14351 net.cpp:408] conv3_2 -> conv3_2
I0429 15:54:12.042969 14351 net.cpp:150] Setting up conv3_2
I0429 15:54:12.042991 14351 net.cpp:157] Top shape: 8 256 75 75 (11520000)
I0429 15:54:12.042995 14351 net.cpp:165] Memory required for data: 1382400064
I0429 15:54:12.043004 14351 layer_factory.hpp:77] Creating layer relu3_2
I0429 15:54:12.043012 14351 net.cpp:100] Creating Layer relu3_2
I0429 15:54:12.043017 14351 net.cpp:434] relu3_2 <- conv3_2
I0429 15:54:12.043025 14351 net.cpp:395] relu3_2 -> conv3_2 (in-place)
I0429 15:54:12.043514 14351 net.cpp:150] Setting up relu3_2
I0429 15:54:12.043529 14351 net.cpp:157] Top shape: 8 256 75 75 (11520000)
I0429 15:54:12.043532 14351 net.cpp:165] Memory required for data: 1428480064
I0429 15:54:12.043537 14351 layer_factory.hpp:77] Creating layer conv3_3
I0429 15:54:12.043552 14351 net.cpp:100] Creating Layer conv3_3
I0429 15:54:12.043558 14351 net.cpp:434] conv3_3 <- conv3_2
I0429 15:54:12.043565 14351 net.cpp:408] conv3_3 -> conv3_3
I0429 15:54:12.050858 14351 net.cpp:150] Setting up conv3_3
I0429 15:54:12.050920 14351 net.cpp:157] Top shape: 8 256 75 75 (11520000)
I0429 15:54:12.050933 14351 net.cpp:165] Memory required for data: 1474560064
I0429 15:54:12.050952 14351 layer_factory.hpp:77] Creating layer relu3_3
I0429 15:54:12.050969 14351 net.cpp:100] Creating Layer relu3_3
I0429 15:54:12.050982 14351 net.cpp:434] relu3_3 <- conv3_3
I0429 15:54:12.050997 14351 net.cpp:395] relu3_3 -> conv3_3 (in-place)
I0429 15:54:12.051373 14351 net.cpp:150] Setting up relu3_3
I0429 15:54:12.051396 14351 net.cpp:157] Top shape: 8 256 75 75 (11520000)
I0429 15:54:12.051409 14351 net.cpp:165] Memory required for data: 1520640064
I0429 15:54:12.051420 14351 layer_factory.hpp:77] Creating layer pool3
I0429 15:54:12.051435 14351 net.cpp:100] Creating Layer pool3
I0429 15:54:12.051447 14351 net.cpp:434] pool3 <- conv3_3
I0429 15:54:12.051461 14351 net.cpp:408] pool3 -> pool3
I0429 15:54:12.051515 14351 net.cpp:150] Setting up pool3
I0429 15:54:12.051529 14351 net.cpp:157] Top shape: 8 256 38 38 (2957312)
I0429 15:54:12.051540 14351 net.cpp:165] Memory required for data: 1532469312
I0429 15:54:12.051553 14351 layer_factory.hpp:77] Creating layer conv4_1
I0429 15:54:12.051573 14351 net.cpp:100] Creating Layer conv4_1
I0429 15:54:12.051584 14351 net.cpp:434] conv4_1 <- pool3
I0429 15:54:12.051605 14351 net.cpp:408] conv4_1 -> conv4_1
I0429 15:54:12.065349 14351 net.cpp:150] Setting up conv4_1
I0429 15:54:12.065382 14351 net.cpp:157] Top shape: 8 512 38 38 (5914624)
I0429 15:54:12.065385 14351 net.cpp:165] Memory required for data: 1556127808
I0429 15:54:12.065397 14351 layer_factory.hpp:77] Creating layer relu4_1
I0429 15:54:12.065407 14351 net.cpp:100] Creating Layer relu4_1
I0429 15:54:12.065413 14351 net.cpp:434] relu4_1 <- conv4_1
I0429 15:54:12.065420 14351 net.cpp:395] relu4_1 -> conv4_1 (in-place)
I0429 15:54:12.065963 14351 net.cpp:150] Setting up relu4_1
I0429 15:54:12.065977 14351 net.cpp:157] Top shape: 8 512 38 38 (5914624)
I0429 15:54:12.065980 14351 net.cpp:165] Memory required for data: 1579786304
I0429 15:54:12.065985 14351 layer_factory.hpp:77] Creating layer conv4_2
I0429 15:54:12.065999 14351 net.cpp:100] Creating Layer conv4_2
I0429 15:54:12.066023 14351 net.cpp:434] conv4_2 <- conv4_1
I0429 15:54:12.066032 14351 net.cpp:408] conv4_2 -> conv4_2
I0429 15:54:12.089033 14351 net.cpp:150] Setting up conv4_2
I0429 15:54:12.089071 14351 net.cpp:157] Top shape: 8 512 38 38 (5914624)
I0429 15:54:12.089076 14351 net.cpp:165] Memory required for data: 1603444800
I0429 15:54:12.089093 14351 layer_factory.hpp:77] Creating layer relu4_2
I0429 15:54:12.089109 14351 net.cpp:100] Creating Layer relu4_2
I0429 15:54:12.089115 14351 net.cpp:434] relu4_2 <- conv4_2
I0429 15:54:12.089123 14351 net.cpp:395] relu4_2 -> conv4_2 (in-place)
I0429 15:54:12.089567 14351 net.cpp:150] Setting up relu4_2
I0429 15:54:12.089582 14351 net.cpp:157] Top shape: 8 512 38 38 (5914624)
I0429 15:54:12.089586 14351 net.cpp:165] Memory required for data: 1627103296
I0429 15:54:12.089591 14351 layer_factory.hpp:77] Creating layer conv4_3
I0429 15:54:12.089606 14351 net.cpp:100] Creating Layer conv4_3
I0429 15:54:12.089612 14351 net.cpp:434] conv4_3 <- conv4_2
I0429 15:54:12.089622 14351 net.cpp:408] conv4_3 -> conv4_3
I0429 15:54:12.112452 14351 net.cpp:150] Setting up conv4_3
I0429 15:54:12.112484 14351 net.cpp:157] Top shape: 8 512 38 38 (5914624)
I0429 15:54:12.112488 14351 net.cpp:165] Memory required for data: 1650761792
I0429 15:54:12.112498 14351 layer_factory.hpp:77] Creating layer relu4_3
I0429 15:54:12.112510 14351 net.cpp:100] Creating Layer relu4_3
I0429 15:54:12.112516 14351 net.cpp:434] relu4_3 <- conv4_3
I0429 15:54:12.112524 14351 net.cpp:395] relu4_3 -> conv4_3 (in-place)
I0429 15:54:12.113075 14351 net.cpp:150] Setting up relu4_3
I0429 15:54:12.113092 14351 net.cpp:157] Top shape: 8 512 38 38 (5914624)
I0429 15:54:12.113097 14351 net.cpp:165] Memory required for data: 1674420288
I0429 15:54:12.113101 14351 layer_factory.hpp:77] Creating layer conv4_3_relu4_3_0_split
I0429 15:54:12.113111 14351 net.cpp:100] Creating Layer conv4_3_relu4_3_0_split
I0429 15:54:12.113116 14351 net.cpp:434] conv4_3_relu4_3_0_split <- conv4_3
I0429 15:54:12.113121 14351 net.cpp:408] conv4_3_relu4_3_0_split -> conv4_3_relu4_3_0_split_0
I0429 15:54:12.113131 14351 net.cpp:408] conv4_3_relu4_3_0_split -> conv4_3_relu4_3_0_split_1
I0429 15:54:12.113183 14351 net.cpp:150] Setting up conv4_3_relu4_3_0_split
I0429 15:54:12.113214 14351 net.cpp:157] Top shape: 8 512 38 38 (5914624)
I0429 15:54:12.113226 14351 net.cpp:157] Top shape: 8 512 38 38 (5914624)
I0429 15:54:12.113230 14351 net.cpp:165] Memory required for data: 1721737280
I0429 15:54:12.113235 14351 layer_factory.hpp:77] Creating layer pool4
I0429 15:54:12.113245 14351 net.cpp:100] Creating Layer pool4
I0429 15:54:12.113250 14351 net.cpp:434] pool4 <- conv4_3_relu4_3_0_split_0
I0429 15:54:12.113255 14351 net.cpp:408] pool4 -> pool4
I0429 15:54:12.113291 14351 net.cpp:150] Setting up pool4
I0429 15:54:12.113297 14351 net.cpp:157] Top shape: 8 512 19 19 (1478656)
I0429 15:54:12.113301 14351 net.cpp:165] Memory required for data: 1727651904
I0429 15:54:12.113303 14351 layer_factory.hpp:77] Creating layer conv5_1
I0429 15:54:12.113315 14351 net.cpp:100] Creating Layer conv5_1
I0429 15:54:12.113320 14351 net.cpp:434] conv5_1 <- pool4
I0429 15:54:12.113327 14351 net.cpp:408] conv5_1 -> conv5_1
I0429 15:54:12.137207 14351 net.cpp:150] Setting up conv5_1
I0429 15:54:12.137234 14351 net.cpp:157] Top shape: 8 512 19 19 (1478656)
I0429 15:54:12.137238 14351 net.cpp:165] Memory required for data: 1733566528
I0429 15:54:12.137249 14351 layer_factory.hpp:77] Creating layer relu5_1
I0429 15:54:12.137260 14351 net.cpp:100] Creating Layer relu5_1
I0429 15:54:12.137266 14351 net.cpp:434] relu5_1 <- conv5_1
I0429 15:54:12.137274 14351 net.cpp:395] relu5_1 -> conv5_1 (in-place)
I0429 15:54:12.137645 14351 net.cpp:150] Setting up relu5_1
I0429 15:54:12.137655 14351 net.cpp:157] Top shape: 8 512 19 19 (1478656)
I0429 15:54:12.137658 14351 net.cpp:165] Memory required for data: 1739481152
I0429 15:54:12.137662 14351 layer_factory.hpp:77] Creating layer conv5_2
I0429 15:54:12.137676 14351 net.cpp:100] Creating Layer conv5_2
I0429 15:54:12.137681 14351 net.cpp:434] conv5_2 <- conv5_1
I0429 15:54:12.137686 14351 net.cpp:408] conv5_2 -> conv5_2
I0429 15:54:12.160145 14351 net.cpp:150] Setting up conv5_2
I0429 15:54:12.160172 14351 net.cpp:157] Top shape: 8 512 19 19 (1478656)
I0429 15:54:12.160176 14351 net.cpp:165] Memory required for data: 1745395776
I0429 15:54:12.160188 14351 layer_factory.hpp:77] Creating layer relu5_2
I0429 15:54:12.160198 14351 net.cpp:100] Creating Layer relu5_2
I0429 15:54:12.160204 14351 net.cpp:434] relu5_2 <- conv5_2
I0429 15:54:12.160218 14351 net.cpp:395] relu5_2 -> conv5_2 (in-place)
I0429 15:54:12.160753 14351 net.cpp:150] Setting up relu5_2
I0429 15:54:12.160768 14351 net.cpp:157] Top shape: 8 512 19 19 (1478656)
I0429 15:54:12.160773 14351 net.cpp:165] Memory required for data: 1751310400
I0429 15:54:12.160776 14351 layer_factory.hpp:77] Creating layer conv5_3
I0429 15:54:12.160789 14351 net.cpp:100] Creating Layer conv5_3
I0429 15:54:12.160795 14351 net.cpp:434] conv5_3 <- conv5_2
I0429 15:54:12.160802 14351 net.cpp:408] conv5_3 -> conv5_3
I0429 15:54:12.183290 14351 net.cpp:150] Setting up conv5_3
I0429 15:54:12.183317 14351 net.cpp:157] Top shape: 8 512 19 19 (1478656)
I0429 15:54:12.183320 14351 net.cpp:165] Memory required for data: 1757225024
I0429 15:54:12.183331 14351 layer_factory.hpp:77] Creating layer relu5_3
I0429 15:54:12.183347 14351 net.cpp:100] Creating Layer relu5_3
I0429 15:54:12.183353 14351 net.cpp:434] relu5_3 <- conv5_3
I0429 15:54:12.183359 14351 net.cpp:395] relu5_3 -> conv5_3 (in-place)
I0429 15:54:12.183924 14351 net.cpp:150] Setting up relu5_3
I0429 15:54:12.183938 14351 net.cpp:157] Top shape: 8 512 19 19 (1478656)
I0429 15:54:12.183943 14351 net.cpp:165] Memory required for data: 1763139648
I0429 15:54:12.183946 14351 layer_factory.hpp:77] Creating layer pool5
I0429 15:54:12.183956 14351 net.cpp:100] Creating Layer pool5
I0429 15:54:12.183962 14351 net.cpp:434] pool5 <- conv5_3
I0429 15:54:12.183969 14351 net.cpp:408] pool5 -> pool5
I0429 15:54:12.184015 14351 net.cpp:150] Setting up pool5
I0429 15:54:12.184021 14351 net.cpp:157] Top shape: 8 512 19 19 (1478656)
I0429 15:54:12.184024 14351 net.cpp:165] Memory required for data: 1769054272
I0429 15:54:12.184028 14351 layer_factory.hpp:77] Creating layer fc6
I0429 15:54:12.184039 14351 net.cpp:100] Creating Layer fc6
I0429 15:54:12.184044 14351 net.cpp:434] fc6 <- pool5
I0429 15:54:12.184051 14351 net.cpp:408] fc6 -> fc6
I0429 15:54:12.225581 14351 net.cpp:150] Setting up fc6
I0429 15:54:12.225610 14351 net.cpp:157] Top shape: 8 1024 19 19 (2957312)
I0429 15:54:12.225615 14351 net.cpp:165] Memory required for data: 1780883520
I0429 15:54:12.225625 14351 layer_factory.hpp:77] Creating layer relu6
I0429 15:54:12.225634 14351 net.cpp:100] Creating Layer relu6
I0429 15:54:12.225639 14351 net.cpp:434] relu6 <- fc6
I0429 15:54:12.225647 14351 net.cpp:395] relu6 -> fc6 (in-place)
I0429 15:54:12.226321 14351 net.cpp:150] Setting up relu6
I0429 15:54:12.226338 14351 net.cpp:157] Top shape: 8 1024 19 19 (2957312)
I0429 15:54:12.226342 14351 net.cpp:165] Memory required for data: 1792712768
I0429 15:54:12.226347 14351 layer_factory.hpp:77] Creating layer fc7
I0429 15:54:12.226362 14351 net.cpp:100] Creating Layer fc7
I0429 15:54:12.226368 14351 net.cpp:434] fc7 <- fc6
I0429 15:54:12.226421 14351 net.cpp:408] fc7 -> fc7
I0429 15:54:12.237483 14351 net.cpp:150] Setting up fc7
I0429 15:54:12.237509 14351 net.cpp:157] Top shape: 8 1024 19 19 (2957312)
I0429 15:54:12.237512 14351 net.cpp:165] Memory required for data: 1804542016
I0429 15:54:12.237521 14351 layer_factory.hpp:77] Creating layer relu7
I0429 15:54:12.237530 14351 net.cpp:100] Creating Layer relu7
I0429 15:54:12.237536 14351 net.cpp:434] relu7 <- fc7
I0429 15:54:12.237542 14351 net.cpp:395] relu7 -> fc7 (in-place)
I0429 15:54:12.239493 14351 net.cpp:150] Setting up relu7
I0429 15:54:12.239516 14351 net.cpp:157] Top shape: 8 1024 19 19 (2957312)
I0429 15:54:12.239519 14351 net.cpp:165] Memory required for data: 1816371264
I0429 15:54:12.239526 14351 layer_factory.hpp:77] Creating layer fc7_relu7_0_split
I0429 15:54:12.239534 14351 net.cpp:100] Creating Layer fc7_relu7_0_split
I0429 15:54:12.239539 14351 net.cpp:434] fc7_relu7_0_split <- fc7
I0429 15:54:12.239550 14351 net.cpp:408] fc7_relu7_0_split -> fc7_relu7_0_split_0
I0429 15:54:12.239562 14351 net.cpp:408] fc7_relu7_0_split -> fc7_relu7_0_split_1
I0429 15:54:12.239573 14351 net.cpp:408] fc7_relu7_0_split -> fc7_relu7_0_split_2
I0429 15:54:12.239580 14351 net.cpp:408] fc7_relu7_0_split -> fc7_relu7_0_split_3
I0429 15:54:12.239652 14351 net.cpp:150] Setting up fc7_relu7_0_split
I0429 15:54:12.239658 14351 net.cpp:157] Top shape: 8 1024 19 19 (2957312)
I0429 15:54:12.239663 14351 net.cpp:157] Top shape: 8 1024 19 19 (2957312)
I0429 15:54:12.239668 14351 net.cpp:157] Top shape: 8 1024 19 19 (2957312)
I0429 15:54:12.239672 14351 net.cpp:157] Top shape: 8 1024 19 19 (2957312)
I0429 15:54:12.239697 14351 net.cpp:165] Memory required for data: 1863688256
I0429 15:54:12.239702 14351 layer_factory.hpp:77] Creating layer conv6_1
I0429 15:54:12.239715 14351 net.cpp:100] Creating Layer conv6_1
I0429 15:54:12.239720 14351 net.cpp:434] conv6_1 <- fc7_relu7_0_split_0
I0429 15:54:12.239728 14351 net.cpp:408] conv6_1 -> conv6_1
I0429 15:54:12.244228 14351 net.cpp:150] Setting up conv6_1
I0429 15:54:12.244253 14351 net.cpp:157] Top shape: 8 256 19 19 (739328)
I0429 15:54:12.244257 14351 net.cpp:165] Memory required for data: 1866645568
I0429 15:54:12.244268 14351 layer_factory.hpp:77] Creating layer conv6_1_relu
I0429 15:54:12.244277 14351 net.cpp:100] Creating Layer conv6_1_relu
I0429 15:54:12.244282 14351 net.cpp:434] conv6_1_relu <- conv6_1
I0429 15:54:12.244288 14351 net.cpp:395] conv6_1_relu -> conv6_1 (in-place)
I0429 15:54:12.244670 14351 net.cpp:150] Setting up conv6_1_relu
I0429 15:54:12.244688 14351 net.cpp:157] Top shape: 8 256 19 19 (739328)
I0429 15:54:12.244690 14351 net.cpp:165] Memory required for data: 1869602880
I0429 15:54:12.244695 14351 layer_factory.hpp:77] Creating layer conv6_2
I0429 15:54:12.244707 14351 net.cpp:100] Creating Layer conv6_2
I0429 15:54:12.244714 14351 net.cpp:434] conv6_2 <- conv6_1
I0429 15:54:12.244720 14351 net.cpp:408] conv6_2 -> conv6_2
I0429 15:54:12.257342 14351 net.cpp:150] Setting up conv6_2
I0429 15:54:12.257376 14351 net.cpp:157] Top shape: 8 512 10 10 (409600)
I0429 15:54:12.257380 14351 net.cpp:165] Memory required for data: 1871241280
I0429 15:54:12.257401 14351 layer_factory.hpp:77] Creating layer conv6_2_relu
I0429 15:54:12.257411 14351 net.cpp:100] Creating Layer conv6_2_relu
I0429 15:54:12.257418 14351 net.cpp:434] conv6_2_relu <- conv6_2
I0429 15:54:12.257426 14351 net.cpp:395] conv6_2_relu -> conv6_2 (in-place)
I0429 15:54:12.257994 14351 net.cpp:150] Setting up conv6_2_relu
I0429 15:54:12.258008 14351 net.cpp:157] Top shape: 8 512 10 10 (409600)
I0429 15:54:12.258013 14351 net.cpp:165] Memory required for data: 1872879680
I0429 15:54:12.258016 14351 layer_factory.hpp:77] Creating layer conv6_2_conv6_2_relu_0_split
I0429 15:54:12.258025 14351 net.cpp:100] Creating Layer conv6_2_conv6_2_relu_0_split
I0429 15:54:12.258030 14351 net.cpp:434] conv6_2_conv6_2_relu_0_split <- conv6_2
I0429 15:54:12.258038 14351 net.cpp:408] conv6_2_conv6_2_relu_0_split -> conv6_2_conv6_2_relu_0_split_0
I0429 15:54:12.258046 14351 net.cpp:408] conv6_2_conv6_2_relu_0_split -> conv6_2_conv6_2_relu_0_split_1
I0429 15:54:12.258095 14351 net.cpp:408] conv6_2_conv6_2_relu_0_split -> conv6_2_conv6_2_relu_0_split_2
I0429 15:54:12.258103 14351 net.cpp:408] conv6_2_conv6_2_relu_0_split -> conv6_2_conv6_2_relu_0_split_3
I0429 15:54:12.258179 14351 net.cpp:150] Setting up conv6_2_conv6_2_relu_0_split
I0429 15:54:12.258199 14351 net.cpp:157] Top shape: 8 512 10 10 (409600)
I0429 15:54:12.258213 14351 net.cpp:157] Top shape: 8 512 10 10 (409600)
I0429 15:54:12.258219 14351 net.cpp:157] Top shape: 8 512 10 10 (409600)
I0429 15:54:12.258224 14351 net.cpp:157] Top shape: 8 512 10 10 (409600)
I0429 15:54:12.258226 14351 net.cpp:165] Memory required for data: 1879433280
I0429 15:54:12.258230 14351 layer_factory.hpp:77] Creating layer conv7_1
I0429 15:54:12.258244 14351 net.cpp:100] Creating Layer conv7_1
I0429 15:54:12.258249 14351 net.cpp:434] conv7_1 <- conv6_2_conv6_2_relu_0_split_0
I0429 15:54:12.258255 14351 net.cpp:408] conv7_1 -> conv7_1
I0429 15:54:12.260439 14351 net.cpp:150] Setting up conv7_1
I0429 15:54:12.260459 14351 net.cpp:157] Top shape: 8 128 10 10 (102400)
I0429 15:54:12.260463 14351 net.cpp:165] Memory required for data: 1879842880
I0429 15:54:12.260473 14351 layer_factory.hpp:77] Creating layer conv7_1_relu
I0429 15:54:12.260483 14351 net.cpp:100] Creating Layer conv7_1_relu
I0429 15:54:12.260488 14351 net.cpp:434] conv7_1_relu <- conv7_1
I0429 15:54:12.260493 14351 net.cpp:395] conv7_1_relu -> conv7_1 (in-place)
I0429 15:54:12.260862 14351 net.cpp:150] Setting up conv7_1_relu
I0429 15:54:12.260872 14351 net.cpp:157] Top shape: 8 128 10 10 (102400)
I0429 15:54:12.260876 14351 net.cpp:165] Memory required for data: 1880252480
I0429 15:54:12.260879 14351 layer_factory.hpp:77] Creating layer conv7_2
I0429 15:54:12.260891 14351 net.cpp:100] Creating Layer conv7_2
I0429 15:54:12.260897 14351 net.cpp:434] conv7_2 <- conv7_1
I0429 15:54:12.260905 14351 net.cpp:408] conv7_2 -> conv7_2
I0429 15:54:12.267979 14351 net.cpp:150] Setting up conv7_2
I0429 15:54:12.268004 14351 net.cpp:157] Top shape: 8 256 5 5 (51200)
I0429 15:54:12.268007 14351 net.cpp:165] Memory required for data: 1880457280
I0429 15:54:12.268018 14351 layer_factory.hpp:77] Creating layer conv7_2_relu
I0429 15:54:12.268028 14351 net.cpp:100] Creating Layer conv7_2_relu
I0429 15:54:12.268034 14351 net.cpp:434] conv7_2_relu <- conv7_2
I0429 15:54:12.268041 14351 net.cpp:395] conv7_2_relu -> conv7_2 (in-place)
I0429 15:54:12.268908 14351 net.cpp:150] Setting up conv7_2_relu
I0429 15:54:12.268951 14351 net.cpp:157] Top shape: 8 256 5 5 (51200)
I0429 15:54:12.268965 14351 net.cpp:165] Memory required for data: 1880662080
I0429 15:54:12.268978 14351 layer_factory.hpp:77] Creating layer conv7_2_conv7_2_relu_0_split
I0429 15:54:12.268996 14351 net.cpp:100] Creating Layer conv7_2_conv7_2_relu_0_split
I0429 15:54:12.269009 14351 net.cpp:434] conv7_2_conv7_2_relu_0_split <- conv7_2
I0429 15:54:12.269024 14351 net.cpp:408] conv7_2_conv7_2_relu_0_split -> conv7_2_conv7_2_relu_0_split_0
I0429 15:54:12.269042 14351 net.cpp:408] conv7_2_conv7_2_relu_0_split -> conv7_2_conv7_2_relu_0_split_1
I0429 15:54:12.269057 14351 net.cpp:408] conv7_2_conv7_2_relu_0_split -> conv7_2_conv7_2_relu_0_split_2
I0429 15:54:12.269073 14351 net.cpp:408] conv7_2_conv7_2_relu_0_split -> conv7_2_conv7_2_relu_0_split_3
I0429 15:54:12.269152 14351 net.cpp:150] Setting up conv7_2_conv7_2_relu_0_split
I0429 15:54:12.269165 14351 net.cpp:157] Top shape: 8 256 5 5 (51200)
I0429 15:54:12.269177 14351 net.cpp:157] Top shape: 8 256 5 5 (51200)
I0429 15:54:12.269189 14351 net.cpp:157] Top shape: 8 256 5 5 (51200)
I0429 15:54:12.269202 14351 net.cpp:157] Top shape: 8 256 5 5 (51200)
I0429 15:54:12.269213 14351 net.cpp:165] Memory required for data: 1881481280
I0429 15:54:12.269224 14351 layer_factory.hpp:77] Creating layer conv8_1
I0429 15:54:12.269246 14351 net.cpp:100] Creating Layer conv8_1
I0429 15:54:12.269258 14351 net.cpp:434] conv8_1 <- conv7_2_conv7_2_relu_0_split_0
I0429 15:54:12.269280 14351 net.cpp:408] conv8_1 -> conv8_1
I0429 15:54:12.271454 14351 net.cpp:150] Setting up conv8_1
I0429 15:54:12.271486 14351 net.cpp:157] Top shape: 8 128 5 5 (25600)
I0429 15:54:12.271490 14351 net.cpp:165] Memory required for data: 1881583680
I0429 15:54:12.271502 14351 layer_factory.hpp:77] Creating layer conv8_1_relu
I0429 15:54:12.271517 14351 net.cpp:100] Creating Layer conv8_1_relu
I0429 15:54:12.271523 14351 net.cpp:434] conv8_1_relu <- conv8_1
I0429 15:54:12.271566 14351 net.cpp:395] conv8_1_relu -> conv8_1 (in-place)
I0429 15:54:12.271960 14351 net.cpp:150] Setting up conv8_1_relu
I0429 15:54:12.271972 14351 net.cpp:157] Top shape: 8 128 5 5 (25600)
I0429 15:54:12.271975 14351 net.cpp:165] Memory required for data: 1881686080
I0429 15:54:12.271980 14351 layer_factory.hpp:77] Creating layer conv8_2
I0429 15:54:12.271994 14351 net.cpp:100] Creating Layer conv8_2
I0429 15:54:12.272001 14351 net.cpp:434] conv8_2 <- conv8_1
I0429 15:54:12.272006 14351 net.cpp:408] conv8_2 -> conv8_2
I0429 15:54:12.277216 14351 net.cpp:150] Setting up conv8_2
I0429 15:54:12.277241 14351 net.cpp:157] Top shape: 8 256 3 3 (18432)
I0429 15:54:12.277245 14351 net.cpp:165] Memory required for data: 1881759808
I0429 15:54:12.277256 14351 layer_factory.hpp:77] Creating layer conv8_2_relu
I0429 15:54:12.277266 14351 net.cpp:100] Creating Layer conv8_2_relu
I0429 15:54:12.277271 14351 net.cpp:434] conv8_2_relu <- conv8_2
I0429 15:54:12.277279 14351 net.cpp:395] conv8_2_relu -> conv8_2 (in-place)
I0429 15:54:12.277808 14351 net.cpp:150] Setting up conv8_2_relu
I0429 15:54:12.277824 14351 net.cpp:157] Top shape: 8 256 3 3 (18432)
I0429 15:54:12.277828 14351 net.cpp:165] Memory required for data: 1881833536
I0429 15:54:12.277833 14351 layer_factory.hpp:77] Creating layer conv8_2_conv8_2_relu_0_split
I0429 15:54:12.277840 14351 net.cpp:100] Creating Layer conv8_2_conv8_2_relu_0_split
I0429 15:54:12.277845 14351 net.cpp:434] conv8_2_conv8_2_relu_0_split <- conv8_2
I0429 15:54:12.277853 14351 net.cpp:408] conv8_2_conv8_2_relu_0_split -> conv8_2_conv8_2_relu_0_split_0
I0429 15:54:12.277885 14351 net.cpp:408] conv8_2_conv8_2_relu_0_split -> conv8_2_conv8_2_relu_0_split_1
I0429 15:54:12.277894 14351 net.cpp:408] conv8_2_conv8_2_relu_0_split -> conv8_2_conv8_2_relu_0_split_2
I0429 15:54:12.277899 14351 net.cpp:408] conv8_2_conv8_2_relu_0_split -> conv8_2_conv8_2_relu_0_split_3
I0429 15:54:12.277966 14351 net.cpp:150] Setting up conv8_2_conv8_2_relu_0_split
I0429 15:54:12.277972 14351 net.cpp:157] Top shape: 8 256 3 3 (18432)
I0429 15:54:12.277976 14351 net.cpp:157] Top shape: 8 256 3 3 (18432)
I0429 15:54:12.277981 14351 net.cpp:157] Top shape: 8 256 3 3 (18432)
I0429 15:54:12.277984 14351 net.cpp:157] Top shape: 8 256 3 3 (18432)
I0429 15:54:12.277987 14351 net.cpp:165] Memory required for data: 1882128448
I0429 15:54:12.277992 14351 layer_factory.hpp:77] Creating layer conv9_1
I0429 15:54:12.278003 14351 net.cpp:100] Creating Layer conv9_1
I0429 15:54:12.278008 14351 net.cpp:434] conv9_1 <- conv8_2_conv8_2_relu_0_split_0
I0429 15:54:12.278015 14351 net.cpp:408] conv9_1 -> conv9_1
I0429 15:54:12.281617 14351 net.cpp:150] Setting up conv9_1
I0429 15:54:12.281642 14351 net.cpp:157] Top shape: 8 128 3 3 (9216)
I0429 15:54:12.281646 14351 net.cpp:165] Memory required for data: 1882165312
I0429 15:54:12.281657 14351 layer_factory.hpp:77] Creating layer conv9_1_relu
I0429 15:54:12.281667 14351 net.cpp:100] Creating Layer conv9_1_relu
I0429 15:54:12.281672 14351 net.cpp:434] conv9_1_relu <- conv9_1
I0429 15:54:12.281678 14351 net.cpp:395] conv9_1_relu -> conv9_1 (in-place)
I0429 15:54:12.282217 14351 net.cpp:150] Setting up conv9_1_relu
I0429 15:54:12.282230 14351 net.cpp:157] Top shape: 8 128 3 3 (9216)
I0429 15:54:12.282233 14351 net.cpp:165] Memory required for data: 1882202176
I0429 15:54:12.282238 14351 layer_factory.hpp:77] Creating layer conv9_2
I0429 15:54:12.282254 14351 net.cpp:100] Creating Layer conv9_2
I0429 15:54:12.282260 14351 net.cpp:434] conv9_2 <- conv9_1
I0429 15:54:12.282266 14351 net.cpp:408] conv9_2 -> conv9_2
I0429 15:54:12.287067 14351 net.cpp:150] Setting up conv9_2
I0429 15:54:12.287111 14351 net.cpp:157] Top shape: 8 256 1 1 (2048)
I0429 15:54:12.287115 14351 net.cpp:165] Memory required for data: 1882210368
I0429 15:54:12.287124 14351 layer_factory.hpp:77] Creating layer conv9_2_relu
I0429 15:54:12.287132 14351 net.cpp:100] Creating Layer conv9_2_relu
I0429 15:54:12.287137 14351 net.cpp:434] conv9_2_relu <- conv9_2
I0429 15:54:12.287142 14351 net.cpp:395] conv9_2_relu -> conv9_2 (in-place)
I0429 15:54:12.287853 14351 net.cpp:150] Setting up conv9_2_relu
I0429 15:54:12.287865 14351 net.cpp:157] Top shape: 8 256 1 1 (2048)
I0429 15:54:12.287869 14351 net.cpp:165] Memory required for data: 1882218560
I0429 15:54:12.287873 14351 layer_factory.hpp:77] Creating layer conv9_2_conv9_2_relu_0_split
I0429 15:54:12.287881 14351 net.cpp:100] Creating Layer conv9_2_conv9_2_relu_0_split
I0429 15:54:12.287885 14351 net.cpp:434] conv9_2_conv9_2_relu_0_split <- conv9_2
I0429 15:54:12.287892 14351 net.cpp:408] conv9_2_conv9_2_relu_0_split -> conv9_2_conv9_2_relu_0_split_0
I0429 15:54:12.287901 14351 net.cpp:408] conv9_2_conv9_2_relu_0_split -> conv9_2_conv9_2_relu_0_split_1
I0429 15:54:12.287933 14351 net.cpp:408] conv9_2_conv9_2_relu_0_split -> conv9_2_conv9_2_relu_0_split_2
I0429 15:54:12.287998 14351 net.cpp:150] Setting up conv9_2_conv9_2_relu_0_split
I0429 15:54:12.288013 14351 net.cpp:157] Top shape: 8 256 1 1 (2048)
I0429 15:54:12.288020 14351 net.cpp:157] Top shape: 8 256 1 1 (2048)
I0429 15:54:12.288024 14351 net.cpp:157] Top shape: 8 256 1 1 (2048)
I0429 15:54:12.288028 14351 net.cpp:165] Memory required for data: 1882243136
I0429 15:54:12.288033 14351 layer_factory.hpp:77] Creating layer conv4_3_norm
I0429 15:54:12.288041 14351 net.cpp:100] Creating Layer conv4_3_norm
I0429 15:54:12.288058 14351 net.cpp:434] conv4_3_norm <- conv4_3_relu4_3_0_split_1
I0429 15:54:12.288071 14351 net.cpp:408] conv4_3_norm -> conv4_3_norm
I0429 15:54:12.288223 14351 net.cpp:150] Setting up conv4_3_norm
I0429 15:54:12.288230 14351 net.cpp:157] Top shape: 8 512 38 38 (5914624)
I0429 15:54:12.288233 14351 net.cpp:165] Memory required for data: 1905901632
I0429 15:54:12.288239 14351 layer_factory.hpp:77] Creating layer conv4_3_norm_conv4_3_norm_0_split
I0429 15:54:12.288245 14351 net.cpp:100] Creating Layer conv4_3_norm_conv4_3_norm_0_split
I0429 15:54:12.288249 14351 net.cpp:434] conv4_3_norm_conv4_3_norm_0_split <- conv4_3_norm
I0429 15:54:12.288255 14351 net.cpp:408] conv4_3_norm_conv4_3_norm_0_split -> conv4_3_norm_conv4_3_norm_0_split_0
I0429 15:54:12.288275 14351 net.cpp:408] conv4_3_norm_conv4_3_norm_0_split -> conv4_3_norm_conv4_3_norm_0_split_1
I0429 15:54:12.288281 14351 net.cpp:408] conv4_3_norm_conv4_3_norm_0_split -> conv4_3_norm_conv4_3_norm_0_split_2
I0429 15:54:12.288319 14351 net.cpp:150] Setting up conv4_3_norm_conv4_3_norm_0_split
I0429 15:54:12.288326 14351 net.cpp:157] Top shape: 8 512 38 38 (5914624)
I0429 15:54:12.288329 14351 net.cpp:157] Top shape: 8 512 38 38 (5914624)
I0429 15:54:12.288334 14351 net.cpp:157] Top shape: 8 512 38 38 (5914624)
I0429 15:54:12.288337 14351 net.cpp:165] Memory required for data: 1976877120
I0429 15:54:12.288341 14351 layer_factory.hpp:77] Creating layer conv4_3_norm_mbox_loc
I0429 15:54:12.288352 14351 net.cpp:100] Creating Layer conv4_3_norm_mbox_loc
I0429 15:54:12.288357 14351 net.cpp:434] conv4_3_norm_mbox_loc <- conv4_3_norm_conv4_3_norm_0_split_0
I0429 15:54:12.288363 14351 net.cpp:408] conv4_3_norm_mbox_loc -> conv4_3_norm_mbox_loc
I0429 15:54:12.290789 14351 net.cpp:150] Setting up conv4_3_norm_mbox_loc
I0429 15:54:12.290810 14351 net.cpp:157] Top shape: 8 16 38 38 (184832)
I0429 15:54:12.290814 14351 net.cpp:165] Memory required for data: 1977616448
I0429 15:54:12.290823 14351 layer_factory.hpp:77] Creating layer conv4_3_norm_mbox_loc_perm
I0429 15:54:12.290833 14351 net.cpp:100] Creating Layer conv4_3_norm_mbox_loc_perm
I0429 15:54:12.290843 14351 net.cpp:434] conv4_3_norm_mbox_loc_perm <- conv4_3_norm_mbox_loc
I0429 15:54:12.290848 14351 net.cpp:408] conv4_3_norm_mbox_loc_perm -> conv4_3_norm_mbox_loc_perm
I0429 15:54:12.290951 14351 net.cpp:150] Setting up conv4_3_norm_mbox_loc_perm
I0429 15:54:12.290992 14351 net.cpp:157] Top shape: 8 38 38 16 (184832)
I0429 15:54:12.291005 14351 net.cpp:165] Memory required for data: 1978355776
I0429 15:54:12.291018 14351 layer_factory.hpp:77] Creating layer conv4_3_norm_mbox_loc_flat
I0429 15:54:12.291033 14351 net.cpp:100] Creating Layer conv4_3_norm_mbox_loc_flat
I0429 15:54:12.291045 14351 net.cpp:434] conv4_3_norm_mbox_loc_flat <- conv4_3_norm_mbox_loc_perm
I0429 15:54:12.291062 14351 net.cpp:408] conv4_3_norm_mbox_loc_flat -> conv4_3_norm_mbox_loc_flat
I0429 15:54:12.291107 14351 net.cpp:150] Setting up conv4_3_norm_mbox_loc_flat
I0429 15:54:12.291121 14351 net.cpp:157] Top shape: 8 23104 (184832)
I0429 15:54:12.291133 14351 net.cpp:165] Memory required for data: 1979095104
I0429 15:54:12.291144 14351 layer_factory.hpp:77] Creating layer conv4_3_norm_mbox_conf
I0429 15:54:12.291174 14351 net.cpp:100] Creating Layer conv4_3_norm_mbox_conf
I0429 15:54:12.291187 14351 net.cpp:434] conv4_3_norm_mbox_conf <- conv4_3_norm_conv4_3_norm_0_split_1
I0429 15:54:12.291200 14351 net.cpp:408] conv4_3_norm_mbox_conf -> conv4_3_norm_mbox_conf
I0429 15:54:12.296872 14351 net.cpp:150] Setting up conv4_3_norm_mbox_conf
I0429 15:54:12.296895 14351 net.cpp:157] Top shape: 8 84 38 38 (970368)
I0429 15:54:12.296897 14351 net.cpp:165] Memory required for data: 1982976576
I0429 15:54:12.296907 14351 layer_factory.hpp:77] Creating layer conv4_3_norm_mbox_conf_perm
I0429 15:54:12.296918 14351 net.cpp:100] Creating Layer conv4_3_norm_mbox_conf_perm
I0429 15:54:12.296923 14351 net.cpp:434] conv4_3_norm_mbox_conf_perm <- conv4_3_norm_mbox_conf
I0429 15:54:12.296929 14351 net.cpp:408] conv4_3_norm_mbox_conf_perm -> conv4_3_norm_mbox_conf_perm
I0429 15:54:12.297030 14351 net.cpp:150] Setting up conv4_3_norm_mbox_conf_perm
I0429 15:54:12.297060 14351 net.cpp:157] Top shape: 8 38 38 84 (970368)
I0429 15:54:12.297065 14351 net.cpp:165] Memory required for data: 1986858048
I0429 15:54:12.297070 14351 layer_factory.hpp:77] Creating layer conv4_3_norm_mbox_conf_flat
I0429 15:54:12.297076 14351 net.cpp:100] Creating Layer conv4_3_norm_mbox_conf_flat
I0429 15:54:12.297080 14351 net.cpp:434] conv4_3_norm_mbox_conf_flat <- conv4_3_norm_mbox_conf_perm
I0429 15:54:12.297086 14351 net.cpp:408] conv4_3_norm_mbox_conf_flat -> conv4_3_norm_mbox_conf_flat
I0429 15:54:12.297107 14351 net.cpp:150] Setting up conv4_3_norm_mbox_conf_flat
I0429 15:54:12.297113 14351 net.cpp:157] Top shape: 8 121296 (970368)
I0429 15:54:12.297117 14351 net.cpp:165] Memory required for data: 1990739520
I0429 15:54:12.297121 14351 layer_factory.hpp:77] Creating layer conv4_3_norm_mbox_priorbox
I0429 15:54:12.297128 14351 net.cpp:100] Creating Layer conv4_3_norm_mbox_priorbox
I0429 15:54:12.297132 14351 net.cpp:434] conv4_3_norm_mbox_priorbox <- conv4_3_norm_conv4_3_norm_0_split_2
I0429 15:54:12.297138 14351 net.cpp:434] conv4_3_norm_mbox_priorbox <- data_data_0_split_1
I0429 15:54:12.297145 14351 net.cpp:408] conv4_3_norm_mbox_priorbox -> conv4_3_norm_mbox_priorbox
I0429 15:54:12.297174 14351 net.cpp:150] Setting up conv4_3_norm_mbox_priorbox
I0429 15:54:12.297180 14351 net.cpp:157] Top shape: 1 2 23104 (46208)
I0429 15:54:12.297183 14351 net.cpp:165] Memory required for data: 1990924352
I0429 15:54:12.297186 14351 layer_factory.hpp:77] Creating layer fc7_mbox_loc
I0429 15:54:12.297197 14351 net.cpp:100] Creating Layer fc7_mbox_loc
I0429 15:54:12.297204 14351 net.cpp:434] fc7_mbox_loc <- fc7_relu7_0_split_1
I0429 15:54:12.297209 14351 net.cpp:408] fc7_mbox_loc -> fc7_mbox_loc
I0429 15:54:12.302283 14351 net.cpp:150] Setting up fc7_mbox_loc
I0429 15:54:12.302311 14351 net.cpp:157] Top shape: 8 24 19 19 (69312)
I0429 15:54:12.302315 14351 net.cpp:165] Memory required for data: 1991201600
I0429 15:54:12.302326 14351 layer_factory.hpp:77] Creating layer fc7_mbox_loc_perm
I0429 15:54:12.302341 14351 net.cpp:100] Creating Layer fc7_mbox_loc_perm
I0429 15:54:12.302351 14351 net.cpp:434] fc7_mbox_loc_perm <- fc7_mbox_loc
I0429 15:54:12.302359 14351 net.cpp:408] fc7_mbox_loc_perm -> fc7_mbox_loc_perm
I0429 15:54:12.302484 14351 net.cpp:150] Setting up fc7_mbox_loc_perm
I0429 15:54:12.302491 14351 net.cpp:157] Top shape: 8 19 19 24 (69312)
I0429 15:54:12.302495 14351 net.cpp:165] Memory required for data: 1991478848
I0429 15:54:12.302498 14351 layer_factory.hpp:77] Creating layer fc7_mbox_loc_flat
I0429 15:54:12.302506 14351 net.cpp:100] Creating Layer fc7_mbox_loc_flat
I0429 15:54:12.302511 14351 net.cpp:434] fc7_mbox_loc_flat <- fc7_mbox_loc_perm
I0429 15:54:12.302516 14351 net.cpp:408] fc7_mbox_loc_flat -> fc7_mbox_loc_flat
I0429 15:54:12.302537 14351 net.cpp:150] Setting up fc7_mbox_loc_flat
I0429 15:54:12.302542 14351 net.cpp:157] Top shape: 8 8664 (69312)
I0429 15:54:12.302546 14351 net.cpp:165] Memory required for data: 1991756096
I0429 15:54:12.302549 14351 layer_factory.hpp:77] Creating layer fc7_mbox_conf
I0429 15:54:12.302561 14351 net.cpp:100] Creating Layer fc7_mbox_conf
I0429 15:54:12.302567 14351 net.cpp:434] fc7_mbox_conf <- fc7_relu7_0_split_2
I0429 15:54:12.302572 14351 net.cpp:408] fc7_mbox_conf -> fc7_mbox_conf
I0429 15:54:12.312075 14351 net.cpp:150] Setting up fc7_mbox_conf
I0429 15:54:12.312103 14351 net.cpp:157] Top shape: 8 126 19 19 (363888)
I0429 15:54:12.312106 14351 net.cpp:165] Memory required for data: 1993211648
I0429 15:54:12.312115 14351 layer_factory.hpp:77] Creating layer fc7_mbox_conf_perm
I0429 15:54:12.312127 14351 net.cpp:100] Creating Layer fc7_mbox_conf_perm
I0429 15:54:12.312134 14351 net.cpp:434] fc7_mbox_conf_perm <- fc7_mbox_conf
I0429 15:54:12.312140 14351 net.cpp:408] fc7_mbox_conf_perm -> fc7_mbox_conf_perm
I0429 15:54:12.312244 14351 net.cpp:150] Setting up fc7_mbox_conf_perm
I0429 15:54:12.312250 14351 net.cpp:157] Top shape: 8 19 19 126 (363888)
I0429 15:54:12.312253 14351 net.cpp:165] Memory required for data: 1994667200
I0429 15:54:12.312258 14351 layer_factory.hpp:77] Creating layer fc7_mbox_conf_flat
I0429 15:54:12.312264 14351 net.cpp:100] Creating Layer fc7_mbox_conf_flat
I0429 15:54:12.312268 14351 net.cpp:434] fc7_mbox_conf_flat <- fc7_mbox_conf_perm
I0429 15:54:12.312274 14351 net.cpp:408] fc7_mbox_conf_flat -> fc7_mbox_conf_flat
I0429 15:54:12.312300 14351 net.cpp:150] Setting up fc7_mbox_conf_flat
I0429 15:54:12.312304 14351 net.cpp:157] Top shape: 8 45486 (363888)
I0429 15:54:12.312307 14351 net.cpp:165] Memory required for data: 1996122752
I0429 15:54:12.312310 14351 layer_factory.hpp:77] Creating layer fc7_mbox_priorbox
I0429 15:54:12.312319 14351 net.cpp:100] Creating Layer fc7_mbox_priorbox
I0429 15:54:12.312324 14351 net.cpp:434] fc7_mbox_priorbox <- fc7_relu7_0_split_3
I0429 15:54:12.312330 14351 net.cpp:434] fc7_mbox_priorbox <- data_data_0_split_2
I0429 15:54:12.312336 14351 net.cpp:408] fc7_mbox_priorbox -> fc7_mbox_priorbox
I0429 15:54:12.312364 14351 net.cpp:150] Setting up fc7_mbox_priorbox
I0429 15:54:12.312371 14351 net.cpp:157] Top shape: 1 2 8664 (17328)
I0429 15:54:12.312376 14351 net.cpp:165] Memory required for data: 1996192064
I0429 15:54:12.312378 14351 layer_factory.hpp:77] Creating layer conv6_2_mbox_loc
I0429 15:54:12.312391 14351 net.cpp:100] Creating Layer conv6_2_mbox_loc
I0429 15:54:12.312402 14351 net.cpp:434] conv6_2_mbox_loc <- conv6_2_conv6_2_relu_0_split_1
I0429 15:54:12.312409 14351 net.cpp:408] conv6_2_mbox_loc -> conv6_2_mbox_loc
I0429 15:54:12.315006 14351 net.cpp:150] Setting up conv6_2_mbox_loc
I0429 15:54:12.315026 14351 net.cpp:157] Top shape: 8 24 10 10 (19200)
I0429 15:54:12.315028 14351 net.cpp:165] Memory required for data: 1996268864
I0429 15:54:12.315039 14351 layer_factory.hpp:77] Creating layer conv6_2_mbox_loc_perm
I0429 15:54:12.315050 14351 net.cpp:100] Creating Layer conv6_2_mbox_loc_perm
I0429 15:54:12.315058 14351 net.cpp:434] conv6_2_mbox_loc_perm <- conv6_2_mbox_loc
I0429 15:54:12.315065 14351 net.cpp:408] conv6_2_mbox_loc_perm -> conv6_2_mbox_loc_perm
I0429 15:54:12.315194 14351 net.cpp:150] Setting up conv6_2_mbox_loc_perm
I0429 15:54:12.315205 14351 net.cpp:157] Top shape: 8 10 10 24 (19200)
I0429 15:54:12.315232 14351 net.cpp:165] Memory required for data: 1996345664
I0429 15:54:12.315239 14351 layer_factory.hpp:77] Creating layer conv6_2_mbox_loc_flat
I0429 15:54:12.315269 14351 net.cpp:100] Creating Layer conv6_2_mbox_loc_flat
I0429 15:54:12.315276 14351 net.cpp:434] conv6_2_mbox_loc_flat <- conv6_2_mbox_loc_perm
I0429 15:54:12.315284 14351 net.cpp:408] conv6_2_mbox_loc_flat -> conv6_2_mbox_loc_flat
I0429 15:54:12.315320 14351 net.cpp:150] Setting up conv6_2_mbox_loc_flat
I0429 15:54:12.315327 14351 net.cpp:157] Top shape: 8 2400 (19200)
I0429 15:54:12.315331 14351 net.cpp:165] Memory required for data: 1996422464
I0429 15:54:12.315335 14351 layer_factory.hpp:77] Creating layer conv6_2_mbox_conf
I0429 15:54:12.315366 14351 net.cpp:100] Creating Layer conv6_2_mbox_conf
I0429 15:54:12.315373 14351 net.cpp:434] conv6_2_mbox_conf <- conv6_2_conv6_2_relu_0_split_2
I0429 15:54:12.315380 14351 net.cpp:408] conv6_2_mbox_conf -> conv6_2_mbox_conf
I0429 15:54:12.319913 14351 net.cpp:150] Setting up conv6_2_mbox_conf
I0429 15:54:12.319938 14351 net.cpp:157] Top shape: 8 126 10 10 (100800)
I0429 15:54:12.319941 14351 net.cpp:165] Memory required for data: 1996825664
I0429 15:54:12.319949 14351 layer_factory.hpp:77] Creating layer conv6_2_mbox_conf_perm
I0429 15:54:12.319960 14351 net.cpp:100] Creating Layer conv6_2_mbox_conf_perm
I0429 15:54:12.319965 14351 net.cpp:434] conv6_2_mbox_conf_perm <- conv6_2_mbox_conf
I0429 15:54:12.319973 14351 net.cpp:408] conv6_2_mbox_conf_perm -> conv6_2_mbox_conf_perm
I0429 15:54:12.320053 14351 net.cpp:150] Setting up conv6_2_mbox_conf_perm
I0429 15:54:12.320058 14351 net.cpp:157] Top shape: 8 10 10 126 (100800)
I0429 15:54:12.320060 14351 net.cpp:165] Memory required for data: 1997228864
I0429 15:54:12.320063 14351 layer_factory.hpp:77] Creating layer conv6_2_mbox_conf_flat
I0429 15:54:12.320071 14351 net.cpp:100] Creating Layer conv6_2_mbox_conf_flat
I0429 15:54:12.320075 14351 net.cpp:434] conv6_2_mbox_conf_flat <- conv6_2_mbox_conf_perm
I0429 15:54:12.320080 14351 net.cpp:408] conv6_2_mbox_conf_flat -> conv6_2_mbox_conf_flat
I0429 15:54:12.320101 14351 net.cpp:150] Setting up conv6_2_mbox_conf_flat
I0429 15:54:12.320104 14351 net.cpp:157] Top shape: 8 12600 (100800)
I0429 15:54:12.320107 14351 net.cpp:165] Memory required for data: 1997632064
I0429 15:54:12.320111 14351 layer_factory.hpp:77] Creating layer conv6_2_mbox_priorbox
I0429 15:54:12.320117 14351 net.cpp:100] Creating Layer conv6_2_mbox_priorbox
I0429 15:54:12.320120 14351 net.cpp:434] conv6_2_mbox_priorbox <- conv6_2_conv6_2_relu_0_split_3
I0429 15:54:12.320125 14351 net.cpp:434] conv6_2_mbox_priorbox <- data_data_0_split_3
I0429 15:54:12.320132 14351 net.cpp:408] conv6_2_mbox_priorbox -> conv6_2_mbox_priorbox
I0429 15:54:12.320155 14351 net.cpp:150] Setting up conv6_2_mbox_priorbox
I0429 15:54:12.320160 14351 net.cpp:157] Top shape: 1 2 2400 (4800)
I0429 15:54:12.320163 14351 net.cpp:165] Memory required for data: 1997651264
I0429 15:54:12.320165 14351 layer_factory.hpp:77] Creating layer conv7_2_mbox_loc
I0429 15:54:12.320176 14351 net.cpp:100] Creating Layer conv7_2_mbox_loc
I0429 15:54:12.320180 14351 net.cpp:434] conv7_2_mbox_loc <- conv7_2_conv7_2_relu_0_split_1
I0429 15:54:12.320185 14351 net.cpp:408] conv7_2_mbox_loc -> conv7_2_mbox_loc
I0429 15:54:12.323081 14351 net.cpp:150] Setting up conv7_2_mbox_loc
I0429 15:54:12.323101 14351 net.cpp:157] Top shape: 8 24 5 5 (4800)
I0429 15:54:12.323103 14351 net.cpp:165] Memory required for data: 1997670464
I0429 15:54:12.323112 14351 layer_factory.hpp:77] Creating layer conv7_2_mbox_loc_perm
I0429 15:54:12.323122 14351 net.cpp:100] Creating Layer conv7_2_mbox_loc_perm
I0429 15:54:12.323127 14351 net.cpp:434] conv7_2_mbox_loc_perm <- conv7_2_mbox_loc
I0429 15:54:12.323137 14351 net.cpp:408] conv7_2_mbox_loc_perm -> conv7_2_mbox_loc_perm
I0429 15:54:12.323238 14351 net.cpp:150] Setting up conv7_2_mbox_loc_perm
I0429 15:54:12.323247 14351 net.cpp:157] Top shape: 8 5 5 24 (4800)
I0429 15:54:12.323251 14351 net.cpp:165] Memory required for data: 1997689664
I0429 15:54:12.323256 14351 layer_factory.hpp:77] Creating layer conv7_2_mbox_loc_flat
I0429 15:54:12.323264 14351 net.cpp:100] Creating Layer conv7_2_mbox_loc_flat
I0429 15:54:12.323288 14351 net.cpp:434] conv7_2_mbox_loc_flat <- conv7_2_mbox_loc_perm
I0429 15:54:12.323295 14351 net.cpp:408] conv7_2_mbox_loc_flat -> conv7_2_mbox_loc_flat
I0429 15:54:12.323323 14351 net.cpp:150] Setting up conv7_2_mbox_loc_flat
I0429 15:54:12.323329 14351 net.cpp:157] Top shape: 8 600 (4800)
I0429 15:54:12.323333 14351 net.cpp:165] Memory required for data: 1997708864
I0429 15:54:12.323338 14351 layer_factory.hpp:77] Creating layer conv7_2_mbox_conf
I0429 15:54:12.323350 14351 net.cpp:100] Creating Layer conv7_2_mbox_conf
I0429 15:54:12.323355 14351 net.cpp:434] conv7_2_mbox_conf <- conv7_2_conv7_2_relu_0_split_2
I0429 15:54:12.323364 14351 net.cpp:408] conv7_2_mbox_conf -> conv7_2_mbox_conf
I0429 15:54:12.326602 14351 net.cpp:150] Setting up conv7_2_mbox_conf
I0429 15:54:12.326627 14351 net.cpp:157] Top shape: 8 126 5 5 (25200)
I0429 15:54:12.326632 14351 net.cpp:165] Memory required for data: 1997809664
I0429 15:54:12.326640 14351 layer_factory.hpp:77] Creating layer conv7_2_mbox_conf_perm
I0429 15:54:12.326653 14351 net.cpp:100] Creating Layer conv7_2_mbox_conf_perm
I0429 15:54:12.326665 14351 net.cpp:434] conv7_2_mbox_conf_perm <- conv7_2_mbox_conf
I0429 15:54:12.326679 14351 net.cpp:408] conv7_2_mbox_conf_perm -> conv7_2_mbox_conf_perm
I0429 15:54:12.326793 14351 net.cpp:150] Setting up conv7_2_mbox_conf_perm
I0429 15:54:12.326802 14351 net.cpp:157] Top shape: 8 5 5 126 (25200)
I0429 15:54:12.326805 14351 net.cpp:165] Memory required for data: 1997910464
I0429 15:54:12.326809 14351 layer_factory.hpp:77] Creating layer conv7_2_mbox_conf_flat
I0429 15:54:12.326817 14351 net.cpp:100] Creating Layer conv7_2_mbox_conf_flat
I0429 15:54:12.326820 14351 net.cpp:434] conv7_2_mbox_conf_flat <- conv7_2_mbox_conf_perm
I0429 15:54:12.326828 14351 net.cpp:408] conv7_2_mbox_conf_flat -> conv7_2_mbox_conf_flat
I0429 15:54:12.326851 14351 net.cpp:150] Setting up conv7_2_mbox_conf_flat
I0429 15:54:12.326858 14351 net.cpp:157] Top shape: 8 3150 (25200)
I0429 15:54:12.326861 14351 net.cpp:165] Memory required for data: 1998011264
I0429 15:54:12.326865 14351 layer_factory.hpp:77] Creating layer conv7_2_mbox_priorbox
I0429 15:54:12.326874 14351 net.cpp:100] Creating Layer conv7_2_mbox_priorbox
I0429 15:54:12.326877 14351 net.cpp:434] conv7_2_mbox_priorbox <- conv7_2_conv7_2_relu_0_split_3
I0429 15:54:12.326884 14351 net.cpp:434] conv7_2_mbox_priorbox <- data_data_0_split_4
I0429 15:54:12.326892 14351 net.cpp:408] conv7_2_mbox_priorbox -> conv7_2_mbox_priorbox
I0429 15:54:12.326918 14351 net.cpp:150] Setting up conv7_2_mbox_priorbox
I0429 15:54:12.326925 14351 net.cpp:157] Top shape: 1 2 600 (1200)
I0429 15:54:12.326928 14351 net.cpp:165] Memory required for data: 1998016064
I0429 15:54:12.326932 14351 layer_factory.hpp:77] Creating layer conv8_2_mbox_loc
I0429 15:54:12.326944 14351 net.cpp:100] Creating Layer conv8_2_mbox_loc
I0429 15:54:12.326951 14351 net.cpp:434] conv8_2_mbox_loc <- conv8_2_conv8_2_relu_0_split_1
I0429 15:54:12.326961 14351 net.cpp:408] conv8_2_mbox_loc -> conv8_2_mbox_loc
I0429 15:54:12.329320 14351 net.cpp:150] Setting up conv8_2_mbox_loc
I0429 15:54:12.329340 14351 net.cpp:157] Top shape: 8 16 3 3 (1152)
I0429 15:54:12.329344 14351 net.cpp:165] Memory required for data: 1998020672
I0429 15:54:12.329365 14351 layer_factory.hpp:77] Creating layer conv8_2_mbox_loc_perm
I0429 15:54:12.329377 14351 net.cpp:100] Creating Layer conv8_2_mbox_loc_perm
I0429 15:54:12.329391 14351 net.cpp:434] conv8_2_mbox_loc_perm <- conv8_2_mbox_loc
I0429 15:54:12.329397 14351 net.cpp:408] conv8_2_mbox_loc_perm -> conv8_2_mbox_loc_perm
I0429 15:54:12.329501 14351 net.cpp:150] Setting up conv8_2_mbox_loc_perm
I0429 15:54:12.329510 14351 net.cpp:157] Top shape: 8 3 3 16 (1152)
I0429 15:54:12.329514 14351 net.cpp:165] Memory required for data: 1998025280
I0429 15:54:12.329517 14351 layer_factory.hpp:77] Creating layer conv8_2_mbox_loc_flat
I0429 15:54:12.329524 14351 net.cpp:100] Creating Layer conv8_2_mbox_loc_flat
I0429 15:54:12.329527 14351 net.cpp:434] conv8_2_mbox_loc_flat <- conv8_2_mbox_loc_perm
I0429 15:54:12.329553 14351 net.cpp:408] conv8_2_mbox_loc_flat -> conv8_2_mbox_loc_flat
I0429 15:54:12.329576 14351 net.cpp:150] Setting up conv8_2_mbox_loc_flat
I0429 15:54:12.329581 14351 net.cpp:157] Top shape: 8 144 (1152)
I0429 15:54:12.329583 14351 net.cpp:165] Memory required for data: 1998029888
I0429 15:54:12.329587 14351 layer_factory.hpp:77] Creating layer conv8_2_mbox_conf
I0429 15:54:12.329598 14351 net.cpp:100] Creating Layer conv8_2_mbox_conf
I0429 15:54:12.329603 14351 net.cpp:434] conv8_2_mbox_conf <- conv8_2_conv8_2_relu_0_split_2
I0429 15:54:12.329608 14351 net.cpp:408] conv8_2_mbox_conf -> conv8_2_mbox_conf
I0429 15:54:12.332810 14351 net.cpp:150] Setting up conv8_2_mbox_conf
I0429 15:54:12.332839 14351 net.cpp:157] Top shape: 8 84 3 3 (6048)
I0429 15:54:12.332842 14351 net.cpp:165] Memory required for data: 1998054080
I0429 15:54:12.332854 14351 layer_factory.hpp:77] Creating layer conv8_2_mbox_conf_perm
I0429 15:54:12.332864 14351 net.cpp:100] Creating Layer conv8_2_mbox_conf_perm
I0429 15:54:12.332870 14351 net.cpp:434] conv8_2_mbox_conf_perm <- conv8_2_mbox_conf
I0429 15:54:12.332880 14351 net.cpp:408] conv8_2_mbox_conf_perm -> conv8_2_mbox_conf_perm
I0429 15:54:12.332990 14351 net.cpp:150] Setting up conv8_2_mbox_conf_perm
I0429 15:54:12.333000 14351 net.cpp:157] Top shape: 8 3 3 84 (6048)
I0429 15:54:12.333003 14351 net.cpp:165] Memory required for data: 1998078272
I0429 15:54:12.333009 14351 layer_factory.hpp:77] Creating layer conv8_2_mbox_conf_flat
I0429 15:54:12.333020 14351 net.cpp:100] Creating Layer conv8_2_mbox_conf_flat
I0429 15:54:12.333024 14351 net.cpp:434] conv8_2_mbox_conf_flat <- conv8_2_mbox_conf_perm
I0429 15:54:12.333030 14351 net.cpp:408] conv8_2_mbox_conf_flat -> conv8_2_mbox_conf_flat
I0429 15:54:12.333052 14351 net.cpp:150] Setting up conv8_2_mbox_conf_flat
I0429 15:54:12.333060 14351 net.cpp:157] Top shape: 8 756 (6048)
I0429 15:54:12.333062 14351 net.cpp:165] Memory required for data: 1998102464
I0429 15:54:12.333066 14351 layer_factory.hpp:77] Creating layer conv8_2_mbox_priorbox
I0429 15:54:12.333076 14351 net.cpp:100] Creating Layer conv8_2_mbox_priorbox
I0429 15:54:12.333081 14351 net.cpp:434] conv8_2_mbox_priorbox <- conv8_2_conv8_2_relu_0_split_3
I0429 15:54:12.333086 14351 net.cpp:434] conv8_2_mbox_priorbox <- data_data_0_split_5
I0429 15:54:12.333093 14351 net.cpp:408] conv8_2_mbox_priorbox -> conv8_2_mbox_priorbox
I0429 15:54:12.333122 14351 net.cpp:150] Setting up conv8_2_mbox_priorbox
I0429 15:54:12.333127 14351 net.cpp:157] Top shape: 1 2 144 (288)
I0429 15:54:12.333130 14351 net.cpp:165] Memory required for data: 1998103616
I0429 15:54:12.333134 14351 layer_factory.hpp:77] Creating layer conv9_2_mbox_loc
I0429 15:54:12.333148 14351 net.cpp:100] Creating Layer conv9_2_mbox_loc
I0429 15:54:12.333153 14351 net.cpp:434] conv9_2_mbox_loc <- conv9_2_conv9_2_relu_0_split_0
I0429 15:54:12.333159 14351 net.cpp:408] conv9_2_mbox_loc -> conv9_2_mbox_loc
I0429 15:54:12.336398 14351 net.cpp:150] Setting up conv9_2_mbox_loc
I0429 15:54:12.336422 14351 net.cpp:157] Top shape: 8 16 1 1 (128)
I0429 15:54:12.336426 14351 net.cpp:165] Memory required for data: 1998104128
I0429 15:54:12.336436 14351 layer_factory.hpp:77] Creating layer conv9_2_mbox_loc_perm
I0429 15:54:12.336447 14351 net.cpp:100] Creating Layer conv9_2_mbox_loc_perm
I0429 15:54:12.336453 14351 net.cpp:434] conv9_2_mbox_loc_perm <- conv9_2_mbox_loc
I0429 15:54:12.336460 14351 net.cpp:408] conv9_2_mbox_loc_perm -> conv9_2_mbox_loc_perm
I0429 15:54:12.336557 14351 net.cpp:150] Setting up conv9_2_mbox_loc_perm
I0429 15:54:12.336563 14351 net.cpp:157] Top shape: 8 1 1 16 (128)
I0429 15:54:12.336566 14351 net.cpp:165] Memory required for data: 1998104640
I0429 15:54:12.336568 14351 layer_factory.hpp:77] Creating layer conv9_2_mbox_loc_flat
I0429 15:54:12.336580 14351 net.cpp:100] Creating Layer conv9_2_mbox_loc_flat
I0429 15:54:12.336585 14351 net.cpp:434] conv9_2_mbox_loc_flat <- conv9_2_mbox_loc_perm
I0429 15:54:12.336589 14351 net.cpp:408] conv9_2_mbox_loc_flat -> conv9_2_mbox_loc_flat
I0429 15:54:12.336630 14351 net.cpp:150] Setting up conv9_2_mbox_loc_flat
I0429 15:54:12.336634 14351 net.cpp:157] Top shape: 8 16 (128)
I0429 15:54:12.336637 14351 net.cpp:165] Memory required for data: 1998105152
I0429 15:54:12.336640 14351 layer_factory.hpp:77] Creating layer conv9_2_mbox_conf
I0429 15:54:12.336652 14351 net.cpp:100] Creating Layer conv9_2_mbox_conf
I0429 15:54:12.336655 14351 net.cpp:434] conv9_2_mbox_conf <- conv9_2_conv9_2_relu_0_split_1
I0429 15:54:12.336660 14351 net.cpp:408] conv9_2_mbox_conf -> conv9_2_mbox_conf
I0429 15:54:12.338824 14351 net.cpp:150] Setting up conv9_2_mbox_conf
I0429 15:54:12.338840 14351 net.cpp:157] Top shape: 8 84 1 1 (672)
I0429 15:54:12.338843 14351 net.cpp:165] Memory required for data: 1998107840
I0429 15:54:12.338851 14351 layer_factory.hpp:77] Creating layer conv9_2_mbox_conf_perm
I0429 15:54:12.338862 14351 net.cpp:100] Creating Layer conv9_2_mbox_conf_perm
I0429 15:54:12.338868 14351 net.cpp:434] conv9_2_mbox_conf_perm <- conv9_2_mbox_conf
I0429 15:54:12.338874 14351 net.cpp:408] conv9_2_mbox_conf_perm -> conv9_2_mbox_conf_perm
I0429 15:54:12.338968 14351 net.cpp:150] Setting up conv9_2_mbox_conf_perm
I0429 15:54:12.338973 14351 net.cpp:157] Top shape: 8 1 1 84 (672)
I0429 15:54:12.338975 14351 net.cpp:165] Memory required for data: 1998110528
I0429 15:54:12.338979 14351 layer_factory.hpp:77] Creating layer conv9_2_mbox_conf_flat
I0429 15:54:12.338985 14351 net.cpp:100] Creating Layer conv9_2_mbox_conf_flat
I0429 15:54:12.338987 14351 net.cpp:434] conv9_2_mbox_conf_flat <- conv9_2_mbox_conf_perm
I0429 15:54:12.338991 14351 net.cpp:408] conv9_2_mbox_conf_flat -> conv9_2_mbox_conf_flat
I0429 15:54:12.339010 14351 net.cpp:150] Setting up conv9_2_mbox_conf_flat
I0429 15:54:12.339015 14351 net.cpp:157] Top shape: 8 84 (672)
I0429 15:54:12.339016 14351 net.cpp:165] Memory required for data: 1998113216
I0429 15:54:12.339020 14351 layer_factory.hpp:77] Creating layer conv9_2_mbox_priorbox
I0429 15:54:12.339027 14351 net.cpp:100] Creating Layer conv9_2_mbox_priorbox
I0429 15:54:12.339031 14351 net.cpp:434] conv9_2_mbox_priorbox <- conv9_2_conv9_2_relu_0_split_2
I0429 15:54:12.339035 14351 net.cpp:434] conv9_2_mbox_priorbox <- data_data_0_split_6
I0429 15:54:12.339040 14351 net.cpp:408] conv9_2_mbox_priorbox -> conv9_2_mbox_priorbox
I0429 15:54:12.339064 14351 net.cpp:150] Setting up conv9_2_mbox_priorbox
I0429 15:54:12.339068 14351 net.cpp:157] Top shape: 1 2 16 (32)
I0429 15:54:12.339071 14351 net.cpp:165] Memory required for data: 1998113344
I0429 15:54:12.339074 14351 layer_factory.hpp:77] Creating layer mbox_loc
I0429 15:54:12.339082 14351 net.cpp:100] Creating Layer mbox_loc
I0429 15:54:12.339088 14351 net.cpp:434] mbox_loc <- conv4_3_norm_mbox_loc_flat
I0429 15:54:12.339092 14351 net.cpp:434] mbox_loc <- fc7_mbox_loc_flat
I0429 15:54:12.339097 14351 net.cpp:434] mbox_loc <- conv6_2_mbox_loc_flat
I0429 15:54:12.339102 14351 net.cpp:434] mbox_loc <- conv7_2_mbox_loc_flat
I0429 15:54:12.339105 14351 net.cpp:434] mbox_loc <- conv8_2_mbox_loc_flat
I0429 15:54:12.339109 14351 net.cpp:434] mbox_loc <- conv9_2_mbox_loc_flat
I0429 15:54:12.339114 14351 net.cpp:408] mbox_loc -> mbox_loc
I0429 15:54:12.339135 14351 net.cpp:150] Setting up mbox_loc
I0429 15:54:12.339140 14351 net.cpp:157] Top shape: 8 34928 (279424)
I0429 15:54:12.339143 14351 net.cpp:165] Memory required for data: 1999231040
I0429 15:54:12.339148 14351 layer_factory.hpp:77] Creating layer mbox_conf
I0429 15:54:12.339154 14351 net.cpp:100] Creating Layer mbox_conf
I0429 15:54:12.339157 14351 net.cpp:434] mbox_conf <- conv4_3_norm_mbox_conf_flat
I0429 15:54:12.339161 14351 net.cpp:434] mbox_conf <- fc7_mbox_conf_flat
I0429 15:54:12.339166 14351 net.cpp:434] mbox_conf <- conv6_2_mbox_conf_flat
I0429 15:54:12.339170 14351 net.cpp:434] mbox_conf <- conv7_2_mbox_conf_flat
I0429 15:54:12.339174 14351 net.cpp:434] mbox_conf <- conv8_2_mbox_conf_flat
I0429 15:54:12.339177 14351 net.cpp:434] mbox_conf <- conv9_2_mbox_conf_flat
I0429 15:54:12.339184 14351 net.cpp:408] mbox_conf -> mbox_conf
I0429 15:54:12.339200 14351 net.cpp:150] Setting up mbox_conf
I0429 15:54:12.339216 14351 net.cpp:157] Top shape: 8 183372 (1466976)
I0429 15:54:12.339220 14351 net.cpp:165] Memory required for data: 2005098944
I0429 15:54:12.339222 14351 layer_factory.hpp:77] Creating layer mbox_priorbox
I0429 15:54:12.339227 14351 net.cpp:100] Creating Layer mbox_priorbox
I0429 15:54:12.339231 14351 net.cpp:434] mbox_priorbox <- conv4_3_norm_mbox_priorbox
I0429 15:54:12.339236 14351 net.cpp:434] mbox_priorbox <- fc7_mbox_priorbox
I0429 15:54:12.339239 14351 net.cpp:434] mbox_priorbox <- conv6_2_mbox_priorbox
I0429 15:54:12.339243 14351 net.cpp:434] mbox_priorbox <- conv7_2_mbox_priorbox
I0429 15:54:12.339247 14351 net.cpp:434] mbox_priorbox <- conv8_2_mbox_priorbox
I0429 15:54:12.339251 14351 net.cpp:434] mbox_priorbox <- conv9_2_mbox_priorbox
I0429 15:54:12.339256 14351 net.cpp:408] mbox_priorbox -> mbox_priorbox
I0429 15:54:12.339273 14351 net.cpp:150] Setting up mbox_priorbox
I0429 15:54:12.339278 14351 net.cpp:157] Top shape: 1 2 34928 (69856)
I0429 15:54:12.339280 14351 net.cpp:165] Memory required for data: 2005378368
I0429 15:54:12.339283 14351 layer_factory.hpp:77] Creating layer mbox_conf_reshape
I0429 15:54:12.339290 14351 net.cpp:100] Creating Layer mbox_conf_reshape
I0429 15:54:12.339295 14351 net.cpp:434] mbox_conf_reshape <- mbox_conf
I0429 15:54:12.339299 14351 net.cpp:408] mbox_conf_reshape -> mbox_conf_reshape
I0429 15:54:12.339325 14351 net.cpp:150] Setting up mbox_conf_reshape
I0429 15:54:12.339329 14351 net.cpp:157] Top shape: 8 8732 21 (1466976)
I0429 15:54:12.339331 14351 net.cpp:165] Memory required for data: 2011246272
I0429 15:54:12.339334 14351 layer_factory.hpp:77] Creating layer mbox_conf_softmax
I0429 15:54:12.339341 14351 net.cpp:100] Creating Layer mbox_conf_softmax
I0429 15:54:12.339346 14351 net.cpp:434] mbox_conf_softmax <- mbox_conf_reshape
I0429 15:54:12.339350 14351 net.cpp:408] mbox_conf_softmax -> mbox_conf_softmax
I0429 15:54:12.339797 14351 net.cpp:150] Setting up mbox_conf_softmax
I0429 15:54:12.339808 14351 net.cpp:157] Top shape: 8 8732 21 (1466976)
I0429 15:54:12.339812 14351 net.cpp:165] Memory required for data: 2017114176
I0429 15:54:12.339815 14351 layer_factory.hpp:77] Creating layer mbox_conf_flatten
I0429 15:54:12.339823 14351 net.cpp:100] Creating Layer mbox_conf_flatten
I0429 15:54:12.339826 14351 net.cpp:434] mbox_conf_flatten <- mbox_conf_softmax
I0429 15:54:12.339833 14351 net.cpp:408] mbox_conf_flatten -> mbox_conf_flatten
I0429 15:54:12.339850 14351 net.cpp:150] Setting up mbox_conf_flatten
I0429 15:54:12.339854 14351 net.cpp:157] Top shape: 8 183372 (1466976)
I0429 15:54:12.339857 14351 net.cpp:165] Memory required for data: 2022982080
I0429 15:54:12.339860 14351 layer_factory.hpp:77] Creating layer detection_out
I0429 15:54:12.339879 14351 net.cpp:100] Creating Layer detection_out
I0429 15:54:12.339882 14351 net.cpp:434] detection_out <- mbox_loc
I0429 15:54:12.339886 14351 net.cpp:434] detection_out <- mbox_conf_flatten
I0429 15:54:12.339890 14351 net.cpp:434] detection_out <- mbox_priorbox
I0429 15:54:12.339895 14351 net.cpp:408] detection_out -> detection_out
W0429 15:54:12.339937 14351 detection_output_layer.cpp:49] Failed to create directory: /home/zhuyipin/data/VOCdevkit/results/VOC2007/SSD_300x300/Main
I0429 15:54:12.341338 14351 net.cpp:150] Setting up detection_out
I0429 15:54:12.341349 14351 net.cpp:157] Top shape: 1 1 1 7 (7)
I0429 15:54:12.341353 14351 net.cpp:165] Memory required for data: 2022982108
I0429 15:54:12.341357 14351 layer_factory.hpp:77] Creating layer detection_eval
I0429 15:54:12.341367 14351 net.cpp:100] Creating Layer detection_eval
I0429 15:54:12.341372 14351 net.cpp:434] detection_eval <- detection_out
I0429 15:54:12.341377 14351 net.cpp:434] detection_eval <- label
I0429 15:54:12.341382 14351 net.cpp:408] detection_eval -> detection_eval
I0429 15:54:12.342171 14351 net.cpp:150] Setting up detection_eval
I0429 15:54:12.342177 14351 net.cpp:157] Top shape: 1 1 21 5 (105)
I0429 15:54:12.342180 14351 net.cpp:165] Memory required for data: 2022982528
I0429 15:54:12.342185 14351 net.cpp:228] detection_eval does not need backward computation.
I0429 15:54:12.342202 14351 net.cpp:228] detection_out does not need backward computation.
I0429 15:54:12.342207 14351 net.cpp:228] mbox_conf_flatten does not need backward computation.
I0429 15:54:12.342211 14351 net.cpp:228] mbox_conf_softmax does not need backward computation.
…
